online_forpy/NetworkB_weights_SPEAR.pt (torch, 46175 bytes, 4 tensors)

conv_net.C1.weight f4 [32, 7, 1, 1]
0	0x3dc89015	0.097931065
1	0x3da26935	0.07930223
2	0xbf4df742	-0.8045541
3	0x3ded8745	0.11598066
4	0x3e0f6399	0.14002837
5	0x3e770ec1	0.24126722
6	0xbf03b3a2	-0.5144597
7	0xbd58d094	-0.05293329
8	0xbcda8a26	-0.026677202
9	0x3d83a64d	0.06428204
10	0x3df4f1d3	0.11960187
11	0xbf9eb1dd	-1.239803
12	0xbd8bc906	-0.068254516
13	0xbe95d473	-0.29263648
14	0x3d018bbd	0.031627405
15	0x3c2b8f4e	0.010471178
16	0xbd75ce67	-0.060011294
17	0xbe2af0ad	-0.16693373
18	0x3d7de679	0.061987374
19	0xbd26203b	-0.04055808
20	0x3e84a184	0.25904477
21	0x3e6e0188	0.23242772
22	0x3e30d21a	0.17267647
23	0x3e02ca58	0.127725
24	0x3dd7997e	0.10527323
25	0x3d00f4e9	0.031483565
26	0xbd64d33b	-0.055865508
27	0xbb535ffa	-0.0032253251
28	0x3dd03f6f	0.10168349
29	0x3d8c4dc4	0.0685077
30	0x3cf16cde	0.029470857
31	0xbec5d4ff	-0.38639066
32	0xbf8a0b86	-1.0784767
33	0x3e39c891	0.18142916
34	0xbf132e1d	-0.5749224
35	0x3dce0135	0.10058824
36	0xbc0949d2	-0.008379417
37	0x3e5d7b17	0.21628986
38	0xbfaa699c	-1.331348
39	0xbd8595d6	-0.065227196
40	0xbeb298a7	-0.3488209
41	0xbf247645	-0.64242965
42	0xbd4050e2	-0.046952136
43	0x3e4f2da5	0.20232256
44	0x3e988b12	0.29793602
45	0x3eafe75f	0.3435621
46	0x3c49b44c	0.0123110525
47	0x3eadca28	0.33943295
48	0xbf1916a7	-0.5980019
49	0xbdad6b9c	-0.084677905
50	0x3e3529f4	0.17691785
51	0xbf06979e	-0.525751
52	0xbcd1dc29	-0.025617676
53	0x3defe861	0.11714245
54	0xbeef8f52	-0.46789032
55	0xbefd1354	-0.4942881
56	0x3ebaf93e	0.36518282
57	0xbcbd2afc	-0.023091786
58	0x3e4d5c33	0.20054702
59	0x3dd0449e	0.10169338
60	0x3d9f7c1a	0.07787342
61	0x3e7a5909	0.24448027
62	0xbcd15198	-0.025551602
63	0xbe20a875	-0.15689261
64	0xbdbda56b	-0.092600666
65	0x3df1e659	0.118115135
66	0xbe49d95e	-0.19711825
67	0xbe4e872e	-0.20168754
68	0xbec1aff4	-0.37829554
69	0x3f01f17f	0.5075912
70	0x3e7e7675	0.24849875
71	0x3e761ed4	0.24035197
72	0xbebc66ad	-0.36797085
73	0xbd81a629	-0.06330521
74	0x3d165836	0.03670522
75	0x3e5f6060	0.21814108
76	0x3d985730	0.07438505
77	0x3e904f0e	0.28185314
78	0xbe9954c6	-0.2994749
79	0x3dabfac0	0.08397436
80	0xbdbdeea8	-0.09274036
81	0xbdc8ceab	-0.09805044
82	0x3d565c68	0.05233422
83	0x3e5bbcee	0.2145879
84	0x3e4b05d8	0.19826448
85	0x3d3518ad	0.044212986
86	0xbf313ef3	-0.6923668
87	0x3e24134e	0.16022989
88	0xbd1838fe	-0.037163727
89	0x3c0e6f00	0.008693457
90	0xbe8305ee	-0.25590461
91	0x3cf2945e	0.029611763
92	0xbb305c38	-0.0026910435
93	0x3ec7645a	0.3894375
94	0x3dd55210	0.10416043
95	0x3e447a8c	0.19187373
96	0x3df43600	0.11924362
97	0xbec9e20c	-0.39430273
98	0xbeb78fbe	-0.35851854
99	0xbeb0f04f	-0.3455834
100	0x3e19791f	0.1498761
101	0xbdd5351b	-0.1041052
102	0xbdead2bf	-0.11465978
103	0x3dc5ced0	0.09658587
104	0x3d95a251	0.0730635
105	0xbd913649	-0.07090432
106	0xbf9ef492	-1.2418387
107	0xbbbe1a98	-0.00580151
108	0xbc6810a0	-0.01416412
109	0x3d410088	0.047119647
110	0xbc83a14c	-0.016068123
111	0xbdb766c5	-0.089551486
112	0x3ddc8776	0.107680246
113	0x3db18cac	0.08669409
114	0x3e10774a	0.14108005
115	0x3e887efc	0.2665938
116	0x3e57be65	0.21068723
117	0xbeabedbb	-0.3357981
118	0xbf4af8c8	-0.7928586
119	0xbd4a07dc	-0.0493239
120	0x3dabec48	0.083946764
121	0xba5c5de0	-0.00084063224
122	0xbdcc7f5e	-0.09985231
123	0xbf0512e7	-0.5198197
124	0x3e094261	0.13404228
125	0x3e664315	0.22486527
126	0xbcf5c917	-0.030003114
127	0x3cd8f500	0.026484013
128	0x3d02f468	0.031971365
129	0xbfaec55b	-1.3653978
130	0x3d15585d	0.036461223
131	0x3d85b583	0.06528761
132	0xbe9858c9	-0.29755238
133	0x3da43e47	0.08019691
134	0xbf7f345e	-0.9968928
135	0x3d180856	0.037117325
136	0x3e044212	0.12915829
137	0xbda04f8b	-0.078276716
138	0xbcaa5fa2	-0.020797554
139	0xbe16b6aa	-0.14718118
140	0x3dd64106	0.10461621
141	0xbd045a0d	-0.03231244
142	0xbeb08b4a	-0.3448127
143	0xbf265002	-0.6496583
144	0x3d8d1b8c	0.0689002
145	0xbe8f1562	-0.27946
146	0x3de752d0	0.11295092
147	0x3e28d1d5	0.16486295
148	0xbd1023e2	-0.03519047
149	0xbd8e3d42	-0.06945278
150	0xbe6796f7	-0.22616182
151	0xbf4252d4	-0.75907636
152	0xbe6e4fe6	-0.23272666
153	0x3dd88990	0.10573113
154	0x3dae5661	0.08512569
155	0xbe20044a	-0.15626636
156	0x3e060d21	0.13090946
157	0x3ea3ba0a	0.31977874
158	0x3e49bac1	0.19700147
159	0x3ed2b00e	0.41149944
160	0xbeb28578	-0.34867454
161	0xbe8f72db	-0.28017315
162	0x3d3642c5	0.04449727
163	0x3c878546	0.016543042
164	0xbd88e6aa	-0.06684621
165	0x3e03cdf2	0.1287153
166	0x3e6a96ef	0.22909139
167	0xbef5f59d	-0.4803895
168	0x3e00ee2d	0.12590857
169	0xbdea3f86	-0.114378974
170	0xbdc67830	-0.09690893
171	0xbdbc2460	-0.091866255
172	0xbe065c45	-0.13121136
173	0xbf036ef3	-0.5134117
174	0x3f1295be	0.5725974
175	0xbd912297	-0.070866756
176	0x3d7188dc	0.05896841
177	0x3e87dde8	0.2653649
178	0xbd96ad1b	-0.07357236
179	0x3c22b808	0.009931572
180	0x3bd9c16e	0.006645373
181	0x3e0e6025	0.13903864
182	0xbd38a714	-0.045081213
183	0x3da625a3	0.081126474
184	0x3e309dca	0.17247692
185	0x3e8c3896	0.27386922
186	0x3e7247fe	0.23660275
187	0x3eec0264	0.46095574
188	0xbf454693	-0.7706081
189	0xbe848147	-0.2587988
190	0x3db0b434	0.08628121
191	0xbe4b793e	-0.19870469
192	0xbd93d811	-0.07218946
193	0xbe8f662f	-0.28007647
194	0x3d4ef67b	0.05052803
195	0x3d9428ec	0.07234368
196	0x3e511e8d	0.2042181
197	0xbe0b52f9	-0.1360587
198	0xbf205628	-0.62631464
199	0xbd183947	-0.037164
200	0xbe4d6623	-0.20058493
201	0x3e5865f9	0.2113265
202	0xbea23be5	-0.3168632
203	0xbd58b8dd	-0.052910674
204	0xbc8ab68c	-0.016932748
205	0xbfad91a4	-1.3560071
206	0xbd07f91d	-0.033196557
207	0xbd26fc4c	-0.040767953
208	0xbd400abf	-0.04688525
209	0xbe8146da	-0.25249368
210	0xbe836647	-0.2566397
211	0x3cc4021d	0.023926789
212	0xbd8ffb8b	-0.070304
213	0x3e9a45f9	0.3013151
214	0x3d7d99e5	0.061914343
215	0x3e16d9a5	0.14731462
216	0x3e41e0a8	0.18933356
217	0xbe2f888e	-0.17141935
218	0x3dc19780	0.094527245
219	0xbd1d797b	-0.03844593
220	0xbe7080de	-0.23486659
221	0xbd846182	-0.06463911
222	0xbefb7561	-0.4911299
223	0xbce332b9	-0.027734147

conv_net.C2.weight f4 [64, 32, 1, 1]
0	0xbdca1210	-0.098667264
1	0xbedff1f8	-0.43739295
2	0xbe0551cf	-0.13019489
3	0xbef38274	-0.47560465
4	0xbe899ada	-0.26875955
5	0x3c56acbf	0.013102709
6	0x3de5daa5	0.11223344
7	0xbdc33b90	-0.09532845
8	0x3d2ec7b8	0.042670935
9	0x3cfde021	0.030990662
10	0xbd817201	-0.06320573
11	0xbe543cf5	-0.20726378
12	0xbd366c02	-0.044536598
13	0xbd8bf0ad	-0.06833015
14	0x3de51e19	0.11187381
15	0x3eb16350	0.34646082
16	0x3e3816c7	0.17977439
17	0x3e4a31fd	0.19745632
18	0x3e0ca90d	0.13736363
19	0xbe0fd9d3	-0.14047937
20	0xbcaaef9b	-0.020866206
21	0xbe3dad85	-0.18523224
22	0x3e255527	0.16145764
23	0x3dff266f	0.124585025
24	0x3d9f8d51	0.07790626
25	0x3e137ce9	0.14403118
26	0x3e68a528	0.22719252
27	0x3e3b4d5a	0.18291226
28	0xbec36aa7	-0.38167307
29	0xbf42c0f5	-0.7607568
30	0xbd90d09a	-0.070710376
31	0xbc49ed2e	-0.012324614
32	0xbd021631	-0.031759445
33	0x3dc23602	0.094829574
34	0x3d85584a	0.065109804
35	0x3d0262df	0.031832572
36	0x3d114bdc	0.035472736
37	0x3ce1bb7f	0.027555225
38	0x3e40abad	0.18815489
39	0xbde5e986	-0.11226182
40	0x3dffbc5c	0.124870986
41	0xbe304666	-0.17214355
42	0x3e200ad9	0.15629138
43	0xbcc984e7	-0.024599506
44	0xbda91095	-0.08255116
45	0x3e0a8b95	0.13529809
46	0xbe7af9ae	-0.24509308
47	0xbdef97b3	-0.11698856
48	0x3e69a310	0.2281611
49	0xbe7e296a	-0.24820486
50	0x3e5e7cd5	0.21727307
51	0x3d84f153	0.064913414
52	0x3e0f841e	0.14015242
53	0xbe9f13dc	-0.3106984
54	0xbdb88941	-0.09010554
55	0xbe28afdd	-0.16473337
56	0xbef805ea	-0.48442012
57	0xbce1756f	-0.027521817
58	0xbf1cfd64	-0.61324143
59	0xbc04c4ae	-0.008103533
60	0xbe1c6557	-0.15273033
61	0xbe530ac0	-0.2060957
62	0xbec48d4d	-0.38389054
63	0xbdc313aa	-0.09525235
64	0xbea587dc	-0.32330215
65	0x3e3728cc	0.17886657
66	0xbe21336e	-0.15742275
67	0xbe0fd1ad	-0.14044829
68	0x3d9b2741	0.075758465
69	0x3e08b2ea	0.133495
70	0xbec797db	-0.38983044
71	0x3d894bd4	0.06703916
72	0x3e1ae89c	0.15127796
73	0x3cb64a93	0.022252357
74	0xbe995541	-0.29947856
75	0x3e34ab1f	0.17643403
76	0xbe7b9ea0	-0.2457223
77	0xbd7bb7f4	-0.06145473
78	0x3d849e11	0.06475461
79	0xbea945f3	-0.3306118
80	0xbdec4d84	-0.115382224
81	0xbe84a78e	-0.25909084
82	0x3e272ea1	0.16326381
83	0x3e822e07	0.2542574
84	0x3dc8afbe	0.09799145
85	0x3d8f44e7	0.06995564
86	0xbcad9aaf	-0.021191923
87	0x3e81c356	0.25344342
88	0x3cb40f83	0.021980053
89	0xbcb936c2	-0.022609118
90	0xbda9a446	-0.08283286
91	0xbe74fe75	-0.23925193
92	0x3e2f01d9	0.17090549
93	0xbe984f1e	-0.29747862
94	0x3d5707f5	0.052497823
95	0x3dbb89a2	0.09157111
96	0x3e3020c4	0.17199999
97	0xbd0e55bf	-0.034749743
98	0x3daaa6b9	0.08332581
99	0x3cd16caa	0.02556451
100	0x3e0aa7e7	0.13540612
101	0x3cd4f97a	0.025997866
102	0x3e65fc02	0.22459415
103	0x3a0798ba	0.00051725993
104	0xbe4841aa	-0.19556299
105	0xbe8af423	-0.27139387
106	0xbd9d5d59	-0.0768382
107	0xbe089ddb	-0.13341467
108	0xbddde4b5	-0.10834638
109	0x3dac1f8c	0.084044546
110	0xbd3abf3a	-0.045592524
111	0x3e893220	0.26796055
112	0x3cfbf282	0.030755285
113	0xbe332b78	-0.17497051
114	0x3ab6eb8d	0.0013955698
115	0x3d43dd05	0.047818203
116	0xbe190be3	-0.1494594
117	0xbddcb4fb	-0.10776707
118	0x3db4cf6a	0.088286236
119	0x3d13925b	0.036028247
120	0xbebe33c9	-0.37148884
121	0x3e0b902d	0.13629217
122	0x3f0b2622	0.5435506
123	0xbd0bbfe8	-0.034118563
124	0x3dda1612	0.10648741
125	0x3f0bfeaf	0.5468549
126	0x3d8db28d	0.069188215
127	0xbe04d060	-0.12970114
128	0xbe2c9eea	-0.16857496
129	0x3922f16f	0.00015539465
130	0xbe1ef6cd	-0.15523835
131	0xbd369483	-0.044575226
132	0xbef046db	-0.46929058
133	0xbcca35ff	-0.02468395
134	0xbd0bb6f0	-0.03411001
135	0xbdbe4e7c	-0.092923135
136	0x3e02dd53	0.12779741
137	0x3e59bf81	0.21264459
138	0x3b546f09	0.0032414815
139	0x3e458410	0.19288659
140	0xbe922fd1	-0.28552106
141	0xbc8e7f59	-0.017394708
142	0xbe21f287	-0.15815173
143	0xbd90bc6b	-0.07067188
144	0xbdab2d2c	-0.08358225
145	0x3dd222bd	0.10260532
146	0xbe3f93bc	-0.187087
147	0x3e4de36c	0.20106286
148	0xbeb4c73f	-0.35308263
149	0xbc9d05a1	-0.019167723
150	0x3dd871ed	0.105686046
151	0xbe968d66	-0.29404753
152	0x39dffbda	0.0004272152
153	0xbe23dd47	-0.1600238
154	0x3c167fd3	0.009185749
155	0x3db81937	0.08989184
156	0xbe1b1908	-0.15146267
157	0xbd396517	-0.045262422
158	0x3e6210cd	0.22076721
159	0xbcabc680	-0.020968676
160	0x3d76e412	0.0602761
161	0x3d579788	0.052634746
162	0x3d820eb6	0.06350462
163	0xbd9c452a	-0.076303795
164	0x3e47721e	0.19477126
165	0x3e5dff8e	0.21679518
166	0xbe25fd1d	-0.16209836
167	0xbcebdb68	-0.028791144
168	0xbe61696a	-0.22012869
169	0xbb5a2aad	-0.0033289597
170	0x3cb59992	0.022167955
171	0xbe63c323	-0.22242408
172	0x3dd33033	0.10311928
173	0x3e4b8fa4	0.19879013
174	0xbe26122c	-0.1621787
175	0xbe94086f	-0.28912684
176	0x3caf0703	0.021365648
177	0xbe6cdc2b	-0.23130862
178	0xbd27e305	-0.040987987
179	0x3cd3e8e3	0.025867885
180	0x3e40d5b3	0.1883152
181	0x3d96a079	0.073548265
182	0x3de3f036	0.11129801
183	0x3d5c61e5	0.053804297
184	0x3c178ac2	0.009249391
185	0x3dcc706e	0.09982382
186	0x3f2ae706	0.66758764
187	0xbe87134c	-0.2638191
188	0x3e833b0f	0.25630996
189	0xbeae55c4	-0.3404981
190	0x3c98d386	0.01865555
191	0xbe05c867	-0.13064729
192	0xbea3a870	-0.31964445
193	0xbd64cb6f	-0.055858072
194	0x3d9c54d8	0.0763337
195	0xbe1c314b	-0.15253179
196	0x3daa7d08	0.08324629
197	0xbdc43db5	-0.09582082
198	0xbdda0bbf	-0.10646772
199	0x3ea1961f	0.31559846
200	0xbdc94604	-0.098278075
201	0x3d178564	0.036992446
202	0xbea8ede7	-0.32994005
203	0x3ed18744	0.40923512
204	0xbe510865	-0.20413359
205	0xbcd18298	-0.025574967
206	0x3e40754f	0.1879475
207	0x3e508296	0.20362315
208	0x3d60b7ea	0.054862894
209	0x3bf3e4ae	0.007443032
210	0x3bf72fee	0.0075435555
211	0x35cc1cce	1.5207568e-06
212	0xbddfbe15	-0.10924927
213	0xbe294492	-0.16530064
214	0x3e4ceb49	0.20011629
215	0xbcd1fcb2	-0.02563319
216	0x3e113633	0.14180832
217	0x3c3d0c41	0.011538566
218	0xbdfc5bd3	-0.123222016
219	0xbe2c97de	-0.16854808
220	0x3d8639ee	0.06554018
221	0xbec8bcae	-0.3920645
222	0xbe019e00	-0.12657928
223	0x3e33f6e9	0.17574657
224	0x3e1913e6	0.14948997
225	0x3e77b675	0.24190696
226	0xbc2b1c8d	-0.010443819
227	0x3dc5db3a	0.09660955
228	0xb9fe3222	-0.00048484007
229	0xbe599db8	-0.21251571
230	0xbe4e447a	-0.20143309
231	0xbcd8a30b	-0.026444932
232	0xbd33d2c7	-0.043902185
233	0xbe3d2648	-0.18471634
234	0xbe17817d	-0.1479549
235	0xbe22ac5e	-0.15886065
236	0x3e8d5738	0.27605605
237	0x3dfc6e64	0.12325743
238	0x3cfc05e0	0.03076452
239	0xbd7c109b	-0.061539274
240	0xbd474d0e	-0.04865747
241	0xbc8039d9	-0.015652584
242	0x3e4402db	0.19141714
243	0x3e547f26	0.20751628
244	0xbd24f6b7	-0.040274348
245	0x3df88966	0.12135582
246	0x3da70b60	0.081564665
247	0x3ee5d3c9	0.44888142
248	0x3e023ad2	0.1271775
249	0xbe86f62e	-0.26359695
250	0x3f38fc81	0.7226029
251	0x3e3508bb	0.17679112
252	0xbdff8cc1	-0.124780186
253	0x3dbb87d4	0.091567665
254	0xbe80a76a	-0.25127727
255	0xbdf37eeb	-0.11889442

conv_net.C3.weight f4 [128, 64, 1, 1]
0	0x3d05ac2c	0.0326349
1	0xbdcdd561	-0.100504644
2	0x3e27964a	0.16365924
3	0xbc074453	-0.008256036
4	0x3d504fb1	0.05085725
5	0xbc9d1e3d	-0.019179458
6	0xbe44a9d5	-0.19205411
7	0x3e3bad09	0.18327726
8	0xbd88144d	-0.06644497
9	0xbcc24756	-0.023715656
10	0x3d155690	0.036459506
11	0x3df66218	0.12030429
12	0xbd9265b8	-0.071483076
13	0x3c94bb0f	0.018155603
14	0x3e2a6545	0.16640194
15	0x3c9847c2	0.018588904
16	0x3df01bc7	0.11724048
17	0xbc931bed	-0.017957652
18	0xbe104377	-0.14088236
19	0xbde3cf11	-0.11123479
20	0xbe5ff778	-0.21871746
21	0xbe58a5a9	-0.21156944
22	0x3d6fc129	0.05853382
23	0x3dc30388	0.09522158
24	0xbe304025	-0.17211969
25	0xbd9da4c0	-0.07697439
26	0x3d36d74a	0.04463891
27	0xbcec0ab9	-0.028813707
28	0xbeac1917	-0.33612892
29	0xbbd48cd5	-0.006486515
30	0xbd1e3b0f	-0.03863054
31	0xbe4c78cc	-0.19967955
32	0x3d1045c8	0.0352228
33	0xbdf47298	-0.119359195
34	0x3dc28900	0.09498787
35	0xbd44c082	-0.048035152
36	0xbb9f435e	-0.0048603257
37	0xbe2d7a61	-0.16941215
38	0xbdb50888	-0.08839518
39	0xbd3afa83	-0.045649063
40	0xbdb0a31d	-0.086248614
41	0xbe06f989	-0.13181128
42	0xbe37ad26	-0.17937145
43	0xbe093a66	-0.13401183
44	0xbe17671a	-0.14785424
45	0x3d4e8147	0.050416257
46	0x3ceb67a5	0.028735945
47	0xbd1b2d78	-0.03788516
48	0xbd63a9dd	-0.055581916
49	0xbb8afec2	-0.0042417953
50	0x3d000cff	0.031262394
51	0x3d8d03be	0.068854794
52	0xbdc5c3ca	-0.096564844
53	0xbdcb7547	-0.09934478
54	0x3b1aaaa8	0.0023600254
55	0xbe0b8b79	-0.13627423
56	0xba60d5b9	-0.0008576769
57	0xbd4ee087	-0.050507095
58	0xbd70c5bf	-0.058782335
59	0xbd52ca4a	-0.05146245
60	0xbdbc18ee	-0.091844425
61	0xbdadc11a	-0.08484097
62	0x3c982093	0.01857022
63	0xbe970b9e	-0.2950105
64	0x8ac480b3	-1.8922525e-32
65	0x8781522e	-1.9458064e-34
66	0x89849870	-3.1921196e-33
67	0x8ba4e9f0	-6.352249e-32
68	0x8be0bc8a	-8.6565344e-32
69	0x8aebca11	-2.2705686e-32
70	0x8b047d2e	-2.551645e-32
71	0x0a4b8086	9.798267e-33
72	0x89e1a5e5	-5.4322786e-33
73	0x07ec4c26	3.555409e-34
74	0x0a748af4	1.1774307e-32
75	0x8ba749ce	-6.443711e-32
76	0x0a0ebe30	6.8728216e-33
77	0x8b4ff367	-4.0049865e-32
78	0x8912febb	-1.7693884e-33
79	0x8b97ce66	-5.847364e-32
80	0x89bc8093	-4.5380264e-33
81	0x8b00c632	-2.480101e-32
82	0x8af3ded3	-2.3483866e-32
83	0x89a691c8	-4.010014e-33
84	0x8b4d0045	-3.9481767e-32
85	0x8a27de09	-8.082518e-33
86	0x8b1ac841	-2.9809975e-32
87	0x897bff56	-3.0333084e-33
88	0x8af6600b	-2.3725066e-32
89	0x8b8fd83b	-5.5406944e-32
90	0x89d6143f	-5.1537665e-33
91	0x88e43a9f	-1.3736033e-33
92	0x0ab40735	1.733608e-32
93	0x8b86e8f1	-5.1965414e-32
94	0x8913edbc	-1.7806264e-33
95	0x088ea1d2	8.584358e-34
96	0x8b09c0ea	-2.6530373e-32
97	0x89b824b2	-4.4330897e-33
98	0x889c1907	-9.394792e-34
99	0x89c48a5e	-4.7315404e-33
100	0x0a4e537a	9.9342394e-33
101	0x8ba873e0	-6.4885595e-32
102	0x8a71a959	-1.1635579e-32
103	0x8b5c2d95	-4.240475e-32
104	0x8b1557fd	-2.876255e-32
105	0x8a33dfd4	-8.660634e-33
106	0x8b24d5c8	-3.1746082e-32
107	0x8a96e807	-1.4531754e-32
108	0x89132da0	-1.7715934e-33
109	0x8c1cca2a	-1.2078639e-31
110	0x098cbc54	3.3880877e-33
111	0x8bbd9252	-7.302031e-32
112	0x8c01e1b8	-1.0005723e-31
113	0x8943f422	-2.3587062e-33
114	0x8a2fea4e	-8.470011e-33
115	0x8af12a32	-2.3223328e-32
116	0x88e6858f	-1.3874021e-33
117	0x8914c134	-1.7905696e-33
118	0x889d4b05	-9.466731e-34
119	0x8a670cd5	-1.1124659e-32
120	0x8aef7dbf	-2.3062163e-32
121	0x8aa9e22d	-1.6359186e-32
122	0x8a6c3b1f	-1.1374106e-32
123	0x8b930bfc	-5.664037e-32
124	0x8b82541f	-5.020075e-32
125	0x09906b91	3.4767894e-33
126	0x8bdb5c1b	-8.4494316e-32
127	0x8c073db6	-1.0418592e-31
128	0xbbc502a3	-0.006012277
129	0xbc90a442	-0.01765645
130	0xbdef0b21	-0.116720445
131	0xbe4dce8c	-0.20098323
132	0xbe32e7de	-0.17471263
133	0xbe362344	-0.1778689
134	0xbe32249d	-0.1739678
135	0x3e1a463d	0.15065856
136	0x3e10961b	0.1411976
137	0xbcc4e452	-0.024034653
138	0x3d3f9dfb	0.04678152
139	0xbe12011a	-0.14258233
140	0xbd1a515f	-0.037675258
141	0xbd4bcdb4	-0.04975672
142	0xbb6592ab	-0.0035030048
143	0xbd43309f	-0.04765379
144	0xbde5e6c3	-0.11225655
145	0xbc4fa0bd	-0.0126726
146	0x3decd395	0.115637936
147	0x3e4f418d	0.2023985
148	0xbd660fa7	-0.05616727
149	0x3cc59dfe	0.024123188
150	0xbd8721f3	-0.06598272
151	0xbd197dd0	-0.0374735
152	0x3da46510	0.08027089
153	0xbd304a1f	-0.043039437
154	0xbe15b02a	-0.14617983
155	0xbd932b95	-0.07186047
156	0xbd05d179	-0.03267047
157	0xbdcbc4d7	-0.099496536
158	0x3c420ca0	0.01184383
159	0x3e45a3ef	0.19300817
160	0x3d81c709	0.06336791
161	0x3d766395	0.060153563
162	0x3db667fd	0.08906553
163	0x3e16e89c	0.14737171
164	0x3de95621	0.11393381
165	0xbdb5d656	-0.08878772
166	0xbda78bd5	-0.08180968
167	0x3da489b1	0.08034075
168	0xbbbeb07e	-0.0058193794
169	0xbdc48aea	-0.09596808
170	0x3dc0ef2a	0.09420617
171	0xbc2bc4db	-0.010483946
172	0xbd7ee9fa	-0.062234856
173	0xbd8dad87	-0.06917863
174	0x3d834183	0.0640898
175	0xbe05e7a5	-0.13076647
176	0xbd9f88fd	-0.077898
177	0xbe608010	-0.21923852
178	0xbdb40f0d	-0.08791933
179	0x3e270618	0.16310918
180	0xbda55d8e	-0.08074485
181	0xbe7d1d7b	-0.24718277
182	0xbe9467e3	-0.2898551
183	0xbd1e1efa	-0.03860376
184	0x3d6fe182	0.05856467
185	0xbdaa189a	-0.083054736
186	0x3d993b19	0.07481975
187	0x3d47522b	0.048662346
188	0x3dafa703	0.08576777
189	0xbc958e76	-0.018256407
190	0x3d359a1c	0.044336423
191	0xbd7445f5	-0.05963703
192	0xbd5bdabb	-0.053675395
193	0xbdc0c66a	-0.094128445
194	0x3c18d25a	0.0093274955
195	0xbdc69860	-0.09697032
196	0xbd466017	-0.048431482
197	0x3e56e837	0.2098702
198	0xbc24ed2b	-0.010066311
199	0x3cb1856f	0.021670071
200	0xbdd7402b	-0.10510286
201	0xbdadd87b	-0.08488556
202	0x3e01bbf8	0.1266936
203	0x3d79e906	0.061013244
204	0xbe81d981	-0.25361255
205	0x3d43799e	0.047723405
206	0xbe1ac7fb	-0.15115349
207	0xbce57f31	-0.028014751
208	0x3ba01bcb	0.0048861257
209	0xbd052ccd	-0.03251343
210	0x3c1d79d1	0.009611563
211	0x3de33255	0.110935844
212	0xbd9c5092	-0.07632555
213	0xbcab8355	-0.020936647
214	0x3dc1203b	0.094299756
215	0x3e3ace96	0.18242869
216	0x3d5f1ad9	0.054468963
217	0xbda8e023	-0.08245876
218	0xbdf28a08	-0.118427336
219	0xbda43e1c	-0.08019659
220	0x3da02dd3	0.0782124
221	0x3d32cc94	0.043652132
222	0xbd1c0e1d	-0.038099397
223	0xbd7e28b4	-0.062050536
224	0xbdeb2a2c	-0.11482653
225	0x3dfe1fdc	0.124084204
226	0x3d896fbb	0.06710764
227	0xbca74a7e	-0.020421263
228	0xbdfbcad2	-0.12294544
229	0xbe3d8f55	-0.18511708
230	0xbd19e6db	-0.037573677
231	0xbd0128df	-0.03153312
232	0xbce9bf45	-0.028533587
233	0xbe270176	-0.16309151
234	0xbd34361b	-0.04399691
235	0x3b0ce184	0.0021496722
236	0xbd1b115d	-0.037858356
237	0xbd4efc58	-0.050533623
238	0xbda42130	-0.080141425
239	0x3dcea6a0	0.10090375
240	0xbd976218	-0.07391757
241	0xbe49f912	-0.19723919
242	0xbd55adfe	-0.052167885
243	0xbc823c3d	-0.015897864
244	0x3daf562d	0.085613586
245	0x3dc640b1	0.09680308
246	0x3c221c41	0.009894432
247	0xbdcc578c	-0.09977636
248	0x3e1b0610	0.15139031
249	0x3deefa98	0.11668891
250	0xbd934e66	-0.07192688
251	0xbe43d051	-0.19122435
252	0x3dd0f1f5	0.102024
253	0xbd53ee9e	-0.051741235
254	0xbcc44776	-0.023959856
255	0xbd48ea6f	-0.0490517

conv_net.C4.weight f4 [5, 128, 1, 1]
0	0x3d639cc1	0.055569414
1	0x0b4367e9	3.7633807e-32
2	0x3b81ffc8	0.003967259
3	0x3df6c4f0	0.120492816
4	0x0cdc744a	3.3966356e-31
5	0x87f0c985	-3.622963e-34
6	0xbd84c445	-0.06482748
7	0x3d858739	0.06519932
8	0x3d4379b6	0.047723494
9	0x3b1198c9	0.0022216311
10	0x3dc1a51e	0.09455322
11	0xbd43d437	-0.047809806
12	0x3db975cb	0.0905567
13	0x091a7202	1.8590682e-33
14	0xbdc816e2	-0.097699896
15	0x3e0b2a3d	0.13590331
16	0xbe090a58	-0.13382852
17	0x3d3372f5	0.043810803
18	0x3e824990	0.2544675
19	0x0a623576	1.0891559e-32
20	0x3aab7326	0.0013080582
21	0xbd302abc	-0.043009505
22	0x17dbe978	1.4211479e-24
23	0xbd734887	-0.05939534
24	0x3b08c21e	0.0020867656
25	0x3ccfa3b7	0.02534662
26	0xbdd8e959	-0.105913825
27	0xbeaae922	-0.3338099
28	0x3c45e689	0.01207889
29	0x3d17b3b7	0.037036624
30	0xbe18e585	-0.14931305
31	0x3e469db0	0.1939609
32	0x3d92f07a	0.071747735
33	0xbe30bcfd	-0.17259593
34	0x3d2d97bc	0.042381033
35	0xbe5588aa	-0.20852914
36	0x3d3616c1	0.044455294
37	0xbd2674c3	-0.040638696
38	0x3dae07c4	0.08497575
39	0x3c0d2738	0.0086153075
40	0x3da154f4	0.07877532
41	0x3c433c7c	0.011916276
42	0x3dfe72d1	0.12424243
43	0xbd753b1a	-0.059870817
44	0xbd35531e	-0.04426872
45	0x3e9b35ad	0.3031439
46	0xbc268d13	-0.010165471
47	0x3e5507f3	0.20803814
48	0x0f04b148	6.5422456e-30
49	0xbe87daaf	-0.2653403
50	0xbaddb0cf	-0.0016913655
51	0xbcff971b	-0.031199982
52	0x3dd071bc	0.10177943
53	0x3ca861b9	0.02055441
54	0x3cff9826	0.03120048
55	0x3d6be964	0.057595626
56	0x3d46a8d2	0.048500843
57	0x3d75ee25	0.060041565
58	0xbc0f542e	-0.008748097
59	0xbbdabcb8	-0.006675329
60	0x399a804e	0.00029468763
61	0xbdea8528	-0.11451179
62	0xbe5ef04a	-0.2177135
63	0xbcc459e6	-0.023968648
64	0xbd4d1ebe	-0.050078146
65	0xbe40213f	-0.18762682
66	0xbe428a5a	-0.1899809
67	0x3e6125e7	0.21987115
68	0xbe1b7d3e	-0.15184495
69	0xbccc0af9	-0.024907576
70	0xbb868d47	-0.004106197
71	0xbd1c7803	-0.03820039
72	0xbc39ce17	-0.01134064
73	0xbd5a664e	-0.05332022
74	0xbbb10898	-0.005402636
75	0x3ccfdc85	0.025373707
76	0xbcc5b43a	-0.02413379
77	0xbccaedca	-0.02477159
78	0x3de6793e	0.11253594
79	0x3db389a9	0.08766491
80	0x3d8dd202	0.069248214
81	0x3cb9e7d5	0.022693554
82	0x3e687a35	0.22702868
83	0x3e50fbba	0.20408526
84	0xbd101154	-0.035172775
85	0xbe2b7757	-0.16744743
86	0x3e1739bb	0.14768116
87	0x3caaac14	0.020834006
88	0xbddf5728	-0.109052956
89	0x3dbeac1a	0.093101695
90	0x3d3b3cd8	0.045712322
91	0xbd2c48d0	-0.042061627
92	0xbd0f0271	-0.034914438
93	0x3e18c33f	0.1491823
94	0x3c2ad683	0.01042712
95	0x3dd85e1d	0.10564826
96	0xbc2a53f7	-0.010395995
97	0xbaa0e86f	-0.0012276302
98	0x3e274495	0.16334756
99	0xbe5d99d3	-0.2164071
100	0x3d44f97f	0.0480895
101	0x3cb4b594	0.02205924
102	0x3dc26cc5	0.094934024
103	0x3cd5fbe9	0.026121097
104	0xbe1ffe4d	-0.15624352
105	0x3b91cd21	0.004449502
106	0xbe140829	-0.14456238
107	0xbde16451	-0.11005462
108	0xb9de4278	-0.00042392663
109	0xbacc085e	-0.0015566458
110	0x3ae7691f	0.001765523
111	0x3cb30899	0.021854686
112	0xbd9d80a2	-0.076905504
113	0x3ceed5e3	0.029154724
114	0x3d00e143	0.031464826
115	0x3ec10856	0.37701672
116	0x3c5a596b	0.013326983
117	0xbcb7d111	-0.022438558
118	0x3d858c35	0.06520883
119	0x3dcb3cae	0.09923683
120	0xbb89f475	-0.0042100498
121	0xbddec12e	-0.1087669
122	0x3d266676	0.040625058
123	0xbd3f7b08	-0.04674819
124	0xbe190bcd	-0.14945908
125	0xbdb4204b	-0.08795222
126	0xbdfb2490	-0.12262833
127	0x3db53c2c	0.088493675
128	0x3e7a8f04	0.24468619
129	0x0b9d389a	6.0559365e-32
130	0x3dbcfc2a	0.09227784
131	0xbe47ea94	-0.19523078
132	0x0cb8a3ce	2.8448275e-31
133	0x86c2601b	-7.3115904e-35
134	0xbd6a8a02	-0.05726052
135	0xbe4e96c3	-0.20174699
136	0x3c0613b8	0.008183412
137	0xbd85fdaf	-0.06542527
138	0x3d311049	0.04322842
139	0xbe0d43c7	-0.13795386
140	0x3d462492	0.04837472
141	0x094d04f9	2.4678316e-33
142	0xbdd5bf76	-0.10436909
143	0x3d4a0551	0.049321476
144	0xbbdcee35	-0.0067422637
145	0x3d923f15	0.07140938
146	0x3bcd5baf	0.006267033
147	0x0b0f6d32	2.7622948e-32
148	0x3b87ae07	0.0041406187
149	0x3e8be631	0.2732406
150	0x18476ec6	2.5776073e-24
151	0x3c0a36b4	0.008435894
152	0xbd1c4144	-0.03814818
153	0x3d50a45a	0.050937988
154	0x3de0e8ef	0.109819286
155	0x3eac5ba5	0.3366367
156	0xbd2e323a	-0.04252837
157	0x3d882d47	0.06649261
158	0x3cca69ff	0.024708746
159	0xbcaf677e	-0.021411654
160	0x3d9c8df6	0.076442644
161	0x3e1c539f	0.15266274
162	0xbcc45bcd	-0.023969555
163	0x3d9d080b	0.0766755
164	0xbdc3e9a3	-0.09566047
165	0xbe0dc2ae	-0.13843796
166	0xbdcb2253	-0.09918656
167	0xbed5a1d6	-0.41725034
168	0x3dcbad66	0.099451825
169	0x3e32394b	0.17404668
170	0x3e24405b	0.16040175
171	0x3b4a0799	0.0030827282
172	0x3b7c9cc1	0.003854558
173	0xbad136f2	-0.001596181
174	0x3c0c0cf3	0.008548009
175	0x3c8198bf	0.015819905
176	0x0fa6a679	1.6432987e-29
177	0x3e311b4d	0.1729557
178	0x3dbbff55	0.0917956
179	0xbd508098	-0.050903887
180	0xbd03c6e5	-0.032172102
181	0x3e3c7b13	0.18406324
182	0x3e6293e9	0.22126736
183	0xbdfea6ae	-0.124341354
184	0x3cb16ef3	0.02165935
185	0xbe662e46	-0.2247859
186	0xbd2b91e2	-0.04188717
187	0x3cda010c	0.026611827
188	0x3b069a25	0.0020538655
189	0xbd6abc0f	-0.057308253
190	0x3b6164a6	0.0034392267
191	0x3bc7e38c	0.0061001237
192	0x3df37904	0.11888316
193	0x3e26f8c5	0.16305836
194	0xbd6fd11a	-0.058549024
195	0xbd3d0cee	-0.04615491
196	0xbc009f98	-0.00785055
197	0x3cc07535	0.023493389
198	0x3c6e3716	0.014539501
199	0x3e43cfdd	0.19122262
200	0xbd819f8d	-0.0632926
201	0x3db6edd7	0.08932083
202	0x3df4259b	0.11921235
203	0x3d18453e	0.03717541
204	0xbc832a6a	-0.016011436
205	0xbc520e5b	-0.012820805
206	0xbd832032	-0.06402625
207	0xbbeff19c	-0.0073225033
208	0xbe86166c	-0.26188982
209	0xbdaa9133	-0.08328476
210	0xbda2f19b	-0.07956239
211	0xbdcfeaf5	-0.10152236
212	0x3c8fa9bd	0.017536992
213	0x3e542236	0.20716175
214	0x3cfcf224	0.03087718
215	0xbe26d9dd	-0.16294046
216	0x3d97a8b5	0.07405225
217	0xbdcfe50e	-0.101511106
218	0xbdef1762	-0.11674382
219	0x3e213af0	0.15745139
220	0xbb3b0b2b	-0.0028540592
221	0x3df13516	0.117777035
222	0xbc923d4d	-0.017851496
223	0x3b154cbb	0.002278133
224	0xbd083e16	-0.033262335
225	0xbc084797	-0.00831785
226	0xbe129c53	-0.14317445
227	0x3e799831	0.24374463
228	0xbdbd0273	-0.09228983
229	0xbd333b13	-0.04375751
230	0x3dfa90f5	0.122346796
231	0xbc512138	-0.012764268
232	0xbe404cda	-0.18779317
233	0x3c1a3fba	0.009414608
234	0xbdcd39de	-0.10020803
235	0xbdee47c7	-0.11634784
236	0xbcb4a166	-0.022049617
237	0xbd1e5c84	-0.03866245
238	0x3a91a02e	0.0011110359
239	0x3d634284	0.055483356
240	0xbd85359b	-0.06504365
241	0xbe5f9838	-0.2183541
242	0x3d262e3a	0.04057143
243	0xbeb4afc7	-0.35290357
244	0x3db25493	0.087075375
245	0xbde6a558	-0.112620056
246	0x3e321a35	0.1739281
247	0x3d85c2d6	0.06531303
248	0x3ce84dcd	0.02835741
249	0xbd7e7415	-0.062122423
250	0x3c4cdcc5	0.012503807
251	0xbdf6e096	-0.12054555
252	0xbd3efa90	-0.046625674
253	0x3da6201e	0.081115946
254	0x3e1f790e	0.15573522
255	0x3df598f0	0.11992061
