online_forpy/NetworkA_weights_SPEAR.pt (torch, 384223 bytes, 4 tensors)

conv_net.C1.weight f4 [32, 8, 3, 3]
0.10714612 0.1927368 -0.23770133 -0.27251634 0.2043016 0.29954466 -0.4755182 -0.19496939
-0.10007214 0.13244568 0.1605993 -0.049091797 0.015662096 -0.056451157 -0.034129046 0.01912837
-0.24323839 -0.2694344 0.15027079 0.05878774 -0.11606384 0.14090808 0.06275399 0.023592994
0.055963807 -0.10252465 -0.1325326 -0.26465032 0.107451975 0.12274445 -0.100232005 -0.028743949
0.009537168 0.060545553 -0.09014233 0.046770867 0.03146172 0.29098737 -0.11427496 -0.13628606
-0.09429146 -0.027808752 -0.21084858 -0.20300531 0.06057748 0.20430648 -0.06243636 -0.071189076
-0.050265055 -0.12446284 0.121670745 -0.14852501 -0.09927051 -0.029645056 -0.09949536 -0.12431018
0.1480174 -0.08868257 0.018672321 0.0052660163 -0.021875478 0.092048846 0.055198204 -0.23849481
-0.25283355 -0.051118 -0.1748372 -0.116087034 -0.13075562 0.041580617 0.20089355 0.15419465
-0.10131214 -0.4907928 -0.015636439 0.46508208 0.14779113 0.0737583 0.1701073 0.59471434
-0.115599945 0.0043909773 0.15768254 0.0060924347 0.06663444 0.06597842 -0.12971596 0.12092332
0.050686292 0.055446398 0.05068311 0.033034552 -0.05643137 0.18636565 0.10444536 -0.041636102
-0.0270846 0.039848693 -0.14694628 -0.13404414 0.077689834 -0.057743292 -0.12741445 0.039173104
0.06746726 -0.116935566 -0.12969926 0.0514621 0.08126562 -0.038426396 0.0026008086 0.06981837
0.06685238 0.17007478 0.06937334 -0.048020527 0.07057003 0.11066712 0.005284701 -0.119699694
0.026171861 -0.069161415 -0.1517558 -0.034372922 0.048784893 -0.013318958 -0.026850356 -0.12730944
-0.008045166 -0.0833438 -0.16204901 0.016506584 -0.1030244 -0.10520678 -0.09982138 -0.069846794
-0.025754198 0.003254009 -0.26340047 -0.1491183 0.09917495 -0.2645262 -0.2320282 -0.03658384
0.36224884 -0.07941731 0.23449844 0.54045796 -0.15536705 -0.19228624 -0.115097895 -0.08299652
-0.054702707 0.2052844 0.15423533 -0.050717846 0.08065375 0.15993565 0.38651547 0.113919124
-0.15329693 -0.04615382 0.21380797 0.0013849054 -0.18281825 0.11575922 -0.008290822 -0.094777666
0.11471029 -0.12928529 0.04757232 -0.0013060492 -0.07358006 0.002436062 0.14159122 -0.05777264
0.09134479 0.08277134 -0.12792675 -0.062036898 0.03996086 -0.093006596 -0.10202816 0.017518992
0.0005726008 -0.06473006 0.13784277 0.11978795 0.106494814 -0.06524484 0.1480512 -0.08025063
-0.16544415 -0.16916172 0.04754925 0.2864612 0.052435867 -0.2025011 -0.18440306 -0.30349946
-0.17176722 -0.1044137 -0.28520238 -0.30639467 -0.22154067 -0.11805488 -0.110283695 -0.37951434
0.07252006 0.21888568 -0.27396882 -0.003132401 -0.23719832 0.1323879 0.46402168 0.353318
0.15049912 -0.044827815 0.10635867 0.024268651 -0.16160688 -0.09665397 -0.048086517 0.049439665
-0.000634701 -0.33704028 -0.3913479 -0.37067205 -0.20410158 -0.4561035 -0.2232164 -0.17327943
-0.20074292 -0.144176 0.008311082 0.0010882086 -0.056453127 -0.060163304 -0.032052815 0.09283989
0.050463997 0.084774785 -0.09692362 -0.029119195 -0.08706717 0.030979538 0.12100223 -0.041025765
-0.021886101 0.07391435 0.021938676 -0.051589735 0.04056292 -0.06469091 -0.016323622 0.006771808
00000000: 6d6f db3d cc5c 453e fa67 73be 4387 8bbe
00000010: 7034 513e eb5d 993e 1f77 f3be 0ea6 47be
00000020: 9ff2 ccbd d79f 073e 2574 243e 7b14 49bd
00000030: cc4d 803c 5439 67bd e6ca 0bbd 19b3 9c3c
00000040: 7c13 79be 4ef3 89be 96e0 193e 6acb 703d
00000050: e1b2 edbd 354a 103e 2a85 803d 1846 c13c
00000060: 4e3a 653d 72f8 d1bd a0b6 07be 3f80 87be
00000070: c80f dc3d 7161 fb3d 7046 cdbd 6e78 ebbc
00000080: c841 1c3c 9dfe 773d 8b9c b8bd cf92 3f3d
00000090: 01de 003d 4cfc 943e fd08 eabd 938e 0bbe
000000a0: e21b c1bd 2ecf e3bc b1e8 57be a0e0 4fbe
000000b0: 1720 783d b835 513e 45bd 7fbd 94cb 91bd
000000c0: bbe2 4dbd 60e6 febd 832e f93d f116 18be
000000d0: 564e cbbd 30da f2bc 39c4 cbbd 5696 febd
000000e0: e091 173e 359f b5bd b2f6 983c 8c8e ac3b
000000f0: 3434 b3bc 1b84 bc3d 8317 623d fc37 74be
00000100: 6673 81be 1c61 51bd 8608 33be 0abf edbd
00000110: cde4 05be 7050 2a3d 0ab7 4d3e 34e5 1d3e
00000120: bd7c cfbd 3249 fbbe fd17 80bc 3d1f ee3e
00000130: 8f56 173e 970e 973d 9c30 2e3e 333f 183f
00000140: aabf ecbd 30e2 8f3b 8877 213e 0ca3 c73b
00000150: a377 883d b21f 873d 43d4 04be a5a6 f73d
00000160: 6e9c 4f3d c31b 633d 1899 4f3d 3d4f 073d
00000170: 9524 67bd a3d6 3e3e 73e7 d53d 9e8a 2abd
00000180: 86e0 ddbc 6238 233d 1679 16be de42 09be
00000190: d91b 9f3d 3b84 6cbd ef78 02be fa73 203d
000001a0: 462c 8a3d ea7b efbd e2cf 04be ecc9 523d
000001b0: 976e a63d ff64 1dbd 5472 2a3b effc 8e3d
000001c0: e7e9 883d 1528 2e3e 9c13 8e3d 2cb1 44bd
000001d0: 0587 903d 71a5 e23d 492b ad3b 1d25 f5bd
000001e0: 5f66 d63c 80a4 8dbd df65 1bbe 9fca 0cbd
000001f0: abd2 473d c237 5abc 47f5 dbbc 685d 02be
00000200: dfcf 03bc 27b0 aabd 2df0 25be d138 873c
00000210: 75fe d2bd a776 d7bd 276f ccbd d60b 8fbd
00000220: 78fa d2bc 3641 553b 6ddc 86be 78b2 18be
00000230: 3c1c cb3d fa6f 87be cd98 6dbe f0d8 15bd
00000240: ae78 b93e 8ba5 a2bd 5c20 703e 745b 0a3f
00000250: 8a18 1fbe afe6 44be 72b8 ebbd 14fa a9bd
00000260: f20f 60bd 1336 523e deef 1d3e 84bd 4fbd
00000270: cb2d a53d 2cc6 233e 5be5 c53e 6e4e e93d
00000280: dff9 1cbe ca0b 3dbd 7af0 5a3e b785 b53a
00000290: b534 3bbe 2c13 ed3d 3ad6 07bc cb1a c2bd
000002a0: 3bed ea3d 5d63 04be 31db 423d bd2f abba
000002b0: 24b1 96bd 57a6 1f3b 4afd 103e 01a3 6cbd
000002c0: fa12 bb3d 0584 a93d 3bff 02be 671a 7ebd
000002d0: 00ae 233d 3e7a bebd 24f4 d0bd fd83 8f3c
000002e0: 971a 163a 3291 84bd a826 0d3e 6253 f53d
000002f0: f419 da3d 169f 85bd bc9a 173e 715a a4bd
00000300: 316a 29be bb38 2dbe 01c3 423d 0bab 923e
00000310: fec6 563d 735c 4fbe 28d4 3cbe 4864 9bbe
00000320: bfe3 2fbe dad6 d5bd 0c06 92be c3df 9cbe
00000330: 8fdb 62be c2c6 f1bd 6bdc e1bd b44f c2be
00000340: 6685 943d 9123 603e a445 8cbe f848 4dbb
00000350: 1ee4 72be b290 073e 4094 ed3e 19e6 b43e
00000360: 711c 1a3e 5f9d 37bd 93d2 d93d 0dcf c63c
00000370: 467c 25be 84f2 c5bd 5ef6 44bd 3f81 4a3d
00000380: 1062 26ba 8b90 acbe c05e c8be bac8 bdbe
00000390: 0100 51be 6686 e9be d792 64be 2a70 31be
000003a0: 8d8f 4dbe e0a2 13be 342b 083c 39a2 8e3a
000003b0: 653b 67bd cc6d 76bd d049 03bd d722 be3d
000003c0: 56b3 4e3d 679e ad3d e47f c6bd 618b eebc
000003d0: 4650 b2bd cdc8 fd3c 04d0 f73d a20a 28bd
000003e0: 7b4a b3bc 6860 973d bdb8 b33c c24f 53bd
000003f0: 4e25 263d ab7c 84bd 1eb9 85bc 0be6 dd3b

conv_net.C2.weight f4 [64, 32, 3, 3]
0.029803311 0.07589047 0.07517697 -0.03182636 0.036609482 0.021513788 -0.13263585 0.050726324
-0.028151592 0.060829684 0.025060354 0.16759793 0.01472536 -0.07876698 -0.074358866 -0.048483517
-0.035684753 -0.054101314 -0.052865405 0.054000624 0.05466197 0.0018198808 0.056177497 -0.09703943
-0.013895986 -0.033079702 -0.091207825 -0.08388019 -0.10770853 -0.06207962 -0.13605317 0.06323931
0.009966413 0.08273493 0.14876413 -0.08383548 0.08728943 0.08315881 0.017628197 -0.105673775
-0.025643937 0.111537315 -0.02833031 -0.040303413 -0.05386275 -0.0892055 -0.040998157 -0.032265328
-0.1818855 -0.1931729 -0.12320781 -0.17110917 -0.051227685 0.024762884 -0.0974979 0.037636936
-0.0624419 -0.019516587 0.18310212 0.14239354 -0.18465704 0.028819418 0.10834654 -0.005715179
0.040992238 -0.004970465 0.027698103 0.0040871613 0.036185406 -0.18477124 0.100702584 -0.055478223
-0.019015163 -0.17036808 -0.105856486 0.103095934 -0.0061697396 0.040310368 0.15942065 -0.0050624777
-0.014608271 -0.13782337 -0.0821971 -0.06866805 -0.112961456 -0.046801854 -0.11810986 -0.06647235
-0.02968528 -0.07570587 0.021562371 0.025957918 0.18730368 0.12586151 -0.04748392 -0.015463102
0.10836102 -0.05950549 0.07975019 -0.054948356 -0.07508142 -0.15533514 0.0099225985 0.022250138
-0.08825484 -0.029570155 -0.015648551 0.06611782 -0.1315328 0.03102138 -0.13524707 0.17142718
0.17476013 -0.012325182 0.04883383 0.02499333 -0.04343997 -0.137367 0.0487228 0.040983867
-0.15778355 0.009427812 0.10817415 0.059145566 0.04650437 -0.026553333 -0.20738953 -0.09402056
-0.09644163 -0.013869148 -0.08385292 -0.22953127 0.06436254 0.046957724 -0.04265995 0.21530382
0.07373039 -0.046729445 0.020881493 -0.1114936 -0.15491113 0.1190377 0.0037116692 -0.10711009
-0.031026939 -0.0606018 -0.033587962 -0.01850866 0.115019746 -0.04258068 0.05688518 0.08829317
-0.070765615 0.06292994 0.06496452 0.06027578 0.06455948 0.10080727 0.057013202 -0.15978698
-0.10623412 -0.05982987 0.088512465 0.053511344 -0.037039682 0.11867885 0.056220416 -0.03065003
-0.030010598 -0.06750898 -0.08469169 -0.13050441 -0.043830827 0.04429504 0.034025453 0.039110653
0.15289253 -0.05444534 -0.007165042 0.03791578 0.12301051 0.09038964 0.09834743 -0.08441511
-0.19433174 -0.12835413 -0.090425275 -0.21846986 -0.14001693 -0.10586422 -0.09220325 -0.13475965
0.025499478 -0.03282316 -0.15275523 -0.040913973 0.06585672 0.11699658 -0.1323935 -0.08369453
0.095559 -0.1915536 0.09135434 0.0590802 -0.15332197 0.11774078 0.009718169 -0.11352838
0.12787494 -0.09585869 -0.044239663 0.15282196 0.06269468 -0.16380014 0.03806441 0.04674752
-0.118749894 -0.12057263 -0.07905785 0.019612394 0.111450106 0.03799937 0.1324924 0.0025610207
-0.09667536 -0.02396702 -0.024089277 0.038118746 0.030050885 0.11573255 0.10738511 0.0503471
-0.027448751 -0.11598919 0.16162063 0.10383418 -0.0028489626 0.0395954 -0.01882926 -0.016495425
0.09489204 0.12917632 0.097175285 0.037833482 0.072437465 0.08825617 -0.038623367 0.0855526
0.07813046 -0.009581851 0.10404663 0.06489284 -0.2246047 -0.06835734 -0.1357753 -0.060202498
00000000: 1326 f43c 766c 9b3d 62f6 993d 5b5c 02bd
00000010: d3f3 153d af3d b03c b1d1 07be 68c6 4f3d
00000020: 2b9e e6bc 8c28 793d 5f4b cd3c cb9e 2b3e
00000030: a342 713c 9550 a1bd 7649 98bd a796 46bd
00000040: 2d2a 12bd 5799 5dbd 6589 58bd c22f 5d3d
00000050: 3be5 5f3d 1189 ee3a 601a 663d 9cbc c6bd
00000060: fdab 63bc 957e 07bd 2bcb babd 61c9 abbd
00000070: 4a96 dcbd 3347 7ebd 8651 0bbe 9d83 813d
00000080: 2a4a 233c ee70 a93d a055 183e f0b1 abbd
00000090: cdc4 b23d 2b4f aa3d 0269 903c 7e6b d8bd
000000a0: 3c13 d2bc ad6d e43d f714 e8bc 3115 25bd
000000b0: 309f 5cbd 60b1 b6bd afed 27bd a628 04bd
000000c0: 3140 3abe 1ecf 45be 6054 fcbd 3e37 2fbe
000000d0: 1fd4 51bd 88db ca3c fbac c7bd 3029 1a3d
000000e0: 14c3 7fbd 40e1 9fbc 1f7f 3b3e 9dcf 113e
000000f0: bc16 3dbe b316 ec3c cae4 dd3d 6546 bbbb
00000100: 7ae7 273d 48df a2bb 22e7 e23c 98ed 853b
00000110: 2637 143d ac34 3dbe 283d ce3d 223d 63bd
00000120: b0c5 9bbc f874 2ebe 49cb d8bd f623 d33d
00000130: 872b cabb 7c1c 253d 2b3f 233e 24e3 a5bb
00000140: 8857 6fbc 9221 0dbe f456 a8bd d6a1 8cbd
00000150: 5658 e7bd 4db3 3fbd 95e3 f1bd a822 88bd
00000160: 8b2e f3bc ae0b 9bbd 92a3 b03c b3a5 d43c
00000170: 89cc 3f3e d7e1 003e 807e 42bd f358 7dbc
00000180: 62ec dd3d 07bc 73bd 1154 a33d 8711 61bd
00000190: 4ac4 99bd 2d10 1fbe 6592 223c ec45 b63c
000001a0: f4be b4bd 1c3d f2bc 6431 80bc c868 873d
000001b0: 89b0 06be 8d20 fe3c 357e 0abe 9b8a 2f3e
000001c0: 52f4 323e 8fef 49bc fb05 483d d0be cc3c
000001d0: 1cee 31bd efa9 0cbe 8f91 473d b3de 273d
000001e0: 0392 21be 1c77 1a3c 698a dd3d 9f42 723d
000001f0: 5e7b 3e3d 6086 d9bc ec5d 54be da8d c0bd
00000200: 3083 c5bd 6c3b 63bc 14bb abbd 3f0a 6bbe
00000210: 82d0 833d be56 403d 33bc 2ebd 9b78 5c3e
00000220: f5ff 963d 6067 3fbd aa0f ab3c c256 e4bd
00000230: 06a1 1ebe 0aca f33d 7a3f 733b 895c dbbd
00000240: 352c febc 9839 78bd 8893 09bd 799f 97bc
00000250: 798f eb3d 1469 2ebd 6f00 693d 0dd3 b43d
00000260: 90ed 90bd 6ae1 803d 1e0c 853d bce3 763d
00000270: c337 843d 0b74 ce3d ad86 693d 339f 23be
00000280: 4691 d9bd 2a10 75bd 0646 b53d b62e 5b3d
00000290: ecb6 17bd e60d f33d 6147 663d c615 fbbc
000002a0: c9d8 f5bc 2642 8abd d672 adbd f3a2 05be
000002b0: f487 33bd b76e 353d 465e 0b3d 7e32 203d
000002c0: dc8f 1c3e 1402 5fbd bbc8 eabb 944d 1b3d
000002d0: efec fb3d 341e b93d 616a c93d d4e1 acbd
000002e0: e6fe 46be 446f 03be e330 b9bd 90b6 5fbe
000002f0: 9960 0fbe 57cf d8bd 0fd5 bcbd 6ffe 09be
00000300: 48e4 d03c 9471 06bd de6b 1cbe 6995 27bd
00000310: e3df 863d e79b ef3d 2992 07be 0a68 abbd
00000320: 70b4 c33d a026 44be fc17 bb3d 14fe 713d
00000330: 6f00 1dbe 1422 f13d f538 1f3c 9181 e8bd
00000340: a6f1 023e 9051 c4bd a634 35bd 5c7d 1c3e
00000350: 1266 803d 39bb 27be 6de9 1b3d 547a 3f3d
00000360: 2533 f3bd c8ee f6bd 15e9 a1bd 2caa a03c
00000370: f43f e43d 3aa5 1b3d 16ac 073e ccd6 273b
00000380: bbfd c5bd 7c56 c4bc e056 c5bc 6722 1c3d
00000390: 462d f63c 3005 ed3d b9ec db3d c338 4e3d
000003a0: 34dc e0bc be8b edbd e17f 253e 04a7 d43d
000003b0: a9b5 3abb c92e 223d d23f 9abc 6a21 87bc
000003c0: c256 c23d cc46 043e d603 c73d 48f7 1a3d
000003d0: 185a 943d a7bf b43d 8933 1ebd 3436 af3d
000003e0: dd02 a03d 32fd 1cbc 6616 d53d 8ae6 843d
000003f0: c6fe 65be effe 8bbd ae08 0bbe e596 76bd

conv_net.C3.weight f4 [128, 64, 3, 3]
-3.5908855e-29 -2.453139e-29 -1.7516247e-29 -2.8360763e-29 -1.5569567e-29 -9.561447e-30 -2.5311408e-29 -1.26013085e-29
-7.343257e-30 -9.315221e-29 -8.7793884e-29 -1.04111e-28 -8.517602e-29 -7.4372674e-29 -8.6530636e-29 -1.0437636e-28
-9.045541e-29 -9.946773e-29 -1.0385483e-28 -9.661196e-29 -9.197829e-29 -8.258693e-29 -8.1970967e-29 -8.2189476e-29
-6.567729e-29 -6.8386715e-29 -6.899707e-29 -4.9501657e-29 -4.6755266e-29 -4.533311e-29 -4.1036394e-29 -3.986566e-29
-3.9654106e-29 -3.2267148e-29 -3.351666e-29 -3.6428685e-29 -1.05683e-28 -1.1690413e-28 -1.2983717e-28 -1.0197387e-28
-1.0567582e-28 -1.1338638e-28 -1.073823e-28 -1.0343783e-28 -1.0459026e-28 -2.5386877e-29 -2.529585e-29 -2.7215993e-29
-2.5925554e-29 -2.4839564e-29 -2.6518295e-29 -2.554542e-29 -2.4901608e-29 -2.636815e-29 -6.7551337e-29 -8.080752e-29
-8.9485645e-29 -4.8967747e-29 -6.2240946e-29 -7.833404e-29 -4.25628e-29 -5.4854355e-29 -7.3703016e-29 -4.042027e-29
-5.089946e-29 -5.7561785e-29 -3.24656e-29 -4.0970714e-29 -4.6854598e-29 -2.5635367e-29 -3.1352268e-29 -3.6213213e-29
-7.274891e-29 -6.5238054e-29 -6.6978156e-29 -6.0226827e-29 -5.604277e-29 -5.474248e-29 -6.142509e-29 -5.793564e-29
-5.31107e-29 -7.1248015e-29 -7.14521e-29 -6.8450265e-29 -7.008257e-29 -6.7930294e-29 -6.3764086e-29 -6.7518674e-29
-6.3164953e-29 -5.64615e-29 -1.3513729e-28 -1.560086e-28 -1.7632153e-28 -1.4714555e-28 -1.6937302e-28 -1.8938169e-28
-1.535349e-28 -1.7482557e-28 -1.9256937e-28 -4.2974096e-29 -4.9129477e-29 -5.09501e-29 -4.321229e-29 -5.2079427e-29
-5.5140765e-29 -4.0043192e-29 -5.0955364e-29 -5.45735e-29 -7.8783836e-29 -7.887949e-29 -8.402015e-29 -9.371176e-29
-8.9803724e-29 -8.80994e-29 -1.1218353e-28 -1.0509752e-28 -9.836627e-29 -1.11389784e-29 -1.3032917e-29 -1.8831096e-29
-9.858064e-30 -9.572243e-30 -1.2711938e-29 -8.882954e-30 -6.591245e-30 -7.6711174e-30 -6.112968e-29 -5.834241e-29
-4.8492828e-29 -5.0199587e-29 -5.2851394e-29 -4.785409e-29 -3.665069e-29 -4.2740668e-29 -4.3296687e-29 -1.111313e-28
-1.072666e-28 -1.0527822e-28 -1.0495171e-28 -1.017534e-28 -9.9572047e-29 -9.261994e-29 -9.015691e-29 -8.899446e-29
-1.160897e-28 -1.1448104e-28 -1.1024495e-28 -1.0987596e-28 -1.1184303e-28 -1.0957885e-28 -9.760071e-29 -1.0208376e-28
-1.0279686e-28 -5.814618e-29 -5.8895846e-29 -5.931153e-29 -5.7458254e-29 -5.885328e-29 -5.962494e-29 -5.167918e-29
-5.23228e-29 -5.2835733e-29 -6.5452103e-29 -6.953048e-29 -7.782026e-29 -6.839912e-29 -6.7426404e-29 -7.320393e-29
-8.09437e-29 -7.64712e-29 -7.787829e-29 -1.5075719e-28 -1.4406956e-28 -1.4354701e-28 -1.2477203e-28 -1.184023e-28
-1.1883661e-28 -1.1014632e-28 -1.0506144e-28 -1.0496676e-28 -1.1581465e-28 -1.1772268e-28 -1.1898871e-28 -1.2057364e-28
-1.2018945e-28 -1.2035514e-28 -1.2805519e-28 -1.252439e-28 -1.2406127e-28 -1.4684392e-28 -1.4375673e-28 -1.7620238e-28
-1.7209437e-28 -1.5662345e-28 -1.7956809e-28 -2.4813157e-28 -2.2632975e-28 -2.3879502e-28 -6.028167e-29 -6.760463e-29
-8.960162e-29 -7.3888766e-29 -7.191702e-29 -8.483182e-29 -1.1506994e-28 -1.0599045e-28 -1.0811693e-28 -3.562344e-29
-2.7526727e-29 -2.0637183e-29 -4.3826706e-29 -3.5866873e-29 -2.630476e-29 -4.2513697e-29 -3.6888775e-29 -2.9095493e-29
-7.625176e-29 -6.7540136e-29 -7.047645e-29 -5.214196e-29 -4.0556618e-29 -4.2806546e-29 -4.762856e-29 -3.2957825e-29
-3.0743557e-29 -2.3074207e-29 -2.5758037e-29 -2.8946095e-29 -1.7613323e-29 -1.9578021e-29 -2.324524e-29 -1.5115186e-29
-1.414456e-29 -1.5739945e-29 -1.2392893e-28 -1.3133244e-28 -1.2990638e-28 -1.1254635e-28 -1.1969208e-28 -1.2303145e-28
-1.0261404e-28 -1.0639455e-28 -1.1195904e-28 -1.0651669e-28 -8.763205e-29 -8.0713256e-29 -8.0925506e-29 -7.0422525e-29
-6.9520167e-29 -7.541015e-29 -6.837504e-29 -6.828327e-29 -1.379975e-28 -1.3070107e-28 -1.2905566e-28 -9.6184914e-29
00000000: 5c14 3690 21c7 f88f c7a2 b18f 60ce 0f90
00000010: e8e4 9d8f dfed 418f 1658 0090 bc95 7f8f
00000020: 5ff0 148f 3e2b ec90 7d95 de90 f3f9 0391
00000030: 66f2 d790 a08e bc90 9861 db90 1150 0491
00000040: eb54 e590 3f2e fc90 d2a6 0391 bff0 f490
00000050: 5331 e990 fb61 d190 33d2 cf90 0560 d090
00000060: 0083 a690 8461 ad90 a9ed ae90 d300 7b90
00000070: ce13 6d90 bedd 6590 4914 5090 9624 4a90
00000080: f911 4990 279d 2390 1df3 2990 23b7 3890
00000090: 18f8 0591 8f31 1491 9296 2491 6a44 0191
000000a0: c4f5 0591 fcbb 0f91 8c1f 0891 7f1f 0391
000000b0: 7b95 0491 0dba 0090 e443 0090 6100 0a90
000000c0: 4b75 0390 32e7 fb8f b776 0690 da87 0190
000000d0: 4588 fc8f d1b3 0590 5343 ab90 14df cc90
000000e0: 81df e290 c54b 7890 afcc 9d90 b399 c690
000000f0: acd1 5790 8312 8b90 fedb ba90 83f4 4c90
00000100: a30b 8190 bcef 9190 c29e 2490 07bf 4f90
00000110: bf94 6d90 9cfc 0190 92f9 1e90 709f 3790
00000120: be70 b890 eb65 a590 4fcf a990 72b1 9890
00000130: d615 8e90 e7c9 8a90 2abb 9b90 61e2 9290
00000140: d1a6 8690 9ba2 b490 1027 b590 c38a ad90
00000150: 30ae b190 4839 ac90 42a9 a190 202e ab90
00000160: 6624 a090 9c25 8f90 8f4e 2b91 afc3 4591
00000170: 9c83 5f91 7687 3a91 b0b4 5691 df11 7091
00000180: eca0 4291 249e 5d91 551c 7491 91e7 5990
00000190: b51d 7990 812c 8190 c21c 5b90 7b09 8490
000001a0: 67cc 8b90 090b 4b90 ec2f 8190 3a5c 8a90
000001b0: a2bd c790 b7fb c790 3204 d590 6996 ed90
000001c0: f3ad e390 c85b df90 a335 0e91 183a 0591
000001d0: 5c63 f990 e2ec 618f 632b 848f 52f8 be8f
000001e0: fff1 478f ed25 428f 14ea 808f ef2a 348f
000001f0: b3af 058f b896 1b8f 6efb 9a90 64ea 9390
00000200: 4ae3 7590 ca8a 7e90 84fe 8590 29a6 7290
00000210: 51d7 3990 8fb8 5890 508a 5b90 2be0 0c91
00000220: 00fa 0791 bc74 0591 c70a 0591 defc 0091
00000230: f471 fc90 c7d1 ea90 2e93 e490 b5a0 e190
00000240: 4329 1391 391f 1191 88c0 0b91 ca48 0b91
00000250: 23c7 0d91 5fe8 0a91 7c72 f790 1368 0191
00000260: 7d4f 0291 076b 9390 9751 9590 625f 9690
00000270: 8aac 9190 f635 9590 cc2a 9790 b505 8390
00000280: 70a7 8490 5af4 8590 d8f0 a590 dd47 b090
00000290: 3d4c c590 9169 ad90 3df2 aa90 1198 b990
000002a0: 7737 cd90 a5e0 c190 e671 c590 811b 3f91
000002b0: 3fa1 3691 abf7 3591 d72a 1e91 be17 1691
000002c0: afa4 1691 86a0 0b91 632e 0591 a90f 0591
000002d0: 01d0 1291 323b 1591 0bd6 1691 62d8 1891
000002e0: b55b 1891 7a91 1891 4954 2291 f8c3 1e91
000002f0: 2f44 1d91 9425 3a91 ba3b 3691 f15c 5f91
00000300: d127 5a91 378b 4691 2da1 6391 a645 9d91
00000310: 1a74 8f91 b55a 9791 0ad5 9890 ea65 ab90
00000320: c72a e390 8d54 bb90 d154 b690 0013 d790
00000330: 55de 1191 de5b 0691 f30d 0991 dea1 3490
00000340: bc93 0b90 3149 d18f 513a 5e90 dddd 3590
00000350: 8861 0590 ef91 5790 5e0c 3b90 1c88 1390
00000360: 3952 c190 0e3c ab90 d5ad b290 1132 8490
00000370: 80a5 4d90 130e 5990 6881 7190 b41d 2790
00000380: 6be3 1b90 1100 ea8f d89b 0290 2ec6 1290
00000390: cd9e b28f 738b c68f 18bc eb8f 4449 998f
000003a0: 6171 8f8f 3c9f 9f8f 3d19 1d91 d07b 2691
000003b0: 08ad 2491 61ab 0e91 4dba 1791 fdf5 1b91
000003c0: 2914 0291 01df 0691 c9ec 0d91 a406 0791
000003d0: 742c de90 e6a1 cc90 a82b cd90 d58a b290
000003e0: 2b41 b090 fc2f bf90 f059 ad90 601e ad90
000003f0: c0ee 2e91 ecae 2591 f598 2391 94db f390

conv_net.C4.weight f4 [1, 128, 3, 3]
6.1062374e-28 6.0415426e-28 6.153018e-28 6.083118e-28 5.9615457e-28 6.043469e-28 6.2204046e-28 6.086975e-28
6.13038e-28 0.18236849 0.13086177 0.19819212 0.10181895 0.10501007 0.13461705 0.12155675
0.1115555 0.16852908 -0.088047095 -0.01116811 -0.0060113133 -0.0047057066 -0.003756901 -0.005461865
0.003011398 -0.001276942 0.0024565454 -0.003848654 -0.058379926 -0.0038445238 0.028198283 -0.08725944
0.014414185 0.04647977 0.036166877 0.03461985 0.10171052 0.07388361 0.04605541 0.05076167
-0.17164896 0.07454821 0.005906056 -0.11942786 -0.022882931 -0.13649033 -0.10981063 -0.04500503
-0.095618084 0.0010165178 -0.00373756 -0.024933923 -0.009782171 -0.0023422488 0.03814463 0.023060583
-4.7704798e-05 0.054105308 0.07384201 -0.0019372358 0.07544935 0.08680987 0.047358185 0.09798975
0.08189379 0.11321383 0.053882338 0.028553747 0.12961698 0.034264322 0.06505725 0.15255682
-0.03033367 -0.037642494 -0.0703375 -0.019146873 -0.05589298 -0.08496016 -0.034734983 -0.035733726
-0.07850871 -0.0021331715 0.1538221 0.014500328 -0.00087333977 -0.005167721 -0.0019620594 -0.019658498
-0.04512853 -0.014785441 -0.07475108 -0.032382265 -0.025860459 -0.11670223 0.33305714 0.097777456
-0.043541934 -0.105242126 -0.042874 -0.08215276 -0.063731946 -0.06767635 -0.07679129 -0.08916469
-0.07317221 -0.069228396 -0.045776453 -0.046985865 0.0898199 0.038987696 0.07536522 0.080918
0.053397477 0.0747194 0.08072327 0.07611059 0.06334169 0.014709183 0.26111573 -0.008557
0.004053771 0.16272658 0.02731775 0.02770759 0.072735816 0.020955 0.0032837235 -0.0049130274
-0.047931533 0.010450784 0.00993003 -0.3805657 0.0043825074 0.0003142931 0.03138386 -0.008444549
0.029285794 0.013880863 -0.012417831 0.05317924 0.046969008 -0.08965082 -0.059487034 0.006278847
-0.013040465 -0.006612073 -0.0031717652 -0.027172944 -0.008879962 -0.010633361 0.24746421 -0.042477544
-0.01976038 0.23041663 0.019983782 -0.014394143 0.13019648 -0.08827262 -0.08010465 0.00908164
-0.06275338 -0.06974427 0.10415146 0.089941934 0.09138885 0.12390177 0.122918144 0.09362797
0.07707922 0.074934065 0.08514212 -0.1650433 -0.109319665 -0.06455109 0.030507276 0.034564774
-0.037460834 0.020731332 0.029748427 -0.023764554 -0.12387302 -0.17659047 -0.1296907 -0.08564821
-0.16001278 -0.12429063 -0.08656652 -0.13000032 -0.1051138 0.0059875543 -0.0006305891 -0.014195242
-0.0022482804 -0.07067333 -0.0187921 -0.007906244 -0.12077691 -0.04078426 0.0031063734 0.040370237
0.04130053 0.0019692653 -0.011545475 -0.22034262 -0.008193123 -0.028824406 -0.0890554 -0.06683224
-0.08137513 -0.10417912 -0.07727722 -0.075687736 -0.093796566 -0.071758546 -0.064002715 -0.06705698
-0.003720655 0.0153761655 0.0020788235 -0.0095318835 -0.024964603 0.015265164 -0.006036347 -0.009923467
-0.33470464 0.16960077 0.17614533 0.17378953 0.08383966 0.101731144 0.16610831 0.035550084
0.024048237 0.109350465 -3.4184567e-35 -3.529072e-35 -3.377232e-35 -3.3028453e-35 -3.4516784e-35 -3.3721673e-35
-4.3075546e-35 -4.38894e-35 -4.4342947e-35 0.11622592 0.102877714 0.15264599 0.08358356 0.06486736
0.09464194 0.06037268 0.009712234 0.050393276 -0.0907564 -0.06433761 -0.06267789 -0.08713316
00000000: af83 4112 d176 3f12 36ff 4212 1ec8 4012
00000010: ceed 3c12 7286 3f12 eb21 4512 68e7 4012
00000020: 8d47 4212 cebe 3a3e a100 063e e0f2 4a3e
00000030: 7486 d03d 850f d73d 0dd9 093e bff2 f83d
00000040: 3677 e43d e392 2c3e 0952 b4bd 73fa 36bc
00000050: 8dfa c4bb 5432 9abb 5736 76bb 72f9 b2bb
00000060: e05a 453b 105f a7ba fefd 203b b339 7cbb
00000070: ca1f 6fbd 68f4 7bbb 1600 e73c 14b5 b2bd
00000080: 7929 6c3c 9261 3e3d b823 143d 8bcd 0d3d
00000090: 9b4d d03d 4a50 973d 99a4 3c3d 78eb 4f3d
000000a0: bfc4 2fbe bbac 983d 9787 c13b 9896 f4bd
000000b0: fc74 bbbc 1fc4 0bbe 65e4 e0bd 3257 38bd
000000c0: 6ad3 c3bd ad3c 853a daf1 74bb 3a42 ccbc
000000d0: 6645 20bc 6a80 19bb 8b3d 1c3d 8ce9 bc3c
000000e0: a316 48b8 879d 5d3d 7b3a 973d d9ea fdba
000000f0: 3085 9a3d 60c9 b13d a8fa 413d daae c83d
00000100: eeb7 a73d a7dc e73d bab3 5c3d 8ce9 e93c
00000110: 50ba 043e bf58 0c3d bc3c 853d db37 1c3e
00000120: 517e f8bc 042f 1abd 1b0d 90bd e7d9 9cbc
00000130: 0af0 64bd 98ff adbd 4546 0ebd 875d 12bd
00000140: 2dc9 a0bd aecc 0bbb 8a83 1d3e c992 6d3c
00000150: d7f0 64ba fc55 a9bb e595 00bb dc0a a1bc
00000160: b2d8 38bd a23e 72bc 1817 99bd 44a3 04bd
00000170: 50d9 d3bc 9401 efbd 7786 aa3e 8c3f c83d
00000180: 0759 32bd 2f89 d7bd a69c 2fbd b53f a8bd
00000190: e585 82bd e699 8abd c044 9dbd fa9b b6bd
000001a0: 50db 95bd 9ec7 8dbd 1780 3bbd 4074 40bd
000001b0: 7ff3 b73d 90b1 1f3d 1559 9a3d 56b8 a53d
000001c0: 50b7 5a3d 7c06 993d 3e52 a53d dedf 9b3d
000001d0: 4ab9 813d c9fe 703c f6b0 853e a932 0cbc
000001e0: 7fd5 843b cca1 263e 79c9 df3c 07fb e23c
000001f0: 84f6 943d d2a9 ab3c bd33 573b 76fd a0bb
00000200: db53 44bd c439 2b3c 91b1 223c 82d9 c2be
00000210: 239b 8f3b b5c7 a439 5d8c 003d 015b 0abc
00000220: c3e8 ef3c 8f6c 633c 2974 4bbc 7ad2 593d
00000230: 9362 403d d99a b7bd ada8 73bd c9be cd3b
00000240: ada7 55bc 17aa d8bb 64dd 4fbb cb99 debc
00000250: 437d 11bc 8c37 2ebc 4267 7d3e effc 2dbd
00000260: 85e0 a1bc 56f2 6b3e 07b5 a33c 69d5 6bbc
00000270: 3a52 053e 47c8 b4bd e80d a4bd 29cb 143c
00000280: d884 80bd 15d6 8ebd 5c4d d53d 7a33 b83d
00000290: 142a bb3d 36c0 fd3d 82bc fb3d 05c0 bf3d
000002a0: b6db 9d3d 0877 993d fe5e ae3d 1c01 29be
000002b0: fde2 dfbd 5d33 84bd 65ea f93c cb93 0d3d
000002c0: 8870 19bd c1d4 a93c f9b2 f33c e2ad c2bc
000002d0: 23b1 fdbd 22d4 34be a4cd 04be 5468 afbd
000002e0: 64da 23be 168c febd ca49 b1bd ce1e 05be
000002f0: e745 d7bd 3f33 c43b 1e4e 25ba 2993 68bc
00000300: e357 13bb 2ebd 90bd e4f1 99bc 3189 01bc
00000310: e259 f7bd 650d 27bd 4c94 4b3b 435b 253d
00000320: bf2a 293d ca0e 013b 3b29 3dbc 7fa1 61be
00000330: 733c 06bc 2921 ecbc ad62 b6bd 57df 88bd
00000340: 01a8 a6bd dd5b d5bd 8543 9ebd 2c02 9bbd
00000350: 6a18 c0bd 25f6 92bd db13 83bd 2c55 89bd
00000360: 3cd6 73bb 50ec 7b3c df3c 083b 9e2b 1cbc
00000370: 9182 ccbc bd1a 7a3c 8ccc c5bb 0a96 22bc
00000380: 685e abbe d3ab 2d3e 715f 343e e2f5 313e
00000390: 21b4 ab3d 6b58 d03d 4c18 2a3e f79c 113d
000003a0: cf00 c53c 23f3 df3d 9fc1 3586 3da3 3b86
000003b0: 8090 3386 009c 2f86 d085 3786 904b 3386
000003c0: 6507 6586 285b 6986 7ec4 6b86 db07 ee3d
000003d0: 8db1 d23d 3b4f 1c3e dc2d ab3d 2ed9 843d
000003e0: a2d3 c13d 5849 773d 1020 1f3c 2e69 4e3d
000003f0: 7ede b9bd 70c3 83bd 445d 80bd df72 b2bd
