online_forPy/NetworkB_weights_1982-2017_notend_P2.pt (torch, 46175 bytes, 4 tensors)

conv_net.C1.weight f4 [32, 7, 1, 1]
0.04486309 0.15837005 -0.26035655 0.26014104 0.24693532 0.33903506 -0.60708815 -0.09070723
-0.028593559 0.0701352 0.093624 -1.6478087 -0.051016513 -0.3581268 0.0013970603 -0.034745015
-0.09980029 -0.30931556 0.18273191 -0.024305146 0.33020848 0.13190007 0.27964377 0.13093506
0.08867072 -0.009800544 -0.091852605 0.12083044 0.20492941 0.009744873 0.09251311 -0.84467
0.091130935 0.13841385 -0.4344165 0.06596929 -0.021426026 0.20464933 -1.1304463 -0.4024925
-0.4114452 -0.7030876 -0.01945375 0.23102987 0.32629445 0.25241554 0.11771586 0.27474532
-0.56640357 -0.11738826 0.058057345 -0.16405028 -1.4269053 -0.029442238 -0.13789414 -0.39488453
0.4424552 -0.09382075 0.13729483 0.15878385 0.1482839 0.24008328 -0.14467187 -0.04053311
-0.06668209 0.012227882 -0.20802628 -0.16641489 -0.27250022 0.7494166 0.31824893 0.26254526
-0.37365526 -0.13126667 0.047816217 0.20459393 0.036622126 0.2291182 -0.17739522 0.09122817
-0.11840042 -0.09875593 0.17653824 0.3695574 0.082240336 0.051638797 -0.026925495 0.09360861
-1.0376372 0.19990195 -0.23419762 -0.0061588725 -0.011615349 0.17298894 0.013376193 0.23114686
-0.6385732 -0.11643848 -0.18371253 -0.5136831 0.11141817 -0.013443365 -0.06493272 0.06945427
0.0062889056 0.02083317 -1.2449062 0.012162158 -0.0033597858 0.092296846 0.06256353 -0.0012288012
0.11002196 -0.0087225055 0.08450947 0.18241106 0.15918212 -1.0826474 -0.9933839 -0.024136662
0.011066144 0.058265697 -0.21358067 -0.14615034 0.26477206 0.058322214 -0.016329896 0.0022813804
0.03068737 -1.2189558 -0.016027357 0.08932986 -0.43018034 0.12340797 -0.92274046 -0.026872931
0.10202964 -0.17590578 -0.053233113 -0.029539442 -0.00546028 -0.03898964 -1.0442789 -0.21582346
-0.04068564 -0.28128716 0.342871 0.05919761 -0.16551581 0.017593116 -0.22954406 -0.4992049
-0.22983891 0.31840336 0.030008338 0.038279977 0.21628934 0.44064623 0.31123647 0.54516083
-0.4546033 -0.20508227 0.0414432 0.052499067 0.2019307 0.16369636 0.32721874 -0.5808056
0.11092822 -0.10176932 -0.13214149 -0.036131557 -0.2024855 -0.48783287 0.72972864 -0.20896178
0.110710785 0.16798323 -0.09410941 0.13309477 0.10465244 -0.030280326 -0.06479002 0.0050711534
0.107755415 -0.08170625 0.3012962 0.3160153 -0.5108153 -0.009965728 0.063686505 -0.065800875
-0.12769544 -0.48478228 0.036976293 0.1837093 0.1909309 -0.039624453 -1.3511701 0.059571594
-0.046194796 0.15576552 -0.324455 -0.123023346 0.025482772 -0.52751184 0.03504259 -0.60661423
0.186182 -0.1633718 -0.38871923 0.022848826 -0.08809041 0.15999568 -0.022058979 0.0058550444
0.22191152 -0.07207553 0.15208101 -0.14492501 -0.1449417 -0.10151983 -1.1003236 -0.030718233
00000000: 5cc2 373d c22b 223e 744d 85be 3531 853e
00000010: 9ddc 7c3e 0196 ad3e 216a 1bbf b6c4 b9bd
00000020: 0a3d eabc 0ba3 8f3d f1bd bf3d 65eb d2bf
00000030: b1f6 50bd 655c b7be 911d b73a ca50 0ebd
00000040: 1864 ccbd 9c5e 9ebe 131e 3b3e 961b c7bc
00000050: 1611 a93e d010 073e 782d 8f3e d713 063e
00000060: ff98 b53d 7692 20bc 381d bcbd f375 f73d
00000070: 04d9 513e f6a8 1f3c 8377 bd3d 4b3c 58bf
00000080: dba2 ba3d 5cbc 0d3e d76b debe e81a 873d
00000090: a285 afbc 988f 513e 77b2 90bf 7f13 cebe
000000a0: f2a8 d2be 8dfd 33bf 795d 9fbc 1893 6c3e
000000b0: 1110 a73e 9c3c 813e 0315 f13d 6bab 8c3e
000000c0: d3ff 10bf 4269 f0bd 8acd 6d3d ccfc 27be
000000d0: d5a4 b6bf d930 f1bc 1f34 0dbe 4e2e cabe
000000e0: 7d89 e23e 1825 c0bd 0497 0c3e 3c98 223e
000000f0: bcd7 173e 64d8 753e dd24 14be 0c06 26bd
00000100: 9f90 88bd 7457 483c d704 55be aa68 2abe
00000110: 2685 8bbe c4d9 3f3f 86f1 a23e 556c 863e
00000120: be4f bfbe c56a 06be f0da 433d 1281 513e
00000130: 1501 163d f69d 6a3e 18a7 35be d6d5 ba3d
00000140: eb7b f2bd 8d40 cabd 71c6 343e a136 bd3e
00000150: 9f6d a83d 3483 533d db92 dcbc dfb5 bf3d
00000160: 4cd1 84bf 19b3 4c3e 80d1 6fbe 5ed0 c9bb
00000170: 4e4e 3ebc 0324 313e d227 5b3c c3b1 6c3e
00000180: 8979 23bf 4c77 eebd 231f 3cbe bc80 03bf
00000190: 362f e43d 8f41 5cbc 72fb 84bd 0a3e 8e3d
000001a0: 2a13 ce3b 53aa aa3c 1659 9fbf ca43 473c
000001b0: da2f 5cbb 2106 bd3d 4f21 803d ba0f a1ba
000001c0: 3253 e13d d7e8 0ebc 4d13 ad3d f7c9 3a3e
000001d0: a300 233e 3194 8abf 684e 7ebf 40ba c5bc
000001e0: c64e 353c 03a8 6e3d e4b4 5abe 6fa8 15be
000001f0: 3490 873e 46e3 6e3d 46c6 85bc 3683 153b
00000200: 1464 fb3c be06 9cbf ce4b 83bc 93f2 b63d
00000210: 9940 dcbe 51bd fc3d b838 6cbf 9f24 dcbc
00000220: eaf4 d03d a520 34be f70a 5abd b3fc f1bc
00000230: 26ec b2bb 9ab3 1fbd eeaa 85bf d300 5dbe
00000240: fca5 26bd df04 90be ca8c af3e 3179 723d
00000250: fa7c 29be 701f 903c 990d 6bbe c997 ffbe
00000260: e45a 6bbe c405 a33e 0cd4 f53c 77cb 1c3d
00000270: f47a 5d3e 629c e13e 635a 9f3e a98f 0b3f
00000280: c4c1 e8be 1601 52be 58c0 293d 4309 573d
00000290: ecc6 4e3e 05a0 273e 3789 a73e adaf 14bf
000002a0: 562e e33d 6f6c d0bd 1950 07be affe 13bd
000002b0: 5c58 4fbe 3bc5 f9be 7fcf 3a3f 14fa 55be
000002c0: 56bc e23d cc03 2c3e 6fbc c0bd ff49 083e
000002d0: 0554 d63d 720e f8bc a1b0 84bd eb2b a63b
000002e0: dfae dc3d 9b55 a7bd 7f43 9a3e c2cc a13e
000002f0: cbc4 02bf 4b47 23bc 126e 823d 9cc2 86bd
00000300: 98c2 02be 6235 f8be 7474 173d 4a1e 3c3e
00000310: 6483 433e 404d 22bd 24f3 acbf 5801 743d
00000320: c136 3dbd ff80 1f3e f71e a6be aaf3 fbbd
00000330: 3fc1 d03c 040b 07bf d288 0f3d 124b 1bbf
00000340: 7fa6 3e3e f04a 27be 3506 c7be 762d bb3c
00000350: bf68 b4bd e8d5 233e 08b5 b4bc acdb bf3b
00000360: c63c 633e 569c 93bd 20bb 1b3e 3967 14be
00000370: 996b 14be a1e9 cfbd 67d7 8cbf cea4 fbbc

conv_net.C2.weight f4 [64, 32, 1, 1]
-0.05224339 -0.02871094 -0.1359972 -0.11175776 -0.14308709 0.13206477 -0.0070841447 0.074839026
-0.029225508 0.023982106 0.076617785 -0.25266305 -0.19858599 -0.03220738 0.032329444 -0.19011115
-0.020434292 0.16590497 0.44451854 -0.040312048 -0.17342661 0.016907407 -0.06230728 0.102671206
0.16287926 0.19814973 0.28322178 -0.18537141 -0.022664139 -0.27587515 -0.14192513 0.08050382
0.09230299 -0.025518473 0.12995659 0.16597828 0.049400304 -0.012511937 0.12383416 -0.22809494
0.19193551 -0.09673007 0.08121289 0.073845975 -0.24517588 0.10487845 -0.09611889 -0.0076256595
-0.2202335 0.13183966 -0.010653872 -0.19719031 -0.088170566 -0.2690969 0.04427954 -0.34044468
-0.644481 -0.16137184 -0.06356461 -0.0076593123 -0.1548571 0.14775123 -0.4586848 -0.20128748
-0.06763585 0.025082408 -0.22351591 -0.25205782 0.16137166 0.025162706 -0.15023175 0.23806593
0.14495564 0.034105957 -0.1964857 0.12647927 -0.25127047 0.25539473 -0.059966736 0.38218328
-0.23577271 -0.086386085 0.11375164 0.47011083 -0.16587669 0.13946575 -0.20307322 0.07420549
-0.035155766 -0.03875057 -0.24895051 0.10010819 -0.2360701 -0.2035748 -0.03147343 0.16482365
0.33506158 -0.061286572 -0.04372632 -0.13957208 0.09679898 -0.085299216 0.23693368 -0.17699924
0.035593648 -0.5175577 -0.005262642 -0.010050489 -0.020923462 0.07863316 -0.12449707 0.21253312
0.11731273 0.016991971 0.2012926 -0.04572613 -0.40608278 -0.12310633 0.5850649 0.022356471
-0.20467485 0.15071686 0.15949447 -0.15378825 0.14519675 -0.042942956 0.122294396 -0.16358072
-0.06794476 -0.1370975 -0.113996 -0.06435967 -0.1452431 -0.15197022 0.029655447 -0.0925933
0.08943854 0.19031501 -0.24206458 0.14223148 -0.2045262 -0.026002867 -0.05618334 0.3477446
0.14897692 0.08223313 -0.030393487 0.29903114 -0.32327664 0.10416654 -0.16343428 -0.111605115
-0.06441894 -0.050461497 -0.19117585 0.11530412 -0.07815588 -0.059572726 0.081136666 0.16466534
-0.54425347 0.007919692 0.12988518 -0.13559815 -0.06317766 0.078742586 -0.37477428 -0.034603532
-0.20778011 0.14993912 -0.04403111 0.017523412 0.28814477 0.30293545 -0.16571192 -0.026963549
-0.1501511 -0.021349315 -0.09177597 0.3806162 -0.046216972 -0.13072106 -0.032782685 -0.2650614
0.17082065 0.051192995 0.032351483 -0.065849565 0.16371053 -0.16017771 0.06066506 -0.3958164
-0.0037384962 0.12341072 0.01802619 -0.23457313 0.15445396 -0.111005634 -0.040927447 0.08644828
-0.18222405 0.17977695 -0.23626542 0.15531175 0.054735146 0.059979722 0.14386834 -0.18977825
-0.022192715 0.079677016 0.23221712 0.041932926 -0.22413224 -0.12340348 -0.013366714 0.18944138
0.26838765 0.015595158 0.22404414 -0.05183146 -0.18925731 -0.22378433 -0.14347807 0.04946281
0.05835347 -0.05598324 0.0022990298 0.025631966 -0.054493565 -0.13746637 0.013457082 -0.448363
-0.4714752 -0.43193096 -0.030777056 -0.03929067 0.112415306 0.20864213 0.17376062 -0.14184807
0.09574253 -0.018595353 0.01029695 -0.26041454 -0.11852807 0.04350773 0.13936237 0.48340148
0.09380471 -0.058461025 0.20070778 0.13889979 0.21648477 0.09560695 -0.062481068 -0.0690995
00000000: 2afd 55bd 3533 ebbc da42 0bbe 41e1 e4bd
00000010: 6c85 12be fd3b 073e 1d22 e8bb 3445 993d
00000020: 556a efbc 1f76 c43c c9e9 9c3d 0d5d 81be
00000030: 205a 4bbe e3eb 03bd e16b 043d 7fac 42be
00000040: d165 a7bc fee2 293e ef97 e33e 3f1e 25bd
00000050: bf96 31be 6781 8a3c eb35 7fbd 4845 d23d
00000060: d2c9 263e c3e7 4a3e 7202 913e 01d2 3dbe
00000070: 25aa b9bc 823f 8dbe d254 11be 30df a43d
00000080: 5a09 bd3d 1e0c d1bc 5713 053e 36f6 293e
00000090: f957 4a3d defe 4cbc c49c fd3d b891 69be
000000a0: be8a 443e 6a1a c6bd f252 a63d 8f3c 973d
000000b0: 630f 7bbe 83ca d63d fbd9 c4bd abe0 f9bb
000000c0: e484 61be fa00 073e 948d 2ebc 42ec 49be
000000d0: c592 b4bd 12c7 89be 775e 353d c44e aebe
000000e0: b5fc 24bf a93e 25be 2a2e 82bd f8fa fabb
000000f0: dc92 1ebe 194c 173e bcd8 eabe 4e1e 4ebe
00000100: aa84 8abd 9f79 cd3c 5be1 64be b90d 81be
00000110: 9d3e 253e 0522 ce3c 5ad6 19be 8ec7 733e
00000120: 406f 143e b0b2 0b3d 8c33 49be c883 013e
00000130: 86a6 80be 19c3 823e ae9f 75bd 87ad c33e
00000140: 676e 71be 30eb b0bd 9ff6 e83d 5eb2 f03e
00000150: 94db 29be 1cd0 0e3e 6df2 4fbe 0cf9 973d
00000160: 7eff 0fbd ebb8 1ebd e2ec 7ebe 8605 cd3d
00000170: 5cbc 71be ea75 50be 49ea 00bd 88c7 283e
00000180: 318d ab3e a107 7bbd 5f1a 33bd fceb 0ebe
00000190: 8b3e c63d 5bb1 aebd be9e 723e 4a3f 35be
000001a0: a5ca 113d a97e 04bf 3e72 acbb ceaa 24bc
000001b0: ae67 abbc 6c0a a13d 52f8 febd 48a2 593e
000001c0: a841 f03d bf32 8b3c a61f 4e3e 534b 3bbd
000001d0: 15ea cfbe 2c1f fcbd d0c6 153f eb24 b73c
000001e0: 4996 51be 8555 1a3e 8552 233e ab7a 1dbe
000001f0: 75ae 143e f4e4 2fbd 7c75 fa3d b481 27be
00000200: 9f26 8bbd 4963 0cbe bc76 e9bd 01cf 83bd
00000210: 9bba 14be 159e 1bbe fbef f23c 8ea1 bdbd
00000220: 8e2b b73d f0e1 423e c7df 77be 21a5 113e
00000230: 516f 51be f703 d5bc 8020 66bd 950b b23e
00000240: 688d 183e d869 a83d c3fb f8bc 9c1a 993e
00000250: 8484 a5be 4455 d53d 515b 27be 3991 e4bd
00000260: 14ee 83bd b7b0 4ebd 9ac3 43be 9124 ec3d
00000270: 3110 a0bd 8802 74bd fb2a a63d 089e 283e
00000280: 3254 0bbf 99c1 013c 9f00 053e 3eda 0abe
00000290: 4a63 81bd cb43 a13d 6ae2 bfbe 6fbc 0dbd
000002a0: 4fc4 54be a489 193e f759 34bd 428d 8f3c
000002b0: b687 933e 5b1a 9b3e 63b0 29be a9e2 dcbc
000002c0: 36c1 19be c2e4 aebc 0af5 bbbd 20e0 c23e
000002d0: 024e 3dbd bedb 05be 2347 06bd 21b6 87be
000002e0: 9ceb 2e3e bfaf 513d fd82 043d 23dc 86bd
000002f0: bca3 273e a005 24be ed7b 783d 72a8 cabe
00000300: 8f01 75bb c2be fc3d a9ab 933c f033 70be
00000310: 2e29 1e3e ec56 e3bd 8aa3 27bd cc0b b13d
00000320: f198 3abe 7317 383e 90ef 71be 0b0a 1f3e
00000330: f631 603d 4cad 753d 3952 133e 3b55 42be
00000340: 7fcd b5bc b42d a33d 53ca 6d3e dcc1 2b3d
00000350: ec82 65be f7ba fcbd 1000 5bbc ecfc 413e
00000360: 1b6a 893e d582 7f3c d46b 653e 3a4d 54bd
00000370: abcc 41be b827 65be eaeb 12be 8499 4a3d
00000380: 0c04 6f3d af4e 65bd 52ab 163b 21fa d13c
00000390: a534 5fbd fcc3 0cbe 187b 5c3c d68f e5be
000003a0: 3365 f1be 0e26 ddbe 2a20 fcbc 41ef 20bd
000003b0: ff39 e63d 48a6 553e 4eee 313e 9f40 11be
000003c0: a914 c43d 4855 98bc 8ab4 283c 0e55 85be
000003d0: d8be f2bd 2935 323d 02b5 0e3e 6680 f73e
000003e0: af1c c03d d474 6fbd 5786 4d3e bf3b 0e3e
000003f0: 2fae 5d3e 94cd c33d 26ec 7fbd 0a84 8dbd

conv_net.C3.weight f4 [128, 64, 1, 1]
-0.14227962 -0.12849016 -0.023181023 -0.03145611 -0.019984435 0.0052136662 -0.0591728 0.005841449
-0.060867436 0.0061695674 -0.029422317 0.02364917 0.07049078 -0.020571884 0.0131294355 0.07128716
0.02797456 -0.04512292 -0.030879121 0.0094632385 -0.18035792 -0.043214824 -2.4253832e-05 -0.0018390275
-0.14963825 0.06637949 -0.05013175 -0.04295844 -0.09722189 0.048744723 -0.059780035 2.0030048e-38
0.063744865 0.072993636 0.028521627 -0.030990617 -0.09349526 -0.11946971 0.17959245 -0.04048541
-0.07966728 -0.019971162 -0.17455739 -0.01053919 0.26938754 -0.117484905 -0.088532954 -0.14340554
-0.20947216 -0.20222524 0.14173998 -0.0058351126 0.22062747 0.10114746 -0.002086113 -0.06643968
-0.1010601 0.004627836 -0.25227404 0.12833479 -0.06540492 -0.039021272 0.11923579 -0.4317857
-1.9369208e-32 -1.5470756e-32 -1.2389815e-32 -7.381592e-32 -2.2153303e-32 -3.7886453e-32 -2.549481e-32 -1.2196806e-33
-8.314502e-33 -2.2654193e-33 -3.4922935e-32 -7.272863e-32 1.969553e-33 -1.5267235e-32 -2.6598863e-32 -9.223579e-33
-2.0238374e-33 -1.9703573e-32 -5.783359e-32 -1.6488054e-32 -2.0726024e-32 -1.845438e-32 -3.515683e-32 -8.763138e-33
-1.428572e-32 -1.11227274e-32 -2.1597368e-32 4.606648e-33 -2.507072e-32 -4.502851e-32 -8.3117494e-33 2.553141e-38
-2.81934e-32 -3.522773e-32 -1.5188066e-32 -2.9866758e-32 -2.1212514e-32 -4.306164e-32 -1.4872325e-33 -3.751504e-32
-5.752532e-32 -5.3016635e-32 -2.6576893e-32 -3.3033786e-32 3.4504157e-34 -5.6472494e-32 -3.532016e-32 -1.7747856e-32
-1.1036995e-32 -8.611995e-33 4.9915505e-33 4.8484995e-33 -1.0235909e-32 -6.2465976e-33 -3.2487e-32 -1.5773349e-32
-3.072042e-32 -1.348174e-32 -6.94709e-32 -9.246215e-33 -6.423674e-32 -6.982973e-34 -1.641072e-32 -6.508977e-33
0.043624472 0.061423887 0.040388364 0.0068688593 -0.049849674 -0.002666975 -0.07060397 0.04586321
-0.01810768 -0.06783687 -0.030745517 0.042378087 -0.08313408 -0.18774107 0.05803938 -0.010521857
-0.109903514 0.029964129 -0.13487506 -0.05884845 -0.0811667 0.14760964 -0.020222725 -0.051650424
0.040076647 -0.018516151 0.06292103 0.014518723 0.001626572 -0.17309034 -0.06614242 -3.1223288e-37
-0.0061801416 0.032416902 -0.054696586 -0.07547621 -0.005136855 0.11606072 -0.10103481 -0.030686961
0.074966855 -0.059689377 -0.024034802 -0.0037787198 -0.011739688 -0.008524876 -0.07408656 -0.02607803
-0.012398496 0.053024445 8.608523e-05 0.06595042 0.0043718666 -0.096604906 -0.057353977 -0.0052245255
0.015275125 0.08530029 -0.007312273 -0.022863885 0.0024844264 0.04756418 0.070322216 -0.08503484
0.054840326 -0.031723898 0.10485063 -0.043375146 0.037340157 -0.057846278 0.09948301 0.081449
-0.066071175 0.0049282033 0.09723034 -0.00016739841 -0.032437004 0.11598023 0.030015893 -0.07902824
0.0030268105 0.21915075 0.034258425 0.04081709 -0.028915375 0.033986013 -0.022130689 -0.022840856
-0.1328524 -0.1363819 -0.022645434 -0.064226806 -0.11766773 0.041369833 -0.1450838 5.772743e-36
0.047823537 -0.077750385 -0.048927017 0.03280931 0.13220514 -0.116694055 9.690012e-05 -0.086911276
0.11560792 -0.17901756 0.0024662965 -0.070419416 -0.13837577 -0.16019812 0.07818655 -0.1887477
-0.042088676 -0.067527115 -0.22260469 -0.06260227 -0.02485164 -0.08374018 0.037213773 -0.03782534
-0.12082644 -0.078504965 0.0064618033 -0.18226177 0.16421068 -0.10244853 0.12922786 -0.13306949
00000000: c0b1 11be ed92 03be 21e6 bdbc 1fd8 00bd
00000010: 66b6 a3bc 67d7 aa3b 2e5f 72bd a069 bf3b
00000020: 2250 79bd 152a ca3b 1207 f1bc e7bb c13c
00000030: 785d 903d 5e86 a8bc d81c 573c 01ff 913d
00000040: e82a e53c d0d2 38bd 36f6 fcbc b30b 1b3c
00000050: bfaf 38be 0702 31bd b574 cbb7 860b f1ba
00000060: c53a 19be f8f1 873d f356 4dbd 30f5 2fbd
00000070: 451c c7bd 8ca8 473d e9db 74bd a01b da00
00000080: ab8c 823d b07d 953d 30a6 e93c 09e0 fdbc
00000090: 717a bfbd 89ac f4bd 15e7 373e 07d4 25bd
000000a0: 9928 a3bd 909a a3bc 2cbf 32be 91ac 2cbc
000000b0: 2aed 893e ed9b f0bd c450 b5bd e7d8 12be
000000c0: df7f 56be 2214 4fbe 4924 113e 7934 bfbb
000000d0: 2bec 613e 6626 cf3d 2bb7 08bb 8711 88bd
000000e0: 99f8 cebd 1aa5 973b 102a 81be 326a 033e
000000f0: 04f3 85bd c5d4 1fbd e531 f43d 0413 ddbe
00000100: 3024 c98a 53a8 a08a c7a9 808a 18a3 bf8b
00000110: 950d e68a bcb7 448b 6a60 048b 7aa7 ca88
00000120: 7aaf 2c8a 2434 3c89 8b54 358b 77d0 bc8b
00000130: c39f 2309 468b 9e8a f41b 0a8b f590 3f8a
00000140: 4322 2889 159d cc8a 0325 968b c438 ab8a
00000150: 393b d78a 28a4 bf8a 718b 368b d500 368a
00000160: f559 948a 9002 678a a747 e08a 495a bf09
00000170: b42c 028b 28cd 698b d7a0 2c8a 9801 0b01
00000180: 7563 128b afe9 368b ceb8 9d8a bb13 1b8b
00000190: 8948 dc8a bd96 5f8b e01b f788 0bca 428b
000001a0: 2258 958b 99a3 898b c0fe 098b 6f85 2b8b
000001b0: c851 e507 699c 928b 8c64 378b e54d b88a
000001c0: bb3a 658a 38dd 328a 4557 cf09 1766 c909
000001d0: 6d97 548a 9cbc 018a a1ae 288b c1cc a38a
000001e0: 7182 1f8b 9d00 8c8a 555b b48b 5009 408a
000001f0: a3c4 a68b 910c 6888 2d6b aa8a a82f 078a
00000200: 93af 323d 9d97 7b3d 456e 253d 2b14 e13b
00000210: 2c2f 4cbd 6ac8 2ebb d098 90bd 10db 3b3d
00000220: 8f56 94bc 0fee 8abd 06de fbbc a594 2d3d
00000230: 3342 aabd 323f 40be b3ba 6d3d de63 2cbc
00000240: 1815 e1bd 5577 f53c b01c 0abe 130b 71bd
00000250: ba3a a6bd fb26 173e 21aa a5bc 658f 53bd
00000260: 6927 243d 2faf 97bc bedc 803d f0df 6d3c
00000270: b332 d53a 983e 31be ad75 87bd a47e d482
00000280: c982 cabb 96c7 043d 8709 60bd 4593 9abd
00000290: 1053 a8bb 3eb1 ed3d 57eb cebd 3963 fbbc
000002a0: 3988 993d d97c 74bd a2e4 c4bc 66a4 77bb
000002b0: d257 40bc ecab 0bbc b2ba 97bd 98a1 d5bc
000002c0: 1023 4bbc 2930 593d a888 b438 0411 873d
000002d0: e041 8f3b cbd8 c5bd 01ec 6abd 7f32 abbb
000002e0: 8544 7a3c ebb1 ae3d cb9b efbb 0b4d bbbc
000002f0: c2d1 223b a8d2 423d 1805 903d bf26 aebd
00000300: 40a0 603d ebf0 01bd edbb d63d 23aa 31bd
00000310: fef1 183d 38f0 6cbd c0bd cb3d bcce a63d
00000320: 5350 87bd c47c a13b b320 c73d ab87 2fb9
00000330: aadc 04bd 0b87 ed3d e4e3 f53c 8fd9 a1bd
00000340: 745d 463b 0e69 603e 9052 0c3d d22f 273d
00000350: f0df ecbc eb34 0b3d 6b4b b5bc bf1c bbbc
00000360: 760a 08be b2a7 0bbe eb82 b9bc 5889 83bd
00000370: c7fb f0bd 6a73 293d d990 14be 9b8b f504
00000380: 9de2 433d 983b 9fbd b267 48bd 0e63 063d
00000390: c960 073e 4bfd eebd db36 cb38 8afe b1bd
000003a0: d8c3 ec3d 6150 37be 97a1 213b 0e38 90bd
000003b0: 61b2 0dbe fa0a 24be 4520 a03d 1447 41be
000003c0: 2d65 2cbd a84b 8abd 7cf2 63be 9e35 80bd
000003d0: ab95 cbbc f97f abbd 786d 183d beee 1abd
000003e0: da73 f7bd 36c7 a0bd 89bd d33b d4a2 3abe
000003f0: d826 283e 89d0 d1bd 4f54 043e 5e43 08be

conv_net.C4.weight f4 [5, 128, 1, 1]
-0.0074244607 1.4805632e-32 0.061086163 -0.09974497 -0.0012099078 1.1886466e-13 -0.00016381632 -0.13211386
-0.24025251 0.17344698 0.17020863 -0.0009205367 0.10433723 1.7373997e-34 -0.053856745 0.14017595
-0.0012255458 0.02791141 -0.012765746 2.2799443e-25 0.0072844373 -0.007318226 0.01557009 -0.014975513
0.0349143 -0.00042264545 -0.032301176 -0.103431255 0.026677445 0.025969174 -0.16321681 0.21818763
0.1581486 -0.10350147 0.1643641 -0.19707184 0.22343576 -0.021526486 0.18684666 0.06961338
-1.3268738e-20 0.060737126 -0.08495694 1.5719901e-34 -0.12204673 0.0129795885 -2.394305e-23 0.0054159947
-2.633802e-35 -0.07027242 0.03216066 0.09120297 0.15675181 0.19186272 0.025306074 -0.028135585
0.009351473 0.0006699748 -0.019685263 0.029260114 -0.020215731 -0.18240033 -0.25482374 0.047937777
0.034905672 -0.020106312 -0.04403565 0.11883309 0.009404632 -2.9084026e-06 -0.046215534 -0.08989467
-0.040076185 0.009975862 -0.0018756147 0.036919825 0.1400828 0.069049224 0.17876725 0.080829166
0.053814545 -0.05685259 -0.11912242 -0.012393108 0.009258573 -0.046315003 0.012580351 -0.011594542
-0.1609589 -0.015944548 0.042161845 0.046656527 -0.11697901 0.054664195 -0.015062865 0.031392884
-0.024683548 0.10444193 0.0005943121 -0.14350685 -0.04352436 0.0015694022 0.017407147 0.08609653
0.0012378576 0.0011867995 -0.08759572 0.0023692346 -9.447214e-18 -0.020456975 -0.011065272 -0.05074286
-0.027863214 -0.12815838 0.0111690685 0.067186035 0.011039487 -0.02068623 -0.0069081173 0.11530061
-0.002561038 -0.050735652 0.005275987 -0.12851693 -0.12681122 0.013923709 -0.2595342 0.08519729
-0.0126961935 2.8527464e-32 0.15437388 -0.12449442 0.0113894 1.03445654e-13 -0.0014547241 -0.083898686
0.12655239 -0.08260818 0.05064593 -0.028384445 0.08055941 1.8202827e-34 0.010617983 -0.067979135
-0.028544514 0.08543299 -0.00989634 5.1779563e-25 -0.051649656 -0.022821467 -0.024552224 0.0017125522
0.095354415 0.008918367 0.022815498 0.070863314 0.027420402 -0.00025044754 -0.04229898 -0.022474794
0.010004495 0.15474705 -0.092924885 0.026233084 -0.14978163 -0.009475498 0.006984868 -0.15350555
6.971497e-20 0.19047803 -0.05321364 1.6764377e-34 -0.054997988 0.00333235 1.5029557e-24 -0.0039610737
-4.4042436e-35 -0.20471244 0.11078628 0.06724597 -0.008233459 -0.105130225 0.15080932 -0.03721028
-0.058172185 -0.11911384 0.031199735 0.057694174 -0.08700056 -0.0054647936 0.07741861 -0.025730979
0.025097176 0.112801746 -0.065710746 0.04210567 0.054347415 -1.09126375e-07 -0.116441794 0.15317968
-0.12324243 0.07615908 -0.039384045 0.058075648 0.07635434 -0.121298425 -0.015393211 -0.15908888
-0.23476288 -0.039182097 -0.10281087 -0.14663944 -0.0029979383 0.10674445 0.013050794 -0.17782222
0.04223067 -0.036997117 0.0075616897 0.088631734 0.022470215 0.02016624 -0.009850757 0.05260005
-0.029111521 -0.055366866 0.00069905014 0.22177508 -0.13027708 0.0044966484 0.12256132 0.105178684
0.0007800534 -0.0019034676 -0.05638607 -0.045135465 -1.0602477e-17 -0.17830433 -0.02678214 0.019253774
-0.06171698 -0.089729585 0.03402556 -0.26853284 0.010595814 -0.011430207 -0.055509895 0.115533225
0.024714684 -0.061334353 -0.045822006 -0.010090091 -0.036005724 -0.11533163 0.121678784 0.052751068
00000000: e448 f3bb 1fc0 990a 7c35 7a3d 1747 ccbd
00000010: c595 9eba 68d4 052a 1cc6 2bb9 db48 07be
00000020: c104 76be 169c 313e 2c4b 2e3e 2c50 71ba
00000030: c2ae d53d a6f0 6607 e498 5cbd 498a 0f3e
00000040: 7ea2 a0ba 78a6 e43c 6b27 51bc 291f 8d16
00000050: 4ab2 ee3b bbcd efbb b119 7f3c db5b 75bc
00000060: 4c02 0f3d 8396 ddb9 3d4e 04bd c4d3 d3bd
00000070: a88a da3c 4ebd d43c 4f22 27be 946c 5f3e
00000080: b5f1 213e 94f8 d3bd 104f 283e 33cd 49be
00000090: 58cc 643e 5058 b0bc bb54 3f3e 7691 8e3d
000000a0: aea3 7a9e 7ec7 783d e7fd adbd 0df4 5007
000000b0: a3f3 f9bd 57a8 543c 1f90 e799 a878 b13b
000000c0: 7509 0c86 fdea 8fbd e5ba 033d 9fc8 ba3d
000000d0: 8c83 203e a977 443e af4e cf3c 997c e6bc
000000e0: ec36 193c 3fa1 2f3a fd42 a1bc e8b2 ef3c
000000f0: 769b a5bc 27c7 3abe 4278 82be 675a 443d
00000100: 40f9 0e3d feb5 a4bc ba5e 34bd c35e f33d
00000110: e315 1a3c fa2d 43b6 804c 3dbd b21a b8bd
00000120: ed26 24bd cc71 233c 30d7 f5ba 3e39 173d
00000130: de71 0f3e ae69 8d3d c30e 373e c389 a53d
00000140: a46c 5c3d 43de 68bd 75f6 f3bd 760c 4bbc
00000150: 45b1 173c cdb4 3dbd d11d 4e3c 09f7 3dbc
00000160: 69d2 24be 249e 82bc e6b1 2c3d ea1a 3f3d
00000170: b192 efbd 90e7 5f3d 3cca 76bc d395 003d
00000180: 2735 cabc a7e5 d53d 9ccb 1b3a 76f3 12be
00000190: 9946 32bd 66b4 cd3a 6f99 8e3c 6153 b03d
000001a0: 9c3f a23a 628e 9b3a 6365 b3bd 2945 1b3b
000001b0: 3545 2ea3 6395 a7bc 1d4b 35bc bfd7 4fbd
000001c0: 6541 e4bc f33b 03be 78fe 363c d598 893d
000001d0: f7de 343c 2b76 a9bc 7d5d e2bb ba22 ec3d
000001e0: 16d7 27bb 30d0 4fbd 30e2 ac3b f199 03be
000001f0: cdda 01be 4520 643c abe1 84be eb7b ae3d
00000200: b203 50bc 811f 140b 3014 1e3e eef6 febd
00000210: 9b9a 3a3c 5cf0 e829 71ac beba 13d3 abbd
00000220: f396 013e 7a2e a9bd 1b72 4f3d 7f86 e8bc
00000230: 55fc a43d 03f5 7107 0cf7 2d3c a538 8bbd
00000240: 2fd6 e9bc 7ef7 ae3d 4224 22bc ff3f 2017
00000250: 978e 53bd 16f4 babc bf21 c9bc b777 e03a
00000260: 2d49 c33d 581e 123c 91e7 ba3c c920 913d
00000270: c0a0 e03c 804e 83b9 b241 2dbd 0f1d b8bc
00000280: e5e9 233c 0376 1e3e 674f bebd c4e6 d63c
00000290: 5b60 19be 1f3f 1bbc 52e1 e43b 8f30 1dbe
000002a0: 1d9c a41f ac0c 433e 8cf6 59bd 38d6 5e07
000002b0: 9245 61bd 8e63 5a3b 3692 e817 e5cb 81bb
000002c0: 752b 6a86 23a0 51be ebe3 e23d 41b8 893d
000002d0: a1e5 06bc 844e d7bd c26d 1a3e ce69 18bd
000002e0: f545 6ebd f5f1 f3bd 9696 ff3c ba50 6c3d
000002f0: 592d b2bd 0312 b3bb a68d 9e3d c6c9 d2bc
00000300: 9898 cd3c 9a04 e73d 5b93 86bd ff76 2c3d
00000310: 659b 5e3d dc58 eab3 0979 eebd 22db 1c3e
00000320: 8766 fcbd 4bf9 9b3d 2a51 21bd bbe0 6d3d
00000330: aa5f 9c3d 4f6b f8bd ce33 7cbc 32e8 22be
00000340: ae65 70be 687d 20bd 818e d2bd a628 16be
00000350: 0f79 44bb d69c da3d ffd2 553c 0717 36be
00000360: 11fa 2c3d 4a8a 17bd 0dc8 f73b 8e84 b53d
00000370: 7513 b83c ac33 a53c 1265 21bc 2673 573d
00000380: 497b eebc 5ec8 62bd 7640 373a 0219 633e
00000390: 5b67 05be 9f58 933b 6e01 fb3d ec67 d73d
000003a0: 7f7c 4c3a c67d f9ba 14f5 66bd f7df 38bd
000003b0: c894 43a3 6995 36be 3866 dbbc 17ba 9d3c
000003c0: f2ca 7cbd 25c4 b7bd 635e 0b3d 237d 89be
000003d0: 119a 2d3c c345 3bbc 585e 63bd af9c ec3d
000003e0: 7376 ca3c bb39 7bbd dbaf 3bbd e950 25bc
000003f0: bd7a 13bd fd32 ecbd ba32 f93d 8111 583d
