online_forPy/NetworkA_weights_1982-2017_notend_P2.pt (torch, 385375 bytes, 4 tensors)

conv_net.C1.weight f4 [32, 9, 3, 3]
0	0xbddaa4c1	-0.106759556
1	0x3e46f12c	0.19427937
2	0xbdf3e412	-0.11908735
3	0x3dac3e1a	0.084102824
4	0x3e6cee43	0.23137765
5	0xbc4709e6	-0.012148356
6	0xbda3139c	-0.079627246
7	0xbe1b6c57	-0.15178047
8	0xbe1a9a4a	-0.15097919
9	0x3dfadbe6	0.122489735
10	0x3d9b5657	0.075848274
11	0xbdbd3a85	-0.09239677
12	0xbea8902f	-0.32922503
13	0xbe6f6ae1	-0.23380615
14	0xbe7e55f5	-0.24837478
15	0xbd978b06	-0.073995635
16	0xbed4dc20	-0.41574192
17	0xbe98217b	-0.29713044
18	0x3def153e	0.116739735
19	0x3cd74fef	0.026283232
20	0xbe186eb6	-0.14885983
21	0x3d838123	0.06421115
22	0x3e40ba18	0.18820989
23	0x3d27ff4a	0.041014947
24	0xbdb2b741	-0.08726359
25	0xbe09aeda	-0.13445607
26	0xbd61d412	-0.055133887
27	0xbd51345a	-0.051075317
28	0x3deb5315	0.11490456
29	0x3cf624c9	0.030046837
30	0x3a4ff5fd	0.00079330785
31	0xbc0b818b	-0.008514772
32	0xbdb15c73	-0.086602114
33	0x3d2ada62	0.041712172
34	0xbe031ddd	-0.1280436
35	0x3d8cc25a	0.06873007
36	0x3d8dfaea	0.06932624
37	0x3e818b78	0.2530172
38	0x3e482b70	0.1954782
39	0xbdf7eee0	-0.12106109
40	0xbbbb8124	-0.005722182
41	0x3d576472	0.052586026
42	0xbe542580	-0.2071743
43	0xbe40b769	-0.18819965
44	0xbd204e90	-0.039137423
45	0x3cd81aa7	0.026379896
46	0xbe014181	-0.12622644
47	0x3dd4055c	0.10352585
48	0xbdd59570	-0.104288936
49	0xbe6c2b1b	-0.23063318
50	0xbccbfcd0	-0.024900824
51	0x3cc7346d	0.02431699
52	0x3da37390	0.07981026
53	0xbd0a0e2f	-0.033704933
54	0x3e7e4c86	0.24833879
55	0x3e8463be	0.25857347
56	0x3e92e9b6	0.28693932
57	0xbd7f6dc7	-0.06236055
58	0x3ea9c13b	0.33155236
59	0x3daa7a53	0.08324113
60	0xbef619be	-0.48066515
61	0xbe79e9ea	-0.24405637
62	0xbe8a24ad	-0.26981106
63	0xbdb9c2c8	-0.09070355
64	0xbd78bf97	-0.06072959
65	0x3e33e75c	0.17568725
66	0xbe138c6e	-0.14409038
67	0xbe06e11f	-0.13171814
68	0x3e634a15	0.22196229
69	0xbd8c514d	-0.068514444
70	0xbbbc7b29	-0.0057519865
71	0x3e45c24c	0.193124
72	0xbed8d70e	-0.42351574
73	0xbebbf58d	-0.36710778
74	0xbc723c92	-0.014784949
75	0x3d0f6bc2	0.035014875
76	0xbe5f3eaf	-0.21801256
77	0x3db13713	0.08653083
78	0xbe8d2257	-0.27565262
79	0x3d76a4f5	0.06021591
80	0xbd76e96f	-0.060281213
81	0x3d1b117e	0.03785848
82	0x3ddbb9c2	0.1072879
83	0x3db27ce4	0.08715227
84	0x3e53486a	0.20633093
85	0x3e5f8b03	0.21830373
86	0x3e228a72	0.15873125
87	0xbce92011	-0.028457673
88	0xbe8d3914	-0.2758261
89	0xbc920db0	-0.017828792
90	0xbdf9fb3f	-0.122061245
91	0x3c2cce44	0.010547224
92	0xbcaca3e9	-0.021074252
93	0xbd116a21	-0.035501603
94	0xbe5ef729	-0.21773972
95	0xbe04d208	-0.12970746
96	0xbde54000	-0.11193848
97	0xbdfc7047	-0.12326103
98	0xbe43190a	-0.1905252
99	0xbd4ba86e	-0.049721174
100	0x3d880862	0.06642224
101	0xbdf83a00	-0.121204376
102	0xbb8394b6	-0.0040155305
103	0x3d5b6640	0.05356431
104	0x3c15127e	0.009098647
105	0x38ad4c6c	8.2635175e-05
106	0x3bb91f5c	0.0056494903
107	0xbc86d8c0	-0.016460776
108	0xbca0c106	-0.01962329
109	0x3d22f4df	0.03978431
110	0xbcd6e13d	-0.026230449
111	0x3df9f0a8	0.12204105
112	0x3e10ce47	0.14141189
113	0xbd6ef259	-0.05833659
114	0xbcd1d1a4	-0.02561266
115	0xbccce8aa	-0.025013287
116	0xbda78c86	-0.081810996
117	0xbe022289	-0.12708487
118	0xbccb5653	-0.024821436
119	0x3dffecef	0.12496363
120	0xbe330336	-0.17481694
121	0xbde3a9a2	-0.11116339
122	0xbe20d013	-0.15704374
123	0xbe48866e	-0.19582531
124	0x3e8a49fa	0.27009565
125	0x3e307476	0.17231926
126	0x3c25310d	0.010082495
127	0xbdaf2e36	-0.08553736
128	0x3d4f2c43	0.05057932
129	0xbdce167f	-0.100628845
130	0x3cce7966	0.025204372
131	0x3e7e30c7	0.24823295
132	0x3c7985c0	0.015229642
133	0xbd77ced1	-0.06049997
134	0xbd7cfd41	-0.06176496
135	0x3e36bd19	0.17845573
136	0x3e5f0a26	0.21781215
137	0x3d92f397	0.07175367
138	0x3e1b2e20	0.15154314
139	0x3e068d6b	0.13139884
140	0xbd3d11b1	-0.04615945
141	0xbc6f5c8f	-0.01460947
142	0xbe412ea6	-0.18865451
143	0xbeab5ceb	-0.33469328
144	0x3f0bd4da	0.5462166
145	0x3dde5928	0.10856849
146	0x3cfd38c2	0.030910853
147	0x3ea17653	0.31535587
148	0xbcf068ef	-0.029346911
149	0x3d3d27b5	0.046180446
150	0x3ca3dbf9	0.020002352
151	0x395d05c3	0.00021078349
152	0x3c982c51	0.01857582
153	0xbd64c535	-0.055852134
154	0xbe641c00	-0.22276306
155	0xbea0dc21	-0.31417945
156	0xbda9fdab	-0.083003365
157	0xbd3cc6a8	-0.04608789
158	0xbc04eb8e	-0.008112801
159	0x3cd65e3a	0.026167978
160	0xbde7b59b	-0.11313935
161	0xbdf4690c	-0.119340986
162	0x3e2d1ea8	0.16906226
163	0xbe6d0786	-0.23147401
164	0xbea3e4f2	-0.3201061
165	0x3e1e3d34	0.15453035
166	0x3e62d135	0.22150119
167	0xbeef6741	-0.46758464
168	0x3e5b181e	0.21395919
169	0xbd002765	-0.03128757
170	0xbe0b6103	-0.13611226
171	0x3ca07cd1	0.019590767
172	0xbc5beff1	-0.013423906
173	0xbd8d7674	-0.06907359
174	0x3debf662	0.11521603
175	0xbe256096	-0.16150126
176	0x3e060f5d	0.13091798
177	0xbd703e99	-0.058653448
178	0xbdde7517	-0.10862177
179	0x3e3012e5	0.17194708
180	0x3d20d6fd	0.03926753
181	0xbb20890b	-0.0024495746
182	0xbe5532cb	-0.20820157
183	0x3d928f83	0.07156279
184	0xbdd7eb4d	-0.10542927
185	0xbe33d43c	-0.1756143
186	0x3dd8a2aa	0.10577901
187	0x3d025cdc	0.03182684
188	0xbd0ef261	-0.03489912
189	0xbd6eba80	-0.05828333
190	0x3e17aeaf	0.1481273
191	0x3e66f925	0.22555979
192	0xbcad5a3b	-0.02116119
193	0xbccc6897	-0.024952216
194	0x3c073bdb	0.008254017
195	0x3d7da6e8	0.061926752
196	0xbdd5639f	-0.10419392
197	0xbe42eb86	-0.19035158
198	0x3e104b2c	0.14091176
199	0x3c7432d7	0.014904699
200	0x3e033f6f	0.12817167
201	0x3dcfe1d6	0.10150497
202	0xbe8e902d	-0.27844372
203	0xbd909027	-0.07058745
204	0x3e0a9a05	0.13535316
205	0xbe3da3ee	-0.18519565
206	0x3d55be52	0.052183457
207	0xbde8a5a5	-0.11359719
208	0x3e52f6b9	0.2060193
209	0x3cf6d6cf	0.030131726
210	0xbe3853d9	-0.18000735
211	0x3d4825c9	0.04886416
212	0xbe31e415	-0.17372163
213	0x3e8a76a6	0.27043647
214	0x3e4935eb	0.19649474
215	0xbd846d4a	-0.06466158
216	0x3e05d638	0.13069999
217	0x3e90fe1b	0.28318867
218	0x3e5e1308	0.21686947
219	0xbe61a05b	-0.22033827
220	0x3cf9b28a	0.030480642
221	0xbd3aa056	-0.045563065
222	0xbe7b9430	-0.24568248
223	0xbbd4a815	-0.0064897635
224	0xbe3087ad	-0.17239256
225	0xbd216e8b	-0.039412063
226	0xbde38079	-0.111084886
227	0x3d9d651e	0.07685302
228	0x3e36f356	0.17866263
229	0xbe3cb7e2	-0.1842952
230	0x3dbd0687	0.092297606
231	0xbdf1f719	-0.11814708
232	0xbd888201	-0.06665421
233	0x3d586a09	0.052835498
234	0xbe03ea53	-0.12882356
235	0xbcf63809	-0.030056017
236	0x3c1305b3	0.008973527
237	0xbea90f6b	-0.33019575
238	0x3d65e1dc	0.0561236
239	0x3d19adbb	0.037519198
240	0xbd395560	-0.045247436
241	0x3dc890a8	0.09793216
242	0xbe16ae65	-0.14714964
243	0xbe241f4f	-0.16027568
244	0xbdd21275	-0.10257427
245	0x3df188b9	0.11793656
246	0x3e907029	0.2821057
247	0x3d790dbd	0.060804117
248	0xbe37cf0c	-0.17950076
249	0x3db1554b	0.086588465
250	0x3e450007	0.19238292
251	0xbe22f7b5	-0.15914805
252	0x3e438360	0.19093084
253	0xbd94ae02	-0.07259752
254	0xbce8b373	-0.02840588
255	0x3e521ca0	0.20518732

conv_net.C2.weight f4 [64, 32, 3, 3]
0	0x3dbe1d7d	0.09282968
1	0xbc72bf92	-0.014816182
2	0xbe002a79	-0.12516202
3	0x3d8cdac2	0.06877662
4	0xbb6fa745	-0.0036568206
5	0xbe0dc85b	-0.13845961
6	0x3dcc8f4b	0.099882685
7	0x3de34a48	0.110981524
8	0x3a46d841	0.0007585325
9	0x3daddb3e	0.08489083
10	0x3c7a7cbb	0.015288527
11	0x3e127b08	0.14304745
12	0x3bf86107	0.007579926
13	0xbd481e58	-0.048857063
14	0x3ce9b59c	0.02852898
15	0xbdc9d24c	-0.09854564
16	0x3c3ca562	0.01151404
17	0x3e3e3c5b	0.18577711
18	0xbc28f893	-0.010313171
19	0x3dc84f7b	0.09780785
20	0xbe8ef3b1	-0.27920297
21	0xbd8f4ad4	-0.06996694
22	0x3d05230c	0.032504126
23	0xbdcb14bd	-0.09916065
24	0x3c24af82	0.01005161
25	0x3d48c7a5	0.04901852
26	0xbd343537	-0.043996062
27	0xbd9ed763	-0.077559255
28	0x3d119b85	0.035548706
29	0xbd91e951	-0.0712458
30	0xbba220a3	-0.0049477383
31	0x3e09d34c	0.1345951
32	0xbd4585b5	-0.048223216
33	0xbd9d110f	-0.07669269
34	0x3daf38d3	0.0855576
35	0x3dcb5511	0.099283345
36	0x3e4e8005	0.20166023
37	0xbcdb1fb6	-0.02674852
38	0xbdd2de18	-0.10296267
39	0x3d954b4d	0.07289753
40	0x3ddc70a9	0.10763676
41	0x3c528d51	0.012851075
42	0xbe032d0e	-0.12810156
43	0x3c0a30ef	0.008434518
44	0x3da9ba55	0.08287493
45	0xbd185326	-0.03718867
46	0xbc9878d4	-0.018612303
47	0x3dcf6056	0.101257965
48	0xbd36846c	-0.04455988
49	0xbd9b8d27	-0.07595282
50	0x3d8ba98c	0.06819448
51	0x3c7140c5	0.014724915
52	0x3d727788	0.059196025
53	0x3d2d2403	0.04227067
54	0x3d3c62ac	0.04599254
55	0xbdce0851	-0.1006018
56	0xbd56db71	-0.05245537
57	0xbdc986b9	-0.098401494
58	0xbe083e1a	-0.1330494
59	0x3ceb85c2	0.028750304
60	0x3b87da47	0.0041458937
61	0xbcbb3f9a	-0.022857476
62	0x3d38ec79	0.045147393
63	0x3e1c1903	0.15243916
64	0x3d9aab4c	0.075522035
65	0xbd9d616d	-0.07684598
66	0x3e10335f	0.14082097
67	0x3dbceaca	0.0922447
68	0xbd04caf8	-0.03242013
69	0xbcb2df5f	-0.021835027
70	0xbd84dbda	-0.06487246
71	0xbe372174	-0.17883855
72	0xbc6cab31	-0.014445112
73	0xbd5e0ce6	-0.05421152
74	0xbd9ead0b	-0.07747849
75	0xbdf65121	-0.12027193
76	0xbdbd1141	-0.092318065
77	0xbd4fe3e2	-0.050754435
78	0x3c552970	0.013010368
79	0x3dbc7ef0	0.09203899
80	0x3e1d5ca3	0.1536737
81	0xbd650c17	-0.055919733
82	0x3d10fa7d	0.035395134
83	0x3e1289da	0.14310399
84	0xbe2e9ddb	-0.17052405
85	0xbd7bfc3a	-0.06151984
86	0x3d966325	0.07343129
87	0xbe218d4b	-0.15776555
88	0x3d38c824	0.045112744
89	0x3e7e5df1	0.24840523
90	0xbcf0e24d	-0.029404784
91	0x3d8d42a6	0.06897478
92	0xbc45217f	-0.012031912
93	0xbd50984a	-0.050926484
94	0xbcdfac2b	-0.027303776
95	0x3d0fc31a	0.035098173
96	0xbd522139	-0.051301215
97	0xbc983b7b	-0.01858305
98	0x3c0ee0f2	0.008720623
99	0xbe65fee6	-0.22460517
100	0xbc8564e9	-0.01628347
101	0x3d85a43b	0.06525465
102	0xbd709884	-0.0587392
103	0xbd8b4abe	-0.06801365
104	0x3db32fec	0.08749375
105	0x3d1f4aa8	0.038889557
106	0xbd6b5c5e	-0.057461135
107	0x3c78e7b3	0.01519196
108	0xbd8e4ed8	-0.06948632
109	0xbd6e609b	-0.0581976
110	0x3d4f80be	0.050659887
111	0xbdbbf680	-0.091778755
112	0xbd20c5b2	-0.039251037
113	0x3d1eb2cb	0.03874473
114	0xbcbf8f65	-0.023383806
115	0x3cca1310	0.024667293
116	0x3d968691	0.07349885
117	0xbdbb14f6	-0.09134857
118	0xbd8fe4ea	-0.07026084
119	0xbd1165bc	-0.035497412
120	0xbd8fc61f	-0.070202105
121	0xbdcac980	-0.09901714
122	0x3c8ae96b	0.016957005
123	0xbddb0582	-0.1069441
124	0xbd41e347	-0.04733589
125	0x3d9512b5	0.07278959
126	0x3d8b71d3	0.068088196
127	0xbd95d82e	-0.07316624
128	0x3c2b81a0	0.010467917
129	0x391fd8ad	0.0001524414
130	0xbdb5bcc9	-0.088738985
131	0xbdcffb4f	-0.10155355
132	0xbe21f739	-0.15816964
133	0xbd955c2c	-0.07292971
134	0x3d6b6cf8	0.057476968
135	0x3dfa9e4d	0.12237225
136	0x3daa0fbc	0.08303782
137	0x3e1505a0	0.14552927
138	0x3b32df72	0.0027293828
139	0xbcfbce58	-0.03073804
140	0xbda11f39	-0.078672834
141	0xbd8bd714	-0.06828132
142	0xbe0eaf87	-0.13934146
143	0x3cc38986	0.023869287
144	0x3d548552	0.051884957
145	0xbc4de55d	-0.0125668915
146	0x3de9861b	0.11402532
147	0x3d816f54	0.06320062
148	0xbdbd8621	-0.09254099
149	0xbcfcb031	-0.030845733
150	0x3cc74a8d	0.02432754
151	0xba93dd86	-0.0011281229
152	0x3d58c8bd	0.052925814
153	0x3da6b8e4	0.08140734
154	0xbcba76e7	-0.022761775
155	0xbd06ed53	-0.032941174
156	0x3c6896ff	0.0141961565
157	0x3b9a0233	0.004699969
158	0xbdfe438b	-0.124152265
159	0xbe09db5f	-0.1346259
160	0xbd77dc27	-0.060512688
161	0xbe08fe67	-0.13378297
162	0xbdfa61ea	-0.12225707
163	0xbe15d3d7	-0.14631592
164	0x3bc6f02f	0.0060711126
165	0xbda2ca49	-0.07948739
166	0x3d80bd14	0.06286064
167	0xbc3c9279	-0.011509531
168	0x3c52c5dd	0.012864557
169	0x3d1143f9	0.035465214
170	0x3e0744d1	0.13209845
171	0x3d0fbd72	0.03509278
172	0xbd042467	-0.03226128
173	0x3c48c3b4	0.0122536905
174	0x3d909165	0.07058982
175	0x3de72de2	0.11288048
176	0x3d8a94c5	0.06766657
177	0xbd050260	-0.032472968
178	0xbda8e4a2	-0.08246733
179	0xbe1a9b2e	-0.15098259
180	0x3dada121	0.084779985
181	0x3d9683f8	0.0734939
182	0x3e0b3ac8	0.13596642
183	0x3c1527d2	0.009103732
184	0xbb8aad1c	-0.004232062
185	0xbbc74bf6	-0.0060820533
186	0xbc477aa8	-0.01217524
187	0xbd434f75	-0.047683198
188	0xbdcb0130	-0.09912336
189	0xbd8f15cb	-0.069865786
190	0xbc0bdb57	-0.008536181
191	0xbd94380f	-0.07237255
192	0x3cdfaaf9	0.027303206
193	0xbd7f1cc9	-0.06228331
194	0xbe0b46d7	-0.13601242
195	0x3e6aa2e7	0.22913705
196	0x3d6d78fa	0.0579767
197	0xbdbafd94	-0.091303974
198	0x3d930937	0.07179492
199	0x3dac4930	0.08412397
200	0x3d2ddd28	0.04244724
201	0xbd47f088	-0.048813373
202	0xbdddd214	-0.10831085
203	0xbd8992a1	-0.0671742
204	0xbb0aaca7	-0.0021160038
205	0xbc6678e3	-0.014066908
206	0x3c55355f	0.013013213
207	0xbc80f011	-0.015739473
208	0x3de07124	0.1095908
209	0x3e82d09c	0.2554978
210	0xbdf984f2	-0.121835604
211	0xbd6cddb9	-0.05782864
212	0x3da76a91	0.08174623
213	0xbdeb7716	-0.11497323
214	0x3bf7f4cb	0.0075670234
215	0x3dd753f1	0.105140574
216	0xbd75f6f5	-0.06004997
217	0x3e06c552	0.13161209
218	0x3e1c1b22	0.15244725
219	0xbb85be91	-0.004081555
220	0x3e13592c	0.14389485
221	0x3e9d31c3	0.30702028
222	0xbca9aaa9	-0.02071126
223	0x3c857a36	0.016293626
224	0x3dd9f778	0.10642904
225	0xbbcdd7b1	-0.006281816
226	0x3ca79d8a	0.020460863
227	0xbe0061b2	-0.12537268
228	0x3c8b7d03	0.017027384
229	0xbda2dbd0	-0.07952082
230	0xbdac8a1a	-0.08424778
231	0x3e17453c	0.14772505
232	0xbd372859	-0.044716213
233	0xbd7b615e	-0.061372153
234	0xbde81d6b	-0.11333736
235	0xbd71ef8c	-0.05906634
236	0xbe355821	-0.177094
237	0x3de8b50d	0.11362658
238	0x3dc654bb	0.0968413
239	0xbbc0bca3	-0.0058818622
240	0x3e2cc0e8	0.16870463
241	0x3e29d4d1	0.1658509
242	0x3e1f88b8	0.15579498
243	0x3c844c8d	0.016149784
244	0x3d50a97c	0.050942883
245	0x3cceb588	0.025233045
246	0xbd996bae	-0.074912414
247	0xbc27d167	-0.0102427965
248	0x3cc4b4cb	0.02401199
249	0x3d79704f	0.06089812
250	0x3d988d9c	0.07448885
251	0x3dbe78b9	0.0930037
252	0x3d19d998	0.03756103
253	0xbd6797c2	-0.056541212
254	0xbd1f8870	-0.038948476
255	0x3da183cb	0.07886466

conv_net.C3.weight f4 [128, 64, 3, 3]
0	0x3c9050dd	0.017616684
1	0x3d3ab082	0.045578487
2	0x3d506176	0.050874196
3	0x3d62a292	0.05533082
4	0x3d832fc8	0.06405598
5	0xbbea8209	-0.0071566147
6	0xbc005348	-0.007832356
7	0x3d14973a	0.036277033
8	0x3a224051	0.00061893935
9	0x3e0e7645	0.13912304
10	0x3dc203e0	0.09473395
11	0x3e26cb96	0.162886
12	0x3cb45923	0.02201516
13	0xbd62043c	-0.05517982
14	0xbd500687	-0.050787475
15	0x3c5ccdf3	0.0134768365
16	0xbca2ea63	-0.019887155
17	0xbd835f04	-0.06414607
18	0x3d0ae9fc	0.03391455
19	0x3cd1d355	0.025613466
20	0xbd3b6570	-0.045751035
21	0x3ccfe3b0	0.025377125
22	0x3d083fbb	0.033263903
23	0x3c280af1	0.010256515
24	0xbd859aa8	-0.06523639
25	0xbc82d355	-0.015969912
26	0x3d4d62c2	0.05014301
27	0xbcdc063f	-0.026858447
28	0x3cccdb3c	0.025006883
29	0x3d58c431	0.052921478
30	0xbb9fd28b	-0.0048773936
31	0xb8cca083	-9.757376e-05
32	0xbd093310	-0.033495963
33	0xbd8b196e	-0.0679196
34	0xbda64341	-0.081182964
35	0xbdf2de74	-0.11858836
36	0xbcd57d32	-0.026060674
37	0x3d48cb96	0.04902228
38	0x3df7e872	0.12104882
39	0xbe07d9bb	-0.13266651
40	0xbbc15660	-0.0059001893
41	0x3d18ee72	0.037336774
42	0xbda60e60	-0.081082106
43	0xbdc4ea3d	-0.0961499
44	0xbdb82c64	-0.08992842
45	0x3e1dd2f0	0.15412498
46	0xbcfe8368	-0.031068519
47	0xbe081df8	-0.13292682
48	0x3ba08d54	0.00489966
49	0xbd887adb	-0.06664058
50	0xbd89bcfa	-0.067254975
51	0xbd72a2d6	-0.059237324
52	0xbcdfa02c	-0.027298056
53	0xbd337257	-0.043810215
54	0x3c6f4a11	0.014605061
55	0x3daaeabb	0.083455525
56	0x3e0e4d3f	0.13896655
57	0xbdaf416b	-0.08557399
58	0xbcd20707	-0.025638117
59	0x3d4220b0	0.047394454
60	0x3d026195	0.031831343
61	0x3d02eab5	0.031962115
62	0xbbf384fa	-0.0074316235
63	0xbb1c86a9	-0.0023883975
64	0xbe1d000f	-0.15332054
65	0xbe01f149	-0.12689699
66	0xbdf5eb51	-0.12007774
67	0xbdd16698	-0.10224646
68	0xbad4002f	-0.0016174371
69	0x3db78924	0.089617044
70	0x3e11f1ba	0.14252368
71	0x3e0477e7	0.12936364
72	0xbdd59869	-0.104294606
73	0xbdfd5103	-0.123689674
74	0xbe0f37d4	-0.1398614
75	0xbd1f71c3	-0.03892685
76	0xbd312d92	-0.04325635
77	0xbd264958	-0.04059729
78	0xbd813ab5	-0.063100256
79	0xbdce0791	-0.10060037
80	0xbd83f042	-0.0644231
81	0x3c5f17f0	0.013616547
82	0x3d537573	0.05162568
83	0x3d60d8be	0.0548942
84	0xbd6f12c8	-0.05836752
85	0xbda18ea5	-0.078885354
86	0xbd0adbae	-0.03390091
87	0x3d69c445	0.057071943
88	0x3bc26426	0.005932349
89	0x3d2bb075	0.04191633
90	0xbd05d6b4	-0.03267546
91	0xbbeef956	-0.0072929068
92	0xbd6b9a30	-0.05752009
93	0x3dafa458	0.08576268
94	0x3d84e150	0.064882874
95	0x3e113e5b	0.14183943
96	0x3da23cf9	0.07921786
97	0x382fcca8	4.1913852e-05
98	0xbcf43f5d	-0.02981537
99	0xbc05ba0a	-0.008162031
100	0x3e235fd8	0.1595453
101	0x3e23e5fa	0.16005698
102	0xbd963f91	-0.07336343
103	0x3c4756a5	0.012166654
104	0x3dcf2c34	0.10115853
105	0xbdf7c136	-0.12097399
106	0xbdfd3521	-0.12363649
107	0xbd1db09b	-0.038498502
108	0x3c8b3ee6	0.016997766
109	0xbd1c19a9	-0.03811041
110	0x3bb371a3	0.005476193
111	0x3c8d6ff4	0.017265297
112	0xbc66f0cf	-0.014095499
113	0xbcc9b752	-0.024623547
114	0x3d23826d	0.039919306
115	0x3c9663d7	0.018358154
116	0xbcd03936	-0.025417905
117	0xbe16da90	-0.14731812
118	0xbdaac654	-0.08338609
119	0xbda4cb22	-0.08046557
120	0x3d079d65	0.033109087
121	0xbc2c154f	-0.010503127
122	0xbce97c14	-0.028501548
123	0x3dc0ff75	0.094237246
124	0x3d38539a	0.045001604
125	0x3ceddbc0	0.029035449
126	0xbd2fd1d3	-0.042924713
127	0x3c104b1a	0.008806968
128	0x387b36f9	5.989426e-05
129	0x3c3fb838	0.011701636
130	0x3b52802b	0.003211985
131	0xbd08d071	-0.03340191
132	0x3d982ae0	0.07430053
133	0xbd34067d	-0.0439515
134	0xbd2539e1	-0.0403384
135	0x3e113da5	0.14183672
136	0x3d7c73ce	0.061633877
137	0x3d494f83	0.049148094
138	0x3ceb6e2d	0.02873906
139	0x37826dcc	1.5548336e-05
140	0xbd4db834	-0.050224498
141	0xbcf9053a	-0.030398
142	0xbd09e7f7	-0.033668485
143	0xbcd25143	-0.025673514
144	0xbe10e42c	-0.1414954
145	0xbd551235	-0.052019317
146	0xbe267968	-0.1625725
147	0xbd0f5cff	-0.035000797
148	0x3d975e97	0.073910885
149	0x3d8d94f9	0.0691318
150	0xbcd1c3d0	-0.025606066
151	0xbd27ee87	-0.04099896
152	0x3db03f07	0.086057715
153	0xbcdae259	-0.02671926
154	0x377fb0c7	1.5240344e-05
155	0x3c7f8d38	0.015597634
156	0xbdd75de7	-0.10515957
157	0x3c6fe5ac	0.01464216
158	0xbb8529c5	-0.004063817
159	0xbde0be1b	-0.1097376
160	0xbdb045b3	-0.08607044
161	0xbdeed7cc	-0.11662254
162	0x3dad6ae8	0.084676564
163	0xbc1285ee	-0.008943064
164	0xbd809776	-0.06278889
165	0xbb1c74cd	-0.002387333
166	0x3ba05031	0.004892372
167	0x3ab3f27a	0.001372888
168	0xbc9967a8	-0.018726185
169	0xbd13f94a	-0.036126412
170	0xbcfaf82d	-0.030635918
171	0xbb631f33	-0.0034656047
172	0xbcbf0db1	-0.023321958
173	0xbdccb436	-0.0999531
174	0x3dba3a30	0.0909313
175	0x3c31b94f	0.010847404
176	0xbd03544a	-0.032062806
177	0x3d8730c6	0.066011
178	0xbc83792f	-0.016048996
179	0xbd39fec9	-0.045408998
180	0xbe16f37a	-0.14741316
181	0xbd57c015	-0.052673418
182	0xbb38d62a	-0.0028203824
183	0xbd38858b	-0.04504923
184	0x3d7f4e51	0.062330548
185	0x3e2e235b	0.17005675
186	0xbd8fff28	-0.07031089
187	0x3d232ba4	0.03983654
188	0x3e00e4d3	0.1258729
189	0xbd850671	-0.06495369
190	0xbdb7d6cd	-0.08976517
191	0xbcfaf6bc	-0.03063523
192	0xbdd55f2a	-0.10418542
193	0xbd9a43b8	-0.075324476
194	0xbc96da20	-0.018414557
195	0xbc627187	-0.013821012
196	0xbd443476	-0.047901593
197	0x3c3b6382	0.011437299
198	0xbbac33e0	-0.0052552074
199	0xbcb6c088	-0.022308603
200	0xbc5b336e	-0.013378961
201	0xbd5f7793	-0.054557394
202	0xbdc26a75	-0.09492961
203	0xbdaf2d79	-0.08553595
204	0xbd5901ed	-0.052980352
205	0xbda5abdf	-0.080894224
206	0xbc994d24	-0.018713541
207	0xbdd3dedf	-0.10345244
208	0xbb8a30c9	-0.0042172414
209	0xbda8e6a9	-0.0824712
210	0xbdbe07a6	-0.092788026
211	0x3b1a273c	0.002352192
212	0xbdb53377	-0.08847707
213	0xbd229ac5	-0.03969838
214	0xbd17dfa0	-0.0370785
215	0xbd46d562	-0.04854334
216	0x3d8891cb	0.06668433
217	0x3be0aa3f	0.0068562324
218	0xbd84f05b	-0.06491157
219	0x3d50bf85	0.050963897
220	0x3caffeeb	0.021483859
221	0xbd1499b8	-0.03627941
222	0x3b76179d	0.0037550696
223	0xbd075df4	-0.033048585
224	0x3cfef6b1	0.031123491
225	0xbd7664ee	-0.060154848
226	0x3b8c05fd	0.004273175
227	0x3d09363c	0.033498988
228	0x3ca0c8ca	0.019626994
229	0x3ce014d5	0.027353683
230	0x3c1a64aa	0.009423414
231	0x3ce35daf	0.027754633
232	0x3cf345e3	0.02969641
233	0x3cdafa56	0.026730698
234	0x3dbcb480	0.09214115
235	0x3d0da94d	0.034585286
236	0x3cd80024	0.026367255
237	0xbb608963	-0.0034261576
238	0x3d18cf65	0.03730716
239	0x3cba9e44	0.022780545
240	0xbc35f2d9	-0.011105263
241	0xbd1f0301	-0.038821224
242	0xbd012dc4	-0.031537786
243	0xbd9d8e04	-0.07693103
244	0xbce37d27	-0.027769638
245	0xbc85578c	-0.016277097
246	0xbd3013cf	-0.04298764
247	0x3ce99aaa	0.028516132
248	0xbd10021d	-0.035158265
249	0xbdc8d1a2	-0.09805609
250	0xbd1b2d47	-0.037884977
251	0x3dcd4bdd	0.100242354
252	0x3bcafaa7	0.006194431
253	0xbc1f9794	-0.009740729
254	0xbc8c5bb7	-0.017133577
255	0xbc810d6d	-0.015753472

conv_net.C4.weight f4 [1, 128, 3, 3]
0	0xbd1f98a3	-0.038963925
1	0xbc8988d5	-0.01678888
2	0xbd70d2e8	-0.058794886
3	0xbc71dcc7	-0.01476211
4	0xbc31093d	-0.010805425
5	0xbd10264d	-0.035192776
6	0xbc193e62	-0.009353252
7	0x3b2530a2	0.002520599
8	0xbcb3474a	-0.02188458
9	0x3d6550ad	0.05598514
10	0x3c6ee51a	0.014580989
11	0x3d44de5e	0.04806363
12	0x3d9b817d	0.07593057
13	0x3ce05d3e	0.027388211
14	0x3d85b2a5	0.06528214
15	0x3d78eabd	0.06077074
16	0x3b481c83	0.0030534572
17	0x3d3e8628	0.04651466
18	0x3c9f97f4	0.019481637
19	0x3c6df385	0.014523392
20	0x3b028d10	0.0019920506
21	0x3d2934bb	0.041310053
22	0x3e1bde5d	0.15221544
23	0x3da101b2	0.078616515
24	0x3b9f4d24	0.004861491
25	0xbbe567f3	-0.007000917
26	0x3c353fcf	0.011062576
27	0x3db8a09f	0.09015011
28	0x3d7f2e12	0.062299795
29	0x3c98cd60	0.018652618
30	0x3dc295dc	0.0950124
31	0x3d8bb232	0.068210974
32	0x3cd12714	0.02553133
33	0x3983063c	0.00024990912
34	0x3ab67692	0.0013920835
35	0x3b87cf8f	0.004144616
36	0x3dd56c26	0.10421018
37	0x3d9e2f48	0.07723862
38	0x3dba6674	0.09101573
39	0x3dffdbb1	0.12493075
40	0x3dad9078	0.08474821
41	0x3bc97e98	0.0061491244
42	0x3d46ab96	0.04850348
43	0x3ce1bc66	0.027555656
44	0x3d02198f	0.031762656
45	0xbd8bcc9b	-0.06826135
46	0xbda00551	-0.07813514
47	0xbda66941	-0.08125544
48	0xbda78583	-0.08179762
49	0xbdaebccb	-0.08532103
50	0xbdae05fc	-0.08497235
51	0xbda5dd77	-0.08098882
52	0xbd49280d	-0.04911046
53	0xbd0c3642	-0.03423143
54	0xbd6ed410	-0.058307707
55	0xbcbae447	-0.02281393
56	0xbb0a095e	-0.0021062712
57	0xbd4c3690	-0.049856722
58	0xbb0691b1	-0.0020533616
59	0x3d9a0232	0.0751995
60	0xbd302322	-0.043002255
61	0x3d700f3b	0.058608275
62	0x3e2d4479	0.16920651
63	0x39c88a3e	0.0003824997
64	0x3ca66986	0.02031399
65	0x3d9ab53e	0.075541005
66	0x3c172f3e	0.009227572
67	0x3c5fd554	0.013661701
68	0x3d950304	0.07275966
69	0x3ca0f6de	0.019648965
70	0x3d3cf5fc	0.046133026
71	0x3e1bacd1	0.15202643
72	0xbd1a4498	-0.037663072
73	0xbd60f265	-0.054918665
74	0xbd07e61e	-0.03317844
75	0xbc40b314	-0.011761446
76	0xbd300c77	-0.042980637
77	0xbcb32e88	-0.021872774
78	0xb9faf2ad	-0.00047864523
79	0xbc2e44b4	-0.010636497
80	0xbc068417	-0.008210204
81	0x3c1c751f	0.009549408
82	0x3e1da6eb	0.15395705
83	0x3bdfcc4e	0.006829775
84	0xbc507a97	-0.01272454
85	0x3c89b509	0.016809957
86	0xbcf3ecb6	-0.029775959
87	0xbc36f588	-0.011166938
88	0xbcbbec1c	-0.022939734
89	0xbca17ac0	-0.019711852
90	0x8cb50d46	-2.7895454e-31
91	0x8cbfe1fb	-2.9564217e-31
92	0x8ccb0b0f	-3.1283758e-31
93	0x8cfb5698	-3.872479e-31
94	0x8d004c4a	-3.9534875e-31
95	0x8d019131	-3.992596e-31
96	0x8d096d53	-4.234798e-31
97	0x8d0e14d0	-4.378218e-31
98	0x8d114968	-4.4769934e-31
99	0x3bf25072	0.0073948437
100	0xbb275396	-0.0025531999
101	0x3adbf7fa	0.0016782277
102	0xbcb91317	-0.02259211
103	0x3bd02c90	0.0063529685
104	0x3b3d9382	0.0028927033
105	0x3f08deae	0.5346478
106	0xbbe888b1	-0.007096373
107	0x3938ff83	0.00017642793
108	0xbdb77bc8	-0.08959156
109	0x3cfa0bf2	0.030523274
110	0x3d2b1f99	0.04177818
111	0xbdb1d015	-0.086822666
112	0x3c719f65	0.014747475
113	0x3d85340c	0.06504068
114	0xbd68e633	-0.05686016
115	0x3d281c2f	0.041042503
116	0x3d4c2565	0.04984035
117	0x3d54a45f	0.05191457
118	0x3d1b1095	0.03785761
119	0x3da49682	0.080365196
120	0x3d50e034	0.050995067
121	0x3cae2bf5	0.021261195
122	0x3dde9bae	0.10869537
123	0x3d31826c	0.04333727
124	0x3d075797	0.033042517
125	0x3de206fd	0.11036489
126	0x3dab78d2	0.08372654
127	0x3d8b4fd6	0.06802337
128	0x3d989a5d	0.074513175
129	0x3d343832	0.043998905
130	0x3d99624a	0.0748945
131	0x3d9c447b	0.07630249
132	0x3dc29f7e	0.09503077
133	0x3d762ec9	0.06010321
134	0x3d706449	0.05868939
135	0xbe26e4b3	-0.1629818
136	0x3d139f72	0.03604073
137	0x3caa758c	0.020808004
138	0x3c34dd40	0.011039078
139	0x3cd0a36d	0.025468552
140	0x3c8dadf9	0.01729487
141	0xbc60b590	-0.013715163
142	0x3c1f9f3d	0.009742555
143	0x3c1828bd	0.0092870565
144	0xbdbb7cc2	-0.09154655
145	0xbdf23ae3	-0.11827638
146	0xbd78a487	-0.06070378
147	0xbdcd4c76	-0.100243494
148	0xbdf3ae98	-0.118985355
149	0xbdad93c1	-0.084754474
150	0xbdc7a351	-0.09747947
151	0xbe0390e6	-0.12848243
152	0xbd817b97	-0.06322401
153	0xbc2e07f0	-0.01062201
154	0xbcf0ee18	-0.029410407
155	0xbcd5bd94	-0.026091374
156	0xbc462464	-0.012093637
157	0xbd1fc9e9	-0.039010916
158	0xbd6e59ce	-0.058191113
159	0xbc8e1c18	-0.01734738
160	0xbcc69d94	-0.024245061
161	0xbd4e7db0	-0.050412834
162	0x3d94ea52	0.072712556
163	0x3de5d2fc	0.11221883
164	0x3dfdc45f	0.123909704
165	0x3dcf1af2	0.10112561
166	0x3e0a8505	0.13527305
167	0x3e02bb94	0.12766868
168	0x3d8840f4	0.06653014
169	0x3d82344b	0.0635763
170	0x3dc2f6c2	0.095197216
171	0x3d88575e	0.06657289
172	0x3dc814dc	0.097696036
173	0x3d98de15	0.07464234
174	0x3d65b0ab	0.056076687
175	0x3dd696af	0.10477959
176	0x3d843bdf	0.06456732
177	0x3bd9a96d	0.0066425116
178	0x3dd1537e	0.10221003
179	0x3d5bd90e	0.053673796
180	0x3d577cfd	0.052609432
181	0x3dc60375	0.09668628
182	0x3deffddd	0.117183425
183	0x3d0c54e2	0.034260638
184	0x3dbe82fb	0.09302326
185	0x3e0ca176	0.13733467
186	0x3cd24b6b	0.025670728
187	0x3cda8fd0	0.026679903
188	0x3d5f2587	0.05447915
189	0x0a6455b0	1.0993917e-32
190	0x0a7a8de3	1.2063748e-32
191	0x0a92bb86	1.4129827e-32
192	0x0a528c5b	1.013753e-32
193	0x0a638a9d	1.0955723e-32
194	0x0a851502	1.2815336e-32
195	0x0a5b0213	1.05448566e-32
196	0x0a6926be	1.12258285e-32
197	0x0a8332ac	1.2633902e-32
198	0x3c56774e	0.013089968
199	0x3d3f2a73	0.046671342
200	0x3caafe9a	0.020873357
201	0xbd544810	-0.051826537
202	0x3db01e0a	0.085994795
203	0x3cda78a7	0.02666886
204	0xbd97f903	-0.07420542
205	0xbdc11851	-0.09428466
206	0xbc79a5dd	-0.015237299
207	0xbd8fa918	-0.07014674
208	0xbc0b9d42	-0.00852138
209	0xbc249c92	-0.010047095
210	0xbd26882e	-0.040657215
211	0x3cce7009	0.025199907
212	0x3c96cfc4	0.018409617
213	0xbbca765c	-0.0061786603
214	0x3c7529da	0.0149635915
215	0x3cd19b36	0.025586706
216	0x3c89360c	0.016749404
217	0x3ca5f7e1	0.0202598
218	0x3d3cfdad	0.04614036
219	0x3cb2bab0	0.021817535
220	0x3cb98410	0.02264598
221	0x3d2e2759	0.042517994
222	0x3c134648	0.008988924
223	0x3cb3801c	0.021911673
224	0x3d1110b3	0.035416316
225	0x3db6f3c0	0.089332104
226	0x3d7ffb97	0.062495794
227	0x3e1a79e8	0.15085566
228	0x3e08a2e0	0.13343382
229	0xbd0b7dcc	-0.034055516
230	0x3da0649f	0.07831692
231	0x3e2c251e	0.16811034
232	0x3da8e757	0.082472496
233	0x3e31999c	0.17343754
234	0x3cbdafff	0.02315521
235	0x3ce9218b	0.028458377
236	0x3cc9b204	0.024621017
237	0x3d41a19c	0.047273263
238	0x3d1ffa4c	0.03905706
239	0x3d2f6397	0.042819586
240	0x3cd458e2	0.025921289
241	0x3cfe878a	0.03107049
242	0x3d091f8a	0.033477344
243	0xbca08405	-0.019594202
244	0xbc0cbc9c	-0.00858989
245	0xbcc2b72a	-0.02376898
246	0xbc907665	-0.01763458
247	0xbca82120	-0.020523608
248	0xbcd298f0	-0.025707692
249	0xbca4ce62	-0.020117942
250	0xbc96616d	-0.018357003
251	0xbc994e1b	-0.018714001
252	0xbb29539a	-0.0025837184
253	0xbade0872	-0.0016939773
254	0xbaaf47a6	-0.0013372793
255	0xbb5f18e1	-0.0034041929
