online_iceocean/NetworkB_weights_CNNG23.pt (torch, 46815 bytes, 4 tensors)

conv_net.C1.weight f4 [32, 12, 1, 1]
00000000: 8599 9e3d f33c e53d 0d57 603d a8b8 f63d
00000010: 4091 013e 8302 9c3e 1f78 c5bd 5da1 35bf
00000020: 6b16 89be eb7f 1e3e 1262 51be c015 21bf
00000030: b57a c8bd 302d 28bf 533d 70be 571d 573e
00000040: d121 32be 27fa a13e 440a 053d e4ef 273e
00000050: 0f3c e43d 4ea1 d03e 5fb4 1d3e 86d3 b13b
00000060: 06e3 0cbc 3882 993c 9bbf 41bc e861 88bd
00000070: f883 cc3c f94e adbd d1fd 803d 6895 78be
00000080: 28ea 8bbe be30 ffbb f5dd b8bd 82f3 353f
00000090: 2e32 fdbd bb12 353e ec33 86bd 45ab 3e3d
000000a0: 4572 0bbe e10b 33be dc0b ecbd 2369 193e
000000b0: 7c16 723e db02 f73e 1b8e a83c f3f0 86be
000000c0: 1f3a e6bd c1a4 5dbd 9f20 513d 0542 87bd
000000d0: 856e 5d3a b42a 69bd 78a2 333d eb0f 90bf
000000e0: c796 d13e 436b 50be 35ff 903d 07e3 263c
000000f0: dd63 58bd 95b8 0b3d 6116 78bd 0737 76bd
00000100: f035 a6bc 7d2d 53bd fea8 e2bd 7c85 b6bf
00000110: a6e8 b7be 4176 633e 52e5 c03c 89cd c93e
00000120: 296d 45be 0f35 283c 608d c93c 6116 963e
00000130: 754b 06be 72b6 a63e 7e39 8abe 9526 9e3e
00000140: ff07 04be 3e5d 82bd f02c 333d df68 9b3e
00000150: 4bfa 073e 7c77 903d 29d7 40be ab43 183e
00000160: 9157 edbc 2478 4dbd 3607 22be 9b0b 8e3e
00000170: 0fc4 3abe 1915 c53e 3fa9 b0bd d999 a03b
00000180: e3fc 153d c45b 93bf aac6 22bf f582 98bd
00000190: 9bd8 9bbc 49be d6bd 6bb9 4abe 899a 983d
000001a0: 780e d9bc 6fd4 92be e6d3 06be 4247 d23d
000001b0: a97c 2b3a 1195 b93c 9039 06bc 1dc3 883c
000001c0: 27df ba3c c8ca b33b ce4e 153d 9ff7 0b3e
000001d0: 4afa c03d ed5c c7bf 5011 b5bd 6511 aabe
000001e0: 340c 79bd 3d11 a03c 2b49 b2bd 1f54 2bbe
000001f0: 03d4 103d 3c77 fabd fbc0 25be abc2 72be
00000200: f8a7 0d3c 6622 e3be cde4 c1bc 089e 3c3f
00000210: 1d18 92be c48e d13d 7039 e1bc 15d9 343e
00000220: 583a 6c3d 71ce c53e 10e6 963c 3a2a a93e
00000230: 0b86 c8bc 0e46 ee3e 95e1 39bd dc14 5cbf
00000240: cc19 273e e980 b5bd 044c a7bd 4b4d 543e
00000250: 41c4 c6bd 479f 843d 193e 90bd 5e76 8bbf
00000260: 4c4d 46be a1d2 08bf 21b1 0b3e 9c02 acbe
00000270: d85c 633c ab4b 103d f689 80bb 5813 573d
00000280: 1e12 e03c 94ac cabf 28f7 adbe b7cc 813d
00000290: 6c5a f83c 891c d0bd 5906 143d 0b8e 87be
000002a0: 721b 2a3e 7505 37bd 6425 98bd e327 34be
000002b0: 5363 c3bd 317d 85bf 7cbf f03e bdf8 8cbe
000002c0: 176a d13d 0466 f6bc 0a10 8a3b 95eb d73c
000002d0: 699e 773d b3ed a03d eefc e6bc 8c58 87bf
000002e0: dab0 84be 8974 9a3d dfd4 ed3d 760c bc3e
000002f0: f91e 2d3c 27d5 57bd 304d fc3d d6a2 803d
00000300: db4f 34be 9f4c 3dbe 60db ba3d 7404 0e3e
00000310: ab02 623e 112d 4fbf b8d5 48be 85d5 033d
00000320: 3454 1ebe 2193 0f3e 20c1 00be 4f04 b8be
00000330: e425 4fbc b967 e6bf 6b2d 35bd b2f4 3cbd
00000340: a1aa 903d a40c bdbd aea8 dabd 14ff 6b3d
00000350: bf55 98bd 12fe 7fbd 7506 07bd 9e83 383e
00000360: bf70 3c3e 4b29 1bbc f0f7 ba3b 13b9 7dbd
00000370: 264b 74be ced8 1bbe 6744 91bd 0a48 c23d
00000380: 6833 15be 65fb d0be 0812 89be 3f7f acbe
00000390: a2d5 ec3d c759 d6bd c5fe 93bd c51b 42bf
000003a0: fa6d 9ebe 23d9 a33e e8fd 85be a796 acbe
000003b0: 154d 68be 9650 943b fb44 40be 9091 973e
000003c0: 4d5e 743b 7723 813e c6b2 b7bd 85cd 733e
000003d0: 81b4 30bd 38a5 e43d b7ed 4b3e 4890 11be
000003e0: 0626 3dbe d1f4 6e3e 0387 a03d 87f6 97be
000003f0: ddaf 1e3f 9475 49bf fbd0 fd3b 2f55 a83d
0.07744125 0.11193266 0.054770518 0.12046939 0.12653065 0.30470666 -0.09642052 -0.70949346
-0.26774916 0.15478484 -0.20447567 -0.6292381 -0.097890295 -0.6569395 -0.23460893 0.21007286
-0.17395712 0.31636164 0.032480493 0.16400105 0.11144268 0.40748066 0.15400837 0.005426827
-0.0085990485 0.018738851 -0.011825467 -0.06659299 0.024965271 -0.084623285 0.06298412 -0.24275744
-0.27327085 -0.007787793 -0.0902671 0.7107469 -0.12363087 0.17682926 -0.06552872 0.046550054
-0.13617809 -0.17485 -0.115256995 0.14981513 0.2364139 0.48244366 0.020575574 -0.26355705
-0.112415545 -0.0541122 0.0510565 -0.06604389 0.00084469497 -0.05692549 0.043856114 -1.1254858
0.40935346 -0.20353417 0.07079927 0.0101859635 -0.052829612 0.034111578 -0.060568217 -0.060111072
-0.020289391 -0.051557053 -0.11067389 -1.4259486 -0.35919684 0.22213079 0.023546848 0.39414623
-0.19279923 0.010266556 0.024603546 0.2931395 -0.13114722 0.3256107 -0.26996988 0.3088881
-0.12893675 -0.06365441 0.043744028 0.30353448 0.13279073 0.0705404 -0.18832077 0.14869563
-0.028972419 -0.050163403 -0.15823063 0.2774323 -0.18238853 0.3849266 -0.08626031 0.0049011526
0.036618125 -1.151238 -0.6358439 -0.07446853 -0.019024184 -0.10485513 -0.19797294 0.0745135
-0.026496157 -0.286777 -0.1316677 0.102674976 0.0006541708 0.022654088 -0.008192435 0.0166946
0.022811485 0.00548682 0.036452107 0.13668679 0.09422739 -1.5575234 -0.08841193 -0.33216396
-0.060802653 0.01953947 -0.08705362 -0.16731308 0.03535844 -0.122297734 -0.16186897 -0.23707072
0.008646004 -0.4436218 -0.023668671 0.73678637 -0.28534022 0.102323085 -0.027493209 0.17660935
0.05767283 0.38634065 0.01842025 0.3304003 -0.02447798 0.46537822 -0.045381147 -0.8596933
0.16318434 -0.08862478 -0.08168796 0.2073261 -0.09705401 0.06475692 -0.07043094 -1.0895498
-0.19365424 -0.53446394 0.13641788 -0.3359574 0.013877116 0.035228413 -0.003922696 0.052508682
0.027352389 -1.5833917 -0.33977628 0.063378744 0.030316554 -0.10161693 0.036138866 -0.26475558
0.16612032 -0.04468294 -0.07429007 -0.1759334 -0.09540429 -1.042883 0.4702109 -0.27533522
0.10225313 -0.030077942 0.004213338 0.026357451 0.060453806 0.078578375 -0.028196778 -1.0573897
-0.25916177 0.075417586 0.116128676 0.36728257 0.0105664665 -0.052693512 0.1231941 0.062810585
-0.17608587 -0.1848626 0.09123874 0.13868886 0.2207133 -0.8092814 -0.19612777 0.03218605
-0.15461808 0.14020969 -0.12573671 -0.35940787 -0.012643311 -1.8000404 -0.044232767 -0.046131797
0.07063795 -0.09230927 -0.10676704 0.05761631 -0.0743823 -0.06249816 -0.032965142 0.18018958
0.18402384 -0.009470294 0.005705826 -0.06194408 -0.23856792 -0.15219423 -0.07093125 0.094863966
-0.14570391 -0.408168 -0.2677157 -0.3369083 0.11564185 -0.104663424 -0.07226328 -0.7582362
-0.3094328 0.320016 -0.26170278 -0.3370869 -0.22685654 0.004526208 -0.18776314 0.29603243
0.0037287653 0.2522237 -0.08969645 0.23808868 -0.043140892 0.111643255 0.199149 -0.14215195
-0.18471536 0.23335578 0.078382514 -0.29680273 0.61987096 -0.78695035 0.0077458597 0.082193725

conv_net.C2.weight f4 [64, 32, 1, 1]
00000000: 015c 803d 0c1b 2d3c 672c 443d c9af cabe
00000010: 832f db3d 64ef 0b3f ac42 0fbe 7de7 18be
00000020: bcfa 3fbb e3b7 163d 7ec6 85be ac9c 943c
00000030: ad04 c3bd 3970 9cbc efab 223e 3cd1 35be
00000040: 267a 413e a229 79be 69b5 63bd 8777 893d
00000050: 39df c33e 462a 8a3d 9938 803d 3b0a 523e
00000060: bfbc 97be 508e 5f3d e228 a4bd a269 cbbd
00000070: edda d03d 3d77 f9bc 3474 9bbd 71f1 6fbd
00000080: eb3e 90bd 64e9 1a3e 494f a43d 733c ddbd
00000090: d5c6 d0bd 6336 d1bc 99b0 5ebd d882 363c
000000a0: 2546 63be 9961 32be eee9 12be bed4 683e
000000b0: 4913 f63d 0095 21be 866e 463e 6893 19bf
000000c0: bb96 1ebc ae26 60be c812 a43b 27d5 ca3d
000000d0: 65b5 8dbe dc01 23bf e4b1 a1be f119 013e
000000e0: 52d0 a53e c94f 963d 90aa 303e 982d 9cbd
000000f0: 6c13 f9bd ce6c 2bbf ba77 9abd cf9e 18be
00000100: 9708 24be 66a0 1e3d 1e1e 773d 5cbc 963d
00000110: c089 2d3e d0ad 27be 613e 513e 9ba0 163c
00000120: 6f2d 193c e812 843e 674f 4ebe 5516 65be
00000130: b0a3 6e3d abac 2c3e 6f6f 8d3e 3caa 9a3d
00000140: 05d2 8dbe 39e3 b6be 05ad 37be 7f27 7e3e
00000150: 1af9 7bbe 57b7 9c3e d19a 26be b7b0 743e
00000160: 81f8 083d acb3 57bd 491d 8d3e fdb1 693d
00000170: 90e9 6bbd 2b37 253e 1f03 a1be e906 28be
00000180: d4fa 03be 983e 8dbe 4cde 80bd db96 55be
00000190: cb88 51be dc61 7f3e 27ae d7bd 6b21 d8be
000001a0: 3a9c 8fbe d1c9 77be 73a6 2c3e cda6 833d
000001b0: 529e 3bbe 8af9 e23c df63 c83c 3c48 bd3e
000001c0: 88e3 03bd ef3f b0bd 5e23 5f3e 85c0 983e
000001d0: 0205 b0bd b4ae 06bd d75e 143c 3235 1d3e
000001e0: 6177 1d3e 71d7 34be 5c06 8b3e 11dc ac3d
000001f0: 6990 f73d e3c6 853e f9cc 08be 20b7 033e
00000200: 50f5 9e3e dfe3 3f3e 30a6 08be 210f a1bd
00000210: 4251 42be 57a8 aa3d fc7b 493d dec5 30be
00000220: 5818 70bf 6c87 a83e 55a5 973d e2c7 cb3e
00000230: 4f69 1d3e f7a9 04be 30f9 c1be 99b4 74bd
00000240: e4af c83d 7c8f 343e 3864 81bc 3eb2 16be
00000250: 6d0d 233e 10c6 9f3d 3014 d83d 83d4 2dbe
00000260: 995d 93be c23d 8cbd 3d40 a5bd c4c1 f13d
00000270: 851d cf3a 3767 543c 30c1 56bd 2f73 cb3d
00000280: 63df 35be 042d bebd 0b29 523e 1b8f 183e
00000290: 4641 d4bd 53a0 9fbe 2171 ca3d 34d8 96bd
000002a0: aa1a 023e 86ea 433c fcad b13d 550b f0be
000002b0: 5fef 5f3d 1281 dbbc 8c73 c5be fc87 1c3e
000002c0: b013 a2bd e1cd 803e 4525 1cbb e094 9fbe
000002d0: bb58 6bbe f838 58be 886e 503e a2fd a3be
000002e0: 17fd 2bbc d67c 363e 87af e93c 1719 933c
000002f0: 3037 5a3e 6767 54be 0f81 aabe 35f7 9f3c
00000300: b4b9 fbbd 2cd1 aa3d 5b05 bc3c c5e5 3fbe
00000310: 5177 7d3e 69ff e2bd cdf9 4cbd 3e79 d7bd
00000320: bda5 32bd ccbe 423e ae6f bb3e 8c00 03be
00000330: f809 bbbd 4248 44be c9ac 953e ae2c db3d
00000340: f626 13bd f396 7ebd 2d73 bd3c 2069 c1bd
00000350: 3abf 0abe 4c90 80be 31ed 903e e506 b6be
00000360: f4c4 423d a4ed 09bd 78ed 993e 1e60 07be
00000370: 0455 48bd d333 8cbd 96dd 443d ce24 bebc
00000380: 10b1 83bc 4afe f7be e866 653e dd9d b5be
00000390: 266e 56be 77a5 92bd b66c 31be a82d a13e
000003a0: 10d8 4bbd fd22 043d f379 5c3e 3def b23d
000003b0: 7ed7 8ebd d43d d03e d64b 963d d205 b6be
000003c0: 7b90 8dbc b4e3 84bc ba76 863d 9776 bdbe
000003d0: 23d7 4b3d 2e11 113e 890a 493d 749b 173d
000003e0: 1a2e 36be 75ed 2f3e 7425 cdbe fc91 233e
000003f0: 2ed7 773e 65e2 97bd 0419 10be 8699 933e
0.06267548 0.0105655305 0.047893908 -0.39587238 0.107024215 0.54662156 -0.13990277 -0.14932056
-0.0029293736 0.03679646 -0.26128 0.018141113 -0.09522376 -0.01909648 0.158859 -0.17755598
0.18894252 -0.24332288 -0.055592928 0.06712251 0.38256243 0.06746344 0.06260795 0.20511715
-0.2963619 0.05457908 -0.0801561 -0.09932257 0.10198007 -0.030452365 -0.07590523 -0.058579866
-0.07043251 0.15128094 0.08022935 -0.108025454 -0.10194174 -0.025538629 -0.054367635 0.011139594
-0.22194727 -0.17420043 -0.1434705 0.22737405 0.12015397 -0.15779495 0.19378099 -0.5999055
-0.009679492 -0.21889755 0.0050071217 0.09903937 -0.27677456 -0.6367471 -0.31581032 0.12607552
0.32385498 0.073394366 0.17252564 -0.07625884 -0.121619076 -0.669629 -0.07542367 -0.1490433
-0.16018902 0.038727187 0.060331456 0.073601454 0.16947079 -0.16374898 0.20433952 0.009193565
0.009349211 0.25795674 -0.20147477 -0.223718 0.058261573 0.16862743 0.2762408 0.07552001
-0.27699295 -0.35720232 -0.17937095 0.24819754 -0.24606743 0.30608627 -0.16269995 0.23895536
0.033440117 -0.052661583 0.27561405 0.05705451 -0.05759579 0.16134326 -0.31447694 -0.16408886
-0.12888652 -0.27586818 -0.062924 -0.20858328 -0.20462339 0.24939674 -0.10531264 -0.42212996
-0.2804888 -0.2419808 0.1686037 0.06428299 -0.18322113 0.02770688 0.024461685 0.36969173
-0.032199413 -0.08605944 0.21790835 0.2983438 -0.08594705 -0.032881454 0.009055815 0.15352324
0.1537757 -0.1766031 0.2715329 0.08440412 0.12088091 0.261283 -0.13359441 0.12862825
0.31046534 0.1873927 -0.13344646 -0.07864214 -0.1897631 0.083328895 0.049190506 -0.1726298
-0.93787146 0.3291582 0.074045815 0.39800936 0.15372203 -0.12955461 -0.37885427 -0.059742544
0.097991735 0.1763286 -0.015794858 -0.14716431 0.1592309 0.07801449 0.105507255 -0.16975598
-0.28782347 -0.06847717 -0.08068893 0.11804536 0.0015801644 0.012964061 -0.05243033 0.09934079
-0.17760997 -0.0928593 0.20523469 0.1489834 -0.103640124 -0.31177005 0.09884859 -0.07365456
0.12705484 0.01195777 0.08675763 -0.46883646 0.05467164 -0.026794944 -0.38564718 0.15286249
-0.07913911 0.25157073 -0.0023825925 -0.3116827 -0.22983067 -0.21115482 0.20354664 -0.32029444
-0.010497353 0.17821059 0.02852608 0.0179563 0.21310115 -0.2074257 -0.3330159 0.019527057
-0.122912794 0.083406776 0.022951772 -0.18739994 0.24752547 -0.11083872 -0.050042916 -0.10521172
-0.04361509 0.19018096 0.36608642 -0.12793177 -0.09132761 -0.19168189 0.29233387 0.10701881
-0.035925828 -0.062155675 0.02312621 -0.09443879 -0.1354951 -0.2511009 0.28305963 -0.35552135
0.04755111 -0.033673897 0.30063987 -0.1322026 -0.048909202 -0.06845822 0.048062883 -0.02321091
-0.01607564 -0.48436195 0.22402537 -0.35472003 -0.20940456 -0.07160466 -0.17326626 0.31480145
-0.0497666 0.03225993 0.21530895 0.08737037 -0.069746956 0.4067217 0.07338683 -0.35551316
-0.017280808 -0.016221859 0.06565614 -0.3700454 0.049765717 0.1416671 0.049082313 0.037013486
-0.17791024 0.17180426 -0.40067637 0.15973657 0.24203178 -0.07416228 -0.14072043 0.28828067

conv_net.C3.weight f4 [128, 64, 1, 1]
00000000: 0eb9 bbbc 7eca 243d 3541 3f3b 5232 183d
00000010: ac58 32be 4758 753e dc5b 803d 220e b9bd
00000020: a56f 64bc e94a 1abd 244b 243d ae8d 92ba
00000030: 127b ce3d 44f0 a3be 80e8 da3d 89e9 20be
00000040: cf28 a03d e208 d5bd 4e9e ae3c e433 f83c
00000050: 4e15 e4bd f25c c3bd c2d0 81bd 2e0f 5abc
00000060: 2c02 0fbd 7dee b8bd 524d 2c3e 6fb9 5c39
00000070: cb77 763d 6843 36be c588 ad3d c8ae 9dbd
00000080: 2df5 90be 4c9d a33a 92f5 d33d 5a5e a6bd
00000090: b6a5 d4bc 5166 4bbd 01c5 913d b670 24bd
000000a0: 7ed7 58bd 94e9 d83c 23c3 90bd 1216 82bc
000000b0: 933b dbbc cfd0 91be 9af9 b53d 34e9 383d
000000c0: 80f7 0dbe fbfa 06be da39 ebbd c61f 813d
000000d0: c455 233c b182 533e 4a25 4bbd 258d 01be
000000e0: 3421 923c 51dc fd3a 058c 92bd 9968 ebbc
000000f0: e375 a13c 4502 56be b728 543d 96d3 4cbd
00000100: c575 25be 5cfe 553c e0d1 14be 1cac 3e3e
00000110: 3bc4 80be 7814 b73b e9b9 48be 95f6 15bf
00000120: 125a a9be 05d4 86bb 8ec7 85bd f8c1 60bd
00000130: 58c4 9a3c 017a 22be 435c 9dbd a696 003e
00000140: bb3a c2bd cc31 533e 0087 013e 4399 ae3d
00000150: 72d3 c53e e1f9 19bf f609 893d 50f0 3cbc
00000160: 4a24 83be 833e eabe 6d68 16be 90d5 ac81
00000170: 33de 893e d07e c23e 47aa 3bbd 0e00 ee3d
00000180: 598b 28bf bd17 6f3e 5ba4 8ebe 91ef 55be
00000190: 79da ecbd 5fa5 db3c 87f5 133e ab4b a0be
000001a0: 3c8b 04be 00b7 1ebf fea6 ec3d 93c3 803d
000001b0: c64b 98be 6bc8 4b3c 20ab 5fbe 57ab afbd
000001c0: d7b6 1f3e 7d1f 7abe dfa2 bcbe c515 582b
000001d0: 4840 a4be 5648 76be 7f64 fe3c 9fdc 03be
000001e0: 37d2 ae3c 4589 4f3d b24e 323e afa5 8c3d
000001f0: 2f36 cbbe 3f0f 4d3e 5b24 13be 2b62 93be
00000200: 7599 bfbd add7 debd 3a96 5ebe de20 58be
00000210: f1b1 aa3e 4210 503c 8f94 d53d 0249 a2bd
00000220: 12e1 38be 1787 babd 339b 203d 4ff9 11be
00000230: b45f 463d a814 8bbe 43d5 deba e159 bfbe
00000240: 8ed2 0ebd 1405 263e e594 b839 fc5a 42bd
00000250: cf2f 09be 1c37 c7bd eb45 78be eb73 86bc
00000260: 4efd 26bd eb6c 0bbf 0aba 163d 6580 c839
00000270: 5613 533d 44b1 a03d ebcf e4bd 7d3c e13a
00000280: 1d3f d1bd 3502 13bc 472c 23be 902a 97bc
00000290: cf52 eebc c754 b6bd 6f73 dc3c 4415 4c3d
000002a0: 91b1 4c3e b220 33bc 2a20 9b3d 8aa7 963d
000002b0: 7242 003e 8d2d 0cbd 6137 e4bd cb53 6e3e
000002c0: cdda a9be 6bb8 c03d aa59 4cbe 31fb a1bc
000002d0: c86f 1f3e af41 1ebe 39e8 96bd 5cf2 04be
000002e0: f2f3 203d 5450 c7ba 24d6 f83d 4a61 603c
000002f0: 8619 c0be 8f36 193c b5ce 5abd 93a8 13ba
00000300: be7a a9be f44c f5be ed33 bcbe a4a0 81be
00000310: 55bf aebe 2199 473c 8a7d 5c3d 6dda 2fbf
00000320: 3831 5b3a 3cdf d03d f31c b03e dd46 283e
00000330: cd61 ce3d e381 ecbd a7af 733e bd69 d33d
00000340: 0b0e b5be 0868 053e a71c b43e d77f 1abe
00000350: 8550 db3b c9eb e5be fa57 36be ae11 48be
00000360: 1933 aebd ab6f 5dbe 219d 613e 131c dcbd
00000370: c31c f93b 1260 82bd 0ef0 d0be dbce 5fbe
00000380: 6070 66be abca b83e 0b1a 5abe 9816 193e
00000390: aa1a 84bd 2081 d1bc 98ad 71be f243 d7bd
000003a0: 75d8 00bf b99d b73c c0ba e6bb 8cfe a13d
000003b0: 10dc b73d d42e 17be 06c3 7a3c db89 1ebd
000003c0: 03a3 3b3c 112e 11bc ffdc 7e3d f089 623d
000003d0: becb 3c3e 2932 4abf af3d 0bbd dcc3 5cbe
000003e0: d96c a8be f168 4abe 95c1 8fbd f901 a6bb
000003f0: 1c68 0fbe 693e 86be a671 48be e26a 493e
-0.02291539 0.040232174 0.0029183154 0.037157364 -0.17416638 0.23959456 0.06267521 -0.09035899
-0.013942634 -0.037669096 0.040110722 -0.001118114 0.100820675 -0.32019246 0.10688877 -0.15714087
0.078202836 -0.10402085 0.02131572 0.03029818 -0.11136876 -0.09539212 -0.063386455 -0.013309283
-0.03491418 -0.09029863 0.1682637 0.00021049914 0.060172837 -0.17799151 0.08473352 -0.076993525
-0.28312054 0.0012482791 0.10349573 -0.08123465 -0.025957923 -0.049658123 0.07117654 -0.040146552
-0.052939884 0.026478566 -0.070684694 -0.015879665 -0.026761806 -0.2847962 0.08885498 0.045144275
-0.13863945 -0.13181679 -0.11485644 0.063048884 0.009969179 0.20655324 -0.04959611 -0.12651499
0.017838098 0.0019368028 -0.07155613 -0.0287364 0.019709533 -0.20899303 0.05179664 -0.05000647
-0.16158207 0.013061132 -0.14533186 0.18620342 -0.25149712 0.005587157 -0.19602169 -0.5857938
-0.3307653 -0.00411463 -0.06532203 -0.054872483 0.018892452 -0.15866853 -0.07683613 0.12557468
-0.09483858 0.20624465 0.12649155 0.08525326 0.38637882 -0.6014691 0.06691353 -0.011531904
-0.25613624 -0.45750818 -0.14688273 -6.348927e-38 0.26927337 0.37987375 -0.045816686 0.11621104
-0.6583763 0.23348899 -0.27859768 -0.20892169 -0.11565108 0.026812254 0.1444913 -0.3130773
-0.12943739 -0.61997986 0.11555289 0.06287303 -0.2974531 0.01243792 -0.21842623 -0.08577602
0.15597092 -0.24426074 -0.3684301 7.6768827e-13 -0.32080293 -0.24051031 0.03105378 -0.12877129
0.021340473 0.05066802 0.17412832 0.06867539 -0.39689776 0.20025347 -0.14369337 -0.28785834
-0.093554415 -0.10880981 -0.21736994 -0.21106288 0.33338884 0.012699189 0.10428726 -0.079240814
-0.18054608 -0.091077976 0.03921051 -0.1425526 0.048431113 -0.27164197 -0.0017000813 -0.3737326
-0.03486877 0.16212875 0.0003520615 -0.04745005 -0.13397144 -0.09727308 -0.24245422 -0.016412696
-0.040768914 -0.5446307 0.036798514 0.00038242634 0.051532112 0.07846311 -0.1117247 0.0017184165
-0.10217116 -0.008972694 -0.15934859 -0.018452913 -0.02909222 -0.08902889 0.026910512 0.049824968
0.19989611 -0.010933088 0.07574494 0.07356174 0.12525347 -0.034223128 -0.11143375 0.23274152
-0.33174744 0.09410175 -0.19956079 -0.019773098 0.15569985 -0.15454744 -0.07368512 -0.12983078
0.039295144 -0.0015206435 0.12150219 0.0136950705 -0.37519473 0.009351387 -0.053419787 -0.00056327245
-0.33101457 -0.47910273 -0.36758366 -0.25317872 -0.3413035 0.012182505 0.05383066 -0.68692666
0.0008361521 0.101988286 0.34397087 0.16433282 0.10077248 -0.115482114 0.23797475 0.10322902
-0.35362276 0.13027966 0.3517811 -0.1508783 0.0066929483 -0.44906452 -0.17806998 -0.19537994
-0.0850584 -0.21624629 0.22032596 -0.10747542 0.0076023056 -0.0636598 -0.40808147 -0.21856253
-0.22503805 0.36092123 -0.21298997 0.14950025 -0.06450398 -0.025574267 -0.23601377 -0.105110064
-0.5033029 0.022414075 -0.0070413053 0.07909879 0.089775205 -0.14763957 0.015305286 -0.038705688
0.011452439 -0.008861081 0.062222477 0.05530733 0.18437096 -0.7898279 -0.033994373 -0.2155909
-0.32895544 -0.19766594 -0.07019345 -0.005066153 -0.14004558 -0.2621949 -0.19574603 0.19669679

conv_net.C4.weight f4 [5, 128, 1, 1]
00000000: f29e a23c 8c6e c63a 67df 0d3e 8479 793c
00000010: a6f8 3fbd 84f8 283c 76df 873b cf1b e3bd
00000020: 3f96 52bc 6486 d03c 31d7 76bb 98c5 c3bd
00000030: e44c 76be ec9a a8bc 1e7a 023b bc2a 1a3d
00000040: 757c 908c c0f1 0c3c ffe8 adbc aab1 843d
00000050: e34c 8fbe 0d45 9c3e e9cb 253f 2c4c 94bc
00000060: 78b1 e6ba 660a eabc e3c1 22bd 51e8 d0bd
00000070: dbe9 a2bb 6266 a7bd 2ec7 aabd 8f69 313d
00000080: a178 923d fef9 d23e d48d 55bd d184 6fbb
00000090: 3264 21be d48b 58bc 7d68 35bc e0ef 363e
000000a0: bb09 213c 7f1d f03c 027e 1cbd 4116 113d
000000b0: bc77 ff3b 134c 073c 91d7 213d 13d8 adbb
000000c0: 8b6c 61be 4f6d 35be a8f0 59bb a958 0c3d
000000d0: 20a8 e53d 30dc 653c 80fd a23b 3206 bbbc
000000e0: 8a3a 803d 28a2 debd 5685 b9bb 54b9 973c
000000f0: 1702 8d3d 8220 ecbc d731 ca3c e2ea ccbc
00000100: 71b5 a682 8c7b b7bd 4695 15bb 0b43 443e
00000110: 2804 08be efdb c73c 19e6 563d 4758 663c
00000120: 5d8a a03c d3a9 d73c 61ca 29bc d9a6 a73b
00000130: 667a a9bc c678 05bd 4ee6 43be 6542 093c
00000140: ce24 3b3c aa46 263c aaf1 9cbc f35d 8abc
00000150: f2d7 a7ba 43c7 773c 894b 653e 1f8a 2f3c
00000160: 7b4c 6eba fb08 a9bb 79a2 183b ce1b 28be
00000170: 7dd6 8fbb b92a 9b3b 753d 47bc 5601 cf3c
00000180: 9389 e33b fd3a cfbc fa57 2cbd 72bc e13a
00000190: dcf2 c2bb 5358 56be 3d6a b7bd 98da 99bc
000001a0: 4746 6f3d 9e76 523c d1f2 3e3c b91f e63c
000001b0: 0e67 173d 3395 7fbe 3884 dfbd 1497 103c
000001c0: 37b8 cdbc 4a7b 823e 2959 7ebe 6690 af3d
000001d0: 5230 513d 8095 abbd a9cd 10bd 1b06 adbd
000001e0: 4026 2cbd 60e5 9f3c c19b f83d 3e46 9f3d
000001f0: 8717 213d d9df 063e 4cab 73be ec86 b3bb
00000200: c2f5 d93c 707e aa3d d121 75be c547 e4be
00000210: 7cdb 1dbc 6001 c43e c32d 0e3a b5f1 45be
00000220: 5015 aa3a a076 b4bd 5e06 49bd a3d9 93bd
00000230: 0902 563e ad29 023e 982f a0bb aac1 07be
00000240: acc2 c48c cc07 d53d 4215 4ebf f1b9 7bba
00000250: 71f3 6d3e f784 7dbe 1594 17bf a8f9 043c
00000260: 62f5 2d3d 30e4 d93d 8260 a0bd bc05 7bbd
00000270: 1959 373d efaf 2e3e c07e 7bbd c14c 30be
00000280: 55c8 c2be 6fd9 abbe 96d1 f43b fb7a 29bc
00000290: 53df c13d e91c 9a3d 6b24 53bd 8e5c 34bd
000002a0: 1ac0 20bd 7808 cb3c ee39 093b f0bd 06be
000002b0: 7668 f3bc b673 28bd f787 813d 18d8 2c3e
000002c0: 586b 5b3e 35cd 253e ecc4 abbe 770f 103e
000002d0: 15a4 be3d e16b 343c 347c 683c 8437 31be
000002e0: b7c8 183c c3d2 e33c f9e7 0c3d 2a73 2fbd
000002f0: 6907 2ebe f499 08be 0cf5 12ba 293f 78bb
00000300: f4e1 c382 2b31 6dbd 0509 223a 0890 4fbd
00000310: 6cda 7a3e 68ff 48be 81e9 64bd 9a1b bdba
00000320: b0bb fd3c b90e 083d 52a7 f43c 1609 03bd
00000330: 763f 1f3d fd49 0bbd 4870 3c3d d7b0 23bb
00000340: aa19 663c 1778 5b3e d8a7 a73d bed7 07bd
00000350: 8557 13bb 4616 96bb 7a14 38be 1bf2 85bb
00000360: ca4c 7abb ac0e 4cbd 3e11 ccbc 7f49 993d
00000370: 07c5 573b a6f2 1cbd fc36 4fbd 283a afbe
00000380: c767 173e 5624 8fbd 2c4a 27bd b382 1d3c
00000390: a02f 02bd 7f6d 323e ac67 b7bd d6cf 133e
000003a0: 507d 863b 672a 853d 2168 a4bd b048 56be
000003b0: 51d8 353d 6c60 34bd 1804 0a3d 6e03 3abd
000003c0: d2b6 1a3d ff3f cabd f3e0 3d3e 9daf 463e
000003d0: e1c3 32be 849b 89bd 3d0b 1cbc 23b5 a4be
000003e0: b596 81bd 2d4b 043d 7211 bf3d db39 98bd
000003f0: 25a8 133d 226a abbd 6299 5f3e d1e7 ec3c
0.019851182 0.0015139147 0.13854752 0.0152267255 -0.04686799 0.010313157 0.0041465117 -0.110892884
-0.012853204 0.025454707 -0.0037664885 -0.095591724 -0.24052769 -0.020581685 0.0019909213 0.03763841
-2.2261618e-31 0.00860256 -0.021229265 0.06479199 -0.27988347 0.30521432 0.6476427 -0.018102728
-0.0017600497 -0.028569411 -0.039735686 -0.10200561 -0.0049717254 -0.08173825 -0.08338772 0.04331356
0.071519144 0.41206354 -0.05213721 -0.003654767 -0.15760878 -0.013216931 -0.011072275 0.17864943
0.00982898 0.02931094 -0.038206108 0.035421614 0.007796256 0.008257884 0.03951222 -0.005305299
-0.22014062 -0.17717479 -0.0033255015 0.03426424 0.11213708 0.014029548 0.004974067 -0.022830103
0.062611654 -0.108707726 -0.005661647 0.018520989 0.06885164 -0.028824095 0.024681969 -0.025014345
-2.449565e-37 -0.089591116 -0.002282457 0.191662 -0.13282835 0.024396865 0.052465532 0.014059133
0.019597227 0.026326096 -0.010363192 0.0051163253 -0.020688247 -0.03258588 -0.19130823 0.008377646
0.011422349 0.010148684 -0.019158203 -0.016890502 -0.0012805446 0.015123191 0.22392096 0.010714083
-0.0009090376 -0.0051585413 0.00232902 -0.16416857 -0.0043895827 0.0047353175 -0.012160649 0.025269192
0.0069438904 -0.025296682 -0.04207609 0.0017222299 -0.0059493612 -0.2093213 -0.0895581 -0.018780991
0.05841663 0.012845663 0.011654572 0.028091298 0.036963515 -0.24959259 -0.109138906 0.008825082
-0.025112255 0.25484687 -0.248387 0.08572464 0.051071472 -0.08378124 -0.035352383 -0.0844843
-0.042028666 0.019518554 0.12139083 0.077770695 0.039329078 0.13171329 -0.23795813 -0.0054787304
0.026606444 0.08324897 -0.23938681 -0.44586006 -0.009634849 0.382823 0.0005423689 -0.19330485
0.0012976322 -0.088116884 -0.049078338 -0.07219245 0.20899214 0.1271121 -0.004888486 -0.1325747
-3.0315745e-31 0.10401878 -0.80501187 -0.00096025976 0.23237397 -0.24757753 -0.5921033 0.008116163
0.042470343 0.106392264 -0.078309074 -0.061284766 0.044762705 0.17059301 -0.061400175 -0.1721678
-0.38043466 -0.33564326 0.0074712737 -0.010344262 0.09466424 0.075250454 -0.051548403 -0.04403358
-0.039245702 0.024784312 0.002093907 -0.13158393 -0.029712897 -0.041125976 0.06324761 0.16879308
0.21427667 0.16191562 -0.33548677 0.140684 0.0930864 0.011012048 0.014189769 -0.17306334
0.009325198 0.02781046 0.034400914 -0.04283444 -0.16995014 -0.13339978 -0.0005605973 -0.0037879443
-2.8782366e-37 -0.05790822 0.00061811536 -0.05067447 0.24497384 -0.1962868 -0.05588675 -0.0014427782
0.030973285 0.033217166 0.02986494 -0.031991087 0.03887888 -0.034006108 0.046005517 -0.002497723
0.014044205 0.2143253 0.081863105 -0.033164732 -0.0022482586 -0.004580292 -0.17976561 -0.004087699
-0.0038192743 -0.04981868 -0.024910565 0.074847214 0.0032923834 -0.038317345 -0.050589547 -0.34224057
0.14785682 -0.069893524 -0.04084222 0.009613681 -0.0317837 0.17424582 -0.08955321 0.14434752
0.004104294 0.06502228 -0.080276735 -0.20926166 0.04439575 -0.044037268 0.03369531 -0.045413427
0.037772007 -0.098754875 0.18542843 0.19402929 -0.17457534 -0.067191154 -0.009524164 -0.32169446
-0.06327573 0.032298256 0.09329499 -0.0743291 0.036049027 -0.083698526 0.21835855 0.028919132
