CNN_weights/NetworkA_weights_CV5.pt (torch, 394591 bytes, 4 tensors)

conv_net.C1.weight f4 [32, 17, 3, 3]
000000 a9 08 4d 3e a7 e3 f7 3d 7a 3f e9 bd cd fb 84 3b
       0.20022835 0.12103968 -0.1138906 0.0040583373
000010 ff 39 b7 3c c8 83 d6 bc ff 91 22 be bd 50 35 3d
       0.022366522 -0.026185885 -0.15876006 0.04426645
000020 b2 4f ae 38 3d 3d 3a bd 7f 13 5f 3e 21 88 be bd
       8.311811e-05 -0.045468558 0.21784781 -0.09303308
000030 f4 4a c8 3c 11 97 87 be 40 9f da 3d 5b d5 93 3d
       0.024449803 -0.26482442 0.10674906 0.07218429
000040 61 34 42 bd fa ff 79 3d ae 4d 33 3c 79 44 7b 3e
       -0.047413234 0.061035134 0.010943813 0.24537839
000050 07 92 00 3d 75 d9 b9 bb 9d f9 6f 3e b7 b9 0c 3e
       0.031389263 -0.005671675 0.23435064 0.1374272
000060 b5 97 85 bd c5 11 f8 3d 25 0a 46 3d 6d 6c 57 be
       -0.065230764 0.12112764 0.04834952 -0.21037455
000070 b2 62 c4 bd a4 ad 2d 3e 11 50 96 3e c6 8e 06 3e
       -0.09589137 0.1696077 0.2935796 0.13140401
000080 36 ba 1d bd 58 d0 b7 bd 2e 49 5a bc e1 d0 87 bd
       -0.038507663 -0.08975285 -0.013323111 -0.06631637
000090 63 51 5a be c5 19 2d 3d 94 49 06 3d 28 1e 22 be
       -0.21320109 0.042260904 0.032785013 -0.15831816
0000a0 af ff 54 3d 76 36 f7 3d 94 6c 2a be 02 16 a1 3d
       0.05200165 0.120709345 -0.16642982 0.07865526
0000b0 0f 40 50 3e 7c 5b 23 bd 6a 59 30 be 6f 18 81 3b
       0.20336936 -0.03988217 -0.17221609 0.0039396803
0000c0 d3 86 52 bc 84 50 0d 3e 57 fc b7 3e 0f 95 54 be
       -0.012849527 0.13800246 0.35934708 -0.20759986
0000d0 6b 3a b3 bd 34 38 81 3d 8f f8 35 be 1d 1c 8e be
       -0.08751377 0.06309548 -0.17770599 -0.27755824
0000e0 a1 4b d8 bc d5 05 96 bd 25 e9 50 bc 1b cd d4 3d
       -0.02640325 -0.07325331 -0.0127508985 0.10390683
0000f0 fc 5d 42 3e de e9 1d 3e 31 42 02 3e ea 5b 10 3d
       0.18981165 0.15421245 0.12720563 0.035243906
000100 6d e4 52 be 69 d3 b2 bb ef 8e d5 bd d7 29 63 be
       -0.2059495 -0.005457331 -0.10427653 -0.2218393
000110 9a 32 f8 bd 8d c7 29 3e 61 02 9d 3e 40 30 28 3e
       -0.121190265 0.16580029 0.30665877 0.16424656
000120 be 8a da 3b 5e 4d 2a be 6d a0 5b 3d c1 c0 fe 3d
       0.0066693714 -0.16631076 0.05361979 0.12439109
000130 b1 4a 03 bd 60 41 c6 bd a6 b9 8f 3c 1c 38 98 3d
       -0.032053653 -0.09680438 0.017544579 0.07432577
000140 50 c1 9e bc 53 8f d2 3c 86 05 f2 3c 32 1f 21 3b
       -0.019379288 0.025703108 0.02954365 0.0024585244
000150 21 7b a8 bc 99 87 b1 bc 20 7a d8 bc f3 72 0d bc
       -0.020566525 -0.021671103 -0.026425421 -0.008633363
000160 1f 3c 01 3b 14 09 9a 3c b7 f7 0c 3e b6 7b 5c 3c
       0.0019719673 0.018803157 0.1376637 0.013457229
000170 f4 fd a2 3d ca 5f 18 3e ce e1 5b bd be b4 e3 bd
       0.07958594 0.1488029 -0.05368214 -0.11118458
000180 49 f9 1b bc 43 32 03 be de b3 1f be 42 2c 70 3c
       -0.009519883 -0.12812142 -0.15595958 0.014658989
000190 b6 01 85 3d c7 42 40 bd 84 8b 6d bd 2b 53 24 bd
       0.06494467 -0.046938684 -0.05799438 -0.040118378
0001a0 2b 17 f6 3d 68 a8 a4 3d bb 08 fb bd 5d f3 bd ba
       0.12016138 0.080399334 -0.122575246 -0.0014492084
0001b0 30 7e b5 bd 40 8f ea bd 20 9a 80 3d be 14 8b 3c
       -0.08861959 -0.11453104 0.06279397 0.016977664
0001c0 25 58 cc bc 95 14 d7 3d fa 40 a6 3d 4a 65 38 3d
       -0.024944374 0.105019726 0.08117862 0.04501847
0001d0 d7 71 75 3e bd 83 59 3e cf 62 80 3e 40 61 8c be
       0.23969208 0.2124166 0.25075385 -0.27417946
0001e0 ef a2 06 bd ff 06 77 bc ed 36 99 be c4 18 b7 be
       -0.03287023 -0.015077352 -0.29924718 -0.35761082
0001f0 8c 00 d7 3e fe 91 da 3d bf eb 1f bd 90 6f ad 3d
       0.41992605 0.10672377 -0.039043184 0.084685445
000200 d9 3d ef bb 14 71 7b 3c 05 97 7b 3e 87 be 10 3d
       -0.007301074 0.015346784 0.24569328 0.03533795
000210 77 01 84 bd b8 f6 22 3e 3e b3 b9 be 79 cd a6 bc
       -0.06445592 0.15914428 -0.36269563 -0.020361649
000220 60 4b 1c 3e af cd d2 bd b4 6b 2b bd 39 0b 93 bd
       0.15263128 -0.10293137 -0.04185076 -0.07179875
000230 bc 11 80 3c 88 02 9d 3d c9 78 ab bd 05 18 a0 3d
       0.015633456 0.076664984 -0.08372647 0.07817081
000240 09 6e a5 3e c1 02 0c be df ae 18 3e 81 c9 87 3e
       0.32310513 -0.13672926 0.14910458 0.26520923
000250 b4 79 44 be 50 03 94 bc b7 06 20 3e df 62 ed bd
       -0.19187051 -0.018067986 0.15627562 -0.11591124
000260 37 c0 f8 3b 49 21 2b bd 60 e9 d0 bd 96 25 09 be
       0.007591273 -0.04177979 -0.10200763 -0.13393244
000270 af 6e a1 bd 73 a0 0b 3f 93 ca cc 3c 04 89 e2 bd
       -0.07882439 0.545417 0.024998939 -0.1106129
000280 9e eb a6 bd 29 71 0e be c6 00 a1 bc 04 33 ad 3b
       -0.08150409 -0.13910355 -0.01965369 0.0052856226
000290 6f 71 47 bc a5 0a 22 bd 7e 65 6d 3e 96 83 95 bd
       -0.012173041 -0.039560933 0.23183247 -0.07300489
0002a0 be 0f 76 3d 3f 70 21 be 72 46 1d 3d bd fa 30 be
       0.060073607 -0.15765475 0.03839726 -0.17283149
0002b0 13 0c 05 3d c8 97 99 bd 05 f8 cf bd ff a5 01 bf
       0.032482218 -0.07499653 -0.10154728 -0.50643915
0002c0 00 25 63 bc d3 5c c1 bd 1f 5e 05 bf c4 50 72 be
       -0.013863802 -0.09441533 -0.5209674 -0.23663622
0002d0 a6 8c 8b bc 05 81 aa 3c b2 17 93 3d 18 02 bd bb
       -0.01703484 0.020813474 0.07182254 -0.005768072
0002e0 e8 82 31 bc 38 29 12 be 11 05 01 bd 98 4e ba 3d
       -0.010834433 -0.14273536 -0.031498972 0.09097022
0002f0 7b 93 19 3d ed b3 85 be e1 3f 02 3e ec 17 86 3e
       0.037494164 -0.26113835 0.1271968 0.26190126
000300 02 c1 b2 be 90 e0 28 be 0f aa 07 3f b7 09 44 be
       -0.34912878 -0.16491914 0.52993864 -0.19144331
000310 12 02 a4 bd 2f e6 36 3e 97 83 49 3d 42 e1 8b 3d
       -0.080082074 0.17861246 0.04919776 0.06830074
000320 7c a1 85 bd 61 b0 eb 3d 17 29 0c bd c1 b1 69 be
       -0.06524941 0.11508251 -0.034218874 -0.22821714
000330 e6 dc 32 3d 18 5d da 3c 9c de b9 3c 3f e0 61 be
       0.043667696 0.026655719 0.022689156 -0.220582
000340 72 78 d9 bd 3f 8e b5 be e1 a3 5f bd 6b 5b 03 bd
       -0.10618676 -0.35460088 -0.054599646 -0.032069605
000350 c9 7e 18 be e4 2e a9 3e 4c 61 b1 3e f5 7f 85 3e
       -0.14892115 0.33043587 0.34644544 0.26074186
000360 f5 7f 12 3e b9 9d 9d 3d 73 02 09 3e 44 98 ee 3c
       0.14306624 0.07696099 0.1337984 0.02912534
000370 4e ad d5 bd 4c 51 89 bc c9 42 84 bd a4 52 16 be
       -0.10433446 -0.016762398 -0.06458051 -0.14679962
000380 ae 2e ca bd 1f 81 5b 3d cf 01 9d bd 8a 11 92 3c
       -0.09872185 0.053589936 -0.076663606 0.017830629
000390 f4 66 df bd 7b 0b 04 bd b8 62 c7 3d de 9b 08 be
       -0.109083086 -0.03223751 0.09735626 -0.13340709
0003a0 7d 60 1f 3d df cb bc 3d 93 5d 23 3c cd 72 70 bc
       0.038910378 0.09218573 0.00997104 -0.014675808
0003b0 bb 59 e8 3b 8b 2a 20 3d 3d a9 c2 bd 85 1a bc 3c
       0.007090775 0.039103072 -0.09504936 0.022961864
0003c0 5a 13 e4 3b 0d b9 32 bd 8c 6d a1 3c 1f 1d 58 3d
       0.0069603147 -0.04363351 0.019705556 0.052762147
0003d0 8b cb 8e 3d 8b 6d 6f 3c 15 5c 03 3e 72 55 47 be
       0.069724165 0.014613519 0.12828095 -0.19466189
0003e0 1b a3 c7 bc 52 9b f2 bc cb 2e c0 3d ad af 00 be
       -0.024369767 -0.029615078 0.09383925 -0.12567015
0003f0 15 bd ed bb 1a 61 34 3c bc 66 1c bd d8 23 ac bd
       -0.0072552064 0.011009479 -0.038183913 -0.08405274

conv_net.C2.weight f4 [64, 32, 3, 3]
000000 c8 fd 05 3e ca f9 ee bd 8b f3 ec 3c a8 ef 09 3e
       0.13085091 -0.11668737 0.028924724 0.13470328
000010 fe e3 df bd ce 88 71 bc 0f 39 12 3e fe 61 e4 bb
       -0.10932158 -0.014742089 0.14279579 -0.0069696894
000020 b5 52 c9 bd 4b 29 dd 3d d7 4b 85 bd a0 54 3a 3d
       -0.09830228 0.10798892 -0.06508606 0.04549086
000030 7c 67 02 3e 2f 1a 89 3c ce 34 23 bd ea f8 a8 3d
       0.12734789 0.016736118 -0.03984528 0.082506016
000040 84 13 f9 3d 65 67 01 be 14 82 f2 39 d9 ab d4 3d
       0.121619254 -0.12637098 0.00046254753 0.1038434
000050 37 cc 0a 3d 04 37 bd 3c 90 72 77 3e f1 04 15 3d
       0.03388616 0.023097523 0.24164796 0.036381666
000060 85 66 8e 3c 5b 9a 23 3e e1 38 11 3d 1f 85 90 bd
       0.01738287 0.1597685 0.035454635 -0.07056641
000070 a0 18 9c 3d c4 17 e1 3d 0b 1f 82 bd c3 3c 36 3b
       0.07621884 0.10990861 -0.06353577 0.0027807213
000080 0a 79 33 3d 31 17 87 3c 8a 15 bb bd bd 5e ec 3c
       0.043816604 0.01649055 -0.091349676 0.028853768
000090 1d 53 03 3e 42 67 a4 3d fd 8e 7e bc e3 3c 41 3e
       0.12824674 0.08027507 -0.015537021 0.18870883
0000a0 43 83 e6 bb 6c d8 b9 3c 1a c4 6d bd 1e 90 47 3d
       -0.0070346906 0.022686206 -0.058048345 0.048721425
0000b0 7c 1c ae bd b2 f1 42 3c f3 4c d8 bb 3d 06 bb 3c
       -0.08501527 0.011898445 -0.00660097 0.022830123
0000c0 64 f3 31 3e 8c 3b 8d 3d c1 c1 f2 bc 09 66 ce 3c
       0.17378002 0.06896123 -0.029633405 0.025195139
0000d0 a7 a6 03 3c e6 50 01 be 63 26 7b bb 21 13 f1 bd
       0.0080353385 -0.12628517 -0.003832244 -0.11771227
0000e0 6b 01 8d 3d 88 17 cb bd 62 41 89 bd 58 46 aa 3c
       0.06885036 -0.099165976 -0.06701924 0.020785496
0000f0 99 3a 88 3d 54 e1 b3 3d ee 8a d9 3d 3c 1a de 3d
       0.066518016 0.08783212 0.10622202 0.108448476
000100 db 9f ce bc 5d b5 a2 bd df 57 87 bd af d7 a8 3d
       -0.02522271 -0.079447486 -0.06608557 0.082442634
000110 0e 37 42 bd 0d 39 21 be 57 3d bb bd b8 a8 9e bd
       -0.047415785 -0.1574442 -0.09142559 -0.07747024
000120 4d f4 01 3e 12 9b d8 bc 09 c6 6e 3d 75 69 79 bd
       0.1269085 -0.02644113 0.05829433 -0.060891587
000130 e3 ce 27 3c d2 38 96 3d 8b 66 01 3d 83 80 3c 3e
       0.010242197 0.07335056 0.031591933 0.18408398
000140 ce 73 b6 bd 24 98 95 3c d9 a6 0a 3d 40 87 25 3c
       -0.08908807 0.018261023 0.033850525 0.010103047
000150 be 58 0c 3c 87 db 40 3d 82 d3 d4 b9 33 0b 94 3c
       0.00856608 0.047084358 -0.00040593377 0.018071746
000160 49 7d a3 bc 4c 4e dc 3c a6 9d 86 bd aa 4b df bd
       -0.019957202 0.026892804 -0.06573038 -0.10903104
000170 aa 98 a0 3d ae 9c 46 bd 81 7a db bc e8 45 24 3d
       0.07841618 -0.048489265 -0.026791813 0.04010573
000180 04 89 5b bd 11 ad d6 bd 09 11 b3 bd d0 f0 88 bd
       -0.053597465 -0.104822285 -0.087434836 -0.06686556
000190 12 87 71 bd d8 80 ca 3d 46 a1 ba 3c 68 cc e1 bc
       -0.058966704 0.09887856 0.02278198 -0.027563289
0001a0 36 c4 a6 bd e3 10 91 bc d4 13 a2 bc bb 7c 9b 3d
       -0.08142893 -0.017708248 -0.019784845 0.0759215
0001b0 f6 e2 be 3c 50 c2 38 bd e2 88 9b bc ce a8 60 bc
       0.023301583 -0.045107186 -0.01898617 -0.013712121
0001c0 0f a5 05 bd 95 b7 99 bc a3 56 05 3d 4e c0 74 3d
       -0.032628115 -0.018764297 0.032553326 0.05975371
0001d0 82 e8 78 bd c0 51 7e bd 8f 23 21 bd b2 11 c5 bd
       -0.06076861 -0.06208968 -0.039340552 -0.09622516
0001e0 e5 b9 55 3c 37 4b 0d be 90 6d 18 be 2c 66 9e 3d
       0.013044809 -0.13798223 -0.14885545 0.077343315
0001f0 6b 14 13 3d fa f4 54 bd 7e c6 42 3d f0 f2 ab bd
       0.035908144 -0.05199144 0.04755258 -0.08395946
000200 9f 4a 98 bd 5d 5f 0a bd c9 5a fe bc 5e fc e9 3b
       -0.07436108 -0.03378235 -0.03104915 0.00714068
000210 23 92 3c bd b4 df 01 be 53 69 85 bd fd 52 e4 bc
       -0.046037804 -0.12682992 -0.065142296 -0.027871603
000220 5e ab 73 bd 46 42 85 3d ee f7 23 3d 60 11 bf 3b
       -0.0594896 0.06506781 0.040031366 0.0058309287
000230 fb e2 bb bd 2c 32 26 3d bf b9 d8 bd a7 f0 22 3e
       -0.091741525 0.04057519 -0.10582303 0.15912114
000240 ce e8 b7 3d 63 86 88 3d f3 73 5c bd e1 77 c8 bc
       0.08979951 0.06666257 -0.053821515 -0.024471225
000250 b1 7d c7 3b 4d d1 0d bd 6d 92 c3 3d 1e e6 83 bd
       0.0060879816 -0.034623433 0.09549413 -0.06440376
000260 4b fc 60 3d 14 21 83 3d 63 53 c7 bd 87 25 3a bd
       0.054928105 0.064027935 -0.09732702 -0.045445945
000270 19 4b ca bb 7e 01 ac bd d5 08 35 bd a3 ee 4e 3d
       -0.006173503 -0.08398722 -0.044197876 0.05052055
000280 78 13 a9 3d 1d 05 4f 3d bd 83 19 3d f5 12 13 bb
       0.082556665 0.050541986 0.03747915 -0.002244172
000290 84 6f 14 bd 9d b7 a3 bd 68 52 a1 bc 04 bb eb 3c
       -0.036239162 -0.07994006 -0.019692615 0.0287757
0002a0 7a 1c 15 bd 12 3b 8f bc ce 53 a0 3c 8a 44 89 3d
       -0.03640411 -0.017484222 0.019571211 0.06702526
0002b0 43 5c ec 3c 36 c7 25 3d 31 63 11 3e 3b 2c 87 3d
       0.028852588 0.040473185 0.14197995 0.06600233
0002c0 46 10 55 3d 6c d8 86 bd 64 1c 28 bd 60 3f 95 bd
       0.052017473 -0.06584248 -0.0410427 -0.072874784
0002d0 56 00 bb 3d 9b c5 8b 3d 64 2b c7 3b d7 06 f3 bc
       0.091309234 0.068247996 0.0060781706 -0.029666347
0002e0 85 40 75 3d ea 45 b5 bc f5 21 23 bd a3 7a 39 be
       0.059875984 -0.022128064 -0.039827306 -0.18113188
0002f0 86 cb c7 bd df 11 9a bc 40 1c 67 3d 34 27 4b bc
       -0.09755616 -0.01880735 0.056423426 -0.0123994835
000300 d2 4d 2f 3d 70 18 50 3e 30 12 0c bd 2b 62 63 bd
       0.042798825 0.20321822 -0.034197032 -0.055513542
000310 50 9f 92 3b 10 12 35 be b5 0e a6 3d da 31 fd 3c
       0.004474558 -0.17682672 0.08108274 0.03090756
000320 6b 61 7c bc fe eb 0a 3d 31 5f 01 3c 1f d1 22 3d
       -0.015404086 0.033916466 0.007896231 0.039750215
000330 93 e6 d3 bb 56 4a b2 3c da 22 82 3b 38 d5 0d 3e
       -0.0064666956 0.021763962 0.00397144 0.13850868
000340 a2 8e 1f 3d 65 5b 18 be e7 b3 43 bd 0f 21 c1 3d
       0.038954385 -0.14878614 -0.04777899 0.094301336
000350 ce eb 4b 3c 13 5d 83 3d 59 19 d7 bd 06 44 b2 bd
       0.012446357 0.06414237 -0.105028816 -0.08704381
000360 ae d5 33 3d ea 8a 30 3c 85 8c 8d 3c 15 1f a7 3c
       0.043904953 0.010775307 0.017278919 0.020400563
000370 0f 81 1f bd 0e ae 98 bd ac de 63 bd 1d c6 0b be
       -0.03894144 -0.07455073 -0.05563228 -0.13649793
000380 bd 75 e0 bd a4 84 bd 3d ec f7 33 3d 6f 9b 7f 3c
       -0.10959957 0.09253815 0.04393761 0.015601023
000390 87 4f b1 bc 53 91 c0 3c fe de 22 3b bb 75 81 3d
       -0.021644367 0.023506796 0.0024852152 0.063212834
0003a0 fb 1b c3 3d 28 95 57 bd bd 1f 00 bd 0a 78 9e bc
       0.09526821 -0.05263248 -0.031280268 -0.019344348
0003b0 8c 1b a5 3c 31 47 c7 bc 61 84 1d bd de 86 41 3d
       0.020154737 -0.024325939 -0.038456324 0.04724776
0003c0 b6 81 e6 3d fd 56 92 3d 4b a5 80 3d 43 1e 4c ba
       0.11255209 0.07145498 0.06281527 -0.0007786492
0003d0 ca 0c c7 3c 62 90 91 3d d9 4e ae 3d 57 e0 c3 bd
       0.02429809 0.07107617 0.08511133 -0.09564274
0003e0 fd 4a 9f bd 5e fb 6e bd 23 b1 94 bd d6 11 8d bd
       -0.07777975 -0.05834519 -0.07260349 -0.068881676
0003f0 90 e6 41 3c d1 f5 16 be 56 5c ec bd 04 ae b5 bc
       0.011834756 -0.14742209 -0.11541049 -0.022177704

conv_net.C3.weight f4 [128, 64, 3, 3]
000000 68 77 b0 bd 50 43 43 3c 75 0a aa 3d 6a 56 0c bd
       -0.08616525 0.011917904 0.08302776 -0.0342621
000010 30 da 25 3d 2a 59 2b 3d 7d 40 16 3c e3 0c ef bc
       0.040491283 0.04183308 0.009170649 -0.02918095
000020 57 62 60 bd 0f f6 25 bd df 89 22 3d 4e 1e 8b 3c
       -0.054781284 -0.040517863 0.039682265 0.016982224
000030 11 2e 5f bd ae 9b 3e bd 58 54 10 bb 6e d8 e0 ba
       -0.05448729 -0.046535186 -0.002202293 -0.0017154345
000040 8b 7d 24 3d dc 4b a4 3c 54 dd 28 bd 96 a2 25 3d
       0.04015879 0.020055704 -0.0412267 0.040438257
000050 56 34 27 bd cc 4a de 3c 74 a5 05 be 83 f0 ad 3d
       -0.040821396 0.027135275 -0.13051397 0.084931396
000060 e4 c9 18 3c bd 11 3b bd 1d 10 84 3d 47 45 74 bc
       0.009325478 -0.045671213 0.06448386 -0.014909095
000070 17 b4 04 bd ec 8f bc 3d a5 c9 17 bd 25 a5 86 bd
       -0.03239831 0.092071384 -0.037057538 -0.065744676
000080 64 70 39 3d d3 58 3b 3d ac 59 05 bd 35 5e 10 3c
       0.0452732 0.045739006 -0.03255622 0.008811523
000090 b5 e3 f9 bc fd 97 2a bd 1d 6e df 3c ce ba 5d 3a
       -0.030504087 -0.041648854 0.027274186 0.0008458317
0000a0 06 2d 0e be 83 25 78 3b a1 26 96 bb 39 cf 0c bd
       -0.13884363 0.0037864156 -0.0045822416 -0.03437731
0000b0 67 7a 3b 3d 0e d1 15 3d d7 94 61 3d 95 20 a7 bd
       0.04577103 0.036576323 0.055073585 -0.081605114
0000c0 63 fa 6e 3d d3 d0 5d 3d 18 7b 06 be b8 b9 a3 3d
       0.058344256 0.05415423 -0.13132894 0.079944074
0000d0 2c b8 f6 3b f4 16 a8 bd d5 3a 81 3d 5c 10 bc bc
       0.007529279 -0.08207503 0.063100494 -0.02295702
0000e0 1d fe 5c bd 85 af ea 3c 4d e6 a1 3c 6c 1c b4 bd
       -0.05395328 0.028648147 0.019763136 -0.087944835
0000f0 2b 79 47 3c 08 2f 5e bc 1d 5e ad bd 26 81 82 bb
       0.012174885 -0.013561018 -0.08465216 -0.003982681
000100 8a b2 19 3d 89 64 4d bd 6a 12 f8 3b 9f b1 3f 3d
       0.037523784 -0.050144706 0.0075705545 0.046800252
000110 b0 6f cc bc cb 56 a3 bd e1 14 28 bd 7d c8 9a 3d
       -0.0249556 -0.07975539 -0.041035537 0.07557771
000120 48 51 b0 bd ea 1a 94 3c 2b 34 55 3d ea d0 6e bd
       -0.08609253 0.01807924 0.052051704 -0.058304705
000130 b1 6b 3d bd 10 d2 df 3a 0b 4a c1 3b 71 6f 42 3b
       -0.04624528 0.0017076153 0.005898719 0.0029668475
000140 5b 15 13 bd 3b a1 82 bd 8a 02 01 be fb b9 53 bd
       -0.035909038 -0.063784085 -0.12598625 -0.051691037
000150 c1 61 a9 bd 0f 2d 30 be 7c 28 5c bd 15 08 c7 bd
       -0.08270598 -0.17204688 -0.053749546 -0.097183384
000160 77 7f 1f be 65 0b 93 bd bb de 2f bd 32 37 12 bd
       -0.15575968 -0.07179908 -0.04293702 -0.03569717
000170 d4 8d 15 bd 82 8f ba 3c b9 11 24 3d 4c 08 b0 3c
       -0.03651221 0.022773508 0.040055964 0.021488331
000180 c2 4a ab bc 3c 18 6e bd 4c c1 36 3d 5c f5 e6 3c
       -0.02090967 -0.05812858 0.044617936 0.028193168
000190 04 4c 9a 3d 97 7a 93 3c 4e 9f 06 bc 6a b3 87 3d
       0.0753403 0.018002791 -0.008216692 0.066260174
0001a0 79 56 d4 3b 31 d1 13 3d e6 ce 12 bd 41 16 f4 bd
       0.006480035 0.036088172 -0.035841845 -0.11918307
0001b0 01 a8 14 bc e2 87 36 3d de 7f d4 bc e1 ae f5 bc
       -0.009073258 0.04456318 -0.025939878 -0.029990615
0001c0 3f 1d 80 3d 79 03 cc bc 58 09 d8 bd f7 23 6b 3d
       0.06255578 -0.024904 -0.10548657 0.057407346
0001d0 fb c9 17 bd 6b 58 6f 3d 39 ea 66 3b 72 54 06 bd
       -0.037057858 0.05843393 0.0035234822 -0.032795377
0001e0 32 c2 41 3d 4c 64 48 3e 31 dc 77 be fb f3 49 3d
       0.04730434 0.1956951 -0.2420509 0.049304944
0001f0 42 6a 07 bd 81 23 34 be bb cc 58 bc 2d 40 6d 3c
       -0.03306032 -0.17591669 -0.013232405 0.014480633
000200 33 3d 12 bc 6e ff 82 bd 57 af 08 3d ba 62 aa bc
       -0.008925724 -0.063963756 0.033370342 -0.02079903
000210 33 79 94 bc 0a bd 32 3c 00 97 b5 bd cf 3a e7 bc
       -0.018124199 0.010909328 -0.088666916 -0.028226284
000220 c5 5a 0b 3d f0 a4 bb 3c d6 68 ca 3c c3 7f 1c 3d
       0.03402211 0.022905797 0.024708193 0.03820778
000230 c3 20 d0 bb 4b f5 f6 bc b6 6b 35 bd 0d 0c bd bd
       -0.0063515618 -0.030146262 -0.044292174 -0.09230814
000240 f3 5b 18 bc bc e6 e8 bc 72 92 2b bd 13 81 ba 3d
       -0.009299266 -0.028430335 -0.041887708 0.0910665
000250 7d 4e 33 3c 61 67 ca bc 30 bf 29 bc 96 4d 60 bd
       0.010944006 -0.024707498 -0.010360524 -0.05476149
000260 0d 4e c2 bd 9e f6 38 3d b4 78 90 3c 8c 2f 98 3c
       -0.09487543 0.045157067 0.01763568 0.01857736
000270 85 04 27 be 6d ed 53 bd d8 5f 2b 3d 86 14 8a bc
       -0.16310318 -0.0517401 0.04183945 -0.01685549
000280 f4 1a 2d bd 7b aa ee 3d f5 0f ad bb 9a f3 85 ba
       -0.042262033 0.1165361 -0.0052814432 -0.0010219694
000290 98 46 22 3d b3 79 a0 bd 5b 7b 43 3c 8c 87 d4 3d
       0.039618105 -0.07835712 0.011931266 0.10377416
0002a0 ff 91 36 3d 78 07 60 3c 1e 28 05 be b1 e5 37 3c
       0.044572826 0.013673656 -0.13003585 0.011224196
0002b0 d9 74 94 39 e6 8e 64 bd 79 76 f6 bc 4f 9d 9f 3c
       0.00028315818 -0.05580034 -0.030085789 0.01948419
0002c0 58 9c fe 3c 8a cf 2e 3d 0e ea 01 3c 8f 10 0b bd
       0.03108041 0.042678393 0.007929338 -0.03395134
0002d0 b5 d5 24 3c bf 63 2f 3c 1e 4a b6 bd 2b d7 ef bd
       0.010060717 0.010704934 -0.089008555 -0.11710962
0002e0 cf f1 aa 3d 15 43 61 3d ad 47 77 3c db 1e cb bc
       0.083469026 0.054995615 0.015092772 -0.024794986
0002f0 7f d1 78 bc b8 f2 99 3d c1 be 15 bd 31 25 ae 3a
       -0.0151866665 0.07516998 -0.03655887 0.001328623
000300 22 63 02 3e eb f1 4d bc 44 bb 1d be 58 5f ec 3c
       0.12733129 -0.012569885 -0.15403467 0.028854057
000310 88 00 9f 3b 01 30 8b bd 7b cc 98 3d c7 91 52 ba
       0.0048523583 -0.067962654 0.074608766 -0.0008032587
000320 bf f2 15 bd 31 22 b3 bc f2 53 07 bb 92 66 23 bd
       -0.036608454 -0.02186689 -0.00206494 -0.03989274
000330 e3 19 29 bc 7b 49 db bb 01 78 b3 39 6f ce 36 bd
       -0.010321113 -0.006692109 0.0003423095 -0.044630464
000340 f5 3f c3 bc b9 30 e0 bc 17 de 1e bd bb f3 cb bd
       -0.023834208 -0.027366983 -0.03878602 -0.09958597
000350 e9 e8 a3 bd cd ab f6 bd 7c f5 aa bd b5 46 41 3c
       -0.080034085 -0.12044487 -0.08347604 0.011796643
000360 af 07 a4 3d cb 18 6a 3d f9 9c ab 3c 21 52 2b 3d
       0.08009278 0.05715255 0.020948874 0.04182637
000370 a7 61 48 3d 66 0a 89 bd 18 b0 0a 3d 5b 7b 6b bb
       0.048921254 -0.066914365 0.033859342 -0.003593168
000380 8d f9 bb bb 35 f6 c4 bd 3f 9c 1e 3d ec c0 81 bd
       -0.005736536 -0.09617273 0.038723227 -0.06335625
000390 1b be 85 bc 0e 22 32 3d 27 81 24 bd 4f 03 06 bd
       -0.016326 0.04348951 -0.04016223 -0.032718
0003a0 4d be 3f bc ba eb 8a bc f8 e4 9a bd f3 b1 8f 3c
       -0.011703086 -0.016958106 -0.075632036 0.017540907
0003b0 7e 9d 7a 3c f1 00 60 ba 0e 99 75 bd 4d 28 e0 3c
       0.015296338 -0.0008545062 -0.059960417 0.027362967
0003c0 0e cf 0f bd 94 62 5a bd 51 2b 92 bd 7b bf 6c bc
       -0.035109572 -0.053316668 -0.07137168 -0.014449949
0003d0 cc 01 0a 3d eb df 10 3d d8 1a 8b 3d f6 ce 83 bd
       0.03369312 0.035369795 0.067922294 -0.06435959
0003e0 67 a3 ac 3c 02 cb 0c 3c 16 f2 0f bd 3e f7 86 bc
       0.02107401 0.008593323 -0.03514298 -0.016475316
0003f0 40 34 f6 3c a2 e9 7d bc da 46 81 bc 0c b5 2d 3c
       0.030054212 -0.015497597 -0.015780855 0.010602247

conv_net.C4.weight f4 [1, 128, 3, 3]
000000 9a ea 56 bc 53 f1 c4 bc 22 d0 ef bc 9e 6b 79 bc
       -0.013117457 -0.024040854 -0.02927405 -0.015223412
000010 c7 9d 4b bd bc f2 34 bd 06 e3 9e bc aa 60 33 bd
       -0.049711015 -0.044176802 -0.019395363 -0.043793358
000020 3d 83 37 bd 95 66 06 3c 1b a8 3b 3c 92 12 0f 3c
       -0.044802893 0.008203168 0.011453654 0.008732455
000030 a1 c6 42 3a 2f 28 e5 bd 05 78 dc 3c 3d 4c 60 3b
       0.00074301107 -0.11189305 0.026912699 0.003422513
000040 ee db bc 3c f7 46 2b 3c 49 7b cc 3d d4 2a 3f 3d
       0.02305409 0.010453931 0.09984452 0.046671703
000050 b8 33 9d 3c 84 ff 25 3c 3a 7f 51 bc a5 2e 21 b9
       0.0191897 0.01013172 -0.012786681 -0.00015371533
000060 ad e0 7c 3b ef 38 63 bb 03 01 65 3b 78 85 12 3c
       0.0038586066 -0.0034671386 0.003494323 0.008942954
000070 7f 33 0f 3e dc 92 59 3b d8 30 16 3c cb 0f 1b 3c
       0.13984488 0.0033199107 0.009166919 0.009464215
000080 15 8e 9d 3a 61 39 76 3b bc 03 6b bb fe df 18 3b
       0.0012020493 0.0037570822 -0.003586038 0.002332687
000090 29 dc a7 bd e5 db 97 bd 1d f6 71 bc 7e b4 d0 3c
       -0.08196289 -0.074149884 -0.014768151 0.02547669
0000a0 3a bb 18 bd 3c fa ab 3c 8a be 36 3d 11 b1 6c 3d
       -0.03728793 0.020993344 0.044615306 0.05778605
0000b0 3f 21 25 3d 9b 38 45 3d 8d 54 8d 3c ac 47 0d 3c
       0.04031491 0.048149686 0.017252231 0.008623045
0000c0 ab 7d 9b 3d 5a 8d 0c 3e 09 49 8a 3c 48 8a 6a 3d
       0.07592329 0.13725796 0.016880529 0.05726078
0000d0 37 cc 90 3d 67 d4 11 3d 5a 78 27 3d 4e c3 89 3b
       0.07070201 0.035602953 0.04088626 0.0042041903
0000e0 17 2b 2f 3b 0e 58 93 3e 7f d1 0b bd 93 fe 05 3a
       0.0026728564 0.28778118 -0.034135338 0.0005111482
0000f0 21 01 41 3d 1b 07 4a 3b ce ac 59 39 1a 5c 20 3d
       0.047120217 0.003082699 0.00020759107 0.039150335
000100 98 05 b0 3d 17 7b a2 3d c6 91 71 3c e0 58 3f 3d
       0.08594817 0.07933634 0.014744228 0.046715617
000110 67 4f ec 3d e7 85 43 3c 84 ea 68 3d 83 5d 9d 3d
       0.11538582 0.01193378 0.056864277 0.076838516
000120 fc 6e d4 3c 60 b0 4f 3d 66 0d b5 3c 27 a1 91 3c
       0.025931828 0.050705314 0.022101115 0.017777039
000130 81 42 bc 3d 8d 4f 25 3d d2 de bb 3b 9a 0e f0 3b
       0.09192372 0.04035907 0.0057333494 0.0073259594
000140 e2 2c 53 3c 19 ec 25 3d 56 98 c8 3c 5c 52 95 3d
       0.012889119 0.040508363 0.024486702 0.072910994
000150 1d 63 6c bd 87 59 7b bd b3 73 2f 3c 25 b2 e5 bc
       -0.05771171 -0.061364677 0.010708737 -0.028039047
000160 07 53 0d bd 60 31 5c 3c c2 e8 10 3d e9 25 31 3d
       -0.03450301 0.013439506 0.035378225 0.043249045
000170 35 45 08 3d 18 f6 1b 3d c1 55 60 3d d4 61 52 3d
       0.033269126 0.03807649 0.05476928 0.051362827
000180 12 40 b5 3c 0a 68 25 3d 30 07 04 3d 45 f9 b5 bd
       0.022125278 0.040382423 0.032233417 -0.08885435
000190 9e fe e2 bd 0b 66 c1 bd c1 df 05 be 4a cf d9 bd
       -0.110837206 -0.09443291 -0.13073637 -0.106352404
0001a0 07 ce ad bd 9e 2f 89 bd 09 a7 9a bd 72 c8 36 bd
       -0.08486562 -0.066985354 -0.07551391 -0.044624753
0001b0 c0 e3 bd 3d 46 70 09 3e 20 67 b9 3d 03 20 fe 3d
       0.092719555 0.13421735 0.09052873 0.124084495
0001c0 2e 88 81 3e 35 58 09 3e 4e 69 ce 3d 3e ac 0e 3e
       0.2529921 0.13412555 0.10078679 0.13932893
0001d0 f9 68 07 3e 38 95 81 bd f9 01 9e 39 9c 51 33 ba
       0.13223638 -0.06327289 0.00030137578 -0.0006840469
0001e0 b4 b2 fb bc 5d 8e 10 be 46 25 d6 bc c8 2c fc 3a
       -0.03072486 -0.14116807 -0.02614082 0.001923942
0001f0 9f 60 90 bc 71 4b 03 bd 09 af 01 3c 35 09 16 3c
       -0.017624198 -0.03205437 0.007915267 0.009157469
000200 5d 7d fa 3b 01 a8 12 ba 52 2e d2 3c 8d 2f 40 3c
       0.007644339 -0.00055944925 0.025656853 0.011730087
000210 a5 92 f8 bc f7 4a 84 3e 60 1b b1 3c 62 a2 f8 bd
       -0.030343363 0.25838444 0.021619499 -0.12140347
000220 e9 d0 f4 bd 5f e3 b1 bd 56 4d 36 be e4 9f 67 be
       -0.11953909 -0.08685946 -0.17802939 -0.22619587
000230 40 83 2c be 79 32 88 bd 46 0e 9a bd 19 7c aa bc
       -0.16846943 -0.06650252 -0.07522254 -0.020811127
000240 39 f1 29 bd 86 3e bf bb b8 85 6c 3b ed 9d c2 bc
       -0.041489813 -0.005836311 0.0036090445 -0.023756946
000250 f4 7e b1 3c 54 ba e2 3b e3 33 4e 3b f7 ee 74 3c
       0.021666981 0.0069191847 0.0031464032 0.014949552
000260 27 e0 8b 3c 3e 03 c1 3c 3e 35 4a 3d f4 5f 97 3d
       0.017074658 0.023561116 0.049367182 0.073913485
000270 35 e7 33 3d 1e dd 1c 3e 97 0c fb 3e 64 c0 ba bb
       0.043921668 0.15318725 0.49033043 -0.0056992043
000280 73 9e af 3c 5f ba 76 3d eb 5c e1 bd b1 10 e8 bd
       0.02143786 0.06023633 -0.11004051 -0.11331309
000290 1d f7 8f bd 08 b3 fd bc de da cc bd 87 82 03 be
       -0.07029555 -0.030969158 -0.10002683 -0.12842761
0002a0 d9 ae 1a 3c 86 37 34 3b 58 46 2d bd 2f fb fc 3c
       0.009441101 0.0027498915 -0.042303413 0.030881492
0002b0 47 f4 1f 3d 83 a5 41 3d 37 4e c3 3c 5e 3d 2c 3d
       0.03905132 0.047276985 0.023841007 0.04205071
0002c0 f5 e8 b5 3e 0d dd 58 3c 73 05 3c bc 49 5a f3 bc
       0.35529295 0.013236296 -0.011475909 -0.029706137
0002d0 bb 02 3e 3c 3a 07 ba 3d 2c cb a6 3c 33 cd ee 3c
       0.011597331 0.090834096 0.020360552 0.029150581
0002e0 8b a2 fe 3d 2b 0a 98 3d a3 97 1f 3d e8 31 5b 3e
       0.12433346 0.074238144 0.03896297 0.21405756
0002f0 ee 0c 2b 3e 55 8c d1 3d 1e 2b 24 3e c2 b2 35 3e
       0.16704151 0.10231844 0.16032073 0.17743972
000300 18 74 01 3e d6 36 a6 3d 13 0a 84 bc 09 3c 49 3c
       0.12641943 0.08115928 -0.016118085 0.01228238
000310 f3 53 a6 b8 e3 c1 7f 3b 75 21 6f 3c bc 91 b3 bd
       -7.9311336e-05 0.0039025478 0.014595379 -0.08768031
000320 9d 26 18 bd 1c 24 eb 3c 5e c4 75 bd 43 cf 5d 3d
       -0.0371462 0.028703742 -0.060001723 0.05415274
000330 95 36 be bc 93 0b 1a 3d b5 53 8f 3d 91 a6 3a 3b
       -0.023219386 0.037608694 0.06998388 0.002848063
000340 9e 97 26 ba 63 88 46 ba 51 3d b8 3c d8 b2 89 3a
       -0.000635499 -0.0007573424 0.022490175 0.001050557
000350 b1 6d c8 39 df b0 13 3d c4 fa 1d be db ba a6 3c
       0.000382287 0.03605735 -0.1542769 0.020352772
000360 fe 2d e0 bc e6 96 da bc 2b e6 30 bc b2 8e 0f bd
       -0.02736568 -0.026683282 -0.010797064 -0.035048194
000370 87 f8 33 bd 6b d8 80 3a 26 89 b9 bc 1a b4 41 bd
       -0.043938186 0.0009830123 -0.022648405 -0.0472909
000380 cc 04 d0 bc e4 10 c9 3c 76 28 13 3d 72 ac 2b 3d
       -0.025392912 0.024544187 0.03592726 0.041912504
000390 ee 6a 78 3b 08 78 18 3d 9e 65 36 3d 15 a9 96 3c
       0.0037905532 0.037223846 0.044530503 0.018391171
0003a0 ff 12 61 bb dd 9a 1f 3d 4a e2 7d ba 14 b1 00 3b
       -0.0034343598 0.03896605 -0.0009684904 0.0019636797
0003b0 03 0c 94 bd cb ff ce bb d5 86 cd bb 7e d0 40 be
       -0.072288536 -0.006317114 -0.0062721767 -0.18829533
0003c0 08 40 f8 b9 36 cb ff ba 65 3d 88 3b 2c 8c 82 3d
       -0.00047349953 -0.0019515518 0.0041577094 0.06374392
0003d0 35 2b 8a 3d 09 44 27 3d 38 00 65 3f fc 67 42 bc
       0.06746522 0.040836368 0.8945346 -0.011865612
0003e0 ff 1d 1b 3c b1 d7 01 bd bc 33 ff 3a b1 70 1d 3c
       0.009467601 -0.03169984 0.0019470374 0.009609387
0003f0 9a 09 cb bc ef ce ca bc de 15 c9 bc f8 90 e3 bb
       -0.024784852 -0.024756877 -0.02454656 -0.006944772
