CNN_weights/NetworkA_weights_1982-2021_allsamples.pt (torch, 394591 bytes, 4 tensors)

conv_net.C1.weight f4 [32, 17, 3, 3]
00000000: 0320 a43c 27a9 15bd 125f a53d ca47 05bc
00000010: 11aa 8fbe 8718 0e3d c741 cc3b c2ef 4cbd
00000020: 3b26 2e3d 5d3e 413c 438f ad3d a642 52bc
00000030: 1c78 56bc b17e 30be 3fc8 04ba 3f0a 323d
00000040: b876 26bd 04a1 4bbc 589f 15bc 3dda 123e
00000050: c14a 87bd 1e24 a0bd e0cd 743e 0d3b fd3c
00000060: c6cd d03d 41d0 c13d 573a bd3b 5bfe 5e3d
00000070: 1400 913d 0fc3 1b3d 40a9 783e f526 853e
00000080: fb01 253e e023 ff3d 24af 0e3e 4e1d 9a3d
00000090: 908f 45be a5b8 ed3d 4f85 1d3e 950d 95be
000000a0: f75d f43d c3e3 4e3e 76b2 6fbe 15b9 913d
000000b0: c6b3 533e 684d 07bd d5a7 58bd be97 863d
000000c0: 4b9e a3bd d7de 6bbc f5a6 d83d 6b3a a9bd
000000d0: 4ebc 4d3d c8d0 b43d 6091 f63d 4bc1 4ebe
000000e0: 5105 11be 7914 5b3d 5402 87bd 84c9 e3bb
000000f0: abe9 2e3e 5a57 b83d 2c82 383e 397d 92bd
00000100: 9583 13be 0278 7f3c a19f f7bc 86b4 53bd
00000110: f945 48bb c44c 713d d2b7 073e 8996 183e
00000120: d511 c63d 129e f13d 4548 4c3d 17f9 9e3a
00000130: f81f af3d d4d2 a23d ed24 b4bd 37e7 6c3c
00000140: c930 9ebc 5e87 87bc fcbc 57bd c734 4abd
00000150: 79f4 6c3b 8eba d93d 3713 883d 0869 e2bc
00000160: 4b81 303a 089e 67bd ff1e a13d ac91 92bc
00000170: 4641 3dbe 314f 133e 4cd2 13bc 4938 d2bd
00000180: a327 07be 2933 d3bd b236 0abe 1b29 833d
00000190: d0c0 d03d 23f9 ffbd abb1 1abd 528d 5a3d
000001a0: bd43 7bbc dc5e 0abe 4a76 49bd 3473 20bc
000001b0: 40bb c2bd f6ad 71be aa06 bbbe 63f2 143d
000001c0: 5180 1cbd 109a 4fbd 27fd 3a3e 7a7a 3b3e
000001d0: 4c2a 693e e000 8ebc 4908 26bd a31d 243d
000001e0: 4418 1e3d 906b 86bd 352c c4bd 5866 d03c
000001f0: 16ff 8c3d 1d03 e43b 45e2 03be d248 88bd
00000200: f82c 213e 60a7 923d d11d 483e 97c2 853d
00000210: 4269 d53d f3e7 3a3c 439d 46be e8c8 19be
00000220: 9a51 343e de67 35bd 6b5c 40bd a0dc a23d
00000230: 568d c7bd 938f 78bb 2663 cabb 37a4 e0bb
00000240: 22ea 143e 9a8e 32be 0720 353d 00fd 773e
00000250: 9c40 67be aa13 de3b 9f27 ffbc 5ac7 38bd
00000260: f2c4 953d 3f12 c2bd 24aa fe3c 98a7 4abc
00000270: c2b9 173d c4da e63e 8bf3 bcbc 53de 42be
00000280: 2a0a 65be aa9a 94bc 484d 19bb 7251 78bc
00000290: 0aa1 253b a0f2 033d 8629 9e3e a22b 88bd
000002a0: 2f05 103d cf70 e2bd c554 c3bc 880b 28bd
000002b0: 7e3f c3bd c0c4 35be fd44 073d 31d1 92be
000002c0: 373a 0ebd efbe c33c 89b5 59be 26e1 29be
000002d0: 272f 9cbd 4d6e 02bc 7557 5b3b 5c2c cabb
000002e0: 6b27 c33c 21c6 efbd 1599 ad3c e572 9cbb
000002f0: fb85 ae3d c727 bdbd 4ce4 b03d 40c8 e43d
00000300: 872f 83be 0a6c 0ebd 68d1 ce3e 8811 38be
00000310: de2a cdbd 457f 293d 3f70 4ebd cf0b 533d
00000320: 983b 183d b372 9cbd 58d8 4a3c 6d47 cf3d
00000330: 6dc9 98bd fbec 83bd dd63 2b3d 913f c0bd
00000340: 4cd2 91be 714c 1abe 3e0e 223c 350d 88bc
00000350: 0de6 1cbd 12bb dd3d 2fbf 4d3e 8373 f63d
00000360: 91db 0c3b b5fe 00be fbde b8bc 2153 7abc
00000370: 9e87 b5bd 6040 5bbd defc 0f3e c52e 123e
00000380: a132 dcbb 1050 ccbd f1f5 04be 723e c1bd
00000390: 3c9b d6bd 726f a5be 97e0 06bd 7aef 7c3d
000003a0: 492a babd ce95 4dbd 1d2f 5abd 3dc2 a73d
000003b0: 97c0 b7bd 0666 1dbd 23f4 3cbe 5c48 a43d
000003c0: da09 e1bc 3f79 ff3d 1be8 3cbc 9ca4 0c3d
000003d0: 7255 98bc 604c 87bd 2b0b fe3d 2ad7 10be
000003e0: c195 06bd f890 393d 74ff 363d 514e 2abd
000003f0: bde6 f9bd d75a 2a3d f2ff fabd c6a0 303d
0.020034796 -0.03653827 0.08074774 -0.008134792 -0.28059438 0.03469136 0.006233427 -0.05003334
0.04251693 0.011794654 0.08474591 -0.012833273 -0.01309016 -0.17235829 -0.00050652394 0.043466803
-0.040640563 -0.012428526 -0.009132229 0.14341064 -0.06606055 -0.07819389 0.2390666 0.030911947
0.10195498 0.094635494 0.005774777 0.05444179 0.07080093 0.03802782 0.24283314 0.26006284
0.16114037 0.124580145 0.13933998 0.07525121 -0.19293046 0.11607484 0.15382884 -0.29111925
0.11931985 0.20204072 -0.23407921 0.0711538 0.20674047 -0.033032805 -0.052894432 0.06571911
-0.07989176 -0.014396391 0.105787195 -0.082630955 0.05022841 0.08828884 0.12039447 -0.20190923
-0.14162184 0.05348632 -0.06592241 -0.006951513 0.17081325 0.09001036 0.18018407 -0.071527906
-0.14405663 0.015592577 -0.030227484 -0.051685832 -0.0030559285 0.0589111 0.13253716 0.14901175
0.0967137 0.11797728 0.04987361 0.0012128678 0.085510194 0.079503685 -0.087961055 0.014459423
-0.019310372 -0.01654404 -0.052670464 -0.04936674 0.003615646 0.106312856 0.0664429 -0.027637973
0.00067331333 -0.056547195 0.0786724 -0.017891727 -0.18481931 0.14385678 -0.009022307 -0.10264642
-0.13198714 -0.103124924 -0.13497427 0.064043246 0.10193026 -0.12498691 -0.037767094 0.05335743
-0.015335974 -0.13512748 -0.049185075 -0.009793092 -0.09508371 -0.23601517 -0.36528522 0.03636397
-0.03820831 -0.050684035 0.18260632 0.1830844 0.22770041 -0.017334402 -0.040535245 0.040067326
0.03859736 -0.06563485 -0.09578744 0.025439426 0.06884591 0.006958379 -0.12879284 -0.06654514
0.1573981 0.071608305 0.19542624 0.06531256 0.10420467 0.01140784 -0.19395928 -0.15018046
0.17609254 -0.04428851 -0.046963137 0.07952237 -0.097437546 -0.0037927374 -0.00617637 -0.0068555134
0.1454244 -0.1743721 0.044219997 0.24217606 -0.2258324 0.0067772465 -0.031146822 -0.04511199
0.07312955 -0.094761364 0.031086989 -0.012369059 0.037042387 0.4508878 -0.02306535 -0.19030122
-0.22367159 -0.018140156 -0.002339201 -0.015156137 0.0025272989 0.032213807 0.30891055 -0.06648947
0.035161193 -0.11056673 -0.023844132 -0.041026622 -0.095335945 -0.17750835 0.033024777 -0.28675225
-0.034723487 0.023894755 -0.21260656 -0.16589794 -0.07626181 -0.007960868 0.0033468876 -0.006169839
0.023822507 -0.11707712 0.02119116 -0.0047744387 0.085216485 -0.092361026 0.08637294 0.11171007
-0.25622198 -0.034771003 0.4039414 -0.17975438 -0.10017942 0.04138114 -0.050400015 0.051524933
0.037166208 -0.07639065 0.012380682 0.10121045 -0.07460294 -0.06441685 0.041843284 -0.09387124
-0.28480756 -0.15068223 0.009891091 -0.01660786 -0.03830533 0.108266965 0.20092462 0.12033751
0.0021493176 -0.12597163 -0.022567263 -0.015278609 -0.088637576 -0.05352819 0.14061305 0.14275654
-0.0067199026 -0.09976208 -0.12984444 -0.094357386 -0.10478827 -0.3231159 -0.03292903 0.06175182
-0.090900965 -0.050191693 -0.053267587 0.08191345 -0.089722805 -0.038427375 -0.18452506 0.08021614
-0.027470518 0.12474298 -0.011529948 0.03433667 -0.018595431 -0.06606364 0.12404474 -0.14144579
-0.03285766 0.04530427 0.044677213 -0.041578595 -0.12202213 0.041590538 -0.12255849 0.043122075

conv_net.C2.weight f4 [64, 32, 3, 3]
00000000: b662 89bd f9f8 b83d 11b2 02bd 965c b2bc
00000010: fb26 083d d31a 373d 75aa a33c 4f9a 8f3d
00000020: a0d0 893d a664 133e 55d7 a43c a29e 23bc
00000030: c219 1dbd e0ad 083c c990 0cbd 9b24 58bd
00000040: 48cc 653a 760b adbd 277b 33bd 42cc e03d
00000050: 91a4 023d ef55 c4bd 5580 333d b630 9b3c
00000060: d521 603b 9b79 833c 4d8a 2abc 539d 753d
00000070: ab42 d23c f14a 913d 698f fbba 440a c03b
00000080: 2c67 7a3d 91b7 dd3d 4a8a 3d3d 91c5 863c
00000090: c8e9 563d 21a0 4e3d d4f7 7b3c 8098 323d
000000a0: 685a 7e3d be00 89bc e166 9a3c 9689 073d
000000b0: deeb 833c b852 bcbd be2d d7ba 0005 85bd
000000c0: 2ce8 a0bc 8937 c83c 245a 7b3c 56e3 77bd
000000d0: 6d01 02bc 7217 2abd 2246 523c e98e 8d3d
000000e0: 0725 3d3d 12f1 d9bd fa9b c23b cd7d b3ba
000000f0: e998 f9bc cc0c 163d 4638 f63c 3f2c d0bd
00000100: 27cf 5ebe 863d 753d 2e67 003e 8b6a 41bd
00000110: af0a b3bc 8fb5 833c da66 943d d227 fa3d
00000120: 22af eebc a7ad 243d c4ed 893d 5fb1 bdbd
00000130: b09f 11bc 50c0 8b3c 0ed3 febd 4d1e 14bd
00000140: 5c68 e6bb d93d 843d 9b28 bc3c a6f2 c83d
00000150: a07c e3bc bdec 0b3d 0e7a 353e 3c3d a93c
00000160: 4bfe b53b 6669 d23d c18a f7bc ee3e 923d
00000170: b11c 203e c1e3 9b3c f3e1 9fbd e357 0e3b
00000180: 7ee0 5abd bd09 03be 1485 6bbd edcf 8bbd
00000190: c131 74bd b862 a3bd d452 c33b 062a aa3b
000001a0: 96d1 cebc 1e58 3c3d 1adc 81bd a23a 38bd
000001b0: 0fcc 74bd 63e2 823d 04e7 f1b6 3f05 523d
000001c0: fe88 84bc b48c 97bc 9e8f 86bc 8750 d3bd
000001d0: 3c21 c7bd 1fed babd d3ca c4bd 7159 d73d
000001e0: 6ba3 aabc 9224 bcbd b202 f1bd 6be3 e0bd
000001f0: 0e8c 03be 05d2 57be a0ca aebc 7136 0e3d
00000200: 9531 833c 55cd 12bd c08d 23bd 9a7c fe3c
00000210: 73e1 1c3c 9c99 f83c 0c1f 633d d59f 043e
00000220: 7bcd b8bd a196 51be afc2 ee3d 3e6e 23bb
00000230: e61c 4dbe a7cf 09be 11b6 31be fa21 6bbe
00000240: a4c9 b4bc 484e 93bd 4740 4dbd 9f78 a03c
00000250: 48fd 3fbd 6f58 82bd a530 60bd 652d 8bbd
00000260: 974b 16bd 9c3e bf3d 8285 753b abe0 313b
00000270: 5951 4d3d 1185 0fbd 4193 b33c 621d 45bd
00000280: 188a 74bc 3d7c 6c3d 23de 73bd 1714 e3bc
00000290: 9670 a93d 3a76 e8bc 2fcc 1b3b c403 08bd
000002a0: 28f8 30ba e1b2 203d fcc6 c6bc 7bcd 8c3c
000002b0: 51b5 173e 84dc 8ebd 03ee b4bc d93c 21bd
000002c0: 5ca6 46bd c90e 513d b442 aebc da12 d2bd
000002d0: 4515 12be 7d43 babd a8c9 d63d 074b dfbd
000002e0: 30e2 9ebd 6833 5a3d 2136 24be 6a1b a1bd
000002f0: 1d84 e83c 1848 373d 8980 8c3d a41f f9bc
00000300: 87a5 ed3a 8114 9f3d c711 5fbd fc8d 20be
00000310: 53d2 24bc de69 a6bb 8e48 e93b 5478 0fbe
00000320: 2d10 533c d92c 843d 4a1e 62bd fd8a a3bd
00000330: 27ed 193e 0cf4 e33c 4fdb 18bd 08dd 8e3c
00000340: 366c e93c fbd0 313d 0305 de3d 394a c33d
00000350: 1327 a93d aaae 8f3d 7c49 383d 103e 49bd
00000360: 62e3 f1bc 4876 93bd 02be d93c ee1e c5bd
00000370: d7f6 9abd 23b1 dbbd cd9b 1dbe da95 a03c
00000380: 409d 63bd b999 2b3d d308 3abd 53b2 6dbd
00000390: fc18 043e 42a7 b2bc 1d70 16bd 3600 5a3e
000003a0: 5b97 bb3d cdfc 083c 4f84 233d 5bbc 01bd
000003b0: 2c15 23be 63a8 323d 878e 5cbc 9f17 8abd
000003c0: 42c3 e33c 28b5 333d 8019 88bd 16f6 84bc
000003d0: e4bc 203b b2a1 34bd 1522 55bd 4b27 88bd
000003e0: edda 083c a396 4cbc cb3e 0cbd b849 d9bc
000003f0: 6cff 1dbd 1805 8dbd af63 d4bc 47ad f33d
-0.06708281 0.09031863 -0.0319081 -0.021772664 0.0332403 0.044703316 0.019978741 0.07011854
0.06729245 0.14393863 0.02012221 -0.0099865515 -0.038354643 0.008342236 -0.034317765 -0.052769285
0.0008766097 -0.084494516 -0.04381862 0.10976459 0.031895224 -0.09586703 0.04382356 0.018944126
0.0034199853 0.016049197 -0.01040895 0.05996449 0.025666555 0.07094372 -0.001919252 0.0058605988
0.06113355 0.10826028 0.04627446 0.016451629 0.052469045 0.05044568 0.015378911 0.043602467
0.062097937 -0.016723987 0.018847885 0.033090197 0.016103681 -0.09195465 -0.001641683 -0.06495094
-0.019641958 0.024440544 0.015341315 -0.06051954 -0.00793491 -0.041526265 0.012834104 0.069120236
0.04617789 -0.10641684 0.005939004 -0.0013694108 -0.030468421 0.036633298 0.03005613 -0.10164689
-0.2175871 0.059873126 0.1253936 -0.047220748 -0.02185568 0.016077785 0.0724618 0.12214626
-0.029136244 0.04020467 0.06734803 -0.092623465 -0.00888817 0.017059475 -0.12442599 -0.03616171
-0.0070314836 0.06457109 0.022968581 0.098119065 -0.027769387 0.034161318 0.17722341 0.020659082
0.0055539957 0.102740094 -0.03021753 0.07140909 0.15635945 0.0190295 -0.07806768 0.0021719865
-0.05343675 -0.12796684 -0.05749996 -0.06826768 -0.05961776 -0.079778135 0.0059608016 0.005192998
-0.025246423 0.045982473 -0.06340809 -0.04497779 -0.059764918 0.06390836 -7.2092535e-06 0.051274534
-0.016178604 -0.01849971 -0.016425904 -0.10318094 -0.09723136 -0.091272585 -0.09608998 0.105151065
-0.020829877 -0.09186663 -0.11768092 -0.109808765 -0.12846395 -0.2107621 -0.021336854 0.034719888
0.016014853 -0.03584035 -0.039930105 0.031065274 0.009575236 0.030346684 0.05544953 0.12951596
-0.09023567 -0.20467617 0.11658227 -0.0024937536 -0.20030555 -0.1345812 -0.17354609 -0.2296218
-0.022068806 -0.07192665 -0.050110128 0.019588767 -0.046872407 -0.063645236 -0.05473389 -0.06795768
-0.03669318 0.09338114 0.003746361 0.002714197 0.050126407 -0.03503901 0.021920802 -0.048123725
-0.014925502 0.05773567 -0.059538018 -0.02771954 0.08273427 -0.028376687 0.0023772826 -0.033206716
-0.00067508454 0.039233092 -0.024264805 0.017187824 0.1481526 -0.06975654 -0.02208615 -0.03936467
-0.048498496 0.05103949 -0.02127204 -0.10257502 -0.14265926 -0.090949036 0.104876816 -0.10902982
-0.077579856 0.05327168 -0.16036274 -0.07866557 0.028383309 0.04474649 0.06860454 -0.030410595
0.0018130996 0.07767583 -0.054460313 -0.15679163 -0.010059911 -0.0050785383 0.007119245 -0.14010745
0.012882275 0.064538665 -0.055204667 -0.07985494 0.15031873 0.027826332 -0.037318524 0.01743938
0.028493982 0.04341219 0.108408 0.09535641 0.08259406 0.070157364 0.044991955 -0.049131453
-0.02952737 -0.07200295 0.02657986 -0.0962504 -0.07566612 -0.107271455 -0.15391465 0.019602705
-0.055569887 0.04189465 -0.04541857 -0.05803139 0.12900156 -0.02180827 -0.036728013 0.21289143
0.09159728 0.008361054 0.0399211 -0.03167377 -0.15926045 0.043617617 -0.013461716 -0.067427866
0.027803067 0.043873936 -0.06645489 -0.016230624 0.002452665 -0.044099517 -0.052034456 -0.066481195
0.008352977 -0.0124870865 -0.03423957 -0.02652441 -0.038573667 -0.06885737 -0.02592644 0.118982844

conv_net.C3.weight f4 [128, 64, 3, 3]
00000000: 1023 68bc cadd 28bd 36b3 8dbd e908 533d
00000010: a58f bb3b 4401 b1bb 8728 d93b 3b2a a5bc
00000020: 2595 603d 397a 28bd 0f63 2d3c ddb4 303d
00000030: c914 e63c 7bd1 913c c4fb 803d bbf0 b8bc
00000040: c26c 10bd b712 cf3c 7640 c8bd 6083 443b
00000050: 0f83 f23c 240e 2dbd 6a0f ec3c e938 223c
00000060: a9d3 d6bc 557e bdbd c931 ea3d 4c7e 803d
00000070: 4491 27bd 0a15 8c3d ca3b 293c 7464 fdbc
00000080: 2fd1 183d e910 ccbd 6800 23be 34d7 3e3b
00000090: 7ade 85bd 8a58 e8bd d93d 9bbc 8f4b ebbb
000000a0: 8c6c 10bc 47b1 9f3c 4278 b0bc 2514 9fbd
000000b0: 4984 b9bd 17de 83bd 4902 fbbd d786 a5bd
000000c0: 9f69 9bbd 1050 02be b361 2abd 0404 e0bd
000000d0: 796a 2bbd 7c2b 0f3b 6107 19be eeac 64bd
000000e0: 1c05 a8bd 479e 37bb 0a60 b83c 833d d93d
000000f0: d5b2 43bc 3cd5 4ebd 08eb b93c 17fa 823d
00000100: aaf6 253d 15d1 463b c547 2abd ab00 07bd
00000110: abe7 46bd 3cf4 e9bb a87f d13c eecf 13bb
00000120: bf7e 28bd cee9 0bbe a2b4 34bd 7d51 e6bc
00000130: 3fe8 01bc bcfe 123d b085 3cbd 4625 6dbd
00000140: 574c ef3c b007 7a3d 89e8 473d ee04 db3d
00000150: 1b6d e7bc a25f 2dbd 73ae 223d a2df eabd
00000160: 1844 3fbd 0b72 b0bc 296d 1bbd 7e78 2fbd
00000170: de54 aebc bc4b 953b 4e73 353d 0303 bc3c
00000180: ddd5 3ebd 3000 75bb 084c 933c 5f39 93bc
00000190: 0173 8fbd 2ecd c3bd c197 d53d bdb4 553a
000001a0: 2fd4 3d3d e2ae 213e 1450 a1bc ede2 2cbd
000001b0: 7e09 843d 26bd cf3c 0fbb 473c c232 2e3d
000001c0: c6c8 43bc 68e1 423d 2171 02bd b99a 38bd
000001d0: 6489 593c 1de6 7abd 0c3b 5dbd d4c8 123d
000001e0: 169d abbb 5b10 303d 2ce9 173d 8e58 85bc
000001f0: 8f94 b93b ecca 803d 6161 09be 2322 64bd
00000200: 9724 ffbc 8567 01be 3856 653b 0954 9c3c
00000210: b2dc 16bd e316 0bbc edaf 483d c5f4 0e3e
00000220: e52f 083d c968 d7bc 7b3b 5f3c 930c d2bc
00000230: 5c44 94bd 9a27 e03d 12da 8e3c 5794 97bd
00000240: 59a3 a73d 6d4c 33bd a5aa 963d 8473 113d
00000250: 8494 86bd 057e 4b3c b212 b2bd 4e05 00be
00000260: 5705 783d 34f2 fdbc bfce 44bd a1ee fe3c
00000270: 77e4 7d3d a00b 233d 0127 e03d 25e0 b8ba
00000280: c0db e13c 640f 0e3d eadc 2fbb 0c69 9abc
00000290: c598 80bd ac46 28ba 55c4 5abc 57e0 7fbd
000002a0: cea2 93bc 93c9 653c 76a0 74bd 804b cabd
000002b0: f780 41bd c80c 66bd 1ffe 37bd f102 73bd
000002c0: 2553 d3bd eb25 0ebd 76bd 00be d2b6 57be
000002d0: 1826 04be 76cf a9bd 9c64 a13b 7ada 5ebc
000002e0: 6310 aebc aef5 3f3d 20c3 a9bc cc9b 133d
000002f0: 7a32 013d bcd2 5cbb a291 843d c5d7 87bc
00000300: 90a2 13ba 0325 143d 47a3 723d bc05 b9bc
00000310: 63f6 88bd 8a50 41bd ece8 9ebc 6474 f83c
00000320: a8a6 f23c ecca c5bc fc74 cb3c 7b73 173d
00000330: 11d8 5fbd d90a bd3c 4e42 4f3c ce34 b9bc
00000340: 9efb 65bd dc9b a2bd 11f6 56bd de18 c5bd
00000350: fe4c 7d3d 8ca0 23bc cc2e 263c 1cac 933b
00000360: 0f28 0fbe 84a5 30bd 8a42 94ba 7193 023b
00000370: 9e27 ac3c 9f2a db3c 4711 d3bc 97ba b2bd
00000380: 2918 2dbd e1a7 e73d ab0c 643d 077c be3d
00000390: 2c39 803d aa0b 11be f927 3a3d efbe 743c
000003a0: ad05 90be 0361 c7bc 496a 13bd c427 3ebd
000003b0: f64c c1bd 2c59 85bb 83dd a8bc 6154 1bbd
000003c0: 8f96 b23b 2dd6 6fbc f7e5 83bd 56aa a1bd
000003d0: dc87 a5bc d9a3 f33c f2d6 d9bd 8a8f a1bd
000003e0: e2ea 93b9 6186 08bd 2f58 adbd c5de e1bd
000003f0: defa b5bc 36f8 cebc df4b 80bc f33c e8bc
-0.014168516 -0.04122714 -0.069189474 0.05152217 0.005723911 -0.005401762 0.0066271457 -0.020161739
0.054829735 -0.041132186 0.010582699 0.043141235 0.028086083 0.017800083 0.062980205 -0.022575727
-0.03525997 0.025277479 -0.0977792 0.0029985532 0.02960351 -0.042249814 0.028815944 0.009901264
-0.026223974 -0.092526115 0.11435277 0.06274089 -0.04091002 0.068399504 0.010329196 -0.030931689
0.037308868 -0.09964163 -0.15918124 0.002911997 -0.06536575 -0.113450125 -0.01895039 -0.007180638
-0.008814942 0.019493712 -0.021541718 -0.07767514 -0.090584345 -0.06438845 -0.12256295 -0.08082359
-0.07588505 -0.12725854 -0.04159708 -0.10938266 -0.041849587 0.0021845987 -0.14944221 -0.05582898
-0.082040995 -0.0028017925 0.022506732 0.106074356 -0.011944492 -0.050496325 0.02269508 0.06395357
0.04051844 0.0030337025 -0.04157235 -0.03295962 -0.04856078 -0.0071397107 0.025573567 -0.0022554356
-0.0411365 -0.13663408 -0.044117577 -0.028115029 -0.007928907 0.035887465 -0.04602593 -0.057896875
0.029211206 0.061042488 0.048805747 0.106943 -0.028250268 -0.04232753 0.03971715 -0.11468436
-0.0466958 -0.021538755 -0.0379459 -0.04283952 -0.021280702 0.0045561474 0.044299416 0.022950655
-0.046590675 -0.0037384145 0.01798059 -0.017971693 -0.07004357 -0.09560619 0.104293354 0.0008152237
0.046344932 0.15789369 -0.019691505 -0.0422086 0.06447123 0.025358748 0.012190594 0.042528875
-0.011949724 0.047578245 -0.03184617 -0.04506943 0.013277385 -0.06125461 -0.05401139 0.035836056
-0.005237232 0.042984348 0.037087604 -0.016277578 0.0056634615 0.06288704 -0.13416053 -0.055696618
-0.031145377 -0.12637146 0.0034994017 0.01908304 -0.036831565 -0.008489343 0.0489959 0.1396056
0.0332488 -0.026295083 0.013625021 -0.025640761 -0.07239601 0.109450534 0.017437968 -0.074013405
0.08185453 -0.043774057 0.073567666 0.035510555 -0.06571296 0.012420182 -0.08694972 -0.12502024
0.060551967 -0.03099928 -0.04804873 0.031119647 0.06198546 0.03980601 0.109449394 -0.0014104886
0.027570605 0.034682646 -0.0026834556 -0.018848918 -0.062791385 -0.00064192223 -0.013352473 -0.062469807
-0.018021967 0.01402511 -0.05972334 -0.09877682 -0.04724213 -0.056164533 -0.044920083 -0.059328977
-0.10318593 -0.03470413 -0.12572274 -0.21065834 -0.12905157 -0.08291523 0.0049253237 -0.013601894
-0.021248048 0.046865158 -0.020722926 0.03603725 0.03154228 -0.0033694943 0.0647309 -0.01658238
-0.00056318287 0.03616811 0.059237745 -0.022585742 -0.066876195 -0.04719595 -0.019398175 0.030328937
0.029620484 -0.024144612 0.024836056 0.036975365 -0.054649416 0.023076462 0.012650086 -0.022608187
-0.056148164 -0.07939884 -0.05248076 -0.09623884 0.061841004 -0.009987008 0.010142993 0.004506601
-0.13980125 -0.043126598 -0.0011311334 0.0019924308 0.021014985 0.026753722 -0.025765074 -0.087269954
-0.04225937 0.11311317 0.055676144 0.09301 0.06260905 -0.14164606 0.045448277 0.0149381
-0.2812933 -0.024338251 -0.035990033 -0.046424642 -0.09438507 -0.004069468 -0.020613438 -0.037922267
0.005450077 -0.014638466 -0.06440347 -0.07893817 -0.020206384 0.029741215 -0.10636701 -0.07888706
-0.00028213026 -0.03333128 -0.08464085 -0.11028818 -0.02221435 -0.02526484 -0.015661178 -0.028349375

conv_net.C4.weight f4 [1, 128, 3, 3]
00000000: 9ec4 85bc 8446 80bd c548 b8bc 4b08 23bc
00000010: fec6 d0bc 31a4 80bb 716d 97bb d585 6abc
00000020: b076 483a 5bfa 073d 776d 0a3c d4a5 91b9
00000030: 26c7 3b3d 760f 623c 96b7 86bb b6e9 133d
00000040: 6d77 583d 0ef7 f23b 2c24 183e 731f 213c
00000050: af69 0abd cdb8 63bd 655e 32bc 4f41 d2bc
00000060: 0f4a a4bc 9a79 a8b9 3087 ddbb f012 0abc
00000070: 7efb ed3c 5518 473d 135e 7fbd b8b0 943b
00000080: d9d5 1c3b 9c73 23bd e246 5cb9 c92e 723c
00000090: d47e b8bc 39be 7f3c c02e dd3c 53be 84bd
000000a0: e1d1 8cbc fdb0 233d 79ed 83bc aecf 343c
000000b0: 62cc 173d f032 983d 7ab5 813d 3fe9 363d
000000c0: f42f b93d f901 a33d ddd4 343d a6ee 453d
000000d0: 6457 1f3d 799f 363d 05ad 6695 2cd8 7f95
000000e0: bd21 9095 2c52 8d95 3cd0 9f95 4cc8 ae95
000000f0: 7536 a295 6c4b b795 ef51 c395 fdd1 0b3d
00000100: af88 563d f672 fa3c 394d 663d f6ed b83d
00000110: f642 713b 10fb 3a3d 436c 9c3d 7c30 b03c
00000120: 90d0 c63c e3ff bd3d 7539 a03d d1b6 0d3d
00000130: fcc6 913e bd44 9d3c ee27 403c 0b8a d53c
00000140: 1fe4 043c 664c e23d 1a0b 713a 81dc 283b
00000150: c7df 45bb 313b 0fbb 0125 f33a 9cc7 643b
00000160: cc6d 273a e517 b4b9 06a8 5abc 42fc ce3c
00000170: d847 093b 4ad6 37bd b030 6f3c c9dd 443c
00000180: 6b5b 2bbd a9aa 71bc 3710 19bc d0e6 d2bd
00000190: f5e4 a1bd 1acc 74bd 03f2 9dbd 8213 b6bd
000001a0: 9696 47bd 6ead 64bd 5eb8 8bbd cf5d 56bd
000001b0: 8dfb 0713 0adf 9e13 d7d9 2713 87f6 0416
000001c0: 49aa 9916 afb9 1016 e444 3e16 c63e a416
000001d0: fb92 0816 382c f2bc a08e 47bd 6cf5 6fbd
000001e0: bbf2 8abd 3cbc eabd ac4d 73bd fcfe b5bc
000001f0: 15b3 03bd bb0e 31bc cd20 0dbc 2174 3d3b
00000200: c9a1 b43a 4afd 71bb c5bb 843c b823 9e3c
00000210: 6d8d d7bd 92c6 4b3d 61c0 853c 4365 43bc
00000220: 9347 44bb d3dc e3b9 ffad 03bd 0e1a a7bc
00000230: d8cf 113b ed96 d7bd 6635 6bbe 2aa2 b5bd
00000240: 9192 95bd 4027 e43b 730c 5c3c 3567 05bd
00000250: 7c8f 893c fdf4 be3c 0a3e f33b f751 633b
00000260: c8b2 a63c 6f96 97bc e987 8cbc 4336 a1bb
00000270: ca70 473e 99e8 b4bc e954 48bb 2765 e4ba
00000280: f926 a9bb 4419 88ba 753b 293c 9ffc 12ba
00000290: 3d86 583b 86de 413c e020 14bb 5c1e 11bb
000002a0: 3eaa 8e3e 7276 2938 e724 45bb e71e 1c3d
000002b0: 4de6 213d c517 4f3d bbe3 113d 06d2 b83d
000002c0: 70c8 fb3d ee36 853c 040b 173b 4f95 983b
000002d0: da85 f2bb 901f 5dbd 72b8 7bbe cb7e c6bc
000002e0: af77 3abd 54a6 00bc 4345 a1bc 03d3 1dbc
000002f0: 9983 21bb 5196 643d 93f3 8f3c aee3 163d
00000300: daf0 833d c49b 6dbd 3800 23bd 1131 3cbb
00000310: b499 26bd 36ae b9bc 625c 9abc 6de5 5fbc
00000320: bff8 8dbc 7278 58bc 0e9f 45bc bcc9 1dbc
00000330: 650a 20bc 4dd8 253c 2f70 f03b 92fd 2abd
00000340: eaed 86bc ad09 a5bc 7dcd 223d d612 573d
00000350: f8a9 2fbc 82b1 b13c c8aa ae3c 97c6 9db9
00000360: 8ca4 8d3b 8f67 623a 10e9 423c 246f 253b
00000370: 28b8 d8bb 4821 cd3d bf9e 593b f7f4 943a
00000380: 2320 2e3b ec88 4cbc 5eea e3bc 69c4 c4bc
00000390: a5d8 5dbd 7a91 213e 77bf bebc 5713 9bbc
000003a0: e8d8 6ebc 2639 43bc f600 a73c 8087 663d
000003b0: 2219 d83c 18fd 463c 22fe 6f3e 70f2 ba3b
000003c0: 9e51 02bb 15ea a83c b7ee be3b 54c7 1d3e
000003d0: a42b 0a3e 160c 973d 2f44 093f 6004 293c
000003e0: 6bb5 733c ff36 7d3b 5031 1d3c b32b fc3a
000003f0: 03cd 92bb 9251 71bc 17a5 fbbc 6abb 4ebb
-0.016329106 -0.0626345 -0.022495637 -0.009950708 -0.025485512 -0.003925823 -0.0046212007 -0.014314135
0.00076470803 0.033197742 0.00844895 -0.00027780107 0.04584422 0.0137976315 -0.0041112406 0.036111556
0.05284827 0.007414705 0.14857548 0.009834158 -0.033792194 -0.05559616 -0.010886763 -0.025665907
-0.020054845 -0.00032134057 -0.0067605004 -0.008427367 0.029050585 0.04860719 -0.062345576 0.004537668
0.0023931174 -0.039905176 -0.00021007241 0.014781662 -0.022521414 0.015609317 0.026999831 -0.06481614
-0.017189922 0.03996371 -0.016104447 0.011035843 0.03706015 0.074315906 0.06333442 0.044656035
0.090423495 0.07959361 0.044148315 0.048323296 0.0389017 0.04458568 -4.6584618e-26 -5.166737e-26
-5.8214366e-26 -5.707909e-26 -6.4548124e-26 -7.059405e-26 -6.55172e-26 -7.4032106e-26 -7.888914e-26 0.034135807
0.052376445 0.030572396 0.05622599 0.090297624 0.0036813593 0.045649588 0.07637837 0.021507494
0.024269372 0.09277322 0.07823459 0.034598175 0.28472126 0.019197816 0.01172827 0.0260668
0.008111029 0.11049728 0.00091950747 0.0025766196 -0.0030193196 -0.002185535 0.0018550457 0.0034909016
0.00063869054 -0.00034350078 -0.013345724 0.02526677 0.0020947363 -0.044882096 0.01459901 0.012015768
-0.04183523 -0.014750161 -0.009342245 -0.1029793 -0.07904998 -0.05976496 -0.07712176 -0.088904396
-0.048727594 -0.055829458 -0.068222746 -0.052335557 1.716342e-27 4.010474e-27 2.1185767e-27 1.0740665e-25
2.4825948e-25 1.1690819e-25 1.5369816e-25 2.6535245e-25 1.1032371e-25 -0.0295621 -0.048720002 -0.058583662
-0.067845784 -0.11461684 -0.059400246 -0.022216313 -0.032153208 -0.010806735 -0.008613777 0.002890833
0.0013781126 -0.0036924654 0.016202817 0.019304141 -0.10525022 0.04974992 0.016327085 -0.011925998
-0.0029949888 -0.0004346134 -0.032148357 -0.020398166 0.0022249129 -0.10526834 -0.22969589 -0.08868821
-0.07303346 0.006962687 0.0134307025 -0.03256913 0.016792051 0.023310179 0.007423167 0.0034686306
0.020348921 -0.01850435 -0.01715465 -0.0049197986 0.1947662 -0.022083567 -0.0030568189 -0.0017425165
-0.0051621166 -0.0010383506 0.010329117 -0.00056071015 0.0033038997 0.011832839 -0.0022602603 -0.002214334
0.2786426 4.040305e-05 -0.003008181 0.03811541 0.039526273 0.050559778 0.03561757 0.09024434
0.1229409 0.016261544 0.0023047337 0.004656471 -0.0074012103 -0.05398518 -0.24582079 -0.024230381
-0.045524295 -0.007852156 -0.019686347 -0.009632829 -0.0024645089 0.055807415 0.0175722 0.036838226
0.06442423 -0.058009878 -0.03979513 -0.002871577 -0.040673926 -0.022666078 -0.01884288 -0.013665539
-0.017330525 -0.01321231 -0.012061847 -0.009630617 -0.009768103 0.010122371 0.007337592 -0.04174573
-0.016470868 -0.020146215 0.03974675 0.052508198 -0.010721676 0.021691088 0.02132167 -0.00030093334
0.004322594 0.0008636647 0.011896387 0.0025243247 -0.00661375 0.100161135 0.0033206192 0.0011364509
0.0026569448 -0.012483817 -0.027821716 -0.024019437 -0.054161686 0.15778151 -0.023284657 -0.01893012
-0.014578082 -0.011915481 0.0203862 0.056281567 0.026379172 0.012145303 0.23436788 0.0057051703
-0.0019885073 0.020619432 0.005826797 0.15408069 0.1349321 0.07375352 0.53619665 0.0103159845
0.014874796 0.0038637517 0.009594277 0.0019239098 -0.0044800057 -0.0147289205 -0.03071837 -0.0031544813
