CNN_weights/NetworkA_weights_CV1.pt (torch, 394591 bytes, 4 tensors)

conv_net.C1.weight f4 [32, 17, 3, 3]
00000000: 9d7e 9a3d 583e a73d 2f76 bdbc 165b dd3d
00000010: 8da5 cdbc 2658 bbbd 5dbe 4c3d f09c 9ebb
00000020: b2c2 98bc 8f7c 243d c069 353d da9b 84bc
00000030: df3a a0bd cab2 aabe 9334 12bc c9f7 9f3d
00000040: fbe2 2ebe 1e13 20bd df74 603d 1f4d f73c
00000050: e37c ae3d a289 cebc bfd7 a33d cc71 0f3e
00000060: b338 183d 0973 163e 084b 0c3e 2838 bcbb
00000070: 92c7 6b3b f4c2 e73b 6305 0e3d 21fc 8c3d
00000080: 1a01 cf3d 3768 363d cf26 66ba 7063 c83c
00000090: c89d a53c 19ef 1f3d 2f98 5abd d50c 87bd
000000a0: aa8b 55bd 76b5 b5bd 5fbb 793d 4cf2 9f3d
000000b0: 261b 1d3c b0fb 213d 56ad 11bc 0189 8a3d
000000c0: 8809 77bd 5a6e 8fbd 4439 113e 7276 f9bd
000000d0: 3243 34bd fa63 533d c03c a03d 1056 563c
000000e0: fec3 a53c f994 21bb f378 3c3d 8c55 ad3d
000000f0: 9640 8bbd 5a40 29b8 8ec4 083d bbef 3b3c
00000100: ef74 ffbd 9537 833d 1d6c 22bd 663b 9bbd
00000110: 5445 f23c 2ba0 103d 3d38 0f3e 336e c63d
00000120: 85eb 933d f0a5 ea3c 5113 503c 9d1f 473d
00000130: c4d0 2b3e 5eba 283d 24a8 f7bc 7ae5 0a3d
00000140: f418 1abc 77d5 f8ba 5a2c 9d3b 8f8a 6cbd
00000150: a87c c63c 5e44 e03c 5f11 c23d 0501 aa3c
00000160: a4a7 9fbc 1d06 b3bd 619b f2bc 7f34 4abd
00000170: 7ddf a6bd fcac 803c 7860 05bd 6e85 bd3b
00000180: 67e0 223d bcf5 2abd 2546 bebc d91a 8fbd
00000190: c4fd 913d 8ae3 7ebc 0dcb 07bd 1258 693d
000001a0: 2bc9 aa3b ce2d 2dbd 7799 17bd 2aa2 8fbd
000001b0: dc8e 303d 697b 89bc c8d7 283d a3e9 943c
000001c0: 5653 0abe c083 95bc 84c2 3b3d c1f6 bfbd
000001d0: e614 1d3d 99ad 2cbc 696f a5bd 3808 6cbc
000001e0: 97e8 3bbc 0703 da3d 61c9 0bbd 9a59 e13c
000001f0: 9cb2 cfbb 5dc2 e9bc 2c70 5c3b 39cc 2abd
00000200: 0659 fabc 28f2 b8bc 2f18 633d 410e 3b3c
00000210: edb2 2abd 633d 543d 07c2 c3bd 7a46 25bd
00000220: c761 0d3e 402f a1bd 4bff 123c 2cc5 70bd
00000230: d748 5c3c 483d 393d 6908 3c3b 15dd 233d
00000240: 47a2 89bd c9ee ecbd da8e 08be 4fd8 133d
00000250: 5563 28be cd02 4fbe 7cb9 e2bd cdf0 73be
00000260: 4bb2 70be 31da 8d3d 348b 053d 0aff 87be
00000270: 11ab 773e d571 293f 720e 983d 26d2 ec3d
00000280: aade aa3d b309 22be 8572 353d dda8 8c39
00000290: 49d4 dc3c aa21 a1bc 506d 2a3e 6361 f6bc
000002a0: 5f61 193d 7ace 13bd cea0 4fbc 9bbd e9bd
000002b0: 3d12 d2bd 5638 21be de79 873d 8878 80be
000002c0: f363 06be 9a64 04bd 1fa1 2dbe 43c0 b3bd
000002d0: b0a5 d43c b6cc 71bd bcbc 373c fb1a 52bd
000002e0: 7f38 ed3c 6163 9dbd b843 213d f893 093d
000002f0: 41f7 933c 006e 34be b1e6 ab3c c647 ea3d
00000300: 8ee2 8dbe 7752 04be 71c1 903e 0830 06be
00000310: b59b 193d 5e05 343e ad55 7abd 37de 7b3d
00000320: 51cf 80bb 5fb8 b3bd 0b99 3c3b 0e98 c23c
00000330: e978 7639 d03e eebc 3651 ab3b cb09 31be
00000340: 4b35 50be de6b 37be c43c 0ebb c121 043d
00000350: 889a 95bd dcf4 313e 3b8a 7d3e c92d 093e
00000360: 3b72 abbc eea0 bcbd 0d2b f9bc ae61 8fbc
00000370: 309e dd3b 1d26 69bc 57ec 6c3b b783 013e
00000380: 854b 1c3d aaf1 70bd 1462 a2bd 755d f6bd
00000390: ee23 92bc c922 cc3c eb34 25bc e7cc 0d3a
000003a0: dc91 fb3c 2d60 513d 04a9 1ebd 86e9 333c
000003b0: c631 c7bc f459 db3c 4354 87bd 10b1 84bb
000003c0: 61e5 83bd eb63 203b 6be6 9abc dcda 333b
000003d0: 9304 e1bc a7c2 ca3d 65c6 103d 133a 4dbe
000003e0: 8573 b5bd aa85 f83d 7acc 863d 3f86 42bc
000003f0: d9f8 8fbd 44cf f5bc c9af 903d 47b2 943c
0.07543681 0.08166188 -0.023127643 0.10808389 -0.025103355 -0.09147672 0.049986232 -0.0048404858
-0.018647525 0.04015785 0.044290304 -0.016187597 -0.07823729 -0.3333953 -0.0089236675 0.07810933
-0.17078774 -0.03908073 0.054798957 0.030188141 0.08519914 -0.025212113 0.08000135 0.14008254
0.037163448 0.1469232 0.13700497 -0.005743999 0.0035977107 0.007072801 0.034673106 0.06884027
0.10107632 0.04453298 -0.00087795866 0.024461478 0.020216838 0.03904638 -0.05336779 -0.065942444
-0.052135147 -0.088725016 0.060969707 0.07809886 0.009588992 0.03954667 -0.008891424 0.06764413
-0.060311824 -0.0700347 0.14182001 -0.12180795 -0.044009395 0.051609017 0.07824087 0.013082042
0.020235058 -0.0024655445 0.046013784 0.084635824 -0.06799428 -4.0352672e-05 0.033390574 0.01147073
-0.12473475 0.06407086 -0.039653886 -0.07579689 0.029574074 0.035308998 0.13986297 0.096889876
0.07222656 0.028643578 0.012699918 0.048614133 0.16778857 0.04119336 -0.030231543 0.033910252
-0.009405363 -0.0018984516 0.004796547 -0.057749327 0.024229363 0.02737635 0.094759695 0.02075244
-0.019489117 -0.087414004 -0.029615106 -0.04936647 -0.08148096 0.015707485 -0.032562703 0.0057837283
0.039764788 -0.041738257 -0.023226807 -0.06987543 0.0712848 -0.015557179 -0.03315263 0.056968756
0.0052119694 -0.04228001 -0.03701159 -0.07013352 0.04310499 -0.01678248 0.04122141 0.018177813
-0.13508353 -0.0182513 0.0458398 -0.093732364 0.03835001 -0.010539436 -0.080778904 -0.014406256
-0.011469028 0.10645109 -0.034127597 0.027508546 -0.0063384306 -0.028535062 0.0033636196 -0.04169867
-0.030560028 -0.022576407 0.055442985 0.011416973 -0.041674543 0.051816355 -0.09558492 -0.040350415
0.1380683 -0.0787034 0.008971999 -0.058781788 0.013445101 0.045224458 0.0028691536 0.040005762
-0.06720405 -0.11568982 -0.13335744 0.03609496 -0.16444142 -0.20215912 -0.110705346 -0.23822327
-0.23505513 0.06926382 0.032603458 -0.26561767 0.2418635 0.6618932 0.0742463 0.1156352
0.08343251 -0.15824012 0.044298667 0.00026828694 0.026956694 -0.019669373 0.16643262 -0.030075734
0.037446376 -0.036085583 -0.012672616 -0.114131175 -0.10257385 -0.15744147 0.06615041 -0.25091958
-0.13124065 -0.032322504 -0.16955994 -0.087769054 0.025957912 -0.05903312 0.011214431 -0.05129526
0.028957603 -0.07684971 0.039371222 0.03358838 0.018062236 -0.17620087 0.020984026 0.11439471
-0.2771191 -0.12922083 0.28272584 -0.1310426 0.03750201 0.17580172 -0.061116863 0.061491217
-0.003930964 -0.087754 0.0028777744 0.023754146 0.0002350543 -0.029082686 0.005228187 -0.17288892
-0.2033283 -0.17912242 -0.00217037 0.032258753 -0.07304865 0.17378563 0.24759762 0.13396372
-0.020928493 -0.092103824 -0.030416036 -0.017502632 0.006763242 -0.014230278 0.0036151612 0.12647901
0.03815796 -0.05882422 -0.07928863 -0.12029544 -0.017839398 0.02491893 -0.010083417 0.0005409256
0.0307092 0.05111711 -0.038735405 0.010980969 -0.024315726 0.026776291 -0.066078685 -0.004049428
-0.06440235 0.0024473618 -0.0189087 0.0027443683 -0.027468001 0.09900408 0.035345454 -0.20041685
-0.08859924 0.121348694 0.065819696 -0.011872827 -0.07029886 -0.030006059 0.07064778 0.018151416

conv_net.C2.weight f4 [64, 32, 3, 3]
00000000: 79a0 8d3d 6288 b8bd 889a 503d 26c6 3ebc
00000010: 6765 12be 502a 8dbd a876 5fbd 1991 e63c
00000020: a651 94bc 459d c3bc f68e 15be 5ec9 00be
00000030: 4379 91bd 83d5 a2bd 2be0 1cbe 0b91 28be
00000040: 9697 f3bd 9b60 f1bc eea8 513c 3282 343d
00000050: 5741 bb3d ebee c83c 7a17 44bd 4375 063e
00000060: 0f82 0cbe 4a0a cbbd 5336 f33c 05de 98bc
00000070: f766 59bd 889d f4bd a384 c93d 7280 f13d
00000080: f37b 36bc 9ef0 003e e902 9d3e 3c02 6c3e
00000090: 85de af3c 78ca 953d 7fdb a43b 6c2a 103c
000000a0: 24ec 9c3b e9b3 e3bc 2f52 c1bd 03b4 203d
000000b0: 59db 7abc 0795 913d a750 ce3d 56c2 c53d
000000c0: 6728 253b 2366 05bc ad4f 12bc cc2d dcbd
000000d0: 50f1 dc3c 2ee8 f43c 3f55 5c3d 344d b73d
000000e0: 276b 0c3d f714 a0bc c81c 473d a423 55bc
000000f0: 9c20 7c3c c612 1abd 9b1f 8d3c 8dae 003e
00000100: 64d9 5d3d 463d 40bd 8c70 a8bc 04c7 893c
00000110: 03fa 7cbd 951f aabd c59c 3fbb c0ce 15bd
00000120: 2f1d aa3c 56ff 53bc 0370 af3d 40bb e03c
00000130: e78c ae3c e16f 31bb e844 c93d 707c a33d
00000140: 536a 95bc ed43 0e3c baae 0bbc 7705 573d
00000150: c485 353d 4eca ad3d 0c16 433c 0f7a e03d
00000160: a917 963d 1964 033e a6e8 a03c f48e 603d
00000170: 278a a03c 065f 9c3b 5d9a 6fbd 8eaf 6abd
00000180: 0f58 4abd e93e 00be b8c1 39bd 12d7 8bbb
00000190: 7ed3 3bbd 727d 6a3d 129a 73bb f58c c0bd
000001a0: a7d8 083e 6390 66ba 3706 1abe 4daf 67ba
000001b0: ed47 863d 38da 853b fe7c 753c f925 9c3d
000001c0: 4713 dcbc 519b e8bc 8bb5 f93c 1512 adbd
000001d0: b8f3 a1bd cd78 a43c e880 033e f7d8 d7bc
000001e0: 0f98 bfbd 0070 d8bd 2b86 943d 5b6b 953c
000001f0: 5f14 d1bd b430 f23d d8b8 1dbe 4780 81bd
00000200: 040d f33c 4393 ecbd c9c7 a9bd 0e32 6dbd
00000210: a742 bcbd 5d3a 03be 012a c9bd 7319 23bd
00000220: b14e e3bd aba5 debd c32b 483d da41 1fbd
00000230: 636e 11be feb6 c83d 9285 063d f818 bdbd
00000240: 55f9 903c 96a2 943c fe99 54bc 26a0 ddbb
00000250: 681b 183d 0eb4 88bd 070e 24bd bbd3 babd
00000260: d739 c5bd 78c6 3fbd 3d70 b73d a1ec d53c
00000270: b2d9 14be 8ce8 cdbb 63f8 afbc 350e 23bd
00000280: 12e2 573d 20d4 2cbd 3376 7e3d c11d eabc
00000290: 7e1b e8bc 06c9 693d 4fb7 f0bc 4645 7f3d
000002a0: 8f83 0f3d b017 63bb dfa1 893d ee3f 413c
000002b0: b313 2bbd 6366 5abd 2b0b 493d 711d fbbc
000002c0: 92df f13b 968a a1bd b12d 7e3d c49b bd3d
000002d0: e316 bdbc 7c8c ce3c c018 13bd 096d 353d
000002e0: a343 a03d 92d9 9cbd 24be c0bd 1361 1b3a
000002f0: a478 78bd d472 1a3c 4352 8e3c 78e2 273d
00000300: f116 313b 8276 49bb e877 843d 8ca1 923d
00000310: 5111 83bc 2cbd bcbd 8e72 fb3c 58ad a0bc
00000320: 5363 29be 86f1 9ebd 2df5 df3c 65c0 3f3c
00000330: 925b 723d 08b8 9dbc d9b8 e43c d9bc 3ebe
00000340: a189 1cbd 8d76 413c f0de 04be 55b4 713b
00000350: 5cbb fb3c b3eb 15be 0f71 a6bc c6d0 1e3c
00000360: 8ef7 8bbc 2bdf 833d bcbf c63d bdbf f63d
00000370: 1f9c 5e3d 7c11 903d b1a1 89bc 653e 14be
00000380: bf07 2a3c 8c1a 8fbd 0449 a9bd caee 55be
00000390: 8cd5 d53b 2742 553d d669 153c 574f d7bb
000003a0: 1420 c33b 3360 8b3c f9c8 963c a5a3 bfbd
000003b0: ab96 0ebd 7268 d7bb 1f20 bcbc da44 29b6
000003c0: d7e0 fb3c 737a 2e3d e1d2 33bc 35d6 653c
000003d0: 15e8 7bbd a3c1 d8bc 2d7b 35bc 77dd 49bc
000003e0: f3d0 9cbc 93b8 dabd 0867 c83c ca88 a5bc
000003f0: 913c bc3d 2cec 62bb 94e1 8bbc 19e3 ec3d
0.06915373 -0.09010388 0.050928622 -0.011643922 -0.14296494 -0.06892836 -0.05455652 0.02814536
-0.01810534 -0.023878703 -0.14605317 -0.12576815 -0.07103207 -0.079508804 -0.15319888 -0.1646158
-0.11894147 -0.02946501 0.012796624 0.044069476 0.09143322 0.024527987 -0.04787395 0.1313067
-0.13721488 -0.09914072 0.02968899 -0.018660555 -0.05307671 -0.11944109 0.098397516 0.11792077
-0.01113795 0.12591788 0.30666283 0.23047727 0.02146841 0.073140085 0.005031049 0.008799177
0.0047888923 -0.027795749 -0.094395034 0.039234173 -0.015311086 0.07108503 0.10073977 0.09656207
0.0025201084 -0.008142027 -0.008930129 -0.107509226 0.026970536 0.029895868 0.053792235 0.08950272
0.034281876 -0.019541247 0.048611432 -0.013008986 0.015388634 -0.03761556 0.017226985 0.12566586
0.054162398 -0.046933435 -0.020561479 0.01681853 -0.061761867 -0.08306805 -0.002923773 -0.036574125
0.020765869 -0.012939295 0.085662864 0.027433038 0.021307422 -0.0027074742 0.09827596 0.07982719
-0.018239176 0.008683187 -0.008525545 0.052495446 0.044317022 0.08485852 0.011907112 0.10960781
0.073287316 0.12831153 0.019642185 0.05482383 0.019597126 0.00477207 -0.05849682 -0.05729633
-0.049400385 -0.12523998 -0.04535076 -0.0042675817 -0.04585599 0.05724854 -0.003717069 -0.094018854
0.13363896 -0.0008795319 -0.15041433 -0.00088380725 0.065566875 0.0040848516 0.014983414 0.0762443
-0.02686466 -0.028394373 0.030482074 -0.084507145 -0.07907814 0.020077134 0.12842143 -0.026348574
-0.09355175 -0.10568237 0.07252153 0.018239668 -0.102089636 0.11825696 -0.15402544 -0.06323295
0.029669292 -0.115515254 -0.08290059 -0.057909064 -0.091924004 -0.12815233 -0.09822465 -0.039819192
-0.110989936 -0.108714424 0.04886986 -0.03888116 -0.14202265 0.09800528 0.032842226 -0.09233278
0.017697016 0.018143933 -0.012976168 -0.006763476 0.03713551 -0.06674968 -0.04005244 -0.09122416
-0.09630173 -0.046820134 0.08956955 0.02611381 -0.14536169 -0.0062838253 -0.021480745 -0.03980847
0.05270583 -0.042194486 0.062124442 -0.02857864 -0.028333422 0.057076477 -0.029384283 0.062321924
0.035037573 -0.003465157 0.067203276 0.011795027 -0.041766834 -0.0533203 0.049082916 -0.030653687
0.007381388 -0.07887761 0.062055293 0.092582256 -0.023082202 0.025213473 -0.035912275 0.044293437
0.07825401 -0.07658686 -0.094112664 0.0005927246 -0.060661927 0.009426791 0.01737321 0.04098746
0.002702173 -0.0030740802 0.06468183 0.07159719 -0.015999468 -0.09215769 0.030694272 -0.019613907
-0.16541795 -0.07760911 0.027338589 0.011703585 0.05916936 -0.019252792 0.027920173 -0.18626727
-0.03821719 0.01180805 -0.12975669 0.0036881168 0.030728988 -0.14640693 -0.020317582 0.00969333
-0.017085817 0.0643905 0.09704539 0.1204829 0.054348107 0.07034585 -0.016800733 -0.14476927
0.010377823 -0.06987485 -0.0826588 -0.20891872 0.006525701 0.05206504 0.009119472 -0.0065707373
0.0059547517 0.017013645 0.018406378 -0.093573846 -0.034811657 -0.00657373 -0.022964535 -2.522304e-06
0.03074686 0.042597245 -0.01097557 0.014028122 -0.061500628 -0.02645952 -0.011076731 -0.012320868
-0.019142604 -0.10679736 0.024463192 -0.020206828 0.091912396 -0.0034625633 -0.017075337 0.11566753

conv_net.C3.weight f4 [128, 64, 3, 3]
00000000: a025 c73c cc23 31bc c07f eebc f262 1c3d
00000010: a0f6 f3bc e0a5 84bd e446 1a3d 7b14 bd3b
00000020: 9ccc 833c 54b6 56bd ad38 343b 8e57 a33d
00000030: 0e13 0abd 2181 01bd 2f79 4d3c 87a1 de3b
00000040: 3d1b c73b c31f b7bc d7f0 15be c186 54bd
00000050: c7fa 84bd 8746 66bd 8afc 353d 1a4b 8e3c
00000060: 4f6a 31bd ab5d a9bc 5ee7 c83c 5423 083c
00000070: 3f56 173b 7e2d b23d 6d98 e0bb c6da 333d
00000080: 1c40 6b3d 90c3 14be 9490 19be f04a 9d3d
00000090: 72c8 b0bd 728b 8dbd 00f3 aebd 96ed 25bc
000000a0: f7fe e3ba e0fe e5bc 46b5 87bd b592 08bd
000000b0: c980 08bc bf8e ccbd 5ac0 f8bc e3d9 20bd
000000c0: 8571 d2bb 45bd f43c a2b9 6a3c 4e8c e6bd
000000d0: 5767 2fbd fab9 54bd 56f8 87bd 5713 b9bc
000000e0: cfb6 d8bc 822f bebd d415 c1bd 04ac e1bd
000000f0: e5bb 08be d3ee 7bbd 19fc f0bd d632 273d
00000100: f6ee f53c 9281 afbc 6930 b0bc 4510 2abd
00000110: 31a4 733c 9120 fe3c cd26 97bb 0779 a13d
00000120: 5a84 763d 0013 003d b37e 803c 426f 663d
00000130: bf66 e73b cc2a f13c 1b7d 16bd 390a 94bd
00000140: 5be5 0dbd 03b0 bd3d 5afd d13c 5109 393d
00000150: 9ec1 03bd 3bfa 15bc 41b9 85bb 6f83 3fbd
00000160: 247b a2bd 0c78 95bd d366 21bd e217 62bd
00000170: 7847 7cbd 6560 10bd a245 cdbc eb49 87bc
00000180: 162f b5bd d0fc 10bd e76a 3b3b 5017 0bbe
00000190: a79e d1bd 4066 12bd edfa 6ebd 6667 3dbd
000001a0: aba4 bbbc 3c51 c8bb 6111 a5bc c472 e1bb
000001b0: c483 6b3d be16 c33d e0eb 143e aa06 6bbb
000001c0: 1e24 dcbd 76ee 5c3c 9d49 e2bc a4b7 e1bd
000001d0: 9045 c7bd 03f9 ddbd 5971 b5bd 3568 bb3d
000001e0: 5060 693c 5eaa 213d 73d5 933d e79a 9fbd
000001f0: c71d 52bc c989 353d 5376 86bb 13c9 783d
00000200: d19c 2b3d 870f 5abd 5f49 c6bb ca19 9bbc
00000210: 1367 5bbe 05d7 c7bd 61fe 393c 6090 143d
00000220: 1f4c 953d 59c6 d63c e94f b23d 1908 bd3d
00000230: 6f80 fcbb 6090 a0bc ba19 e6bc 28a4 a7bd
00000240: f01e 6cbd 79af 2abd 253b f03c d803 18bd
00000250: 4b3d 18bd 23ee 723c 0ae5 40bd 8cbc 24bd
00000260: a0b1 22bc df69 cf3d 2d09 563d 28e4 893d
00000270: 9b04 3fbd f0c3 b8bb 45b9 323d e644 42bd
00000280: 3fd1 d8bc 5a3e c8bc b7e9 833c 40a3 513d
00000290: bcd6 8f3c e74a 8fbd 39d4 50bd 2177 7dbd
000002a0: 520c 5bbd a76f e5bc ef08 52bd a9b7 dabc
000002b0: 499d d63c 1ef9 debc 16d9 d53b 1f71 de3c
000002c0: 53d1 5a3c 6db9 7fbd a142 8abc 13fb eabc
000002d0: 8227 6ebd f536 bd3c b9cd 863d b350 7ebd
000002e0: 06f7 e63c 7370 fd3d 7dcf 7abc 848c b0bc
000002f0: 65d4 873d e62f 863d ef61 a3b9 85ce 8d3c
00000300: 9943 72bc b6e9 02bd b812 b8bc 6b6e 9a3d
00000310: 5fe1 7f3c f713 6fbc be3a 48bd c43c 9cbd
00000320: 47ba 89bd 608f 543b 9210 3f3d ea8a 963c
00000330: be87 c53b bc95 883b d8e8 323c 2bc8 8bbd
00000340: 5d52 a9bc 0111 51bd 8541 85bc d3d9 a13b
00000350: 2853 c5bb 0047 94bd f172 2cbd 4c14 3fbd
00000360: d09e a23d 0ec6 b63c d846 0dbb 7f08 153d
00000370: da4c 85bd fafa f0bd 1d4b 3ebd b1d5 3abd
00000380: dd4b 77bd 931d a2bd 60bd d9bc 8493 42be
00000390: b6df 53bc c76f d63d 16b1 e03c b03b e23c
000003a0: afd8 1c3a 0c01 c3bd 0f2d e63a 267d 57bc
000003b0: 7790 dfbd 69d0 e2bc 5558 273c 0c81 c4bc
000003c0: 2d5e efbd a2f9 e2bc 46da 5fbb 970e 78bd
000003d0: 621b a7bd 8918 c93c 2b1d b7bd 0382 a7bd
000003e0: 39bf c7bc dabd bebd e72a b0bd 6dc6 0fbd
000003f0: 2c13 a23d 731a 623d 6377 c93d 8d9c 58bd
0.024309933 -0.010811757 -0.02911365 0.0381803 -0.029780686 -0.06476951 0.037665263 0.0057702637
0.016088776 -0.052419975 0.0027499602 0.07975684 -0.03370958 -0.031617288 0.012541099 0.006794158
0.006076245 -0.022354012 -0.14642654 -0.051886324 -0.064931445 -0.056219604 0.044430293 0.017369796
-0.043314274 -0.020674547 0.024524387 0.008309204 0.0023092178 0.08700083 -0.006854108 0.04390981
0.057434186 -0.14527726 -0.14996558 0.07680309 -0.08631982 -0.06911363 -0.08542442 -0.010127446
-0.0017394711 -0.028075635 -0.06626372 -0.033343036 -0.008331486 -0.09988164 -0.030365158 -0.039270293
-0.006422224 0.029875407 0.014326485 -0.1125723 -0.042823162 -0.051935174 -0.06639163 -0.02259223
-0.026454357 -0.09286405 -0.094279915 -0.110191375 -0.13352926 -0.061507057 -0.11766834 0.040819965
0.030021172 -0.021424089 -0.021507459 -0.041519422 0.014870689 0.031021388 -0.0046127797 0.07884412
0.060184814 0.03126812 0.015685415 0.056258447 0.007061809 0.029439352 -0.036740404 -0.07228512
-0.03464256 0.09262087 0.025633503 0.0451749 -0.03216707 -0.009153898 -0.004080922 -0.046756204
-0.079336435 -0.07298288 -0.0394047 -0.055198558 -0.061591595 -0.03524818 -0.025057618 -0.016514739
-0.088468716 -0.03539735 0.0028597654 -0.13583112 -0.10235339 -0.035742044 -0.05834477 -0.046241187
-0.022905668 -0.0061131995 -0.020149888 -0.006880136 0.05749871 0.09525822 0.14543104 -0.0035862126
-0.10749076 0.013484588 -0.027622992 -0.11021355 -0.09730065 -0.10838511 -0.0885951 0.09150735
0.014244154 0.039469115 0.072184466 -0.07793217 -0.012824482 0.044320855 -0.004103461 0.060738634
0.0418976 -0.053237464 -0.006051227 -0.018933196 -0.21426038 -0.097578086 0.011352153 0.0362705
0.072899096 0.026217626 0.08706648 0.0923006 -0.00770574 -0.019600093 -0.02808844 -0.08185607
-0.05764669 -0.04167125 0.029325077 -0.03711304 -0.03716783 0.014827284 -0.04709343 -0.040218875
-0.009930044 0.10127615 0.052254844 0.067329705 -0.04663525 -0.005638592 0.043633718 -0.047428988
-0.026466964 -0.024443794 0.016102655 0.051181078 0.017558448 -0.06996708 -0.05098364 -0.06188119
-0.053478546 -0.028007342 -0.05127805 -0.026698904 0.026198046 -0.027218398 0.006526123 0.02715355
0.013355571 -0.062432695 -0.016877474 -0.028684175 -0.058143146 0.023097495 0.06582207 -0.06208868
0.028193962 0.123749636 -0.015308258 -0.021551378 0.06632308 0.06552105 -0.0003116275 0.01731039
-0.014786624 -0.031961165 -0.022469863 0.07540592 0.0156176975 -0.014592162 -0.048884146 -0.076287776
-0.06724983 0.003243409 0.046646662 0.018376786 0.0060281446 0.0041682404 0.010919772 -0.068252884
-0.020669157 -0.051041607 -0.016266594 0.0049392967 -0.006021876 -0.07240105 -0.042101804 -0.046650216
0.07940447 0.022311237 -0.0021557119 0.036385056 -0.06508799 -0.1176662 -0.046458352 -0.04561395
-0.060375083 -0.07915797 -0.026579559 -0.19001585 -0.012931755 0.104705386 0.027428191 0.027616352
0.0005983216 -0.09521684 0.0017561036 -0.013152396 -0.10916226 -0.027687268 0.010213931 -0.023987316
-0.116878845 -0.027706925 -0.00341572 -0.06056079 -0.0815952 0.024547832 -0.0894111 -0.08179095
-0.024383174 -0.09313555 -0.08601933 -0.035101343 0.07913813 0.055201005 0.09837224 -0.052883673

conv_net.C4.weight f4 [1, 128, 3, 3]
00000000: b366 e3bc 7057 83bd 87df 7ebd bbc6 bdbc
00000010: 62b7 30bc 263e 36bd 20b3 37bc a9bf ac39
00000020: a4f6 66bc 900d 4b3a f21e 4abc c810 b1bd
00000030: 5b8e 4a3c 78a4 933c 6869 33bc c664 4e3c
00000040: 1c7d 043c 29a3 753b dfdf 8cbc 3939 aebc
00000050: d639 0cbd 22a7 fdbc ef9b 42bd 98e6 4ebd
00000060: 75a4 17bd ee18 10bd 01c2 0abd c61b 0b3b
00000070: cdaf 803c 02a1 503d cbc0 1abd 7d79 b0bd
00000080: 0995 3a3d 103a c8bb ba7b fcbb fd14 323d
00000090: 20f0 f8bc c206 afbc b24f 333c a777 9fbc
000000a0: 86f4 16bc a4fa ed3c 46ab f9bb 332b 8c3c
000000b0: 79dc 8c3d 96d4 8f3c ccfa edbb 7404 85ba
000000c0: 2dd4 d93d 0ea6 fcbb e451 f3bc b025 c9ba
000000d0: f6e8 89bd ee3e 45bd 62ff 4c3d 9296 bf3c
000000e0: a736 503c 6842 893d b858 003d 3bee 2e3b
000000f0: 5360 2c3d 2757 e13c 0292 213c 868c ef3c
00000100: 87a7 913c d3dd 123d 1a22 f83c e2af 153d
00000110: 372f 643d 497f b73c 4c6c 0f3d 7a70 603d
00000120: f7a5 f33b c323 173c 1ac2 0e3c 00c6 013c
00000130: b501 fc3b e382 e43b 3c6c 063c ced9 ee3b
00000140: 95ba c63b ea31 80bd 10ce 0bbd 3314 7fbc
00000150: b59d afbd 1d57 52bd a352 36bd c2bf 57bd
00000160: 6245 28bd f998 e2bc 724a 603d e2ef 9e3d
00000170: fb52 a03d 0dd6 6e3d d5d5 943d 5739 373d
00000180: 7392 3a3d 6ec5 273d 30cd d53a 4f0a 4d3b
00000190: 0382 593a 6d31 f73b e7e1 22bb 4d9b ca3a
000001a0: cc3b c63b a44e 573b 05bd 8339 b8ee 4a3d
000001b0: c6c5 2b3d e832 2f3d e0d7 113d 2c92 0c3d
000001c0: 483b 5d3d 0585 713d 8803 d03c a5d7 f33c
000001d0: 4459 1f3d c628 6fbd 4bc2 6bbd 330c 7cbd
000001e0: 2385 7ebc ae92 4cbe c1b6 ccbd 596a 4ebc
000001f0: 36c9 f0bd fbd4 b1bd 4a3b a03d 11e5 4f3d
00000200: a20a 2a3d f971 cf3d d412 d23d f16b a23d
00000210: ce08 653d 94c8 8f3d 30c5 7a3d e3e2 ebbd
00000220: 7a4d 3ebd 76b7 08bd 9d06 2bbe c34e 4bbd
00000230: 6383 c3bc 9f92 5abe cdb7 11be 0c62 a5bd
00000240: 0acd 5abd de34 4c3b fbce 3c3b 5355 3b3b
00000250: bc31 1a3c ee80 f03b 6869 0f3b a42f eb3b
00000260: 02ad ce3b 70b5 7abd 40e8 0fbd 1514 1ebc
00000270: f183 463e 75be 9dbc df35 97bc be21 0ebd
00000280: af9b 65bc 2827 8bbc 2ea3 c8be 3847 9abd
00000290: 1479 84bc b11b c73b 43ab 053c 6f31 d1ba
000002a0: 0d5e 0f3d 6cca 143d 41dc dfbb 8106 b3ba
000002b0: 14f5 f0bb 9b25 913c 0efd cd3b 9cd9 0abc
000002c0: 1db6 353e ca42 863a 29ae 963a b43f 103d
000002d0: a374 f9bc a7f1 753c b55b 013c 5fa5 c7bd
000002e0: b8e5 ee38 ccc9 053d 513a 07bd 171a 543d
000002f0: 5eef 183d 6410 b03d 253f a73c 4b5a ac3b
00000300: a1d9 133d c1c3 ddbc 0ce5 2bbc 8668 0ebc
00000310: 241b eabb 377a 84bb 0934 38bd 2a8f 16be
00000320: 8947 99bd 2efe e7bc fb56 37be bd99 99bc
00000330: 0f91 3ebd 85e1 b1bd 4ce1 ddbc d532 4f3d
00000340: 4fbd c63c a561 043c c333 413e 3bb7 da3d
00000350: f096 c23c 3728 7b3d a7b9 3f3d a0cb 9b3d
00000360: 5d6e aa3e 4da2 6e3c cf58 673c 28e8 22ba
00000370: 57fd db3a 0015 fc3b f6a2 203b 4ece 7d3b
00000380: 6055 7f3b f060 993c 2a0b 593c 24a0 8d3c
00000390: e1c1 dc3b c4ea 813c a271 8a3c 4ef5 e73b
000003a0: 9d13 0ebb 21d6 633c 4e3d 013d c085 143d
000003b0: f0c5 f7bc 7562 1e3d dbc7 453d e1fa 9ebd
000003c0: 2f0c 0fbd 1daf acbb e073 6cbd ef40 2a3e
000003d0: 03cb e93d 22fa 543d 89d5 2e3f 165f b7bc
000003e0: 7eb6 893c b5e4 c23c b705 113c a0fb 3e3c
000003f0: c856 083d 70d2 b03b 443a 933c 2e65 dc3d
-0.027758932 -0.06413162 -0.06222489 -0.023166051 -0.010785909 -0.044492863 -0.01121214 0.00032949194
-0.01409689 0.00077458564 -0.0123364795 -0.08645779 0.012363042 0.01802276 -0.010950424 0.012597268
0.008086469 0.0037481284 -0.017196594 -0.02126752 -0.034234844 -0.030963484 -0.04751199 -0.05051288
-0.037022073 -0.035180025 -0.033876423 0.002122627 0.015708828 0.0509348 -0.037781518 -0.08616922
0.045552287 -0.006110437 -0.007705179 0.043477047 -0.030387938 -0.021365527 0.010944294 -0.019466234
-0.009213572 0.029050179 -0.0076192943 0.017110443 0.06877989 0.017557424 -0.0072625633 -0.0010148422
0.106361724 -0.007710225 -0.029702134 -0.0015346315 -0.06733887 -0.048155718 0.05004824 0.023387227
0.012708343 0.06702119 0.03133461 0.002669229 0.04208405 0.027507378 0.009861471 0.029241811
0.017780079 0.03585608 0.030289698 0.036544688 0.05570909 0.022399561 0.03501539 0.054794766
0.007435556 0.009224835 0.00871327 0.007920742 0.007690633 0.0069736107 0.008204516 0.007289148
0.006064723 -0.0625952 -0.034132063 -0.015568781 -0.08575002 -0.05135261 -0.044512402 -0.05267311
-0.041081794 -0.027660834 0.054758497 0.07760598 0.07828327 0.058309603 0.07267348 0.044732418
0.04554982 0.040959768 0.0016311761 0.0031286662 0.00082972663 0.007543734 -0.0024853887 0.001545766
0.006049609 0.003285327 0.00025127098 0.049544066 0.04193666 0.042773157 0.035606265 0.034319088
0.054011613 0.058964748 0.025392309 0.029765913 0.03890349 -0.058388494 -0.05755834 -0.06153507
-0.015534672 -0.19977829 -0.09995795 -0.012598597 -0.11757128 -0.08683201 0.078238085 0.050755564
0.041514046 0.101291604 0.102574974 0.079307444 0.0559166 0.07020679 0.06122321 -0.115178846
-0.046460606 -0.033378087 -0.16701742 -0.04963566 -0.023866361 -0.21344994 -0.1423027 -0.080753416
-0.053418197 0.003115944 0.0028809893 0.0028584793 0.009411272 0.0073395884 0.0021882895 0.00717731
0.006307245 -0.06120819 -0.0351336 -0.009648343 0.19386269 -0.019255856 -0.018458305 -0.034700148
-0.014014169 -0.016986445 -0.39186996 -0.07533115 -0.016171016 0.006076299 0.008158508 -0.0015960167
0.035001803 0.036325857 -0.0068316762 -0.0013658555 -0.0073534343 0.017718127 0.00628627 -0.008474734
0.17745252 0.0010243293 0.0011495996 0.035217002 -0.030451125 0.015011228 0.0078954 -0.09748339
0.00011391513 0.03266315 -0.0330146 0.051782694 0.037337653 0.08596876 0.020415852 0.005259787
0.03609622 -0.027070882 -0.010491621 -0.0086919125 -0.0071443487 -0.0040428895 -0.0449715 -0.1470305
-0.074843474 -0.028319445 -0.17904274 -0.018750066 -0.046525057 -0.086855926 -0.027084969 0.050585587
0.024260191 0.008079921 0.18867402 0.1067948 0.023753613 0.06131765 0.04680791 0.07607198
0.33287326 0.014565063 0.014120295 -0.00062144035 0.0016783875 0.007692933 0.0024511195 0.0038727704
0.00389608 0.018722981 0.013247291 0.017288275 0.0067369794 0.015859015 0.016899887 0.007078803
-0.002167917 0.013906033 0.031552605 0.036260366 -0.030245751 0.038668115 0.0482863 -0.07762695
-0.03492373 -0.0052698986 -0.057727695 0.16626333 0.114156745 0.051996358 0.6829458 -0.022384208
0.016810652 0.023790697 0.00885146 0.011656672 0.033285886 0.00539618 0.01797212 0.10761486
