CNN_weights/NetworkB_weights_CV3.pt (torch, 46815 bytes, 4 tensors)

conv_net.C1.weight f4 [32, 12, 1, 1]
00000000: abea 573d 9266 223e faae 293d 012d 393d
00000010: 2183 153e 67ac a83d a510 b0bd 3c74 8abf
00000020: 9fb8 d0be e2b7 b43d ba93 96bd 9833 edbe
00000030: 58e4 6abd b110 75be 2153 b7bd 1133 9e3d
00000040: f46d 4dbe 06e4 b83d 0110 bc3d 6856 763d
00000050: d647 9a3d e0dd f53e dffb 0b3e 1296 873e
00000060: f0a4 14bc 5b8f 923d 9faf dc3d 0950 8a3c
00000070: d014 60bd a5db f93c d746 2d3d 54a6 d8be
00000080: 60b9 75be efd1 8d3d d191 09be b728 f63e
00000090: eef2 7ebd 7a7d a13e 94e7 75bd c6e3 b13d
000000a0: ba73 6bbd 2b4e e1bd 7b5e b4bd 1f6b 483e
000000b0: da27 663e 58bd d93e 3a05 3bbc 1522 6abe
000000c0: 0ba9 fbbc 0681 63bd 6f33 2f3d 9516 ffbd
000000d0: 8d94 a3bd 9f10 b9bc 49e8 85bd 9845 52bf
000000e0: 2384 ac3e 67b6 67be 62e5 343d 13cd 623e
000000f0: 5a3a e2bd ae37 a33d 5e08 b2bd 5043 38bd
00000100: c32a 21bd 2be4 69bd b4da 30bd e553 a7bf
00000110: 7ad0 77be bebd c33d bb5b 673d 8493 cf3e
00000120: 15f8 8bbe f5ba e0bd 6ab3 93bd 66e3 433e
00000130: 3714 40be d44d a83e c1f7 92be 372d 473e
00000140: dd01 89bd 3fc8 a7be 16fd 38bd 5b65 de3e
00000150: dc70 dd3d e684 4dbd 644e 7fbe 84bf 8e3e
00000160: 1e9c e7bd 9f24 08bc 3d99 5ebe f268 993d
00000170: f862 1abe 27c4 f83d b2e1 dabd 3dc3 803e
00000180: 0874 a53b 4b3b d3be 74dd 8fbe f2f6 2bbf
00000190: 5bb6 873e 4513 f5bd fc99 32be e95e 7f3d
000001a0: 9c69 cdbd 2299 ddbd 69cb 63be a07f d03c
000001b0: 46a9 10bc a916 2e3d 3e65 95bc 3589 84bd
000001c0: 4ce5 3f3c 10c6 36be 6cc3 f23c ab68 51bd
000001d0: 552e 4e3d 83e9 bdbf 72af eebd d404 76bd
000001e0: ed4d 1cbc 1000 ff3d 7725 18bd f1a0 9abd
000001f0: bb01 0b3e 5e51 9e3d e97a c2bd f328 32be
00000200: e4d9 6a3c f73b 87be 3042 8e3c 1359 383f
00000210: ddf1 5dbe 9325 063e 370f 8abc 7d11 5f3e
00000220: d4e7 1cbc 73f6 cc3e a601 33bc c0bd 843e
00000230: dcec 10bd 96d0 d23e 0d97 72bd 3be6 5abf
00000240: 4591 e93d fb46 15be 1c58 fabc abc5 ff3d
00000250: e8ba 38be f94a 543d aa81 63be 34ff 9abf
00000260: 6a6f 3fbe 2ad9 ee3c 5444 413e 2f5d 88be
00000270: b85c f53b 3d77 963c ebc0 ca3a 4c43 813d
00000280: 92bf dfba 846b cdbf e358 b7be 8a14 353d
00000290: 9142 b73c d153 a8bd 743c c13c 3b6b 29be
000002a0: 5f83 423e 916c 9f3c 5eda 90bd 6805 a3bd
000002b0: 6d8c 843d ca77 ffbe c730 ce3e 206c c2be
000002c0: cf73 af3d 6c68 e9bd 8704 61bd f215 853e
000002d0: e727 8e3e 82e8 6f3d 56d3 b9bc 6ed5 02bf
000002e0: 80fe 0cbe 4172 9cbd eee3 323e 5200 a23e
000002f0: fa92 e53d fa0a a93a e276 103e 1ad2 e63d
00000300: 1501 5dbe 8e73 7dbe 1daf 343e c178 fe3d
00000310: 67cb 163e 55bf 0dbf f553 3abe 00d4 233c
00000320: e78c e8bd 704a 3e3e 8195 d7bd fafb dabe
00000330: 52b1 d6bb d83d 01be 53d4 163e c598 3bbf
00000340: 4fc0 8a3e d9b2 d8be 39f9 08be aa95 2abc
00000350: 1f3e e2bd 2ef3 ed3d bb73 c43c 42ab bb3e
00000360: 454d 2a3e e9e8 d73d 30e2 04be 49ca 9ebc
00000370: e3de 3ebe be01 29bd 1ad4 3ebe 2852 cc3d
00000380: ef80 1ebe d137 03bf d91d 85be 49ac 8dbe
00000390: d757 1a3c f8d9 51bd 47d1 bfbd 9cee 7bbf
000003a0: feb0 c6be 0518 da3d 6203 81be a11d 87be
000003b0: f6fb 53be 9083 5dbe b240 1bbe f173 ec3e
000003c0: 55ad 293d 1af2 6d3e 9af4 4c3a f81a 2f3d
000003d0: 90be 263d 8547 1a3e 590a a63d 22fe 263e
000003e0: 7697 84be 7d9b 723c aee8 433d 078b 263e
000003f0: 9d6c dc3d 1f7d d1bf 7155 bcbe e5e8 fc3d
0.05271403 0.1585944 0.041426636 0.045208935 0.14600803 0.08236008 -0.08596925 -1.0816722
-0.40765855 0.08824135 -0.07352395 -0.46328425 -0.05734667 -0.23932149 -0.089514025 0.07724584
-0.20061475 0.09027867 0.0918274 0.060140997 0.07533233 0.4802084 0.136703 0.26481682
-0.009072527 0.07156249 0.107756846 0.016883867 -0.05470735 0.030500242 0.042303886 -0.42314398
-0.23996496 0.06924807 -0.13434531 0.48077938 -0.062243395 0.31541044 -0.060035303 0.086860225
-0.057483412 -0.110012375 -0.08807083 0.19572113 0.2247614 0.4252727 -0.01141482 -0.22864564
-0.030720254 -0.05554297 0.04277366 -0.12455479 -0.07987318 -0.022590933 -0.065384455 -0.8213744
0.33694562 -0.22628175 0.04416407 0.22148542 -0.11046286 0.079696044 -0.08693002 -0.04498607
-0.03934742 -0.057102364 -0.04317732 -1.3072478 -0.24200621 0.09557675 0.056483965 0.40542233
-0.2733771 -0.10973159 -0.07211955 0.19129714 -0.18757711 0.32871878 -0.28704646 0.19450842
-0.066898085 -0.32769963 -0.045163237 0.43436703 0.10812542 -0.05017557 -0.24932247 0.2788049
-0.11309074 -0.008309512 -0.21738143 0.0749072 -0.15076816 0.12146788 -0.10687579 0.25148955
0.0050492324 -0.41256174 -0.28098643 -0.67173684 0.26506314 -0.11966566 -0.17441553 0.062346373
-0.10029909 -0.108202234 -0.22245564 0.025451481 -0.00882942 0.04250208 -0.018236753 -0.06471483
0.0117123835 -0.17848992 0.0296342 -0.05112521 0.050337154 -1.4836887 -0.11654557 -0.0600632
-0.009540063 0.12451184 -0.037145104 -0.075502284 0.13574879 0.07730363 -0.094960995 -0.17398433
0.014334176 -0.26412937 0.017365545 0.72010916 -0.21674295 0.13100271 -0.016852958 0.21784015
-0.0095767565 0.40031776 -0.010925686 0.25926018 -0.035382137 0.41174763 -0.059226085 -0.85507554
0.11404661 -0.14577858 -0.030559592 0.12488874 -0.18040049 0.051829312 -0.22217432 -1.2109132
-0.18694845 0.029156286 0.18873721 -0.26633593 0.0074878596 0.018367404 0.0015468871 0.06311664
-0.0017070642 -1.6048436 -0.35810003 0.04420904 0.022370609 -0.08219112 0.023588397 -0.16544811
0.18995427 0.019460948 -0.070729 -0.079600155 0.064720966 -0.4989608 0.4027159 -0.37973118
0.085670106 -0.1139687 -0.05493596 0.25993305 0.27764818 0.058571346 -0.02268378 -0.5110692
-0.13768959 -0.0763898 0.17469761 0.3164087 0.11209674 0.0012896948 0.1410785 0.112705424
-0.21582444 -0.24751112 0.17644925 0.12425376 0.1472603 -0.55370075 -0.1819609 0.009999275
-0.11355 0.18583083 -0.105265625 -0.42770368 -0.0065519 -0.12621248 0.14729433 -0.7327998
0.27099845 -0.4232395 -0.13376321 -0.010411659 -0.11047005 0.116186485 0.023980966 0.36654097
0.16631038 0.10542471 -0.12976909 -0.019383566 -0.18639712 -0.041261427 -0.18635598 0.099766076
-0.15478872 -0.51257044 -0.25999334 -0.27670506 0.009420357 -0.05123326 -0.09366088 -0.98410964
-0.3880691 0.106491126 -0.25197893 -0.26389793 -0.20701584 -0.21632218 -0.15161398 0.46182206
0.041425068 0.23236886 0.0007818431 0.04275033 0.04070908 0.15066345 0.081074424 0.16307881
-0.25896806 0.014807579 0.047829323 0.16263972 0.10762904 -1.6366309 -0.36783937 0.123491086

conv_net.C2.weight f4 [64, 32, 1, 1]
00000000: c083 61be 893c e73d e5c9 613e 5f9b 0bbe
00000010: 52bb 24bd 1d01 bc3d 7040 b9bd 5e29 313e
00000020: 9729 c4be 1a14 ec3e 6e12 70be 1ef9 3f3e
00000030: f353 a03c 495c 1fbe 75db 433d 3281 94be
00000040: 0ef7 aa3d fed8 6fbe 256e 75bd b0cf 563c
00000050: 7c2e 033e 6485 853d 5304 b83d 8012 62bc
00000060: ea32 14bd 0074 3b3d 712b d63c acbb 2abc
00000070: 15f4 a23d f7cc 9fbd 9807 e33d decd 91be
00000080: 9815 89be f71f 7d3e 266f 233e 45e2 13be
00000090: a8b9 bfbc 49a4 2bbe ee19 f9bd 179f 983d
000000a0: 6e06 2abe 1ae0 d83d 0770 78be a9f7 af3d
000000b0: 3b7d d53c 2b0f abba 0392 073e 41b1 3f3d
000000c0: f14a 8ebd 22c8 e93d 7350 c33d 7578 41bd
000000d0: 208b 86be 1786 8b3d e5c5 38bf 94f5 f93d
000000e0: f38d 403e a96d 563e ba02 b23d f579 9dbc
000000f0: 012b f8bd d67e ce3b a098 51be a987 7cbe
00000100: 3156 be3e 3d67 cb3d cf4d 4cbd fd1c 9c3d
00000110: 0450 af3e 4e9e 983d f042 eabd a183 80be
00000120: 7adb 743a f897 dbbe aa85 a2be b51b 9abe
00000130: 9561 153e 6af3 b93e acb9 a83d 74da 483e
00000140: d58f 95be 0d23 4cbd 601c 0cbe 2567 503d
00000150: 54fc 90be 195b 003f 2ac4 023e 3190 de3d
00000160: b1fc 013e a1b0 b2be 78a1 7f3e 109e 253e
00000170: 6d53 3abe 479b babd 2373 39be d2b4 8dbd
00000180: 6e3b 333d 5342 3dbe 159d 143e b9dc 9fbd
00000190: 61a9 b43e 11d8 4d3b 0781 d0bc 06bf c3be
000001a0: e637 d73d 5ebd 83bd 21b3 bf3c 7013 d93e
000001b0: 868d b2bc 48fe 56be e7e7 d1bd 10e3 bc3e
000001c0: e3f1 f73c e1bf 0f3e 2eee 803d 4dc3 b53e
000001d0: 6c02 f7bd dbb7 90be 88fb 0dbd 6552 c23d
000001e0: 1eb2 8ebd 3251 32be 0521 4abc 2843 ad3d
000001f0: ec45 0a3e b1c5 3e3e 4485 23be 0174 3e3e
00000200: ceca 363e ab82 de3d 818f a9be 633e a1bd
00000210: 1031 0b3e 35ce 8fbe 3ec9 803e 10ef b3bd
00000220: 156c 77be 60f2 c2bd cfc8 1c3e 0f69 4bbe
00000230: 6a1b 803e f646 8cbe ac69 8bbe 51d8 3fbe
00000240: f0cd 6cbd c6a5 a3be 9243 6cbd b6e8 0cbc
00000250: 12ea b13d ba1c 69bd c297 5a3e 0a6f c43e
00000260: b51f c3bd 72c0 67bc 0125 273e 27df fabd
00000270: 6d35 5f3c 4e96 12bd b927 b1bc a709 32be
00000280: f2e4 28be 1406 bcbe bf06 c9b9 d8c0 6dbd
00000290: 4827 6b3d 12ff b4be 98d9 8f3e 9a46 4c3d
000002a0: 0d60 dc3c be80 333d 1860 863c 9405 a6be
000002b0: 0a39 dcbe f2dd e0be 3ad4 a9be 9957 233e
000002c0: 4cef 16be 1e35 69bd 0f7c 61bc dfb3 9abe
000002d0: d382 7b3d 71c4 b93e ed74 d6be 44a7 babd
000002e0: 69a7 13be f02d 373d 3b83 8e3e 71af ab3e
000002f0: 479d aebd e499 08be e9aa d7be f422 f1bc
00000300: fb03 82be 3387 a63e d3b3 90be b109 08be
00000310: 0a40 813d 6f34 c3bc 93ec 703d 977f eabd
00000320: face 613d ccc0 983e 686f a63e b5a4 eebd
00000330: f6f7 333d d526 e6be c79c c33b e6d1 8dbc
00000340: bae3 823d ea75 d0bd c84b 96bd 1bfe dfbd
00000350: c2e0 5fbe 6d6c eb3c ede0 073e 4a86 1cbe
00000360: c2eb fcbd ea8a 8cbd 0852 dd3d 22b2 bdbd
00000370: 684d 053d f69f 54be 1cba fb3d a92b 2c3e
00000380: d7a7 79be 98ab cebe 653a a13d 6551 dcbd
00000390: e1f7 c7be 5b0f aabd 391c adbc 90c6 153e
000003a0: 73c6 b03d 98fb b23d 1ad2 893e 168d abbe
000003b0: 7c3b 54bd e8be d8bd b320 a43d 970e f4bd
000003c0: aa03 fcbc e2f8 8b3e 3ff8 093d 85c5 b1be
000003d0: fae0 9b3d 4037 7bbd f5c3 073e 1910 a6bd
000003e0: 5864 bbbd c5e8 a63d 0edd a5bd 0664 07bc
000003f0: 1ae6 4e3e 7ae5 5fbe 297d a2bd d053 163e
-0.22022915 0.11290843 0.22049673 -0.13633488 -0.040217705 0.091799 -0.090454936 0.17300937
-0.3831298 0.46109086 -0.2344453 0.18747374 0.01957128 -0.15562548 0.047816712 -0.29004818
0.08347903 -0.2342262 -0.059919495 0.01311104 0.12810701 0.06519583 0.089852 -0.013798356
-0.036181368 0.045764923 0.026143761 -0.010420721 0.07956711 -0.07802766 0.11085433 -0.28477377
-0.26774287 0.24719225 0.15960369 -0.14441784 -0.023403957 -0.16761889 -0.12163149 0.07452219
-0.16604015 0.10589619 -0.24261485 0.08592159 0.026060691 -0.0013050785 0.13239293 0.046799902
-0.06947888 0.114151254 0.09536829 -0.047234017 -0.2627802 0.06812685 -0.72176963 0.122050434
0.1880415 0.2094027 0.08691926 -0.019223193 -0.12117577 0.006301741 -0.20468378 -0.24661125
0.37175134 0.099318005 -0.04987889 0.076227166 0.34240735 0.07452069 -0.114385486 -0.25100425
0.0009340566 -0.4288938 -0.31742603 -0.30099264 0.14588006 0.36318523 0.08238539 0.19614583
-0.29211298 -0.049838115 -0.13682699 0.050879616 -0.2831751 0.50139004 0.12770143 0.10867346
0.1269405 -0.34900382 0.24963939 0.16173577 -0.18195887 -0.09111648 -0.18110327 -0.06919254
0.04375785 -0.18482332 0.14513047 -0.078057714 0.35285476 0.0031409303 -0.02545215 -0.38231677
0.10508709 -0.06432603 0.023400845 0.42397642 -0.021796 -0.20995438 -0.1024931 0.36891985
0.030266708 0.1403804 0.06295429 0.35500565 -0.12061009 -0.2826527 -0.034663707 0.09488372
-0.06967567 -0.17413786 -0.012336974 0.08460075 0.13503236 0.18630101 -0.15968806 0.1859894
0.17850801 0.10864767 -0.33117297 -0.078732274 0.13592935 -0.2808701 0.25153536 -0.08785832
-0.24162324 -0.095188856 0.15310977 -0.19864295 0.25020915 -0.2739789 -0.2722906 -0.18734862
-0.057813585 -0.31962413 -0.057681628 -0.0086004045 0.086872235 -0.05691216 0.21346954 0.38365966
-0.09527532 -0.014145004 0.1632271 -0.12249594 0.013623578 -0.035787873 -0.021625387 -0.17386495
-0.16493586 -0.36723387 -0.00038342734 -0.05804524 0.05741051 -0.35350853 0.28095698 0.04987202
0.02690127 0.04382395 0.016403243 -0.3242613 -0.43012267 -0.4391933 -0.3316973 0.15951385
-0.14739722 -0.056935422 -0.013762488 -0.30215356 0.06140406 0.36282685 -0.41886082 -0.09113935
-0.1441933 0.044721544 0.27834496 0.3353229 -0.08526092 -0.13339955 -0.42122582 -0.029435612
-0.25393662 0.32525024 -0.28262195 -0.13284947 0.063110426 -0.023828713 0.058819365 -0.11450117
0.05512903 0.29834592 0.3250687 -0.11652509 0.043937646 -0.449515 0.005969617 -0.017312001
0.06391092 -0.1017874 -0.07338673 -0.10937139 -0.21863082 0.028738225 0.13269396 -0.15285602
-0.12349655 -0.06862433 0.10806662 -0.09262492 0.032544523 -0.20764145 0.12291357 0.1681353
-0.24380432 -0.4036529 0.07872466 -0.10757712 -0.39056304 -0.0830371 -0.021131622 0.14626527
0.08631601 0.08739394 0.26918107 -0.33506078 -0.05181454 -0.105832875 0.080140494 -0.11916845
-0.030763466 0.2733832 0.03368401 -0.34721008 0.0761127 -0.061331987 0.13258345 -0.08108539
-0.091499984 0.08149866 -0.080988035 -0.008263594 0.20204964 -0.21864882 -0.07934029 0.1468041

conv_net.C3.weight f4 [128, 64, 1, 1]
00000000: 7799 0fbe 3ef8 ad3c 025c f4bc f9f4 023c
00000010: 4d00 aebd 8c72 a0bc 228b a8bd 3be4 c3bd
00000020: 4612 8a3d 4ab9 bbbd 015e acbd f61a 8c39
00000030: 84b6 293c 6487 0d3e 91d5 c63c cdd9 773c
00000040: a70a 5f3d 6847 0e3d eaff cfbd a02e 22be
00000050: a134 c43d 4e21 e13b 70b9 2cbd 57d2 0c3e
00000060: c4b9 e73c e75f abbd 5433 0e3c 1206 d63d
00000070: d99a 84bd 2b8d 3fbe 8564 46bc 5ca1 18bc
00000080: 48cc 3ebd d06d 1a3e 9705 ecbd 5820 11be
00000090: aebb 053e 68c5 0ebe 6c14 183d da2b fcbd
000000a0: 7b0b 033d 937d 99bc 777a dabc a58a b83c
000000b0: 6862 b5bd b19e 383d c5e9 33be 5cd1 aa3d
000000c0: 6288 f93c dc5f aebd 0542 9dbd 5afe 8abd
000000d0: 9f98 5dbd c6d9 1a3e 900e 2c3c f481 84bc
000000e0: 40b9 3a3c 96f4 993d 35ae e9bd b2f3 ecbd
000000f0: c56a d8bd af33 b2bd e156 58bd 5292 1fbd
00000100: edda 08bc 4a5b 4abd fee7 14be 7dc6 09bd
00000110: e78f 853d c12d 6f3e 7217 0bbe 6485 a7bb
00000120: 4612 7dbd 45a0 a43d cb01 2d3c b308 6fbe
00000130: fcf0 bebc 9635 83be ce80 95bd 9d08 743d
00000140: fd22 b93b 2f8b f83d 62b4 a03e a47f 80be
00000150: cdd6 5b3d 7773 5bbe 7d32 523d 1e31 9bbe
00000160: 61b5 33be 0680 0bbf c1e7 aa3d 5def d23e
00000170: fc25 533e 64ee 7e3e 6731 bdbc acee f0bd
00000180: 4881 1c3d e16c 883e 914d 3ebe 726b 243e
00000190: cb1e 843e be7a 103e 5c54 9d3d 3f0e a4be
000001a0: 1229 8ebd 7d7d 53be b5e4 833d f9b6 233e
000001b0: 4c3d 4cbd d39e 48be 971b 903b 5851 f1bd
000001c0: 3eda d2bd 5636 efbd ee98 f3bd 4667 53be
000001d0: 5b1d 97be adfe 073e 009d 78be 7600 bd3d
000001e0: 8a56 313d de35 77be 8b28 823e d0a2 2b3c
000001f0: 2720 3cbe 1686 b33c 43a8 f8bc 4b5f 3ebe
00000200: 6fce a4bd e410 f0bc 9722 85be 3e3d 12bd
00000210: 5e53 f5bd e48d 323e acfe 97bd 18f5 aebc
00000220: e016 bfbd d0e9 9abd f49f 063e a46e a43b
00000230: b87c 563e 8a4c c7bd fe21 823d f978 dd3c
00000240: 457c 19be f3cb 4bbd 1943 86bd 6808 5bbd
00000250: 3b9a c9bd 017c 70be e45a 08be e164 9fbd
00000260: 5aed febd fef4 903c 1e30 993d 6f89 9e3e
00000270: 640f 1bbe 5a3e a0be d2a5 4bbe d5e1 9ebd
00000280: 0f1e ed3d d7ff bb3c e0e4 28bd 8bb7 523d
00000290: 0da1 c6bb d1e6 9cbd ff4f cdbc ed3e 323d
000002a0: e165 8b3b b2cb 973d 9755 3b3d e174 4a3d
000002b0: 982a 3c3d 52bc 03be 0603 08be e9c1 333e
000002c0: 0669 80be 5a92 963d e22f 91bd 3a56 94bd
000002d0: 802d 14be f26c 593d b4ac fcbd 5571 38bd
000002e0: 91c1 42bd e8c7 8e3e e186 8bbd 89a6 00be
000002f0: c81d bfbc bc10 9bbe a52d 3abc 0d94 63ba
00000300: 2064 0ebe 4a8b 6c3e 58f6 68bd 321b dcbd
00000310: 3f30 403d 1008 0d3e 1b54 033d e41f 76bd
00000320: 85dc 533e 707f 51bd d715 7e3e 437c 763e
00000330: 10ed 213e 3e6d 32be f785 49be 6a92 603b
00000340: b189 253c dc8e 2cbe 34fe dfbd 4065 4b3e
00000350: 73a3 3cbe ccbb 4ebe db57 38be 2968 10be
00000360: 8ab9 763e 996d 203e 474b 61bd 9b4f 723e
00000370: bd01 23be 8827 ba3c bdd4 85be 3a06 10bd
00000380: fb25 f1bd 8a83 b1be 2f10 11bd 6ec4 35bd
00000390: b03e 78bb 201f b5bd 28c7 14be 2725 4abe
000003a0: d926 243e 142a 0ebc df42 db3d ccde b4bd
000003b0: 04af 94bd b7a3 1dbe da46 a2be d203 13be
000003c0: 437b 97be 2c06 6f3e c4ab 98bd 0efb d1bd
000003d0: 40eb 04be bcbb d53d 53f3 99be bf41 803d
000003e0: 0c21 20bd 4faa f7bd b347 a43e 0d5c a73d
000003f0: 7ac9 00be a839 a33d 080a 7b3d 6211 15be
-0.14023386 0.021236535 -0.029829029 0.007992976 -0.08496151 -0.01958587 -0.082296625 -0.09565016
0.06741767 -0.091662005 -0.08416367 0.00026722968 0.0103584565 0.13821179 0.024271758 0.015127611
0.05445352 0.034736067 -0.101562336 -0.15838099 0.09580351 0.0068704253 -0.042169034 0.13752113
0.028286822 -0.08367901 0.00867923 0.104503766 -0.06474847 -0.18706195 -0.012108927 -0.009315815
-0.046581537 0.15080953 -0.11524504 -0.14172494 0.13059875 -0.13942492 0.03712885 -0.123130515
0.03199337 -0.018736636 -0.026669724 0.022527048 -0.0885666 0.045073215 -0.17569645 0.083407134
0.03046054 -0.085143775 -0.07678608 -0.06786795 -0.05410063 0.15122136 0.010501519 -0.016175248
0.011396706 0.07517354 -0.114101805 -0.11569919 -0.1056724 -0.08701264 -0.05281723 -0.0389579
-0.008352977 -0.049403466 -0.14541623 -0.03363656 0.06521588 0.23357297 -0.13583162 -0.005112337
-0.061785005 0.080383815 0.0105595095 -0.23343162 -0.02330827 -0.2562682 -0.07299958 0.059578527
0.005649923 0.12135922 0.3138762 -0.25097382 0.053671647 -0.21430765 0.05131768 -0.3031091
-0.1754966 -0.54492223 0.08344985 0.41198245 0.20619959 0.24895626 -0.023094846 -0.11764273
0.03820923 0.26645568 -0.18584277 0.16056612 0.25804743 0.14109322 0.07682106 -0.3204212
-0.06941427 -0.20653339 0.06440107 0.15987767 -0.049863145 -0.19591837 0.00439782 -0.11783093
-0.10295533 -0.11680286 -0.118944034 -0.20644864 -0.29514584 0.13280745 -0.24278641 0.092286035
0.04329542 -0.24141642 0.25421557 0.010475829 -0.1837164 0.021914523 -0.030353671 -0.18591039
-0.080471866 -0.02930493 -0.26002952 -0.035702936 -0.11978792 0.1743694 -0.07421622 -0.021357104
-0.09330535 -0.075641274 0.13146955 0.005018072 0.20946014 -0.097313955 0.0635414 0.027035223
-0.14988811 -0.049755048 -0.065557666 -0.053474814 -0.0984387 -0.23484804 -0.13315922 -0.07782913
-0.12447615 0.017694946 0.07479881 0.3096423 -0.1514259 -0.3129757 -0.19887474 -0.07757918
0.11577999 0.022949142 -0.041233897 0.05144457 -0.006061679 -0.07661212 -0.02506256 0.043517042
0.0042540883 0.07411899 0.04573592 0.04942787 0.045939058 -0.12864807 -0.13282403 0.1755444
-0.25080127 0.07352133 -0.07089211 -0.07243009 -0.14470482 0.053082414 -0.12337628 -0.045029957
-0.04754788 0.2788689 -0.068128355 -0.12563528 -0.02332963 -0.30286205 -0.011363422 -0.0008681424
-0.13905382 0.2310001 -0.056875557 -0.107473746 0.04692101 0.13772607 0.03206263 -0.060089007
0.2068959 -0.051146924 0.24813019 0.2407084 0.15813088 -0.17424485 -0.1968001 0.0034266957
0.010103629 -0.16851372 -0.10937157 0.19862843 -0.18421726 -0.20188826 -0.18002264 -0.14102234
0.24094215 0.15666808 -0.05500343 0.2366318 -0.15918632 0.022723928 -0.2613887 -0.035162188
-0.11774822 -0.3467067 -0.035415825 -0.044376783 -0.0037879162 -0.08843827 -0.14529097 -0.19740735
0.16030444 -0.008677024 0.10706114 -0.08831558 -0.07259944 -0.15394484 -0.3169468 -0.14356926
-0.2958623 0.23342198 -0.07454637 -0.10252963 -0.12980366 0.10436198 -0.30068454 0.0626254
-0.039094016 -0.12093031 0.32085952 0.08171854 -0.12576857 0.079699814 0.061288863 -0.14557412

conv_net.C4.weight f4 [5, 128, 1, 1]
00000000: d580 033e fcd9 5a3c 08dc ed3a f43e 57bd
00000010: 0b99 4abc 6c73 533c 57a1 aabb 7179 bfbe
00000020: 7a7c 33bb 5982 1a3c a624 8abc f882 c6bd
00000030: 20b2 dbbb a3ef f43a a053 e03d d39e 6d3d
00000040: b43b a586 277a c43c dd5f cebc 403c fb3c
00000050: a742 4b3c 4a86 f33c f384 bb3e 6d42 c1bc
00000060: 3f24 8f3b f117 d23c f2d2 bbbd fdee 733d
00000070: 5bb3 8a3d 049e 44bd cbb2 52bb eed3 363d
00000080: 286f 6abb 5b56 5b3e d0c1 2e3b eb28 0a3c
00000090: 61a6 50be 9c22 813e f440 e4bc a212 1f3e
000000a0: cefa c1bd 10a0 3d3e 156e 50bd 043a 023d
000000b0: 5ee2 1bbd a0d7 a7bc f8c6 9d3d c9bc 25bc
000000c0: c99c 81be fee7 4dbd 2621 1dbe 2428 a73b
000000d0: dcba b73b 1f81 c43b a255 673d 6a1e cd3c
000000e0: 36ab 323d 0df5 fcbd fd30 d93b bcb9 1a3c
000000f0: 5161 453d 24fa 983b 8322 013e 9cca bc3b
00000100: 4402 b6a0 7059 52bd 10c2 9ebc 709c 383e
00000110: a951 06bd 382b 0bbd aa34 703d 27cb ef3e
00000120: 5dfa 1fbb 972e a6bc 1400 44be 339d 6f3c
00000130: 7b2f 273c 26a4 22bd 7064 3cbe eb0f 28bc
00000140: b2df ccbc 839c 25bb c97d a0bb b88f 43be
00000150: 1f91 40bb a3ce ad3c e6fc 8c3e 2393 fdbc
00000160: 2953 b8bc c3fb c5bc 0388 1c3a 36a5 453c
00000170: 2ff3 dabb 076c c3bd ecd8 b8bb 72eb 39bc
00000180: 1faf b1bd 0b78 4ebd f4e7 fe3c 2f9f 073e
00000190: 444b 27bd 993f 7cbe 96ce d0bd a2aa 45bc
000001a0: 5411 db3c a70d cf3c 6dbf 093d ddb4 b63c
000001b0: 03f5 053c 0cd2 ccbd 5a46 4dbe 3eed 173d
000001c0: b063 d63c 1886 8cbd 3190 04be 34e8 133f
000001d0: 2997 0b3d 7f6c debd 249b 84bd e820 f83c
000001e0: 5e39 133c df26 533b a292 97bd 2a77 ae3d
000001f0: 5143 bc3c a234 e03c 925d 55be 8639 bdbb
00000200: 4cc7 aebc 70fd 5abb 7a2a 62be d7fb 87be
00000210: 6b49 b33d 552e 6c3d 53f2 13bd f11e 133d
00000220: 3da1 a9b9 d37a 19be 0a67 4cbd 41e1 f5bd
00000230: 4e69 d1bb c019 453c 5046 e8bd 96b7 39be
00000240: 4e81 c488 5fc6 0f3e 1f9d 22bf 2a8a bfbd
00000250: 7b54 183e eb15 563c 0299 9cbe b778 adbc
00000260: 8596 b83d 0636 2bbf 5387 a7bd 610f 75be
00000270: d4a2 c63d 5fec 183e 7ebe 363e 1453 f6bd
00000280: 2623 d23b eab6 0ebe 91a7 d0bc b3b4 2ebb
00000290: e83c b83d 4d93 07bd 99f5 1e3d 450f cabd
000002a0: dd12 a3bd c2e8 1dbe 305c aabd 1900 963c
000002b0: 221f 543d 0cc8 df3b 45cf 593d e6ee 113e
000002c0: 8027 6d3e e97c 673d 1a97 2cbd 17c6 5e3e
000002d0: 783a 323b 7ecb eebd 35b9 79bd 7850 f6bc
000002e0: a468 013d 385f 943d 62be 1e3c 8928 a3bb
000002f0: 7789 1e3d 5d75 d1be 3bfc 293d f951 f3bd
00000300: 607f 91a0 8cf5 62bd 5c51 4ebd 635d 713d
00000310: 2ee7 123e f553 893c 593b 8ebd 32d6 10bf
00000320: 8459 923c ddcd 903d a965 1b3e 0b63 623d
00000330: 731b 89ba bf51 1bbc 5090 cc3d 8d36 c4bd
00000340: eef3 2dbc 7871 74bc 93a8 503e 4379 6fbd
00000350: d28d 2cbd 7896 8dbd 491a 7cbe 1a8a 0ebd
00000360: 84cf 0e3c c09f bebc 2787 88bb e608 6f3b
00000370: b9c1 69bb 6606 b73d d43b 64bd 0ce0 79bd
00000380: 7748 bf3e 5886 98bd 4022 ba3e ca36 913d
00000390: 780a bcbc 39c1 9a3e 70c5 a13c 1b31 5f3d
000003a0: 1644 193e 133e 9f3d 0cff f7bd d22a 45be
000003b0: c97f 233d 5269 c43e 5874 9b3d 93e6 70bd
000003c0: 0224 e93c e19e 513e 9c36 863d 3579 bfbe
000003d0: 17a7 36be 22b1 21bd 6fd4 2cbd 7c24 27be
000003e0: ba00 c6bc ca52 41ba a37d 403e 96e4 e83c
000003f0: 5a94 163e 4f0f 32bd 2246 563e b857 4a3c
0.12842114 0.013357636 0.001814724 -0.05255027 -0.01236559 0.012905937 -0.0052072215 -0.3739734
-0.0027387426 0.009430491 -0.016863178 -0.09692949 -0.0067045838 0.001868714 0.1095345 0.058012795
-6.215383e-35 0.023984028 -0.025192196 0.030668378 0.012406028 0.02972712 0.3662487 -0.023591245
0.0043683345 0.025646182 -0.09171094 0.05955409 0.067724906 -0.048002258 -0.0032150026 0.044635706
-0.003577182 0.21419661 0.0026665814 0.008432607 -0.20375969 0.25221717 -0.027863003 0.15534452
-0.09471665 0.1851809 -0.050886232 0.03179361 -0.038057677 -0.02048856 0.07703966 -0.010115811
-0.2531493 -0.050270073 -0.15344676 0.0051012207 0.005606992 0.0059968377 0.05647815 0.025038917
0.04362031 -0.12351427 0.0066281543 0.009443697 0.04818851 0.004668491 0.12610821 0.0057614576
-3.0833499e-19 -0.051354825 -0.019379646 0.18028426 -0.03279272 -0.033976763 0.058643974 0.4683468
-0.0024410703 -0.020285888 -0.19140655 0.014624882 0.010204191 -0.039707325 -0.18397689 -0.010257701
-0.02500901 -0.002527029 -0.0048978073 -0.19097793 -0.0029383374 0.021216696 0.27536696 -0.03095395
-0.022500591 -0.0241679 0.0005971195 0.012063315 -0.006681822 -0.09542089 -0.0056410935 -0.011347638
-0.0867598 -0.05040745 0.031116463 0.13244317 -0.040843263 -0.24633636 -0.10195653 -0.012064608
0.026741661 0.025275065 0.033629823 0.02230304 0.008176091 -0.10001001 -0.20046368 0.037091486
0.026170582 -0.06861514 -0.1294563 0.5777619 0.034079704 -0.10860538 -0.06474903 0.030289128
0.008985845 0.0032219214 -0.07401015 0.085188225 0.022981318 0.027368847 -0.20836475 -0.0057746796
-0.021335267 -0.003341522 -0.22086516 -0.26559326 0.08754238 0.057661373 -0.03611977 0.03591818
-0.00032354324 -0.1498826 -0.049902953 -0.120058544 -0.006390727 0.012030065 -0.11341536 -0.18136439
-1.182672e-33 0.14040516 -0.63521 -0.093525246 0.14875977 0.013066749 -0.30585486 -0.021175725
0.09013084 -0.6687931 -0.08180108 -0.23931648 0.09699026 0.14933918 0.17846105 -0.12027565
0.0064128814 -0.13936964 -0.025470527 -0.0026657998 0.08995992 -0.03309946 0.03880844 -0.09866194
-0.07962582 -0.15420821 -0.083183646 0.018310593 0.051787503 0.0068292674 0.053176183 0.14251289
0.231596 0.056515608 -0.04213629 0.21755253 0.0027195495 -0.11659907 -0.060967643 -0.030067667
0.031593934 0.07244724 0.0096889455 -0.0049791974 0.038705315 -0.40909854 0.04150031 -0.118808694
-2.4648245e-19 -0.055409953 -0.05037056 0.05892695 0.14346 0.016763667 -0.069449134 -0.56576836
0.01786495 0.07070515 0.15175499 0.055270236 -0.0010460451 -0.009479939 0.09988463 -0.09580717
-0.010617239 -0.014919631 0.20376806 -0.058465254 -0.042127438 -0.06913465 -0.24619402 -0.034799673
0.008716468 -0.023269534 -0.004166502 0.003647381 -0.0035668446 0.08936767 -0.05572112 -0.061004683
0.37359974 -0.07447499 0.36354256 0.07090528 -0.02295421 0.30225542 0.019747466 0.05449019
0.14967379 0.077755116 -0.12109193 -0.19254616 0.039916787 0.38361603 0.0759055 -0.058813643
0.028459553 0.20470764 0.06553385 -0.3739716 -0.17837177 -0.039475568 -0.04219478 -0.16322511
-0.024170268 -0.0007374702 0.18797927 0.02842931 0.14705029 -0.04347163 0.20925191 0.012350015
