CNN_weights/NetworkB_weights_CV4.pt (torch, 46815 bytes, 4 tensors)

conv_net.C1.weight f4 [32, 12, 1, 1]
0.004393527 0.11927505 0.02773358 0.059632614 0.07003896 0.1128617 -0.05800786 -1.3536679
-0.44898194 0.06970178 -0.078727916 -0.38220367 -0.09485965 -0.2382719 -0.14829656 0.110825345
-0.22721426 -0.079642326 0.042187423 0.025431333 0.08230296 0.2621084 0.117090106 0.36288807
-0.020234538 0.08459429 0.07680492 0.028758287 0.020247146 -0.02347784 0.04105554 -0.32653388
-0.35264304 0.1181718 -0.16452223 0.31657025 -0.049183328 0.2072737 -0.048518922 -0.008676917
-0.051189248 -0.16075987 0.013190166 -0.01241007 0.24890117 0.35950908 -0.04419021 -0.11450082
-0.07591865 -0.37558845 0.25503725 -0.08695045 -0.02750933 0.055528346 0.043583296 -0.89061713
0.3335239 -0.13282831 0.067826524 -0.10370511 -0.07030476 -0.0149707105 -0.14434212 0.05657256
-0.10217333 0.06809064 -0.1041751 -1.3250456 -0.15596314 0.16565603 0.013313824 0.27839395
-0.3035879 -0.10928273 -0.0762251 0.22768858 -0.16193114 0.37433878 -0.30781314 0.34402174
-0.08505625 -0.14327155 -0.008263237 0.15677713 0.081032276 0.12342283 -0.16313308 0.08582295
-0.026276832 -0.20724505 -0.1540717 0.11632384 -0.15084735 0.096404806 -0.07004556 0.41138068
0.0020162717 -1.2543075 -0.47039318 -0.1715799 0.14639942 -0.0766764 -0.13121535 -0.040066555
-0.044448145 -0.13022482 -0.20493853 0.07245037 -0.012041592 0.08250951 -0.02565035 0.0018654306
0.024016164 -0.06723818 0.0037362557 0.0022142131 0.0765304 -1.4560997 -0.10634874 -0.17162046
-0.058812678 0.12031272 -0.039997566 -0.04629113 0.1741371 0.08944059 -0.02568847 -0.05772464
0.08656651 -0.22332445 0.24211112 0.47173113 -0.19192913 0.13267553 -0.029920194 0.21380773
0.01072408 0.3612047 0.0012241608 0.26921466 -0.014446329 0.47640792 -0.035436295 -0.8138921
0.15142716 -0.17151242 -0.08223181 0.0056466917 -0.26667038 -0.01952125 -0.14353207 -0.7206661
-0.22924879 -0.650468 0.073213786 -0.15801555 0.011580354 -0.0015032361 -0.0013958351 0.07453666
-0.0076850187 -1.5157907 -0.3461717 0.19657195 0.030285975 -0.031140372 0.015179082 -0.28025222
0.2616388 -0.037980076 -0.022457566 -0.11084543 -0.023546452 -0.66502935 0.30187967 -0.3325469
0.07060953 -0.004757553 -0.044725634 0.11192356 0.20489563 0.016985843 -0.015686842 -0.5896127
-0.21126889 -0.02164436 0.1835703 0.3458555 0.1005992 0.034945995 0.16219774 0.07953609
-0.21468994 9.47176e-06 0.07951575 0.12080388 0.1421766 -0.863803 -0.23321585 -0.16435832
-0.106330186 0.02258394 -0.10323089 -0.2611901 -0.019073809 -0.05074975 -0.013794309 -0.96551496
0.26610404 -0.49583536 -0.16914748 -0.052200057 -0.10720464 0.08559541 0.09295801 0.22472125
0.21954681 0.035061143 -0.10412302 -0.016286151 -0.20183115 0.027537568 -0.17342457 0.272663
-0.1233281 -0.29735997 -0.19268146 -0.4394768 0.0085291555 -0.012755789 -0.053893257 -0.61215365
-0.32033253 0.008136539 -0.33287406 -0.14640306 -0.25044012 -0.19656253 -0.20110308 0.56335354
0.048701406 0.1683621 -0.0101895295 0.028014775 0.0102536585 0.15278484 0.17712872 0.062789105
-0.15036972 -0.01227901 0.070778824 0.23597685 0.2283435 -1.0747894 -0.27507448 0.14002688
00000000: 93f7 8f3b 7a46 f43d 8831 e33c 5441 743d
00000010: 9670 8f3d 0924 e73d a699 6dbd fd44 adbf
00000020: f6e0 e5be cfbf 8e3d 1a3c a1bd 33b0 c3be
00000030: c745 c2bd 8dfd 73be 0edb 17be 66f8 e23d
00000040: dbaa 68be 841b a3bd b8cc 2c3d 5f55 d03c
00000050: 748e a83d 1233 863e f0cc ef3d 77cc b93e
00000060: e7c2 a5bc c53f ad3d e64b 9d3d 8096 eb3c
00000070: 58dd a53c 9954 c0bc db29 283d 732f a7be
00000080: a18d b4be 0f04 f23d 8478 28be 7f15 a23e
00000090: 7574 49bd 8f3f 543e c7bb 46bd a129 0ebc
000000a0: d1ab 51bd 3c9e 24be 911b 583c 9b53 4bbc
000000b0: f3df 7e3e 9311 b83e cb00 35bd 687f eabd
000000c0: 3d7b 9bbd 214d c0be 3e94 823e 1413 b2bd
000000d0: 3f5b e1bc b171 633d 6684 323d 7cff 63bf
000000e0: a5c3 aa3e 2504 08be a2e8 8a3d 5863 d4bd
000000f0: f1fb 8fbd b647 75bc 6cce 13be a1b8 673d
00000100: 4040 d1bd 1b73 8b3d c159 d5bd 189b a9bf
00000110: cdb4 1fbe bca1 293e 3a22 5a3c a789 8e3e
00000120: e06f 9bbe a0cf dfbd e81b 9cbd 3227 693e
00000130: 47d1 25be 55a9 bf3e af99 9dbe 9e23 b03e
00000140: f931 aebd c7b5 12be 8762 07bc 2f8a 203e
00000150: 40f4 a53d 1cc5 fc3d 5c0c 27be f1c3 af3d
00000160: 8342 d7bc 0c38 54be f9c4 1dbe 323b ee3d
00000170: ba77 1abe e26f c53d 0c74 8fbd 7da0 d23e
00000180: 6d23 043b 268d a0bf 60d7 f0be a4b2 2fbe
00000190: bbe9 153e 8408 9dbd 515d 06be d41c 24bd
000001a0: 420f 36bd a859 05be 68db 51be dc60 943d
000001b0: 194a 45bc bffa a83d af20 d2bc 7781 f43a
000001c0: 8cbd c43c 2cb4 89bd f8db 743b 551c 113b
000001d0: f8bb 9c3d 7a61 babf 5ecd d9bd 46bd 2fbe
000001e0: 90e5 70bd 8466 f63d 7dd4 23bd c59b 3dbd
000001f0: ff50 323e a12c b73d a070 d2bc ac70 6cbd
00000200: c849 b13d 2aaf 64be faeb 773e be86 f13e
00000210: 1289 44be 18dc 073e 321b f5bc 6af0 5a3e
00000220: 0db4 2f3c d3ef b83e 0574 a03a 81d6 893e
00000230: 4cb0 6cbc bdeb f33e a625 11bd 3c5b 50bf
00000240: b90f 1b3e f4a0 2fbe 2769 a8bd e207 b93b
00000250: 0589 88be 07eb 9fbc 12fa 12be 937d 38bf
00000260: 32c0 6abe 1285 26bf 1cf1 953d d4ce 21be
00000270: 86bb 3d3c 3c08 c5ba 74f4 b6ba ada6 983d
00000280: 9cd2 fbbb 6e05 c2bf 6b3d b1be 284a 493e
00000290: 4b1a f83c 181a ffbc afb1 783c 387d 8fbe
000002a0: 85f5 853e ff90 1bbd eef8 b7bc ee02 e3bd
000002b0: 7de4 c0bc 5d3f 2abf f98f 9a3e 9643 aabe
000002c0: bb9b 903d 3fe5 9bbb 3a32 37bd 2e38 e53d
000002d0: 29d0 513e e525 8b3c b181 80bc dcf0 16bf
000002e0: df56 58be 834f b1bc daf9 3b3e f913 b13e
000002f0: f406 ce3d 8823 0f3d 2a17 263e d1e3 a23d
00000300: aed7 5bbe e6e8 1e37 27d9 a23d 0668 f73d
00000310: be96 113e 3222 5dbf 23d0 6ebe 8c4d 28be
00000320: a4c3 d9bd f401 b93c b86a d3bd b5ba 85be
00000330: ad40 9cbc f8de 4fbd 8701 62bc fd2b 77bf
00000340: ca3e 883e 22de fdbe ff34 2dbe bacf 55bd
00000350: 1b8e dbbd a54c af3d c560 be3d 541d 663e
00000360: e1d0 603e 469c 0f3d 733e d5bd 896a 85bc
00000370: d3ac 4ebe 7796 e13c 3696 31be 7c9a 8b3e
00000380: 7193 fcbd 913f 98be 4a4e 45be 1a03 e1be
00000390: dfbd 0b3c a8fd 50bc 2dbf 5cbd 1ab6 1cbf
000003a0: a002 a4be 1e4f 053c 786e aabe afea 15be
000003b0: b039 80be b047 49be f7ed 4dbe f037 103f
000003c0: 207b 473d 1d67 2c3e fcf1 26bc 3e7f e53c
000003d0: f6fe 273c a173 1c3e 3b61 353e 9397 803d
000003e0: 85fa 19be e72d 49bc 7df4 903d eaa3 713e
000003f0: e1d2 693e b392 89bf 90d6 8cbe 3563 0f3e

conv_net.C2.weight f4 [64, 32, 1, 1]
-0.2703808 0.020853793 0.21575966 -0.23097661 0.022897461 0.1413034 -0.12800437 0.021184625
-0.33279902 0.2651845 -0.1684038 0.101427376 0.055946786 -0.46900603 0.09851691 -0.2467611
0.11960234 -0.23062593 -0.041533113 0.10750588 0.09243011 0.1139933 0.05769211 -0.08140326
0.13675661 0.12805758 0.008512423 0.008815622 0.1582822 -0.31320187 0.08498957 -0.23166545
-0.28677937 0.10191875 0.21982731 -0.09218379 -0.16818534 -0.16979045 -0.3216462 0.037322685
0.010019469 0.22688684 -0.19413874 0.29839465 -0.24437134 -0.069641374 0.2288526 -0.29250777
-0.009876702 -0.016707303 0.06422684 -0.007185739 -0.16973457 -0.08332709 -0.3203633 0.17811985
0.123145774 0.09186028 0.27196935 -0.13972698 -0.19433165 0.001983366 -0.17944309 -0.066027686
-0.065969415 0.16660453 0.11365403 -0.13151085 0.23076549 0.020461692 0.35453442 -0.009414772
0.26869628 -0.43135992 -0.21101865 -0.41686186 0.20933428 0.031943772 -0.052936554 -0.082251094
-0.28168806 -0.3358731 -0.03879213 -0.11356583 0.048631966 0.14682652 0.056684606 -0.056907345
-0.05854759 0.043091755 0.13687426 0.17017817 -0.65426385 0.19941682 -0.34589815 0.03568587
-0.024709549 -0.1288696 0.059023146 0.013272571 0.16001967 0.008554871 -0.12614353 -0.36461776
-0.33791992 -0.20794223 0.08118133 0.64668244 -0.028405905 0.22521059 -0.04888829 0.2712938
-0.087109454 -0.03907057 0.041197844 0.47529903 -0.14673282 -0.07707454 -0.05337797 0.07032731
0.14015365 -0.30523336 0.09280266 -0.059969466 0.13627607 0.32736287 -0.10807445 0.19297275
0.43668705 0.100196496 -0.300985 -0.07597506 -0.21698418 -0.13794547 0.122469984 -0.23645283
-0.39679646 0.39203253 0.19618276 -0.17834507 0.27252856 -0.6193727 -0.23711096 -0.01141429
-0.08531946 -0.19390747 -0.13705143 -0.14186066 -0.0076400805 -0.08534792 0.10884936 -0.07950615
-0.054098647 -0.01240342 0.065115355 -0.04137267 0.046808384 0.0827765 0.06531607 -0.23913547
-0.13565327 -0.21960512 0.022078864 -0.11219186 -0.10829696 -0.11216528 0.20668273 -0.0794379
-0.21829952 0.02040982 0.19270624 -0.41821578 -0.3184108 -0.029763538 -0.22949913 0.18312557
0.008006368 -0.017150054 -0.067997165 -0.25170812 0.0064143077 -0.08622416 -0.3828274 -0.17556912
0.10272639 -0.048791222 0.23364545 0.5011707 -0.0073272516 0.009226153 -0.34416327 -0.04138348
-0.3619687 0.21836771 -0.2951213 -0.08180549 0.10082741 0.12525982 -0.11729697 -0.22454736
0.22270921 0.1381382 0.24542452 -0.08883954 0.04893025 -0.48368457 0.075337104 0.0016797404
0.030411283 -0.2653664 -0.116295904 0.016666593 -0.12514934 0.06877253 0.07841467 -0.049384255
-0.036843803 -0.07090199 0.16843314 0.12005576 0.073414534 -0.17741509 0.103691585 0.064872704
-0.16864613 -0.27168232 0.20232613 -0.16788796 -0.121800676 -0.19766526 -0.15726072 0.15414128
-0.11116484 -0.056046057 0.35675228 -0.28884754 0.069758624 -0.015635908 0.053295385 -0.16547826
0.100062855 0.09047555 0.07997634 -0.29792848 -0.014597984 -0.061782625 0.1662807 -0.024375303
0.029690988 0.14861222 -0.24014342 -0.0059755314 0.14625189 -0.3150794 -0.05615217 0.16719608
00000000: 5a6f 8abe 93d5 aa3c 1af0 5c3e 2285 6cbe
00000010: 7593 bb3c d7b1 103e 9413 03be 618b ad3c
00000020: a264 aabe 43c6 873e 0c72 2cbe 28b9 cf3d
00000030: 7528 653d 8f21 f0be 3cc3 c93d f1ae 7cbe
00000040: 12f2 f43d 3429 6cbe a01e 2abd 0b2c dc3d
00000050: ff4b bd3d 5275 e93d 904e 6c3d c1b6 a6bd
00000060: ed09 0c3e 8721 033e b177 0b3c 666f 103c
00000070: bb14 223e ff5b a0be 030f ae3d b539 6dbe
00000080: bfd4 92be c7ba d03d 691a 613e dbca bcbd
00000090: c738 2cbe 8cdd 2dbe d0ae a4be acdf 183d
000000a0: b328 243c 0655 683e 4ecc 46be 2fc7 983e
000000b0: 7b3c 7abe 23a0 8ebd 5658 6a3e 94c3 95be
000000c0: e4d1 21bc c1dd 88bc 5d89 833d 5976 ebbb
000000d0: e6ce 2dbe 65a7 aabd a906 a4be 0d65 363e
000000e0: da33 fc3d 3e21 bc3d 913f 8b3e 9714 0fbe
000000f0: e0fe 46be 5cfb 013b eebf 37be 8639 87bd
00000100: f91a 87bd 619a 2a3e 72c3 e83d c8aa 06be
00000110: ca4d 6c3e 479f a73c 8985 b53e 6a40 1abc
00000120: 8f92 893e 35db dcbe 4615 58be eb6e d5be
00000130: ba5b 563e 79d7 023d 00d4 58bd 4373 a8bd
00000140: 6b39 90be 8ff7 abbe 7fe4 1ebd 3495 e8bd
00000150: 5032 473d b159 163e 1e2e 683d ad17 69bd
00000160: 99cf 6fbd fb80 303d c428 0c3e 3043 2e3e
00000170: d67d 27bf ec33 4c3e 9019 b1be 592b 123d
00000180: ae6b cabc 64f6 03be 41c2 713d 3375 593c
00000190: 32dc 233e bb29 0c3c c52b 01be 2eaf babe
000001a0: d703 adbe cfee 54be 6642 a63d fb8c 253f
000001b0: 80b3 e8bc 9b9d 663e 163f 48bd 05e7 8a3e
000001c0: 7166 b2bd 7608 20bd 12bf 283d 655a f33e
000001d0: 2141 16be 42d9 9dbd dca2 5abd c407 903d
000001e0: 7084 0f3e 8c47 9cbe 520f be3d 8ba2 75bd
000001f0: f48b 0b3e 1b9c a73e 2356 ddbd a69a 453e
00000200: 7295 df3e d233 cd3d b51a 9abe d098 9bbd
00000210: 1a31 5ebe 9441 0dbe 8bd1 fa3d b120 72be
00000220: e828 cbbe 7db8 c83e 22e4 483e 17a0 36be
00000230: dd88 8b3e 368f 1ebf 37cd 72be 0103 3bbc
00000240: f8bb aebd ae8f 46be 3657 0cbe ec43 11be
00000250: a459 fabb e4ca aebd 6aec de3d 1fd4 a2bd
00000260: 8b96 5dbd b737 4bbc 335b 853d 6476 29bd
00000270: 26ba 3f3d ba86 a93d 6fc4 853d eedf 74be
00000280: b1e8 0abe 2ae0 60be bcde b43c d9c4 e5bd
00000290: ccca ddbd e9b6 e5bd a3a4 533e 56b0 a2bd
000002a0: e989 5fbe 7f32 a73c c954 453e 6120 d6be
000002b0: be06 a3be aad2 f3bc d201 6bbe 4585 3b3e
000002c0: 242d 033c 457e 8cbc 1942 8bbd e3df 80be
000002d0: 1d2f d23b 4b96 b0bd f401 c4be 64c8 33be
000002e0: 3762 d23d 4ed9 47bd c140 6f3e b94c 003f
000002f0: 7119 f0bb 4a29 173c 2b36 b0be b981 29bd
00000300: f653 b9be c99b 5f3e 241a 97be a389 a7bd
00000310: 9a7e ce3d 1c44 003e 6539 f0bd beef 65be
00000320: e20d 643e 1a74 0d3e 9150 7b3e 81f1 b5bd
00000330: 166b 483d 81a5 f7be 574a 9a3d bc2a dc3a
00000340: 1521 f93c 1bde 87be 8c2c eebd 6188 883c
00000350: 2627 00be 9dd8 8c3d df97 a03d 2547 4abd
00000360: 87e9 16bd 1035 91bd bd79 2c3e cbdf f53d
00000370: 5c5a 963d 4dac 35be 415c d43d fbdb 843d
00000380: 92b1 2cbe f219 8bbe 952e 4f3e d2ea 2bbe
00000390: a272 f9bd c368 4abe f408 21be 36d7 1d3e
000003a0: 64aa e3bd 8d90 65bd 3ca8 b63e d3e3 93be
000003b0: 9cdd 8e3d e016 80bc 434c 5a3d 2273 29be
000003c0: c1ed cc3d 3f4b b93d a3ca a33d 158a 98be
000003d0: 622c 6fbc c70f 7dbd 7d45 2a3e b7ae c7bc
000003e0: 843a f33c cd2d 183e 28e8 75be 64ce c3bb
000003f0: 0ec3 153e 1652 a1be d1ff 65bd 7335 2b3e

conv_net.C3.weight f4 [128, 64, 1, 1]
0.0060546217 -0.0069256197 -0.054610983 0.072511375 -0.021622876 0.016486049 -0.15129358 -0.3109734
-0.13697723 -0.09530214 -0.15996318 -0.028373538 0.10151858 0.11773573 0.100517705 -0.10296054
-0.153137 -0.029329438 0.14164107 -0.056394227 -0.0475875 -0.027372157 -0.13332866 -0.023097953
0.041340508 0.063702576 -0.0417986 0.0693586 0.09293088 -0.03806464 0.07690552 -0.005743956
-0.15112181 0.038803287 -0.043129854 0.02343123 0.1491257 -0.12869264 0.13440385 0.0323171
0.14625317 -0.08166328 0.006096227 -0.049576312 0.03825908 0.019038433 -0.3811946 0.080311544
-0.056585494 -0.031366076 0.07654785 -0.052880857 -0.13591024 -0.18732937 0.008441435 -0.025290783
0.11473131 0.04604526 0.042050652 -0.23379281 -0.086699866 -0.19988364 -0.045284707 0.022601424
-0.028861566 -0.09188269 0.17824684 0.08453339 -0.13236034 -0.2712155 0.057189327 -0.03269649
-0.21573478 -0.15123041 0.003376271 -0.1850317 -0.16338524 -0.029291984 0.08023192 -0.14186119
0.028917182 0.0020734486 0.3647097 -0.28283754 0.07890654 -0.34410042 0.04902045 -0.07263958
-0.14294937 0.124632955 -0.15405868 -0.079495735 0.17484388 0.41304582 0.023706352 0.0755135
-0.03783134 0.12048698 -0.25672942 0.06684597 0.14576617 0.12522756 0.103734516 0.12232131
0.2176995 -0.25420487 -0.051335085 0.09128305 -0.23299891 0.23786555 -0.24202988 -0.109165855
-0.19686693 -0.28963572 0.16118723 -0.037580352 -0.32288402 -0.060042936 -0.19769466 -0.011808707
-0.022569656 -0.13609359 0.22145975 0.16142066 -0.2901201 -0.17195286 -0.07731135 -0.12890857
-0.23393805 -0.47433248 0.10926352 -0.09865143 -0.04307722 0.039740097 -0.19978441 -0.1439138
-0.20448245 -0.20314638 0.09420293 0.014112232 -0.13396275 -0.0684421 0.13315149 0.013019614
-0.2018334 0.080869175 0.1379603 0.08772792 0.12315509 -0.2960903 0.042241644 -0.1918282
-0.038638756 0.07264539 -0.0067808433 0.15529607 0.093956985 -0.012494639 -0.29563102 -0.15343209
-0.011474783 -0.15134732 0.08261456 0.082008734 0.01996922 0.008803845 -0.027400274 0.078288525
-0.15221487 -0.1139835 0.0564819 0.12473359 -0.0073628295 -0.05451574 -0.26638326 0.14406219
0.025540335 0.06952959 -0.026790747 0.0042520165 0.07662876 0.024210345 -0.19623739 -0.21160834
-0.062046826 0.3506248 0.14362945 0.004510812 -0.09967534 -0.033575453 -0.35510084 -0.028559802
-0.15339868 0.023745913 -0.31348512 -0.17920789 0.15513462 -0.14368562 -0.01772904 -0.02286977
-0.27912828 -0.005531418 0.3263044 -0.4859604 0.09139598 -0.23719728 -0.044185445 0.075272866
0.22740503 0.038815916 -0.023570906 0.09689689 -0.06607018 0.15865469 -0.33791283 -0.0894205
0.22466336 -0.02031859 -0.27976573 0.36044806 0.11415776 -0.048350092 -0.05835592 -0.059736285
-0.020467464 -0.143216 0.1387724 0.1094663 -0.17266777 -0.097509325 -0.18979166 0.008137596
0.21574302 0.107218236 -0.036653243 -0.53336936 -0.031147761 -0.3579965 -0.111980915 -0.123257525
-0.20325041 0.17159817 0.083782524 -0.1700457 -0.2383857 0.13388671 -0.45018926 -0.1431664
0.066670895 -0.106314145 -0.016910719 0.013942005 -0.109186344 0.49370474 -0.15817314 -0.28657112
00000000: d965 c63b 4ff0 e2bb c4af 5fbd d880 943d
00000010: 7522 b1bc c00d 873c b4ec 1abe e837 9fbe
00000020: c243 0cbe c52d c3bd 63cd 23be 9f6f e8bc
00000030: f9e8 cf3d 6e1f f13d 3adc cd3d fadc d2bd
00000040: f2cf 1cbe 4a44 f0bc 5b0a 113e a2fd 66bd
00000050: 1ceb 42bd 933b e0bc 4f87 08be eb37 bdbc
00000060: aa54 293d 7f76 823d 0235 2bbd e20b 8e3d
00000070: 8c52 be3d abe9 1bbd a480 9d3d cc37 bcbb
00000080: adbf 1abe 32f0 1e3d eea8 30bd daf2 bf3c
00000090: 68b4 183e 01c8 03be 2aa1 093e ef5e 043d
000000a0: 64c3 153e 143f a7bd dcc2 c73b 8810 4bbd
000000b0: 8eb5 1c3d 7df6 9b3c f02b c3be 617a a43d
000000c0: 31c6 67bd b779 00bd 1fc5 9c3d 9999 58bd
000000d0: 0e2c 0bbe 45d3 3fbe f24d 0a3c 9e2e cfbc
000000e0: 40f8 ea3d f499 3c3d 4e3d 2c3d 6267 6fbe
000000f0: b38f b1bd 4cae 4cbe 757c 39bd 9f26 b93c
00000100: 176f ecbc fe2c bcbd 5786 363e d81f ad3d
00000110: 7889 07be c2dc 8abe 5b3f 6a3d c1ec 05bd
00000120: 94e9 5cbe 25dc 1abe 6e44 5d3b f378 3dbe
00000130: 764e 27be bef5 efbc a250 a43d 0f44 11be
00000140: bae3 ec3c b2e2 073b 3bbb ba3e 15d0 90be
00000150: c199 a13d ee2d b0be abc9 483d 0fc4 94bd
00000160: 5261 12be 903f ff3d 8fc1 1dbe a9ce a2bd
00000170: 460a 333e be7a d33e d333 c23c d2a6 9a3d
00000180: 09f5 1abd e1c1 f63d 0a72 83be 8ae6 883d
00000190: ba43 153e a73b 003e c372 d43d 9883 fa3d
000001a0: 9eec 5e3e 2427 82be bd44 52bd 9cf2 ba3d
000001b0: 4497 6ebe 0793 733e aed6 77be 5992 dfbd
000001c0: 7c97 49be 224b 94be 440e 253e dbed 19bd
000001d0: 0e51 a5be 95ef 75bd 7870 4abe 4f79 41bc
000001e0: 00e4 b8bc 1e5c 0bbe 58c6 623e 754b 253e
000001f0: 9f8a 94be 6914 30be 6a55 9ebd 9c00 04be
00000200: 758d 6fbe b5db f2be 8dc5 df3d c309 cabd
00000210: bd71 30bd 83c6 223d 4994 4cbe 245e 13be
00000220: d963 51be 9b05 50be 77ed c03d fe36 673c
00000230: 882d 09be 5f2b 8cbd dd58 083e 3850 553c
00000240: 6aad 4ebe bd9e a53d 7745 0d3e b2aa b33d
00000250: bc38 fc3d 2699 97be 9305 2d3d 9d6e 44be
00000260: ac43 1ebd 1bc7 943d d631 debb ef05 1f3e
00000270: 856c c03d 50b6 4cbc f35c 97be 4d1d 1dbe
00000280: ba00 3cbc cbfa 1abe d331 a93d 32f4 a73d
00000290: 7d96 a33c 013e 103c 8a76 e0bc bc55 a03d
000002a0: 37de 1bbe 2e70 e9bd 9159 673d 5374 ff3d
000002b0: e443 f1bb e64b 5fbd 6363 88be 0a85 133e
000002c0: f739 d13c 8865 8e3d 4578 dbbc 8054 8b3b
000002d0: 8aef 9c3d c654 c63c 74f2 48be dbaf 58be
000002e0: d024 7ebd 1885 b33e 9913 133e 6fcf 933b
000002f0: 9622 ccbd 6a86 09bd c7cf b5be 3ff6 e9bc
00000300: 8b14 1dbe ca86 c23c 1f81 a0be 4682 37be
00000310: 9cdb 1e3e 5322 13be 7e3c 91bc 6259 bbbc
00000320: e7e9 8ebe e640 b5bb 5f11 a73e cdcf f8be
00000330: d12d bb3d d8e3 72be ccfb 34bd a928 9a3d
00000340: dddc 683e 70fd 1e3d c617 c1bc e071 c63d
00000350: cd4f 87bd 6076 223e e902 adbe 1822 b7bd
00000360: 270e 663e 2c73 a6bc 743d 8fbe a68c b83e
00000370: 8bcb e93d bf0a 46bd 9e06 6fbd 09ae 74bd
00000380: 62ab a7bc 37a7 12be 5a1a 0e3e de2f e03d
00000390: d2cf 30be f8b2 c7bd bf58 42be 8d53 053c
000003a0: bdeb 5c3e 3c95 db3d b621 16bd e58a 08bf
000003b0: 9729 ffbc 514b b7be 4056 e5bd 716e fcbd
000003c0: e020 50be 6eb7 2f3e 2c96 ab3d 7620 2ebe
000003d0: 621b 74be 9919 093e 357f e6be 369a 12be
000003e0: c08a 883d 3bbb d9bd 5988 8abc 026d 643c
000003f0: 179d dfbd dec6 fc3e 24f8 21be 73b9 92be

conv_net.C4.weight f4 [5, 128, 1, 1]
0.10532282 0.008370501 -0.016098501 -0.07902475 -0.049878776 0.0366325 -0.028155146 -0.32876864
0.052434586 -0.04087843 -0.01866703 -0.062200688 -0.19925696 0.004945422 -0.0029257578 0.021446504
-6.846048e-34 0.003017102 0.20870322 0.06532948 -0.00285531 0.12799981 0.3286995 0.021744888
-0.06469976 0.04445748 -0.07221942 0.15252784 0.00081342494 0.005237992 -0.06911809 0.10280793
-0.00055335916 0.2742217 -0.049324587 -0.0026798688 -0.19562449 0.043486845 -0.0058611385 0.1579827
-0.05506535 0.121164784 -0.057060096 -0.005137428 0.037705712 -0.023182582 0.011015358 -0.059901766
-0.27678534 -0.13172838 -0.0672266 0.050347406 0.03099817 0.020746628 0.117574446 0.063161924
0.02971878 -0.0005099456 -0.00029193328 -0.005183977 0.08178049 0.03919763 -0.07547928 -0.009888402
2.5942804e-34 -0.086792246 0.009389327 0.10815314 -0.09364874 -0.025483076 0.17485036 0.010741154
-0.0035723057 -0.012546008 0.037834935 0.08465494 -0.06588913 -0.05170356 -0.10800509 -0.11085089
-0.008974512 -0.0046637235 -0.049991634 -0.058108225 0.008537625 0.040043734 0.16457695 -0.00034168147
-0.023135394 -0.01926433 0.15182176 0.016915163 -0.0106360605 -0.010927869 0.013137209 -0.08470082
0.094234146 -0.062115926 -0.011585364 0.12958273 -0.0050469222 -0.26177868 -0.05890418 0.0056816656
-0.010907383 -0.0024191034 -0.034534156 0.023130003 0.033141118 0.06762644 -0.113701925 0.11640212
-0.0034846587 0.341165 -0.24028835 0.024393717 0.036473688 -0.07154981 -0.027005332 0.011039546
-0.27328765 0.03294925 0.12346282 0.058506094 0.06600558 0.10692841 -0.21532066 0.10073426
-0.031885862 0.066516146 -0.13610807 -0.31224638 -0.03719681 0.004780251 -0.04777741 0.029725587
-0.036628626 -0.097265765 -0.051442374 -0.12245792 0.17815433 0.16327806 -0.028860262 -0.1495412
-5.6603602e-34 0.026579075 -0.28806084 -0.078421116 0.01343549 -0.058006942 -0.25281635 0.023866054
0.21992503 -0.6444045 -0.17351787 -0.3884268 -0.07115296 0.13829419 0.14033253 -0.0920025
0.0057641673 -0.25264153 -0.031713013 -0.015596408 0.069470026 0.13101615 -0.012919567 -0.073342256
-0.014202739 -0.0939464 -0.030690512 -0.06939318 -0.01594774 0.061388858 0.04548506 0.13966477
0.24515688 0.1590281 -0.15887755 0.12436517 0.055063527 0.00026420833 -0.1141025 -0.15978742
-0.0303007 0.0019386433 0.0033968554 0.023045208 0.01570467 -0.4742083 -0.08849962 -0.13093866
2.115545e-34 -0.04863147 -0.014327745 -0.22047439 0.10683062 -0.029741306 -0.1631782 -0.12497768
0.04895968 0.022732504 -0.0060590776 0.09221727 0.011521534 -0.02269715 0.05427163 0.0067836377
0.036775425 -0.0021690272 0.25156486 -0.121725544 0.04108828 -0.047053706 -0.14851679 -0.013322695
0.033172034 -0.053593576 -0.11586105 0.013792771 -0.014590372 -0.059404932 -0.047876634 -0.077968955
0.10652731 -0.04022845 -0.0057005086 0.055919714 0.009775238 0.2819346 0.095087424 0.025718285
0.37145737 0.05358674 -0.0897993 -0.18857424 0.038713206 0.15266566 -0.08450311 -0.031437475
-0.0021789693 -0.06291406 0.18040037 0.13680845 -0.20531172 -0.07711188 -0.057805277 -0.047759753
-0.056967814 0.03302633 0.07016764 0.10364758 0.15572236 -0.1731368 0.15625282 0.16381441
00000000: 7eb3 d73d 6d24 093c 01e1 83bc bad7 a1bd
00000010: b04d 4cbd f60b 163d 9fa5 e6bc 5d54 a8be
00000020: a6c5 563d 2470 27bd 99eb 98bc 26c6 7ebd
00000030: 040a 4cbe 350d a23b 12be 3fbb 94b0 af3c
00000040: bc7f 6388 92ba 453b 4cb6 553e 76cb 853d
00000050: 2720 3bbb 6212 033e 4d4b a83e 5622 b23c
00000060: 4f81 84bd 0c19 363d c6e7 93bd 4230 1c3e
00000070: 063c 553a 76a3 ab3b c98d 8dbd f78c d23d
00000080: 4e0f 11ba c966 8c3e 9408 4abd bda0 2fbb
00000090: c951 48be 431f 323d cb0e c0bb 38c6 213e
000000a0: 348c 61bd 3e25 f83d d9b7 69bd df57 a8bb
000000b0: 4e71 1a3d 66e9 bdbc c379 343c 8e5b 75bd
000000c0: cfb6 8dbe cee3 06be 1aae 89bd 1539 4e3d
000000d0: e0ef fd3c d5f4 a93c dfca f03d 0a5b 813d
000000e0: cd74 f33c dfad 05ba 9f0e 99b9 5ade a9bb
000000f0: 887c a73d b28d 203d e194 9abd f702 22bc
00000100: 656b ac07 22c0 b1bd b1d5 193c 657f dd3d
00000110: e9ca bfbd e2c1 d0bc f90b 333e aafb 2f3c
00000120: 581d 6abb c68d 4dbc cef8 1a3d 925f ad3d
00000130: e1f0 86bd 1dc7 53bd c631 ddbd cb05 e3bd
00000140: d509 13bc 26d2 98bb 07c4 4cbd e402 6ebd
00000150: 65e1 0b3c e604 243d dc86 283e b623 b3b9
00000160: 7086 bdbc 3ad0 9dbc 2a77 1b3e ab91 8a3c
00000170: df42 2ebc ce0a 33bc 733d 573c a077 adbd
00000180: d5fd c03d 456d 7ebd 8ad0 3dbc 56b1 043e
00000190: a760 a5bb db07 86be 8245 71bd 442d ba3b
000001a0: e1b4 32bc d289 1ebb b073 0dbd 227b bd3c
000001b0: fbbe 073d bb7f 8a3d 8edc e8bd 3c64 ee3d
000001c0: df5e 64bb 2ead ae3e 260e 76be 55d5 c73c
000001d0: 6f65 153d b588 92bd 493a ddbc 36df 343c
000001e0: 5cec 8bbe cbf5 063d 13da fc3d 16a4 6f3d
000001f0: ef2d 873d 48fd da3d 057d 5cbe c44d ce3d
00000200: c09a 02bd 9e39 883d ea5f 0bbe c2de 9fbe
00000210: af5b 18bd a7a3 9c3b 3fb2 43bd 1383 f33c
00000220: e607 16bd 4633 c7bd 3db5 52bd 38cb fabd
00000230: 176e 363e 5d32 273e 5b6c ecbc 5421 19be
00000240: 0519 3c88 5cbc d93c b67c 93be 409b a0bd
00000250: 8820 5c3c b098 6dbd 2571 81be be82 c33c
00000260: 0734 613e b1f7 24bf abae 31be e1df c6be
00000270: a5b8 91bd fe9c 0d3e 55b3 0f3e cf6b bcbd
00000280: 57e1 bc3b 3b5a 81be 81e5 01bd 1488 7fbc
00000290: 4d46 8e3d 1929 063e 97ac 53bc 7734 96bd
000002a0: 9bb2 68bc f866 c0bd ab6a fbbc 031e 8ebd
000002b0: d6a4 82bc e272 7b3d 8b4e 3a3d 4804 0f3e
000002c0: 680a 7b3e 43d8 223e ccb0 22be 2bb3 fe3d
000002d0: 4b8a 613d 7185 8a39 92ae e9bd 509f 23be
000002e0: 2c39 f8bc 131a fe3a c79d 5e3b 4ec9 bc3c
000002f0: 15a7 803c 6ecb f2be 4a3f b5bd c914 06be
00000300: 229a 8c07 cb31 47bd ebbe 6abc 0ac4 61be
00000310: 03ca da3d 0aa4 f3bc 3018 27be 4cf4 ffbd
00000320: f289 483d 8439 ba3c 3a8b c6bb 68dc bc3d
00000330: d1c4 3c3c 60ef b9bc ee4b 5e3d 4749 de3b
00000340: d4a1 163d 3d26 0ebb 1ccd 803e 3e4b f9bd
00000350: 2f4c 283d 63bb 40bd c914 18be 6f47 5abc
00000360: 66df 073d f084 5bbd 8f48 edbd 13fb 613c
00000370: 750c 6fbc 9652 73bd 4a1a 44bd 30ae 9fbd
00000380: fe2a da3d 96c6 24bd 55cb babb 120c 653d
00000390: 5228 203c bb59 903e 32bd c23d 27af d23c
000003a0: a92f be3e c57d 5b3d b2e8 b7bd 9b19 41be
000003b0: bd91 1e3d 6354 1c3e f70f adbd 95c4 00bd
000003c0: 0acd 0ebb 16d9 80bd e0ba 383e 8417 0c3e
000003d0: 3c3d 52be d5ec 9dbd 3ac5 6cbd bb9f 43bd
000003e0: 1557 69bd 9e46 073d 0db4 8f3d 2f45 d43d
000003f0: af75 1f3e c64a 31be bd00 203e f7be 273e
