CNN_weights/NetworkA_weights_CV1.pt (torch, 394591 bytes, 4 tensors)

conv_net.C1.weight f4 [32, 17, 3, 3]
0	0x3d883148	0.06650025
1	0x3e157e44	0.14598948
2	0x3d403666	0.04692688
3	0xbcd252e4	-0.025674291
4	0xbe1cd2f3	-0.15314846
5	0x3d8cee2f	0.068813674
6	0xbdedb1d3	-0.11606183
7	0x3b9cb4b6	0.0047822846
8	0x3dde8b5c	0.108664244
9	0x3c7a1309	0.015263327
10	0x3dc19693	0.09452548
11	0xbe469d37	-0.1939591
12	0x3d6a3e23	0.057188164
13	0xbe168dc4	-0.14702517
14	0x3e31f5a5	0.17378862
15	0x3d0fde5f	0.03512418
16	0xbce6301d	-0.028099114
17	0xbc9ca948	-0.019123688
18	0xbd528949	-0.051400457
19	0x3dfa32fa	0.12216754
20	0xbdbf721b	-0.09347936
21	0x3bec3ddb	0.007209522
22	0x3e7a496f	0.24442075
23	0x3e1947ad	0.14968748
24	0x3c5646de	0.0130784195
25	0x3d83393f	0.06407403
26	0xbd7ae042	-0.061249025
27	0xbda8798f	-0.082263105
28	0x3d0fe7f5	0.03513332
29	0x3e5c1ee5	0.2149616
30	0xbdf8667f	-0.121289246
31	0x3e0bd33e	0.13654801
32	0xbe922ab7	-0.28548214
33	0xbdd832cd	-0.105565645
34	0x3e3cdebf	0.18444346
35	0xbe25b053	-0.16180544
36	0xbcff7f7f	-0.031188725
37	0x3e07ec23	0.13273673
38	0xbd2e5282	-0.042559154
39	0xbe55ee4f	-0.20891689
40	0xbce33e15	-0.027739564
41	0xbdb3024e	-0.08740674
42	0x3d2d8205	0.042360324
43	0x3e10ccb7	0.14140593
44	0x3dc61796	0.096724674
45	0xbe23f0d8	-0.16009843
46	0xbe357068	-0.17718661
47	0x3ddee238	0.108829916
48	0x3dcafa61	0.09911037
49	0x3e07fa07	0.13278972
50	0x3e9f399a	0.31098634
51	0xbe082080	-0.13293648
52	0xbe3c31bf	-0.18378352
53	0xbc327bcb	-0.010893772
54	0xbdaf2f96	-0.08553998
55	0xbe3bbc72	-0.18333605
56	0x3c8987ab	0.016788324
57	0xbb942dc9	-0.0045220596
58	0x3d0fb9a0	0.035089135
59	0x3d1b5f23	0.037932526
60	0x3d017bf9	0.03161237
61	0x3e06870a	0.13137451
62	0x3c7c34fb	0.015393491
63	0xbd5c8e0a	-0.053846397
64	0xbe98308f	-0.29724547
65	0x3df089dc	0.117450446
66	0xbd2ba292	-0.041903086
67	0xbe57ba2d	-0.21067114
68	0xbcc05e2c	-0.023482405
69	0x3e91ca8b	0.2847484
70	0x3e5ba3cb	0.21449201
71	0x3c889b14	0.01667551
72	0xbd78f2a4	-0.060778275
73	0xbc881c40	-0.016615033
74	0x3daeeb7e	0.0854101
75	0x3cf297c7	0.029613389
76	0x3cc600f2	0.024170373
77	0xbd858556	-0.065195724
78	0xbe0504a8	-0.12990057
79	0x3cfc789b	0.030819228
80	0x3d6c512f	0.05769461
81	0x3c8666c7	0.01640643
82	0xbd197d98	-0.03747329
83	0x3c53775d	0.012906876
84	0x3d604a17	0.054758158
85	0xbc6be88d	-0.014398706
86	0x391adf8b	0.0001476986
87	0xbbf346a1	-0.007424191
88	0xbcf5d09a	-0.030006696
89	0x3b3bd55b	0.0028661105
90	0x3d9b920d	0.07596216
91	0xbccc24cc	-0.02491989
92	0x3b97d6b8	0.0046337508
93	0x3ccd6d06	0.0250764
94	0x3b36fef5	0.0027922962
95	0xbc47db48	-0.012198277
96	0xbd9ec447	-0.07752281
97	0xbd21acc6	-0.03947141
98	0xbd97f3c4	-0.074195415
99	0xbcb583b6	-0.022157531
100	0xbdddcd92	-0.10830225
101	0xbd172ad0	-0.036906064
102	0x3c6ce36c	0.0144585185
103	0x3e6bf4d7	0.23042618
104	0x3cf4e6f2	0.02989528
105	0xbd09757b	-0.033559304
106	0xbd2bb427	-0.041919854
107	0xbdafcef6	-0.085843965
108	0x3e9b99a8	0.30390668
109	0x3d069801	0.032859806
110	0x3e6b000d	0.22949238
111	0x3d58c667	0.052923586
112	0xbd715573	-0.05891938
113	0xbd31f7f2	-0.04344935
114	0xbdd083bc	-0.10181376
115	0xbe1350da	-0.14386311
116	0x3d335d96	0.043790422
117	0x3b5334f8	0.0032227617
118	0xbd6d8e86	-0.05799725
119	0xbe8b3cce	-0.27194828
120	0xbdbced63	-0.092249654
121	0x3e052aec	0.13004655
122	0x3da7fa1e	0.08202003
123	0xbea378ad	-0.31928006
124	0x3eebf961	0.46088699
125	0x3e10b6f9	0.14132299
126	0xbd97a716	-0.07404916
127	0x3d43448a	0.047672786
128	0x3ded6be1	0.11592842
129	0xbd2a7cf3	-0.041623067
130	0x3d447b4e	0.047969155
131	0xbcb056ed	-0.021525824
132	0xbd3c5b50	-0.04598552
133	0x3d5d36fa	0.054007508
134	0xbe3a7590	-0.18208909
135	0x3b52e1a1	0.0032177942
136	0x3d880549	0.06641633
137	0xbe08f3bf	-0.13374232
138	0xbcc640f1	-0.024200888
139	0xbc1d686d	-0.009607417
140	0x3dd333e2	0.1031263
141	0x3d5aff3b	0.053466063
142	0xbda05b49	-0.07829911
143	0x3d7a7f87	0.061156776
144	0x3e9a2dab	0.30112967
145	0xbe29df85	-0.16589172
146	0x3dc43bb8	0.09581703
147	0x3e476cd2	0.19475105
148	0xbe974ff6	-0.29553193
149	0xbe03e796	-0.12881312
150	0x3c3c2ff3	0.011486041
151	0xbe14758e	-0.14497969
152	0x3cb0ecc3	0.021597272
153	0xbbb331fa	-0.005468604
154	0xbeb662bb	-0.356222
155	0xbe282208	-0.16419232
156	0xbdb13ee4	-0.086545736
157	0x3f2e4cd0	0.68085957
158	0xbd333446	-0.043751024
159	0xbe2549eb	-0.16141479
160	0x3dacaa3f	0.08430909
161	0xbdd799d6	-0.10527389
162	0xbc08163c	-0.008306082
163	0xbc27c815	-0.010240574
164	0x3c4c1679	0.01245653
165	0x3d0dfd38	0.034665316
166	0x3e6251ec	0.22101563
167	0xbd9f0470	-0.07764518
168	0x3bc32dc2	0.0059563825
169	0xbe04d110	-0.12970376
170	0xbd3f07f3	-0.04663844
171	0xbe846101	-0.25855258
172	0x3e14ae3d	0.14519592
173	0xbe9e1d8d	-0.3088192
174	0x3d61344f	0.054981526
175	0xbf063f4f	-0.5244035
176	0xbe536509	-0.2064401
177	0xbd2153ae	-0.039386444
178	0xbeaef9d4	-0.3417498
179	0xbecb87bf	-0.39752004
180	0x3c2e4ed7	0.010638914
181	0xbdc6dc08	-0.097099364
182	0x3d4335f3	0.04765887
183	0x3da4bbfd	0.080436684
184	0xbbcce622	-0.00625302
185	0xbc6754ce	-0.01411934
186	0x3c951495	0.01819829
187	0xbdb3f95f	-0.08787798
188	0xbd5db358	-0.054126114
189	0xbe288084	-0.16455275
190	0x3e4af3ce	0.19819567
191	0x3b604446	0.0034220382
192	0xbe46ba8f	-0.19407104
193	0xbe0e7ec4	-0.13915545
194	0x3eb4fa54	0.35347235
195	0xbdaeb861	-0.08531261
196	0x3ace6fae	0.0015749836
197	0x3d91d9b0	0.07121599
198	0x3cb7589b	0.022381118
199	0x3cada9b0	0.021199077
200	0xbd8034cd	-0.06260071
201	0x3dbd7bf0	0.09252155
202	0xbbf32c60	-0.0074210614
203	0xbd835d54	-0.06414285
204	0x3d609370	0.054828107
205	0x3ca689b9	0.020329343
206	0xbdeaf1c7	-0.114718966
207	0xbe174329	-0.14771713
208	0xbe0d82b9	-0.13819398
209	0xbe623f34	-0.22094423
210	0x3d0aede3	0.033918273
211	0x3d62af1d	0.055342782
212	0xbd2495d1	-0.04018194
213	0x3dea8702	0.11451532
214	0x3e472b27	0.19450055
215	0x3dc6a906	0.097002074
216	0x3cd1303a	0.025535692
217	0x3d78ac4e	0.060711198
218	0x3d5adb74	0.053431943
219	0x3d866958	0.065630615
220	0xba717033	-0.00092101394
221	0x3d208d32	0.039197154
222	0xbdac8cbe	-0.08425282
223	0xbde60191	-0.112307675
224	0xbc82aa5d	-0.015950376
225	0x3dc97e81	0.09838582
226	0xbe110319	-0.14161338
227	0x3d701bae	0.058620147
228	0x3d3e3832	0.04644031
229	0xbdcb7f4a	-0.09936388
230	0xbb6ba722	-0.0035957773
231	0x3d9af96a	0.07567103
232	0xbd9dde3e	-0.07708405
233	0x3e1d7472	0.15376452
234	0xbcefa7f5	-0.029254893
235	0x3be299f8	0.006915327
236	0xbcaa25df	-0.020770011
237	0x3d0d9cbb	0.034573298
238	0xbcfb8143	-0.030701285
239	0xbc7f9027	-0.015598333
240	0xbcd7e5f9	-0.026354777
241	0x3cb4f9ae	0.022091713
242	0xbd15df00	-0.036589622
243	0x3cee49d4	0.029087938
244	0x3cf108b9	0.029423105
245	0xbd227dc4	-0.03967072
246	0x3da19196	0.078890964
247	0xbd62228f	-0.05520874
248	0xbb912620	-0.0044295937
249	0xbd65eef0	-0.05613607
250	0x3d641d13	0.05569179
251	0xbd9b6623	-0.075878404
252	0xbd9f03bd	-0.07764385
253	0x3d52c7c0	0.051460028
254	0xbcc16401	-0.023607256
255	0xbb14fa8e	-0.002273235

conv_net.C2.weight f4 [64, 32, 3, 3]
0	0x3d988090	0.07446396
1	0xbd708c66	-0.058727644
2	0x3bf5e43b	0.007504014
3	0x3de19a4c	0.11015758
4	0x3d90a4f7	0.070627145
5	0xbc3d59cc	-0.011557054
6	0x3cc5c8ca	0.024143595
7	0x3cbc63f0	0.022996873
8	0x3dae156f	0.08500182
9	0x3be525c7	0.006993029
10	0x3c6c4bb8	0.01442235
11	0x3b27a432	0.0025580046
12	0x3dabe6e6	0.0839365
13	0x3c9f74b9	0.019464837
14	0x3da02c60	0.07820964
15	0x3d57f872	0.05272717
16	0x3db4baa0	0.088246584
17	0x3dd13382	0.102149025
18	0xbe03d50b	-0.12874238
19	0xbcd03c32	-0.025419328
20	0x3d045ad4	0.032313183
21	0xbd11c4c2	-0.035588033
22	0xba484b46	-0.0007640611
23	0x3cfe37ca	0.031032462
24	0xbc528459	-0.012848937
25	0xbdce9a16	-0.10087983
26	0xbe234d55	-0.15947469
27	0xbdea4c3a	-0.1144032
28	0x3d76373e	0.060111277
29	0x3cf5a0d4	0.029983915
30	0x3c0030fd	0.00782418
31	0x3d38969b	0.045065504
32	0x3d304f51	0.043044392
33	0xbdaaf3ed	-0.083473064
34	0xbd868ad2	-0.065694466
35	0x3c42bad7	0.011885366
36	0x3d989d99	0.07451934
37	0xbd0a9758	-0.03383574
38	0x3d95bc8a	0.073113516
39	0xbdb5db92	-0.0887977
40	0xbd517eb5	-0.051146228
41	0xbdc16e7c	-0.09444901
42	0x3d5cd12b	0.053910416
43	0xbcd88589	-0.026430862
44	0xbdb0bbda	-0.0862958
45	0x3da3dd28	0.080011666
46	0x3c8f2c55	0.017477194
47	0xbcf23872	-0.02956793
48	0x3d9c2a2a	0.0762523
49	0x3c882fcf	0.01662436
50	0x3d442eb1	0.04789609
51	0x3e413b93	0.18870382
52	0xbaf28141	-0.0018501655
53	0xbd06f771	-0.032950822
54	0xbc8b32ee	-0.016992059
55	0x3dbbd028	0.09170562
56	0xbcf5abf9	-0.02998923
57	0xbcc025ae	-0.023455467
58	0xbdd4392c	-0.10362467
59	0x3cb9ff49	0.022704737
60	0xbd0e83b5	-0.034793574
61	0xbd757291	-0.059923712
62	0xbdca02a2	-0.098637834
63	0xbd7a075d	-0.06104218
64	0xbda1edce	-0.07906686
65	0x3da14f7d	0.07876489
66	0xbc90dc46	-0.01768316
67	0xbd11f196	-0.035630785
68	0x3d168329	0.036746178
69	0xbc6ea3b6	-0.014565399
70	0x3bc38b59	0.0059675393
71	0xbce1d152	-0.027565632
72	0x3d8a118f	0.0674163
73	0x3e22438f	0.15846084
74	0x3d6f9bfa	0.05849836
75	0x3d8fa8b8	0.070146024
76	0x3d0e2124	0.034699574
77	0xbc09a8ef	-0.008402093
78	0x3d814172	0.06311311
79	0xbc012b7c	-0.007883903
80	0xbdc2257c	-0.09479806
81	0xbe09547d	-0.13411136
82	0xbd86a433	-0.06574287
83	0xbc11e46f	-0.0089045605
84	0xbd6752bd	-0.05647539
85	0x3e0f19bf	0.13974665
86	0xbb03b160	-0.0020094737
87	0x3d85da3a	0.06535764
88	0x3de60cc6	0.11232905
89	0x3e373288	0.1789037
90	0x3a08fc94	0.00052256254
91	0xbd800b4b	-0.06252154
92	0xbd2532bc	-0.040331587
93	0x3d55cca8	0.05219713
94	0x3bbff251	0.005857744
95	0xbe0a5294	-0.13508064
96	0xbd85457b	-0.06507393
97	0xbe038787	-0.12844668
98	0xbe3540cf	-0.17700504
99	0x3c699650	0.014257029
100	0x3b69d0c4	0.0035677413
101	0xbd706e40	-0.058698893
102	0xbd7ae930	-0.06125754
103	0x3cc0f6bd	0.023555154
104	0xbd8ec3d1	-0.06970943
105	0xbd21006c	-0.039307043
106	0xbcdc841d	-0.026918465
107	0xbd9dffb7	-0.07714789
108	0xbc075e7b	-0.008262272
109	0x3d2c84f1	0.04211897
110	0x3bbd0f4d	0.0057696463
111	0x3e05f272	0.13080767
112	0x3dadf609	0.08494193
113	0xbe0ad9cd	-0.13559647
114	0x3c0900d9	0.0083620185
115	0x3a9c6434	0.0011931718
116	0xbe036b39	-0.12833871
117	0x3dff6226	0.12469892
118	0x3dd856ba	0.10563417
119	0x3d73cdbb	0.05952237
120	0xbe1af97a	-0.1513423
121	0xbd2d9edb	-0.042387825
122	0xbc743612	-0.0149054695
123	0xbdd05354	-0.101721436
124	0x3db88bb7	0.090110235
125	0xbd89fc2b	-0.0673755
126	0xbce80257	-0.028321428
127	0xbd344ce1	-0.04401863
128	0x3cc644c5	0.024202714
129	0xbcbc526e	-0.022988524
130	0xbd1b8d1d	-0.037976373
131	0x3c617696	0.013761183
132	0xbd407fbd	-0.04699682
133	0xbdc598d5	-0.09648291
134	0x3bf1d4d6	0.0073801083
135	0x3d71395a	0.058892585
136	0xbe528ab2	-0.2056072
137	0x3dd23baa	0.10265286
138	0x3d96271f	0.073316805
139	0xbd81af8f	-0.06332313
140	0x3d69edff	0.057111736
141	0x3d149cc4	0.036282316
142	0x3d9ad1bf	0.07559537
143	0x3d38df23	0.045134675
144	0xbac2773a	-0.0014836558
145	0xbdcb6898	-0.09932059
146	0xbc8a545c	-0.016885929
147	0xbd8a3c48	-0.06749779
148	0xbb8295e7	-0.003985155
149	0xbd618aee	-0.055064134
150	0xbd7b7740	-0.061393023
151	0xbc148bec	-0.009066563
152	0x3ca82b8c	0.020528577
153	0xbdb943f5	-0.09046165
154	0xbdb7ccdd	-0.089746214
155	0xbe23a4c0	-0.15980816
156	0x3d2c3be7	0.042049315
157	0x3c2ae5e6	0.010430789
158	0xbdfb58b6	-0.1227278
159	0x3d5db2c9	0.05412558
160	0x3dc14c03	0.09438326
161	0x3df120ba	0.1177382
162	0xbc7bc95a	-0.01536783
163	0x3cc9777c	0.024593107
164	0xbb42f495	-0.0029747833
165	0x3c6e8231	0.014557407
166	0x3d8d3132	0.06894149
167	0x3be30a18	0.0069286935
168	0xbd1f8c3c	-0.038952097
169	0xbcdb6976	-0.026783686
170	0x3d201db2	0.03909082
171	0x3c8d4200	0.017243385
172	0x3d87b6c4	0.06626657
173	0x3d6b4977	0.05744311
174	0xbd8d1a3a	-0.06889768
175	0xb914d806	-0.00014194855
176	0xbc3768fa	-0.011194462
177	0xbdbf0339	-0.093267865
178	0xbb42093f	-0.0029607562
179	0x3d907ff4	0.07055655
180	0x3db311f7	0.08743661
181	0x3da2e4d5	0.079538025
182	0x3da356e2	0.07975556
183	0x3ddba579	0.10724921
184	0x3e41bafa	0.18918982
185	0xbc6dd710	-0.014516607
186	0xbd974dbf	-0.07387876
187	0xbde00dab	-0.10940107
188	0xbd3edca3	-0.046597134
189	0xbda0be7c	-0.07848832
190	0x3d0dd5fa	0.034627892
191	0x3de66efa	0.11251636
192	0x3c8f5309	0.017495649
193	0x3d7986e6	0.060919665
194	0x3c381d37	0.011237434
195	0x3c8cabef	0.017171828
196	0xbc88ff7a	-0.016723383
197	0x3dbb7cd1	0.09154666
198	0xbdbdaee5	-0.09261874
199	0x3c9d4e3b	0.019202342
200	0xbd7a99b6	-0.061181746
201	0xbd574b75	-0.052562196
202	0x3d032429	0.032016907
203	0xbdc910b8	-0.09817642
204	0x3d77a911	0.06046397
205	0xbd495239	-0.04915068
206	0xbd62efb8	-0.055404395
207	0xbdfc2d5f	-0.12313341
208	0xbd953c12	-0.07286848
209	0xbda9bc99	-0.08287925
210	0x3e0318f8	0.12802494
211	0xbd6b1df7	-0.057401624
212	0xbd9524a4	-0.07282379
213	0xbc8d04ed	-0.017214263
214	0xbd187a91	-0.037226263
215	0x3cef6a1c	0.029225402
216	0x3c3d8357	0.011566958
217	0x3d581dd9	0.05276284
218	0xbd591047	-0.05299404
219	0xbd578151	-0.05261356
220	0x3d32c839	0.04364798
221	0x3d936e64	0.0719879
222	0x3be09469	0.0068536294
223	0xbe09467d	-0.13405795
224	0xbdee874e	-0.11646901
225	0x3e006668	0.12539065
226	0xbde4e971	-0.11177338
227	0xbe2d1a5e	-0.1690459
228	0x3cc4114f	0.023934035
229	0x3d9420db	0.07232829
230	0xbce9c97f	-0.028538464
231	0xbd29138a	-0.0412784
232	0x3e0b8922	0.13626531
233	0x3c0a5283	0.008442524
234	0xbde794c3	-0.11307671
235	0xbdb752c1	-0.08951331
236	0x3acf5c10	0.0015820283
237	0xbce736e3	-0.028224414
238	0x3d749249	0.05970982
239	0x3e3d01fc	0.18457788
240	0xbd71cb8f	-0.05903202
241	0xbdabb981	-0.083849914
242	0x3d4fb9ce	0.050714307
243	0xbd42d8ff	-0.047570225
244	0xbda0f4d5	-0.07859198
245	0x3d7ad7fe	0.061241142
246	0xbd095817	-0.033531275
247	0xbda7bb8a	-0.08190067
248	0x3d2932fa	0.04130838
249	0x3ca527b4	0.020160533
250	0xbd324477	-0.043522324
251	0x3dc72149	0.097231455
252	0x3dffe320	0.124944925
253	0x3e0fcbb1	0.14042546
254	0xbda21b1d	-0.07915328
255	0xbd3791d6	-0.044816814

conv_net.C3.weight f4 [128, 64, 3, 3]
0	0xbdbe2fbb	-0.092864476
1	0x3cc46af5	0.023976782
2	0xbbc23169	-0.0059263003
3	0xbdb7b1c7	-0.08969455
4	0xbbcca8f5	-0.006245727
5	0x3c863dee	0.016386952
6	0xbbc7c2fb	-0.0060962415
7	0x3cfc5699	0.030803012
8	0xbd34ec9a	-0.044170953
9	0xbd352585	-0.044225235
10	0xbc555781	-0.013021351
11	0x3bed12a1	0.0072348868
12	0xbbee2402	-0.007267476
13	0xbd66514d	-0.05622988
14	0xbdaddfaf	-0.0848993
15	0xbd3b14e2	-0.045674212
16	0x3a6bf46b	0.00090009597
17	0xbc08acac	-0.008341949
18	0xb9558b69	-0.00020365197
19	0x3ce69b41	0.028150203
20	0x3c2d22d2	0.010567384
21	0xbda69483	-0.08133795
22	0x3dc1d3ea	0.094642475
23	0x3c45f5b7	0.012082509
24	0xbbea47a9	-0.007149656
25	0x3d316fef	0.04331964
26	0xbaef9c27	-0.001828079
27	0x3ba78061	0.0051117395
28	0xbcad96a4	-0.021189995
29	0x3dad1a9d	0.08452342
30	0xbd44921f	-0.047990914
31	0xbbf32147	-0.0074197385
32	0x3c2d7cac	0.010588806
33	0xbd72ee36	-0.059309207
34	0x3cb50830	0.02209863
35	0x3c51a401	0.012795449
36	0x3c23c5e3	0.00999591
37	0x3cbf695a	0.023365665
38	0xbddb6800	-0.10713196
39	0x3c38dee7	0.011283613
40	0x3ad149fe	0.0015967486
41	0xbcc396ae	-0.02387556
42	0x3beafddd	0.007171376
43	0xba3237da	-0.00067984837
44	0xbda14d0e	-0.07876025
45	0x3c4d67a5	0.012536918
46	0x3c707a44	0.014677588
47	0x3d2173ca	0.039417066
48	0x3d893589	0.06699664
49	0xbd35bbf8	-0.044368714
50	0xbd051abd	-0.032496203
51	0xbc1502d4	-0.009094913
52	0xbb7bcf7f	-0.0038423238
53	0x3cd4d333	0.025979614
54	0x3cffd8bd	0.031231279
55	0xbbeff080	-0.007322371
56	0xbd0f369c	-0.03496419
57	0x3da13dd2	0.078731194
58	0x3cbe32b2	0.023217533
59	0xbde91fdf	-0.11383032
60	0xbaba8638	-0.0014230674
61	0xbcc5bbac	-0.02413734
62	0xbcd25ad4	-0.025678076
63	0x3c1129a6	0.008860027
64	0x3cc953e1	0.02457613
65	0x3ce6542e	0.028116312
66	0xbdc0b2b3	-0.09409084
67	0x3ba43bfb	0.005012033
68	0xbbd6f0f2	-0.0065594846
69	0x3b64b90c	0.0034900336
70	0x3a8da20d	0.0010805741
71	0x3cf366b7	0.029712064
72	0xbd0f4665	-0.034979243
73	0xbc2962d2	-0.010338502
74	0xbce9e36a	-0.028550822
75	0xbcd0f03b	-0.025505176
76	0xbd77dae3	-0.06051148
77	0xbd2356a2	-0.03987754
78	0xbd4ed761	-0.05049837
79	0xbb569268	-0.0032741074
80	0xbd45ad75	-0.048261125
81	0x3a8cfa52	0.0010755754
82	0xbc2e944a	-0.010655472
83	0x3c6501e1	0.013977499
84	0xbe4ade69	-0.19811405
85	0x3cee3b01	0.02908087
86	0xbd725b48	-0.059169084
87	0xbdcdf2f9	-0.10056109
88	0xbd18b3a5	-0.037280697
89	0xbc0113de	-0.007878272
90	0x3d61e440	0.055149317
91	0x3d779949	0.06044892
92	0xbd67ce31	-0.056593124
93	0xbd4c54d8	-0.0498856
94	0xbd3b0d8d	-0.04566722
95	0x3db3197a	0.08745094
96	0x3b5df957	0.0033870542
97	0x3d5a32cc	0.0532711
98	0xbd7dc720	-0.06195748
99	0xbc5dca30	-0.013536975
100	0x3c1868a2	0.00930229
101	0xbd8ae973	-0.06782808
102	0x3d6525c6	0.055944227
103	0x3b9b916c	0.0047475602
104	0x3ad8afb6	0.0016531858
105	0xbcb6b80d	-0.02230456
106	0xbc6a7b8f	-0.014311685
107	0x3caac43d	0.020845527
108	0x3cc7ec2d	0.02440461
109	0xbceed83c	-0.029155843
110	0xbc33f6b0	-0.010984108
111	0xbdf6036b	-0.12012371
112	0x3d62ca52	0.05536873
113	0xbc968ac0	-0.018376708
114	0xbdaf6d3e	-0.08565758
115	0x3c310eea	0.010806778
116	0xbcf8e5c6	-0.030383002
117	0x3cc8dca6	0.024519276
118	0xbb12963c	-0.0022367379
119	0x3bdda80d	0.006764418
120	0x3d73abaa	0.059489883
121	0xbbcac592	-0.006188103
122	0x3b537e1f	0.003227122
123	0xbab23be2	-0.0013598169
124	0x3d5997c1	0.05312324
125	0x3d39ce8a	0.045362987
126	0x3d8cf790	0.06883156
127	0x3b26107a	0.002533941
128	0x3d22938a	0.039691485
129	0x3daede09	0.085384436
130	0xbd38b1e9	-0.045091543
131	0xbc0a0dce	-0.008426143
132	0xbccbda48	-0.024884358
133	0x3c89705d	0.016777212
134	0xbc08f11c	-0.008358266
135	0xbb116316	-0.0022184304
136	0x3b63b765	0.0034746763
137	0x3cd9837e	0.026551958
138	0x3cceecd4	0.025259413
139	0xbd6a818e	-0.05725246
140	0x3d069112	0.032853194
141	0x3d275f7b	0.04086254
142	0xbd521b79	-0.05129573
143	0xbd19f6b4	-0.03758879
144	0xbd853801	-0.065048225
145	0x3c24206a	0.010017494
146	0xbd47222e	-0.04861658
147	0xbd5223c5	-0.051303644
148	0x3c1485cd	0.009065104
149	0xbdb61e9a	-0.088925555
150	0xbcfa51ba	-0.030556548
151	0xbce6e826	-0.028186869
152	0xbced931d	-0.029000813
153	0x3d397aca	0.045283116
154	0xbb5cf075	-0.003371266
155	0xbdca55c4	-0.0987964
156	0xbd8668ed	-0.06562982
157	0xbd13a4ac	-0.036045715
158	0x3d5573cd	0.05211239
159	0x3dba9802	0.091110244
160	0x3b9d2d1d	0.0047966377
161	0xbcd0dad6	-0.025494974
162	0xbcb4fc1c	-0.022092871
163	0x3d3e8b6a	0.046519674
164	0x3d6e8736	0.058234416
165	0xbd554c10	-0.052074492
166	0xbd88807e	-0.06665133
167	0x3d3b8aa8	0.04578653
168	0xbd30f9b8	-0.0432069
169	0xbd01f06e	-0.031723432
170	0x3d07c3e3	0.033145797
171	0xbc15af7a	-0.009136075
172	0x3d82c919	0.063860126
173	0xbd2e1982	-0.042504795
174	0x3c98f8a6	0.018673252
175	0x3ccce890	0.025013238
176	0x3d63c1c8	0.055604726
177	0xbd452e0b	-0.048139613
178	0xbd58e2ee	-0.052950792
179	0x3cff6564	0.031176277
180	0xbc2ef860	-0.010679334
181	0x3c963cd3	0.01833955
182	0xbc78e13b	-0.015190418
183	0xbde9d4b1	-0.11417521
184	0xbd0a4895	-0.033760626
185	0x3c31325a	0.010815227
186	0xbd8d228e	-0.068913564
187	0xbca1e2b2	-0.019761417
188	0xbc27035d	-0.010193673
189	0xbd2731dc	-0.040819034
190	0x3cab0596	0.020876687
191	0xbd85967f	-0.065228455
192	0xbdd468f6	-0.10371582
193	0xbbcce3c6	-0.0062527386
194	0x3c92552c	0.017862879
195	0xbcf82d18	-0.03029494
196	0x3d010923	0.031502854
197	0xbb0f604f	-0.0021877473
198	0x3bc79699	0.0060909507
199	0xbe098c38	-0.13432395
200	0xbde99769	-0.11405832
201	0xbd3caaf7	-0.046061482
202	0x3d6a0476	0.05713316
203	0xbd4e8615	-0.05042084
204	0xbce29eba	-0.027663577
205	0x3bb6469e	0.0055626174
206	0xbccfa16b	-0.025345525
207	0x3d3e0a7c	0.046396717
208	0x3ac6f9a4	0.00151806
209	0xbc15baae	-0.009138746
210	0x3d0d4f5e	0.03449952
211	0xbdc2a580	-0.09504223
212	0x3cee00ee	0.029053178
213	0xbc769382	-0.015049817
214	0xbd1f86fb	-0.038947087
215	0xbd35c413	-0.044376444
216	0x3a67b53c	0.0008838957
217	0xbd8094b6	-0.06278364
218	0xbbb09b59	-0.0053896126
219	0xbdb5fb48	-0.08885819
220	0x3b1fa416	0.0024359277
221	0x3d0ee853	0.03488953
222	0x3d0ccb80	0.03437376
223	0x3ce277b2	0.027644966
224	0xbd2dc39a	-0.04242287
225	0x3d0c5f56	0.034270607
226	0x3d59c442	0.05316568
227	0xbcd6b2db	-0.026208332
228	0xbc8cc379	-0.017183052
229	0xbcb936c0	-0.022609115
230	0x3d78abc2	0.060710676
231	0xbb11e425	-0.002226123
232	0xbd336db7	-0.043805804
233	0xbcec4a99	-0.028844165
234	0xbdc0b210	-0.09408963
235	0xbb9315d8	-0.004488688
236	0xbd0e7b12	-0.034785338
237	0x3d1fb9b0	0.038995445
238	0xbd015290	-0.03157288
239	0xbd2c4fa9	-0.042068157
240	0x3db9e9fc	0.09077832
241	0x3cca76f6	0.024714928
242	0xbd1c4968	-0.038155943
243	0x3ca08a07	0.019597067
244	0xba69cde5	-0.00089189253
245	0x3cd9edbd	0.02660262
246	0x3c6e5a4d	0.014547897
247	0xbd92bab6	-0.071645185
248	0x3ce4b46b	0.027918061
249	0x3cbea857	0.02327363
250	0xbbecfb02	-0.007232071
251	0xbbb5bbc6	-0.005546066
252	0xbd572f8d	-0.052535582
253	0x3d33b609	0.043874774
254	0x3cc8ceaf	0.024512617
255	0xbe0c836f	-0.13722013

conv_net.C4.weight f4 [1, 128, 3, 3]
0	0xbc10a44d	-0.008828235
1	0xbc7e2c53	-0.015513497
2	0xbd028137	-0.03186151
3	0xbb88f375	-0.004179413
4	0xbb6a525b	-0.0035754654
5	0xbdf7b14e	-0.12094365
6	0xbac6227c	-0.0015116478
7	0xb8e99b5c	-0.00011139244
8	0xbc176d9c	-0.0092424415
9	0x3c90be03	0.01766873
10	0x3b3b1e27	0.0028551908
11	0x3c64f65c	0.013974752
12	0x3cf67a7a	0.030087698
13	0x3c059fcf	0.008155777
14	0x3c1a031e	0.009400157
15	0x3d8ab3a2	0.067725435
16	0x3e868b8b	0.26278338
17	0x3d6d9314	0.058001593
18	0x3da6d1b6	0.08145468
19	0x3d274fdb	0.04084764
20	0x3cc7f1d5	0.024407307
21	0x3ddb0004	0.10693362
22	0x3d8de1e9	0.069278546
23	0x3d16ad3e	0.03678631
24	0x3c8039fa	0.015652645
25	0x3c459b8a	0.012061009
26	0x3c8ea7ca	0.017413992
27	0xbce9295b	-0.028462103
28	0x3d9c9420	0.0764544
29	0xbad24f92	-0.0016045442
30	0xbc4730ff	-0.012157678
31	0xbcbebeda	-0.023284364
32	0xbc063bea	-0.008192996
33	0xbb2925d5	-0.0025809903
34	0xbb3905de	-0.0028232257
35	0x3a298cda	0.0006467827
36	0xbcaa2e8a	-0.020774145
37	0xbcc004c4	-0.023439772
38	0x3cd7ae6f	0.026328294
39	0xbd233216	-0.039842688
40	0xbcd8821c	-0.026429228
41	0x3d075683	0.03304149
42	0x3a460583	0.0007553922
43	0x3c5ed4f9	0.013600581
44	0x3d82098e	0.06349479
45	0x3d95eb9a	0.07320328
46	0x3d95f4e7	0.07322102
47	0x3b5cb66d	0.003367807
48	0x3dc23c85	0.094841994
49	0x3e2eb538	0.17061317
50	0xbc00a5ef	-0.007852062
51	0x3dae5279	0.08511824
52	0x3dbd0a2c	0.09230456
53	0x3cab9bd9	0.020948337
54	0xbd3021bf	-0.043000933
55	0xbd2b0ca0	-0.041760087
56	0xbd027562	-0.031850226
57	0xbd631a14	-0.055444792
58	0xbda78db9	-0.08181328
59	0xbda66581	-0.08124829
60	0xbd5e856a	-0.054326452
61	0xbe24dc01	-0.1609955
62	0xbe53e434	-0.20692521
63	0x3d0d8037	0.034546103
64	0x3cf85ef0	0.030318707
65	0x3d1970a6	0.037460946
66	0x3d1e6e66	0.038679503
67	0x3d01b3da	0.03166566
68	0x3d4c331f	0.04985344
69	0x3d3c1ab3	0.0459239
70	0x3d3e07af	0.046394046
71	0x3d32e215	0.04367264
72	0xbda8f2e8	-0.08249456
73	0xbdad8bd2	-0.08473934
74	0xbdacba13	-0.08433928
75	0xbdca2210	-0.09869778
76	0xbe0de35f	-0.13856266
77	0xbde24d9d	-0.1104996
78	0xbdc54d00	-0.09633827
79	0xbe06523e	-0.1311731
80	0xbde98860	-0.114029646
81	0x3dc4e35f	0.0961368
82	0x3b85e9fb	0.0040867305
83	0x3b4dbc79	0.0031392856
84	0xbbc1750e	-0.0059038466
85	0xbb926b12	-0.00446833
86	0xb961b6a2	-0.00021525708
87	0xbadeab6d	-0.0016988345
88	0xbb106572	-0.0022033122
89	0x3a741615	0.0009311152
90	0x3d276c47	0.040874746
91	0x3d396372	0.045260854
92	0x3d54b258	0.051927894
93	0xb9e1046e	-0.00042918645
94	0xbc12641e	-0.008935003
95	0xbca01227	-0.019539906
96	0xbcc6ce0d	-0.024268175
97	0xbcd19c10	-0.025587112
98	0xbd3305d6	-0.043706737
99	0xbd9a0604	-0.07520679
100	0xbe294845	-0.16531475
101	0xbdf91662	-0.12162472
102	0xbdea4860	-0.11439586
103	0xbe37d336	-0.17951664
104	0xbdddc54d	-0.10828648
105	0xbda647b3	-0.08119144
106	0xbde84565	-0.11341361
107	0xbd8ca257	-0.06866901
108	0x3dbee84c	0.09321651
109	0x3dcb4d95	0.09926907
110	0x3daf665a	0.08564444
111	0x3e0a9fa9	0.13537468
112	0x3e92486f	0.28570887
113	0x3e029486	0.1275197
114	0x3dc5cdd8	0.09658402
115	0x3df1eb9b	0.11812516
116	0x3dd6ef8c	0.10494909
117	0xbc0c8829	-0.008577385
118	0xbbdf9fc0	-0.0068244636
119	0xbc37ccc0	-0.01121825
120	0xbb02dcf2	-0.001996812
121	0xbe5703d2	-0.20997551
122	0x3b942b31	0.0045217504
123	0xbb978bd6	-0.004624824
124	0xbb179235	-0.0023127918
125	0xb9025499	-0.00012429281
126	0x3d24a9e7	0.040201094
127	0x3e8fa2da	0.28053933
128	0x3c7858f2	0.015157925
129	0x3cc0baeb	0.02352663
130	0x3d9309cf	0.07179605
131	0x3d041e45	0.03225543
132	0x3c56041b	0.013062502
133	0x3cd212b5	0.025643686
134	0x3cddc5d0	0.027071863
135	0xbcefa4d6	-0.029253405
136	0xbcaf250f	-0.021379976
137	0xbcc734aa	-0.024317104
138	0xbd5fe84c	-0.054664895
139	0xbd4c8a36	-0.049936496
140	0xbd0e74dc	-0.034779415
141	0xbd9d43fb	-0.07678982
142	0xbdaff4f7	-0.08591645
143	0xbd7cf0f4	-0.06175323
144	0xbcd37d0e	-0.025816467
145	0xbba7b23a	-0.005117682
146	0x3af7cabc	0.0018905024
147	0xbd11cf5d	-0.035598148
148	0x3cd9e3ad	0.026597822
149	0x3c29caaf	0.010363265
150	0xbc58168b	-0.013188968
151	0x3c2d0ef3	0.010562646
152	0x3cc2fe3f	0.023802875
153	0x3acadf1d	0.001547787
154	0x3c5df895	0.013548036
155	0x3da39160	0.079867125
156	0x3c833c17	0.016019864
157	0x3ca2f26f	0.019890992
158	0x3e89d58d	0.2692074
159	0xbb333645	-0.002734558
160	0xbb5c0dab	-0.0033577483
161	0xbca52060	-0.02015704
162	0x3c75fae6	0.015013432
163	0x3d87a595	0.06623379
164	0x3d68cf75	0.05683847
165	0x3ccb08fb	0.024784556
166	0x3e0dc25a	0.1384367
167	0x3dae2a72	0.085041896
168	0x3e13f8bd	0.14450355
169	0x3e21436e	0.15748379
170	0x3dd31d7f	0.1030836
171	0x3cfcaba1	0.030843558
172	0x3d33668e	0.043798976
173	0x3d622ca8	0.05521837
174	0x3d058725	0.032599587
175	0x3dd53f18	0.10412425
176	0x3e4c1726	0.19930705
177	0x3c7bc3e2	0.015366526
178	0x3be5bab2	0.007010781
179	0x3ca0e3f3	0.019639945
180	0x3daa93c4	0.08328965
181	0x3e0f32ee	0.13984272
182	0x3d83395a	0.06407423
183	0x3d3deb77	0.046367135
184	0x3d8bbc88	0.06823069
185	0x3d765c0f	0.060146388
186	0x3d3138f3	0.0432672
187	0x3d28f60c	0.041250274
188	0x3d671520	0.05641663
189	0x3df4ca18	0.11952609
190	0x3daa512f	0.08316266
191	0x3d1bd92d	0.03804891
192	0x3e171f33	0.14757995
193	0x3c8249ff	0.015904425
194	0xbbdd3853	-0.006751099
195	0x3dca8526	0.09888677
196	0x3d0d71d2	0.034532376
197	0x3bfb6787	0.0076722535
198	0xbd32cbec	-0.043651506
199	0xbd88d210	-0.06680691
200	0xbdba5ee2	-0.09100129
201	0x3c525421	0.012837441
202	0xbac6b919	-0.0015161365
203	0xbcc6086a	-0.024173934
204	0x3d38e166	0.04513683
205	0x3d4fb6dd	0.0507115
206	0x3cd58a73	0.026066994
207	0x3d02e6c7	0.031958368
208	0x3d09e3e3	0.033664595
209	0x3d1fa74a	0.0389779
210	0x3df902b4	0.12158719
211	0x3e256512	0.16151837
212	0x3db69c30	0.08916509
213	0x3dfeaf2e	0.124357566
214	0x3d7fcee9	0.062453184
215	0x3d5ca8cb	0.05387191
216	0x3a20a06c	0.00061274203
217	0xbb81efd0	-0.0039653555
218	0x3be0f5b7	0.006865229
219	0xbbaa2b26	-0.005193132
220	0xbc22c293	-0.009934085
221	0x3e34ddb9	0.17662705
222	0xba909024	-0.0011029285
223	0x3ac5afb1	0.0015082267
224	0x3d09ee80	0.033674717
225	0xbcea82bd	-0.028626794
226	0x390c9422	0.00013406624
227	0x3ca31de5	0.019911716
228	0xbd5ce919	-0.053933237
229	0x3db72a8f	0.08943664
230	0x3d7856ff	0.06062984
231	0xbca2b0a6	-0.019859623
232	0xbd93c81a	-0.07215901
233	0xbc8b51a7	-0.017006708
234	0x3d1c0ad6	0.03809627
235	0x3db07e0b	0.08617791
236	0x3cac45fd	0.021029467
237	0xbc502ff2	-0.012706744
238	0x3ed7aa35	0.42122045
239	0x3d196594	0.037450388
240	0x3b225bc6	0.002477394
241	0x3d263b65	0.040583987
242	0x3cc92030	0.024551481
243	0x3dabcee0	0.08389068
244	0x3cb0bc2f	0.021574108
245	0x3c16ef55	0.009212335
246	0x3eebec2e	0.46078628
247	0xbcb351b4	-0.021889545
248	0xbbfc211d	-0.007694377
249	0x3d1e9e00	0.0387249
250	0x3bff7a25	0.007796543
251	0x3b52dda9	0.0032175577
252	0xbd0ccc98	-0.034374803
253	0xbd582e4d	-0.05277853
254	0xbc57d186	-0.013172513
255	0xbd119ca2	-0.035549767
