CNN_weights/NetworkB_weights_CV5.pt (torch, 46815 bytes, 4 tensors)

conv_net.C1.weight f4 [32, 12, 1, 1]
0	0xbbf03258	-0.00733022
1	0x3dbf3a7e	0.093373284
2	0x3bf86788	0.0075807013
3	0x3d995957	0.07487743
4	0x3da1feef	0.07909953
5	0x3d7b53e0	0.061359286
6	0xbce82f47	-0.028342856
7	0xbfd7314f	-1.6811923
8	0xbede7ec4	-0.4345609
9	0xbd105bf9	-0.035243962
10	0xbd12fef9	-0.035887692
11	0xbe3f5ceb	-0.18687789
12	0xbda50237	-0.08057063
13	0xbe7dd3c8	-0.2478782
14	0xbe131fb1	-0.14367558
15	0x3e88bae8	0.26705098
16	0xbe1ed871	-0.15512253
17	0x3e2bcaa4	0.1677652
18	0x3dc0a4a3	0.09406402
19	0x3e197ad1	0.14988257
20	0x3dc18f88	0.094512045
21	0x3f04b62b	0.51840466
22	0x3e00df9a	0.12585297
23	0xbdc9578b	-0.098311506
24	0xbcd732c6	-0.026269328
25	0x3d86088b	0.06544598
26	0x3d114e05	0.035474796
27	0xbd230961	-0.039803866
28	0x3c9c4b07	0.019078745
29	0xbde45bc9	-0.11150319
30	0x3d42c97d	0.047555435
31	0xbf0a0662	-0.5391599
32	0xbe898abb	-0.26863655
33	0x3db4cb1b	0.08827802
34	0xbe2b53da	-0.16731206
35	0x3f0a550d	0.5403603
36	0xbd6e4954	-0.0581754
37	0x3dcec203	0.100955985
38	0xbe0deca1	-0.13859798
39	0x3e1eee18	0.15520513
40	0xbd3104d4	-0.043217495
41	0xbd6212ce	-0.055193715
42	0xbdadd197	-0.08487242
43	0xbe76ed1c	-0.24113888
44	0x3ece221d	0.402604
45	0x3e3c3962	0.18381265
46	0xbd3eaa94	-0.046549395
47	0xbb58b539	-0.0033067001
48	0xbdaa0e0a	-0.08303459
49	0xbeb6a7ee	-0.35674995
50	0x3eb96de3	0.3621665
51	0xbe51b24f	-0.20478176
52	0xbbd519e9	-0.006503333
53	0xbb84004b	-0.0040283552
54	0x3d888ecc	0.06667861
55	0xbf349eb7	-0.7055468
56	0x3e998cc3	0.29990205
57	0xbe8c2d7f	-0.2737846
58	0x3d7692d6	0.060198627
59	0x3cfc4730	0.030795664
60	0x3bbfffe6	0.005859363
61	0xbc5c0371	-0.013428555
62	0x3c15e97d	0.009149906
63	0xbe4a1d19	-0.19737662
64	0xbdf6f339	-0.1205811
65	0x3d14ed79	0.036359284
66	0xbe8959cd	-0.26826325
67	0xbe44cb19	-0.192181
68	0xbe04f875	-0.12985404
69	0x3ee1ddde	0.44114584
70	0x3d0f42f1	0.03497595
71	0x3ed5f0ea	0.41785365
72	0xbeb22cf2	-0.34799916
73	0xbdbd2268	-0.09235078
74	0xbd061562	-0.032735236
75	0x3ea2a582	0.31766897
76	0xbd88d418	-0.06681079
77	0x3ec14dfb	0.37754807
78	0xbe8df5b2	-0.27726513
79	0x3e89bdb7	0.26902553
80	0xbdb52251	-0.08844436
81	0xbdc070ae	-0.09396492
82	0xbcc21955	-0.02369372
83	0x3e5e4060	0.21704245
84	0x3dca1d9f	0.09868931
85	0x3d351ffa	0.04421995
86	0xbe587e84	-0.21142012
87	0x3e7c905d	0.24664445
88	0xbc8d1ac4	-0.017224677
89	0xbe35ff58	-0.17773187
90	0xbdd782df	-0.105230086
91	0x3db3e268	0.08783418
92	0xbe2afa5c	-0.16697067
93	0x3d46e890	0.048561633
94	0xbdcf7cc6	-0.101312205
95	0x3ed2b499	0.4115341
96	0xbc28b6e9	-0.010297515
97	0xbea8b0ee	-0.32947487
98	0xbeb7373c	-0.35784328
99	0xbf36e3ec	-0.7144153
100	0x3e033ded	0.12816592
101	0x3bef32ef	0.007299773
102	0xbe7ddec6	-0.24792013
103	0x3e03ea75	0.12882407
104	0xbdf8ea0e	-0.121540174
105	0xbd079fc4	-0.03311135
106	0xbe45e233	-0.1932457
107	0xbe9dadf6	-0.30796784
108	0x3c30cf0d	0.010791552
109	0x3d0d2ebe	0.034468405
110	0x3cfc21a8	0.030777767
111	0x3cfd6968	0.03093405
112	0x3d80f9d4	0.06297651
113	0xbda58cee	-0.08083521
114	0x3d8b0d8b	0.067896925
115	0x3c995e23	0.018721646
116	0x3dc98ead	0.09841666
117	0xbfd0659d	-1.628101
118	0xbdb5aef9	-0.08871264
119	0xbe2e9738	-0.17049873
120	0xbd982c55	-0.07430331
121	0x3dd7c412	0.10535444
122	0xbc927102	-0.017876152
123	0xbe028f78	-0.12750041
124	0x3d17c152	0.0370496
125	0x3c880947	0.016605986
126	0xbe1bf0b0	-0.15228534
127	0xbe0da6fd	-0.13833232
128	0x3dbaeb88	0.09126955
129	0xbee0c71b	-0.43901905
130	0x3d2f95a0	0.042867303
131	0x3f4b137e	0.7932662
132	0xbe976313	-0.29567775
133	0x3d980b16	0.074239895
134	0xbe118eff	-0.14214705
135	0x3c3358b0	0.010946438
136	0x3d592e44	0.053022638
137	0x3e6f610e	0.23376867
138	0xbdb467ca	-0.08808859
139	0x3e608124	0.21924263
140	0xbdb03d3d	-0.0860543
141	0x3ebd8b17	0.3702018
142	0xbdf667fc	-0.12031552
143	0xbf2d6f91	-0.6774836
144	0x3e54e6a6	0.2079111
145	0xbe8b7921	-0.27240852
146	0xbd0a84b8	-0.033817977
147	0x3e887f0a	0.26659423
148	0xbe12fb37	-0.14353643
149	0x3e3b8846	0.18313703
150	0xbe4a9df8	-0.19786823
151	0x3e5147e1	0.20437576
152	0xbe82e317	-0.2556388
153	0x3e996789	0.29961804
154	0x3c8062f0	0.015672177
155	0xbf1eed33	-0.6208069
156	0x3d15cbd7	0.03657135
157	0x3d8f938a	0.07010563
158	0xbb8b4389	-0.004249994
159	0x3d2198df	0.03945243
160	0x3c944528	0.018099383
161	0xbfba8ac7	-1.4573601
162	0xbe8cf234	-0.27528536
163	0x3d299abd	0.041407336
164	0x3d36c150	0.04461795
165	0x3b0c95cf	0.0021451598
166	0x3da09c24	0.078422815
167	0xbea9f3c5	-0.33193794
168	0x3e46d3d8	0.1941675
169	0xbd8f2ea2	-0.069913164
170	0xbe2f8240	-0.1713953
171	0xbd3cbd96	-0.04607924
172	0xbe5bcdea	-0.21465269
173	0xbeaf5e07	-0.34251425
174	0x3ebe97c4	0.37225163
175	0xbf0347a2	-0.5128118
176	0x3dfbb589	0.122904845
177	0xbca2d1cd	-0.019875431
178	0xbd90864b	-0.07056864
179	0xbc70910e	-0.014683021
180	0x3e42f532	0.19038847
181	0x3d756009	0.05990604
182	0xbda0df50	-0.078550935
183	0xbefede6f	-0.49779078
184	0xbe5427e7	-0.20718347
185	0x3d159fce	0.036529355
186	0x3e50c86d	0.20388956
187	0x3ec9c0d0	0.39404917
188	0xbb54d0a7	-0.0032473
189	0x3db6a2ad	0.08917747
190	0x3dff3a52	0.124622956
191	0x3e11284f	0.14175533
192	0xbe4abd24	-0.19798714
193	0x3c8b9234	0.017037489
194	0x3dec7ae6	0.115468785
195	0x3e62a714	0.22134048
196	0x3e01454b	0.1262409
197	0xbf6193ed	-0.8811634
198	0xbe83e072	-0.25757176
199	0xbe05332e	-0.13007805
200	0xbe0d3733	-0.13790588
201	0x3e5228f7	0.2052344
202	0xbde2b3a0	-0.11069417
203	0xbe7dc6e6	-0.24782905
204	0x3c5ba3e1	0.013405771
205	0xbe87c0e1	-0.26514342
206	0x3d12d86d	0.03585093
207	0xbec1b41d	-0.37832728
208	0x3e25d2a4	0.16193634
209	0xbf2738ed	-0.65321237
210	0xbe0ffa41	-0.14060308
211	0x3c8badec	0.017050706
212	0xbd9eb688	-0.07749659
213	0xbeb0e290	-0.34547853
214	0xbd2bc70b	-0.04193787
215	0x3f352bb0	0.70769787
216	0x3e31a192	0.1734679
217	0x3e0099e8	0.1255871
218	0x3d804f2c	0.06265101
219	0xbd5596f9	-0.052145932
220	0xbe12004a	-0.14257923
221	0xbe838aec	-0.25691926
222	0xbe0583df	-0.13038586
223	0x3e967323	0.29384717
224	0xbdb542ec	-0.08850655
225	0xbf198742	-0.5997201
226	0xbe42c2f1	-0.19019677
227	0xbea56fcb	-0.32311854
228	0x3dabd47b	0.08390137
229	0xbcb8f921	-0.022579731
230	0x3c04b297	0.00809922
231	0xbf48881c	-0.78332686
232	0xbe88cb4b	-0.267176
233	0x3dbc7053	0.09201112
234	0xbe8bbe25	-0.27293506
235	0x3cfe7d24	0.031065531
236	0xbe43e10a	-0.19128814
237	0xbe02f3f6	-0.12788376
238	0xbe46bb17	-0.19407307
239	0x3ea1ae0e	0.31578106
240	0x3c83ee84	0.016104944
241	0x3e8f5bb1	0.27999642
242	0xbd8ea060	-0.06964183
243	0x3dcb559d	0.09928439
244	0xbc577421	-0.013150246
245	0xbca19753	-0.019725477
246	0x3e2c5798	0.1683029
247	0xbe8245af	-0.2544379
248	0xbe2c575b	-0.16830198
249	0xbe0bb58c	-0.13643473
250	0x3de91a43	0.11381962
251	0x3e6c0d32	0.23051909
252	0x3dc2084d	0.094742395
253	0xbfbf4e0f	-1.4945697
254	0xbec58ac8	-0.38582444
255	0x3e3f047d	0.18654056

conv_net.C2.weight f4 [64, 32, 1, 1]
0	0xbe8833d5	-0.26602045
1	0x3c163efc	0.00917029
2	0x3e38abc7	0.18034278
3	0xbe3054fb	-0.17219917
4	0x3c0d022f	0.008606478
5	0x3c447f22	0.011993201
6	0xbdbfa70d	-0.09358034
7	0x3dee7645	0.11643652
8	0xbead7267	-0.33876345
9	0x3f0587a2	0.52160084
10	0xbe50d4a7	-0.2039362
11	0xbdbd849f	-0.09253811
12	0x3d6ce954	0.057839707
13	0x3d488735	0.04895707
14	0xbb699ef6	-0.0035647727
15	0xbe710c2e	-0.23539802
16	0x3e3986d3	0.18117838
17	0xbe766683	-0.24062543
18	0xbe272587	-0.1632291
19	0xbe51b3a2	-0.2047868
20	0x3ddd2610	0.107982755
21	0x3d6d97ad	0.058005977
22	0x3df729f5	0.120685495
23	0x3d9327d5	0.07185332
24	0x3d13078a	0.03589586
25	0x3e2f236f	0.1710336
26	0xbcaaab76	-0.020833712
27	0x3df15c48	0.117851794
28	0x3dd46cfe	0.10372351
29	0xbdc912a7	-0.09818011
30	0x3d16d51a	0.036824323
31	0xbee3ebbe	-0.44515795
32	0xbe3e3919	-0.18576469
33	0x3e36554a	0.17805973
34	0x3cefa604	0.029253967
35	0xbd9b2cd4	-0.0757691
36	0xbda4ed64	-0.08053091
37	0xbe3df947	-0.18552123
38	0xbe4b7a20	-0.19870806
39	0xba627dba	-0.00086399505
40	0xbe957a59	-0.29194906
41	0xbdac84b5	-0.08423749
42	0xbed5cb2f	-0.4175658
43	0x3e03b869	0.12863316
44	0xbd86c237	-0.06580012
45	0x3e8bd95a	0.27314264
46	0x3e48705c	0.19574112
47	0xbe820bf2	-0.2539974
48	0x3dfa2455	0.12213961
49	0x3ddf55ce	0.10905038
50	0xbc0cbefc	-0.008590456
51	0x3dde2e88	0.10848719
52	0xbe581542	-0.21101859
53	0xbeb03780	-0.34417343
54	0xbf1b7fac	-0.60741687
55	0x3e4e100a	0.20123306
56	0x3e35ecf5	0.17766173
57	0x3de9cc5a	0.1141593
58	0x3e86a3ec	0.26296937
59	0x3e325e72	0.1741884
60	0x3d3276f3	0.04357047
61	0x3eaf1d53	0.3420206
62	0xbe964574	-0.29349864
63	0x3dc3040c	0.09522256
64	0xbe3586e2	-0.17727235
65	0x3e035fa5	0.12829454
66	0x3b1bc137	0.0023766288
67	0x3dc1e8ba	0.09468217
68	0x3e1f92e9	0.15583386
69	0xbe8c1a16	-0.27363652
70	0x3e9c2e81	0.3050423
71	0xbac0d838	-0.0014712876
72	0xbe32f191	-0.17474963
73	0x3e95e536	0.29276437
74	0xbd1e842c	-0.038700268
75	0x3cd2ebce	0.025747206
76	0xbe1aca0e	-0.1511614
77	0xbe65775b	-0.22408812
78	0x3ea42f73	0.3206745
79	0x3db0eb04	0.08638576
80	0xbe39873e	-0.18117997
81	0xbe11850f	-0.14210914
82	0x3d2fbacb	0.04290275
83	0x3d05b4d8	0.03264317
84	0xbeb7d7dd	-0.35906878
85	0x3e3147ec	0.17312592
86	0xbe264ae0	-0.162395
87	0x3e7b9b3a	0.24570933
88	0x3b3374ce	0.0027382853
89	0xbdebef7e	-0.11520289
90	0x3e22efc8	0.15911782
91	0x3e49536c	0.19660729
92	0xbe440191	-0.19141223
93	0x3e5fa220	0.2183919
94	0xbebb0edf	-0.36534783
95	0xbe5ef70f	-0.21773933
96	0xbe3d3ee2	-0.18481019
97	0x3cdd56f5	0.027019003
98	0x3e5174cb	0.20454709
99	0xbd783110	-0.060593665
100	0x3ebacb66	0.36483306
101	0x3e8d423c	0.27589595
102	0xbe7f94dd	-0.2495913
103	0xbea8b799	-0.32952574
104	0x3b0ce726	0.002150008
105	0x3dd84783	0.10560515
106	0x3db53f13	0.08849921
107	0x3eeb582c	0.45965707
108	0xbdd1c148	-0.102419436
109	0x3d8a6a0d	0.06758509
110	0xbddd5da4	-0.10808876
111	0x3e9ed151	0.3101907
112	0x3cb98cdb	0.022650173
113	0xbe539c20	-0.20665026
114	0x3e0c5d81	0.13707544
115	0x3e63e3b4	0.2225483
116	0xbd24597b	-0.040124398
117	0xbe426368	-0.18983233
118	0xbaeb7fb9	-0.0017967141
119	0x3d34f02a	0.04417435
120	0x3cf14bff	0.029455183
121	0xbec40649	-0.38286045
122	0x3ea5f60a	0.32414275
123	0x3d91d49c	0.0712063
124	0x3e631250	0.22174954
125	0x3e118f81	0.14214899
126	0xbe2e9aaf	-0.17051195
127	0xbdadb437	-0.08481639
128	0x3eb611a8	0.35560346
129	0x3dd6cba2	0.104880586
130	0xbd4c1a73	-0.04982991
131	0xba50cb9e	-0.00079649116
132	0xbdb7355f	-0.089457266
133	0xbe3d4240	-0.18482304
134	0x3d845378	0.06461233
135	0x3c4408f7	0.011965028
136	0xbec9b22c	-0.39393747
137	0xbe1ab98f	-0.15109847
138	0x3e8a8f2b	0.27062353
139	0xbe427541	-0.18990041
140	0x3df965f8	0.12177652
141	0xbf211d1b	-0.62935036
142	0xbc15bd3e	-0.009139357
143	0x3ce875f0	0.02837655
144	0xbc01726e	-0.007900817
145	0xbe8f33ff	-0.27969357
146	0xbd6c6878	-0.057716817
147	0xbdd7a421	-0.10529352
148	0xbcc3caa5	-0.02390034
149	0xbd994546	-0.07483916
150	0x3e2e56a1	0.17025234
151	0x3b4a8d79	0.0030907078
152	0x3dcb0a00	0.09914017
153	0xbd6ff462	-0.05858267
154	0x3dc82be5	0.09773997
155	0xbe0970af	-0.13421892
156	0xbe546716	-0.20742449
157	0x3e238d5f	0.15971898
158	0xbd5087f3	-0.0509109
159	0x3e90553c	0.2819003
160	0xbe55bd2e	-0.20872948
161	0xbe8574be	-0.2606563
162	0x3d861197	0.06546324
163	0x3e17ce20	0.14824724
164	0xbe1b16a2	-0.15145352
165	0xbe8f3e3d	-0.27977172
166	0x3e78a7e0	0.24282789
167	0x3e43e97c	0.19132036
168	0x3e2e12eb	0.16999404
169	0xbeaf0fca	-0.34191734
170	0x3a728f12	0.00092528865
171	0xbe02afb5	-0.1276234
172	0xbeb531b3	-0.3538948
173	0xbebc42ec	-0.36769807
174	0xbe79f37a	-0.24409285
175	0x3e7bf7a4	0.24606186
176	0xbddc6242	-0.10760929
177	0x3e0bc2f2	0.13648584
178	0xbe14e7d2	-0.14541557
179	0xbe6499b5	-0.2232426
180	0xbdfeb4e0	-0.12436843
181	0x3ef9c549	0.4878333
182	0xbd4ddc21	-0.05025876
183	0xbe81cf19	-0.25353315
184	0xbdceee27	-0.10104018
185	0x3dc0dac5	0.09416727
186	0x3e5d2878	0.21597469
187	0x3e64fdaa	0.2236239
188	0xbf1e2710	-0.61778355
189	0xbeb4e684	-0.3533212
190	0xbec89f93	-0.39184245
191	0xbdb34127	-0.08752661
192	0xbed93066	-0.42419738
193	0x3d92fe84	0.07177451
194	0xbe397e53	-0.18114595
195	0xbd865854	-0.06559816
196	0xbc9bfe41	-0.019042136
197	0x3cfacc53	0.030615008
198	0x3d479391	0.048724715
199	0xbd124f37	-0.035720076
200	0xbcdac86d	-0.026706899
201	0x3ebfd92a	0.3747037
202	0x3ecbd4e5	0.39810863
203	0xbdf1f6cb	-0.1181465
204	0xbe25ff9f	-0.16210793
205	0xbe81416a	-0.2524522
206	0x3c81e6b4	0.015857078
207	0x3dc9eb6e	0.09859358
208	0x3e1fffb8	0.15624893
209	0xbe66efb2	-0.22552374
210	0xbba4ac06	-0.0050253896
211	0xbe4bed86	-0.19914827
212	0x3d045770	0.03230995
213	0xbdb1416f	-0.086550586
214	0x3d98cf6a	0.07461436
215	0xbe33881c	-0.1753239
216	0xbdb7d036	-0.0897526
217	0xbd495e62	-0.049162276
218	0x3e23ec6f	0.16008161
219	0xbe1926b3	-0.14956169
220	0xbe23b8e9	-0.15988506
221	0xbe8c0420	-0.27346897
222	0x3e095dcb	0.13414685
223	0x3e0ac741	0.13552572
224	0xbe59bab9	-0.21262635
225	0xbe1c45a7	-0.15260945
226	0x3eba48fb	0.36383805
227	0xbe9b5d95	-0.30344835
228	0xbde64cf5	-0.11245147
229	0xbe3818b9	-0.17978181
230	0xbd7b746e	-0.061390333
231	0x3e966f40	0.29381752
232	0x3cfcd8cf	0.030865101
233	0xbe5aabd0	-0.21354604
234	0x3e56593f	0.20932482
235	0xbe52a393	-0.20570211
236	0x3e11878d	0.14211865
237	0xbdc35d4b	-0.095392786
238	0x3d75e78c	0.060035273
239	0xbe1475ff	-0.14498137
240	0x3d0ddd22	0.034634717
241	0x3e94859e	0.29008192
242	0x3d863590	0.06553185
243	0xbea1d2c7	-0.31606123
244	0x3c34ce02	0.011035444
245	0xbd11b862	-0.03557623
246	0x3da0d401	0.078529365
247	0x3c5f35f8	0.013623707
248	0xbe05d111	-0.13068034
249	0x3e232682	0.15932658
250	0xbe89688b	-0.26837572
251	0x3ca4aaac	0.020100914
252	0xbc8cb2da	-0.017175127
253	0xbe1a6b21	-0.15079929
254	0xbc2be3a9	-0.01049129
255	0x3e1dd487	0.15413104

conv_net.C3.weight f4 [128, 64, 1, 1]
0	0xbddc304e	-0.10751401
1	0x3d2c1879	0.042015526
2	0x3d73ec67	0.059551623
3	0xbd408b66	-0.04700794
4	0xbdbe09da	-0.09279223
5	0xbd257a2b	-0.04039971
6	0x3dc9bc2c	0.09850344
7	0x3ad83db9	0.0016497887
8	0xbdafaff8	-0.08578485
9	0xbdb5ff08	-0.08886534
10	0xbe378453	-0.17921571
11	0xbab36f2e	-0.001368975
12	0xbd8b63e7	-0.06806164
13	0x3d674269	0.056459818
14	0x3cc47fa8	0.023986652
15	0xbd98e26d	-0.07465062
16	0x3cebadac	0.028769337
17	0xbe2e520a	-0.17023483
18	0xbcb06d0a	-0.021536369
19	0xbdc10353	-0.09424462
20	0xbd1edac5	-0.038782854
21	0x3c5e003c	0.013549861
22	0xbc7ad04e	-0.015308453
23	0x3d493a29	0.04912773
24	0x3d7d5396	0.061847292
25	0xb9fc3a19	-0.00048108472
26	0xbdfbb774	-0.1229085
27	0x3dbfb6ac	0.09361014
28	0x3e1b0a14	0.15140563
29	0xbd89d12d	-0.0672935
30	0xbccf684e	-0.025318291
31	0xbd53d9d5	-0.051721413
32	0xbd70b92b	-0.05877034
33	0xbdfe8a8d	-0.1242877
34	0xbba6392f	-0.005072735
35	0xbe4de19c	-0.20105594
36	0xbdd99bb8	-0.10625404
37	0x3df5728b	0.11984738
38	0x3d949b94	0.07256237
39	0x3bb8577c	0.0056256633
40	0xbd8ee99c	-0.06978151
41	0xbcb38d04	-0.021917827
42	0x3bcae7da	0.0061921896
43	0xbc748e83	-0.014926556
44	0xbd32da6b	-0.04366533
45	0xbd4a7ff4	-0.04943843
46	0x3d3f70fd	0.046738613
47	0x3d4d0a07	0.05005839
48	0xbc06589e	-0.008199839
49	0xbd0911c3	-0.033464205
50	0xbda8cced	-0.082422115
51	0xbd1b2653	-0.037878346
52	0xbcb67f04	-0.022277363
53	0xbd2ed4fd	-0.04268359
54	0x3a5ffd6a	0.00085445365
55	0x3bd2760a	0.0064227628
56	0x3da2396a	0.07921107
57	0xbe04d55c	-0.12972015
58	0xbd68c571	-0.05682892
59	0xbccb4e31	-0.024817558
60	0xbcbba485	-0.022905597
61	0xbc5c24fb	-0.013436551
62	0xbc0ee7f8	-0.008722298
63	0xbd3dd294	-0.0463434
64	0xbe51125d	-0.20417161
65	0x3e257185	0.16156586
66	0x3e23d9a2	0.16000989
67	0xbe4576cc	-0.19283599
68	0x3d22ddcb	0.0397623
69	0x3d3cfd8e	0.046140246
70	0xbe0471cd	-0.12934037
71	0xbcb4eeaf	-0.02208647
72	0x3cf952b7	0.03043495
73	0x3d9efbe2	0.077628866
74	0xbdf19fde	-0.1179807
75	0x3d481fc7	0.04885843
76	0xbe349511	-0.1763499
77	0xbec28646	-0.37993068
78	0x3d5428b6	0.051796637
79	0x3e11919e	0.14215705
80	0xbd3ee4a9	-0.046604786
81	0x3ddfe139	0.1093163
82	0x3dc8ee54	0.098110825
83	0xbc7eedfd	-0.0155596705
84	0x3a7c6bf0	0.0009629121
85	0xbe97c208	-0.29640222
86	0x3d9c3eb7	0.076291494
87	0xbe2cf980	-0.16892052
88	0xbe2ea2c7	-0.17054282
89	0x3deae32c	0.11469111
90	0xbd43013a	-0.04760859
91	0xbebaca64	-0.36482537
92	0x3da35ff5	0.07977287
93	0xbcafbc06	-0.021451961
94	0x3e0457b2	0.12924078
95	0xbe041054	-0.12896854
96	0xbd544150	-0.0518201
97	0x3e88e12e	0.26734298
98	0xbd913eb3	-0.07092037
99	0xbd21d42e	-0.03950899
100	0x3d609d8d	0.054837752
101	0x3e0e7fdc	0.13915962
102	0x3d8b5f13	0.06805243
103	0xbe08955f	-0.1333823
104	0xbe2abdd8	-0.16673982
105	0xbc771413	-0.01508047
106	0x3decb197	0.1155731
107	0x3d5dc96f	0.05414718
108	0xbe48dd41	-0.19615652
109	0xbe106b0e	-0.14103338
110	0xbe16132f	-0.14655755
111	0xbed09b08	-0.4074328
112	0xbe1f96b3	-0.15584831
113	0xbd6a6073	-0.057220887
114	0x3df006a1	0.11720014
115	0xbd8d8bb4	-0.06911412
116	0xbd8fe362	-0.07025792
117	0xbc9e8fde	-0.01935571
118	0xbe925826	-0.28582877
119	0xbca55fd8	-0.020187303
120	0xbdc607af	-0.09669434
121	0x3a03af77	0.00050234
122	0x3e012030	0.12609935
123	0x3d740e7b	0.059584122
124	0xbe5aca34	-0.21366197
125	0xbcb39c7e	-0.021925207
126	0x3dc396c8	0.095502436
127	0xbdcb46de	-0.09925626
128	0xbc3bc502	-0.011460545
129	0x3d4a8bf6	0.049449883
130	0xbd994cca	-0.074853495
131	0xbc24315b	-0.010021533
132	0x3d4c5419	0.04988489
133	0xbe7628b9	-0.24038972
134	0xbd00a5a0	-0.031407952
135	0xbc043c9e	-0.008071093
136	0xbe231822	-0.15927175
137	0x3dcf958a	0.10135944
138	0xbe4d09e5	-0.20023306
139	0xbdf21e98	-0.118222415
140	0xbd44279d	-0.04788934
141	0xbd945540	-0.07242823
142	0xbdd55301	-0.10416222
143	0x3e077c90	0.1323111
144	0xbe847edb	-0.25878033
145	0x3d76c5cf	0.06024724
146	0x3dc7170b	0.09721192
147	0xbe3babde	-0.18327281
148	0x3cb2c75d	0.02182358
149	0xbca6239b	-0.02028065
150	0xbe3cbbd9	-0.18431033
151	0x3cff6872	0.031177733
152	0xbd7ad309	-0.061236415
153	0xbdd866b6	-0.105664656
154	0xbcff2561	-0.031145753
155	0xbd2629c2	-0.040567167
156	0xbe0426c4	-0.12905413
157	0xbe11e9bb	-0.14249317
158	0xbceb6fc0	-0.02873981
159	0x3c29d4e6	0.0103657
160	0xbb38570a	-0.0028128051
161	0x3e01500a	0.12628189
162	0xbe15eb85	-0.14640625
163	0x3de26062	0.1105354
164	0x3df9d884	0.121995
165	0x3b90bd07	0.004417065
166	0x3d0c3644	0.03423144
167	0x3e4633ac	0.19355649
168	0x3d752f87	0.05985978
169	0xbe8d21c3	-0.2756482
170	0xbe2399d5	-0.15976651
171	0xbc88b269	-0.016686635
172	0x3e6f3337	0.2335938
173	0xbd9775b8	-0.073955
174	0xbe6c4a56	-0.23075232
175	0xbd0f52db	-0.034991127
176	0xbac56b86	-0.0015061952
177	0xbddaed2c	-0.10689768
178	0xbe92fee5	-0.28710094
179	0xbbba9b35	-0.0056947717
180	0x3b28d3c0	0.0025760978
181	0xbd8e0db0	-0.069362044
182	0xbe34c3cb	-0.17652814
183	0xbd4581e5	-0.04821958
184	0xbc8e488f	-0.017368583
185	0x3e434ed4	0.1907304
186	0x3d5c76f0	0.053824365
187	0x3c4e01d8	0.012573682
188	0xbc9dd9c0	-0.01926887
189	0xbd856c15	-0.06514756
190	0x3d491dfc	0.04910086
191	0x3e2fd76c	0.1717202
192	0xbe3e3c1f	-0.18577622
193	0xbbc0d70a	-0.0058850097
194	0x3e0cc3dd	0.13746591
195	0xbda61974	-0.081103235
196	0xbc4b440c	-0.01240636
197	0x3e34dd06	0.17662439
198	0xbca5d120	-0.02024132
199	0xbb728aa1	-0.0037008899
200	0xbf02ed02	-0.51142895
201	0x3d59ac8e	0.053143077
202	0x3eb5a4f7	0.3547742
203	0xbe0239b2	-0.12717322
204	0x3cfdff15	0.031005422
205	0xbdf2d7a9	-0.1185754
206	0xbe52c38e	-0.2058241
207	0x3debce0c	0.1151391
208	0x3c3dbcc5	0.011580651
209	0x3cd20943	0.025639182
210	0xbdafc283	-0.08582022
211	0x3d3f924b	0.046770375
212	0xbd6f1ff3	-0.05838008
213	0x3cb51fcd	0.02210989
214	0xbf0b2978	-0.5436015
215	0xbe96ddc4	-0.2946607
216	0xbe314205	-0.1731034
217	0xbe4b4072	-0.19848803
218	0x3d478897	0.048714247
219	0x3d5153af	0.051105198
220	0x3d007348	0.03135994
221	0xbddc6dd9	-0.10763139
222	0xbe02d878	-0.12777889
223	0xbd18dd6e	-0.037320547
224	0x3c0809cd	0.008303118
225	0xbe37317d	-0.17889972
226	0xbebd0a2e	-0.3692183
227	0xbc121090	-0.008915082
228	0xbd019459	-0.031635616
229	0xbe38b15f	-0.18036412
230	0xbeed5a53	-0.46357974
231	0xbe6f4932	-0.23367766
232	0x3e34a385	0.17640503
233	0xbd70ae47	-0.058759954
234	0xbb6f44ff	-0.003650963
235	0xbf00b3aa	-0.50274146
236	0xbcceb391	-0.025232108
237	0x3df8ff64	0.12158087
238	0x3dbde838	0.09272808
239	0xbe6995aa	-0.22810999
240	0xbe347d3d	-0.176259
241	0xbc53d6cd	-0.0129296305
242	0xbe09294d	-0.13394661
243	0xbda17aac	-0.07884726
244	0x3da2bf29	0.07946617
245	0x3e0711e1	0.13190414
246	0xbd831b10	-0.06401646
247	0x3d01ec97	0.03171977
248	0x3bd3041a	0.006439698
249	0xbeb5caea	-0.35506374
250	0xbdcec047	-0.10095268
251	0xbb422b96	-0.002962803
252	0xbcaf1f4a	-0.021377224
253	0x3bb816bc	0.0056179445
254	0xbcb0468f	-0.02151802
255	0xbe1316b7	-0.14364134

conv_net.C4.weight f4 [5, 128, 1, 1]
0	0x3dd3db54	0.10344568
1	0x3bf493db	0.007463915
2	0xbdfe90ea	-0.12429984
3	0x3d8011a0	0.06253362
4	0xbbe4d04d	-0.006982839
5	0x3cce5c8e	0.025190618
6	0xbc490f50	-0.012271717
7	0xbe05d487	-0.13069354
8	0xbbd51ba2	-0.006503538
9	0x3c4835df	0.012219875
10	0xbcb3980a	-0.021923084
11	0xbccf2052	-0.025283966
12	0xbc1ce55e	-0.00957617
13	0xbc1b965d	-0.009496299
14	0x3b6e13b3	0.003632766
15	0x3b036f4a	0.0020055347
16	0x87159a06	-1.1254778e-34
17	0x3cd1da23	0.025616711
18	0x3e86c293	0.26320323
19	0xbd7dbf49	-0.061950002
20	0x3bd42429	0.006474037
21	0xbc24ffd3	-0.010070759
22	0x3e41866b	0.18898933
23	0xbd597582	-0.05309058
24	0x3bb5f207	0.0055525335
25	0xbbea4310	-0.0071491078
26	0x3d5f6afc	0.054545388
27	0xbc4d1d5e	-0.012519209
28	0xbcdaacdb	-0.026693752
29	0xbb8c88ab	-0.004288753
30	0xbda2b508	-0.07944685
31	0x3c968fc8	0.018379107
32	0x3e3bed82	0.18352321
33	0x3eb7ce09	0.3589938
34	0xbce6c81f	-0.028171597
35	0x3b489129	0.00306041
36	0xbe101524	-0.14070565
37	0x3b0edd38	0.0021799337
38	0xbd00fc92	-0.03149087
39	0x3e48c5c2	0.19606689
40	0xbdcd1c63	-0.1001518
41	0x3e859023	0.2608653
42	0xbbf7f625	-0.0075671845
43	0x3d3e205d	0.046417583
44	0xbc8960cf	-0.016769795
45	0x3d0b4244	0.033998743
46	0x3c39a558	0.011330925
47	0x3a3d89eb	0.0007230329
48	0xbe629361	-0.22126533
49	0xbd5a559a	-0.053304292
50	0xbe04b3dd	-0.12959237
51	0xbe4a725f	-0.19770192
52	0x3baa92b4	0.0052054767
53	0x3d1dff7d	0.03857373
54	0x3cb8ee72	0.022574637
55	0x3d5814fb	0.052754384
56	0x3cf610d9	0.03003733
57	0xbca05506	-0.019571792
58	0x3b87dac6	0.004145953
59	0x3bb6ff02	0.0055845985
60	0x3c7ec89c	0.015550759
61	0xbd6a70ea	-0.05723659
62	0x3c0166ce	0.007898046
63	0x3d0b1e0d	0.033964206
64	0x97cb04a2	-1.3119737e-24
65	0xbda08eb6	-0.0783972
66	0x3d748bc4	0.059703603
67	0x3e17969a	0.14803544
68	0xbd97dba8	-0.07414943
69	0xbac34568	-0.0014898004
70	0x3d973d26	0.0738471
71	0x3c91ec8a	0.017812986
72	0x3d8e689c	0.069535464
73	0xbc8c5fcc	-0.017135523
74	0xbe8bfa6d	-0.27339497
75	0xbd0c53d0	-0.034259617
76	0xbd11b3d5	-0.03557189
77	0xbd2241bb	-0.039613467
78	0xbe84bd7d	-0.25925818
79	0x3a136457	0.0005622557
80	0x3bbbe990	0.00573463
81	0xbc2705cf	-0.010194256
82	0x3db64a60	0.08900905
83	0xbd03307a	-0.032028653
84	0xbc219e86	-0.009864455
85	0x3d086d45	0.033307333
86	0x3dae941c	0.08524343
87	0x3b3369c4	0.0027376274
88	0xbcd1bca5	-0.025602648
89	0xbe005216	-0.12531313
90	0x3d29a366	0.041415595
91	0xbde5f1b1	-0.112277396
92	0xbb1e0176	-0.0024109758
93	0x3b4614e6	0.0030224859
94	0x3cb29b99	0.02180271
95	0xba1a49c4	-0.0005885626
96	0x3e513cc1	0.20433332
97	0x3e2e3de9	0.17015804
98	0xbb4d35ed	-0.003131266
99	0x3defbf47	0.11706405
100	0xbc1cbcd2	-0.009566503
101	0xbe5d94c7	-0.21638785
102	0xbc395bf6	-0.011313429
103	0x3c2c44a4	0.010514412
104	0x3cd5c800	0.026096344
105	0x3cc00fe0	0.02344507
106	0x3c65d8f7	0.014028779
107	0x3d8553a3	0.06510093
108	0x3b0f1b35	0.0021836285
109	0xbd1f214a	-0.038850106
110	0xbd95d2c2	-0.073155895
111	0x3d39f41b	0.045398813
112	0xbd86312c	-0.065523475
113	0x3e09e085	0.13464554
114	0xbe516928	-0.2045027
115	0xbc9b7853	-0.018978273
116	0xba050a92	-0.00050751225
117	0xbd950e37	-0.07278102
118	0xbcb994c5	-0.022653947
119	0x3e054c80	0.13017464
120	0xbe1d54be	-0.15364358
121	0xb9888dff	-0.00026045737
122	0x3c2584c7	0.010102457
123	0x3e03dc68	0.12877047
124	0x3cd5f3b5	0.026117185
125	0x3d01dff9	0.031707738
126	0xbe7c6297	-0.24646984
127	0xbbf88cad	-0.0075851292
128	0x3d16d12a	0.03682057
129	0x3b401e3b	0.0029314894
130	0xbd320c53	-0.043468785
131	0xbed60808	-0.41803002
132	0xba72c1e1	-0.00092604576
133	0x3d22268d	0.039587546
134	0xbd2425db	-0.040075164
135	0xbe3271d6	-0.17426237
136	0xbc2945bb	-0.010331566
137	0xbe22cfca	-0.15899578
138	0xbd4dee07	-0.05027583
139	0xbe97ff1e	-0.29686826
140	0x3d9567df	0.072952025
141	0x3c81d153	0.015846884
142	0x3d428fa7	0.04750028
143	0xbe087a29	-0.1332785
144	0x874444a2	-1.476557e-34
145	0x3db3a9b8	0.08772606
146	0xbe93ace1	-0.28842834
147	0xbda7e7df	-0.08198523
148	0x3e0e8777	0.13918863
149	0xbca47274	-0.020074107
150	0xbe2be661	-0.16787101
151	0xbd395e30	-0.04525584
152	0x3c881e8b	0.016616127
153	0xbf4d027d	-0.8008192
154	0xbef77b76	-0.4833638
155	0xbe02bfe1	-0.12768508
156	0x3ca3e8f7	0.020008547
157	0x3defe15d	0.117129065
158	0x3de1d056	0.11026065
159	0xbe1912a3	-0.14948516
160	0xbdd78e46	-0.105251834
161	0xbe979af8	-0.2961042
162	0xbd8c319d	-0.068454005
163	0x3ce9e8ca	0.028553385
164	0x3d86aa11	0.06575406
165	0x3dd71520	0.10502076
166	0x3c115ce5	0.008872245
167	0xbd9333a9	-0.07187588
168	0xbd658f31	-0.05604476
169	0xbe245498	-0.16047895
170	0x3c482dc2	0.012217941
171	0xbde66505	-0.11249737
172	0x3c1a7199	0.009426498
173	0xbaf7d68b	-0.0018908543
174	0x3da3c94f	0.07997381
175	0x3de77ecf	0.11303484
176	0x3e40fa6f	0.18845533
177	0x3d4636e6	0.0483922
178	0xbd35c609	-0.044378314
179	0x3e92fb65	0.28707424
180	0x3d977897	0.073960476
181	0xbd0917ca	-0.033469953
182	0xbcc41f09	-0.02394058
183	0xbd8963ee	-0.06708513
184	0xbd7b87ef	-0.061408933
185	0x3c1ea268	0.009682275
186	0x3bf4ba88	0.0074685253
187	0xbc47ab2e	-0.0121868085
188	0xbe2cc9c2	-0.1687384
189	0xbe458257	-0.19288002
190	0xbba8369d	-0.0051334635
191	0xbdf81bf8	-0.121147096
192	0x97a149ae	-1.0422981e-24
193	0xbd56793e	-0.05236172
194	0xbe2a99d1	-0.16660239
195	0xbd3b4118	-0.045716375
196	0x3e0dbfe1	0.13842727
197	0xbcb1b642	-0.021693353
198	0xbdeb0ed1	-0.114774354
199	0xbdc452bf	-0.09586095
200	0x3e347dbd	0.1762609
201	0x3a907cf5	0.0011023568
202	0x3e437334	0.19086915
203	0xbbda0221	-0.006653086
204	0xbc085de1	-0.008323164
205	0xbd0728fd	-0.032998074
206	0x3e1d0ce2	0.15336946
207	0x3c7156d4	0.014730174
208	0x3c8c597a	0.01713251
209	0xbd0e2658	-0.034704536
210	0x3e40d73d	0.18832107
211	0xbd6be67c	-0.057592854
212	0x3c79466d	0.015214545
213	0xbd1eecc5	-0.03880002
214	0xbdab536e	-0.08365522
215	0xbbeafd80	-0.007171333
216	0x3cca7f6a	0.024718959
217	0xbd1aac01	-0.037761692
218	0xbd411ab4	-0.047144607
219	0xbbe8c5b0	-0.0071036443
220	0xba986bb2	-0.0011628775
221	0xbc1e451d	-0.009660033
222	0xbd4872a2	-0.048937447
223	0xbbe67c7b	-0.007033882
224	0x3c571f06	0.013129955
225	0xbe482707	-0.19546138
226	0x3c1626bb	0.0091645075
227	0x3d3effee	0.046630792
228	0x3ba94263	0.0051653846
229	0x3e7fc04e	0.24975702
230	0xbd6ce422	-0.057834752
231	0x3c835a23	0.016034191
232	0x3dd40ed3	0.1035439
233	0x3d87e7ef	0.06636035
234	0xbde0f704	-0.109846145
235	0xbe7b9182	-0.24567226
236	0x3cee3737	0.029079063
237	0xbe04cf4b	-0.12969701
238	0x3c6002fa	0.013672585
239	0xbd6156e2	-0.0550145
240	0x3d9bb1e1	0.07602287
241	0x3dd3b9a0	0.103381395
242	0x3e5beace	0.2147629
243	0x3da1a7e4	0.07893351
244	0xbe77bd15	-0.24193223
245	0xbd525687	-0.05135205
246	0xbbf337f0	-0.0074224398
247	0xbd7f44b1	-0.06232137
248	0x3acdc5ac	0.001569917
249	0x3c9f366c	0.01943513
250	0x3e1bcd16	0.15214953
251	0x3ddc517e	0.10757731
252	0x3e03a894	0.12857276
253	0xbbe33a32	-0.0069344277
254	0x3e198898	0.14993513
255	0x3ba9a7ac	0.0051774587
