CNN_weights/NetworkB_weights_CNNopt.pt (torch, 46815 bytes, 4 tensors)

conv_net.C1.weight f4 [32, 12, 1, 1]
0	0x3d887953	0.06663766
1	0x3e12e29c	0.14344257
2	0x3d1cfa35	0.038324554
3	0x3e07a0e2	0.13244966
4	0x3dd9044c	0.10596523
5	0x3e8fa4d2	0.28055435
6	0xbe0b4ad5	-0.13602765
7	0xbf28f51c	-0.6599901
8	0xbe8d02a6	-0.27541083
9	0x3e2054fe	0.15657422
10	0xbe3eb4d6	-0.18623671
11	0xbf18cb6d	-0.59685403
12	0xbd4eabb1	-0.050456706
13	0xbf0e3494	-0.5554898
14	0xbe4e5c1a	-0.20152321
15	0x3e4915b5	0.19637187
16	0xbe0f09c1	-0.13968565
17	0x3e96c929	0.29450348
18	0x3d4105a0	0.047124505
19	0x3e08bb95	0.13352807
20	0x3dcf7f07	0.101316504
21	0x3ef398c5	0.4757749
22	0x3e0dfd3d	0.13866134
23	0xbd211306	-0.039324783
24	0xbbd5a3f3	-0.0065197884
25	0x3ca67c3f	0.020322917
26	0xbb9b6077	-0.004741724
27	0xbd9a32c2	-0.075292125
28	0x3d0b8a99	0.034067724
29	0xbda7ee83	-0.081997894
30	0x3dcae787	0.099074416
31	0xbe3f057c	-0.18654436
32	0xbe70d8d7	-0.23520218
33	0xbd003c45	-0.031307478
34	0xbdbd8a65	-0.09254912
35	0x3f3706ad	0.7149456
36	0xbdd679f5	-0.1047248
37	0x3e2409dc	0.16019386
38	0xbdf55fc0	-0.119811535
39	0x3cfa265a	0.030535866
40	0xbe5a9b1c	-0.21348232
41	0xbdf57c09	-0.119865485
42	0xbe044dbb	-0.12920277
43	0x3dfb3285	0.12265495
44	0x3e52321e	0.2052693
45	0x3ee9706c	0.45593584
46	0x3cb59f41	0.022170665
47	0xbe8df1a4	-0.2772342
48	0xbda11356	-0.07865016
49	0xbdb045ec	-0.086070865
50	0x3d6b586c	0.057457373
51	0xbdb3e78c	-0.087843984
52	0xbabca9f6	-0.0014393914
53	0xbdbc8ba3	-0.09206321
54	0x3d4df5ea	0.05028335
55	0xbf8df795	-1.1091181
56	0x3ecf5e03	0.40501413
57	0xbe85dad7	-0.26143524
58	0x3d677192	0.056504793
59	0x3bf743b8	0.0075459145
60	0xbd51f895	-0.051262457
61	0xb976bd2d	-0.00023530862
62	0xbd4e1eb3	-0.050322246
63	0xbd813da2	-0.06310584
64	0xbd169b7c	-0.036769375
65	0xbd81b10f	-0.06332599
66	0xbde89aa5	-0.11357621
67	0xbfb30bd2	-1.3987982
68	0xbe94705c	-0.28991973
69	0x3e57db3b	0.21079724
70	0x3c90ce7c	0.017676584
71	0x3eb35a3a	0.35029775
72	0xbe29495a	-0.16531888
73	0xbc8055c1	-0.01566589
74	0x3d2d0cd3	0.04224856
75	0x3ea7f8e1	0.32807067
76	0xbdda5f9d	-0.10662768
77	0x3e9698d8	0.29413486
78	0xbe7d33ee	-0.24726841
79	0x3ea06aab	0.3133138
80	0xbde096ce	-0.10966264
81	0xbd4efde9	-0.050535116
82	0x3d380b15	0.044932444
83	0x3e99491a	0.29938585
84	0x3dd6c46c	0.10486683
85	0x3d6850d0	0.056717694
86	0xbe555a78	-0.20835292
87	0x3e2c353d	0.16817184
88	0xbd6660aa	-0.05624453
89	0x3c3e6d09	0.011622676
90	0xbe193bae	-0.14964172
91	0x3e88e801	0.26739505
92	0xbe34f0c1	-0.17669965
93	0x3ec84d94	0.39121687
94	0xbdcd74d4	-0.10032049
95	0x3d16468b	0.03668837
96	0x3b78c599	0.0037959574
97	0xbf93fbae	-1.1561182
98	0xbf111946	-0.5667919
99	0xbdc0a66d	-0.09406743
100	0xbbbeda6b	-0.0058243773
101	0xbdffb01e	-0.124847636
102	0xbe2ed72d	-0.1707427
103	0x3c9367f1	0.017993899
104	0xbc21e061	-0.009880156
105	0xbe7c78ca	-0.24655452
106	0xbe1eba56	-0.15500769
107	0x3d7d3655	0.061819393
108	0xbc9125aa	-0.017718155
109	0x3cbe00bc	0.02319371
110	0xbc9167ac	-0.01774963
111	0xbb03c83b	-0.002010836
112	0xbc2f970f	-0.0107171675
113	0xbc36ce9e	-0.01115766
114	0x3d0fa303	0.03506757
115	0x3df4d90b	0.1195546
116	0x3d5d0471	0.053959314
117	0xbfc2bd4a	-1.5214016
118	0xbdd3cad4	-0.10341421
119	0xbea50e06	-0.32237262
120	0xbd4508df	-0.048104163
121	0x3d032e12	0.032026358
122	0xbdafb8da	-0.085801795
123	0xbe1fcd84	-0.15605742
124	0x3c29d132	0.010364817
125	0xbdfe16d4	-0.12406698
126	0xbe11dfec	-0.14245576
127	0xbe5ef3d5	-0.21772702
128	0x39e4592e	0.00043553993
129	0xbeefec8f	-0.46860167
130	0xbd23afa9	-0.039962444
131	0x3f44ea56	0.7692007
132	0xbe704e8d	-0.23467465
133	0x3dd7cbc2	0.105369106
134	0xbd3012a3	-0.042986523
135	0x3e2ad583	0.16683011
136	0x3d0ee7c8	0.034889013
137	0x3ec8bb04	0.39205182
138	0x3b33c0a9	0.0027428067
139	0x3ea35286	0.31898898
140	0xbc93336d	-0.017968858
141	0x3efb1ebc	0.49046886
142	0xbcf2fe4d	-0.029662276
143	0xbf724467	-0.94635624
144	0x3e0aa3df	0.13539074
145	0xbd6666ee	-0.056250505
146	0xbd9a3912	-0.075304165
147	0x3e401eea	0.18761793
148	0xbd60523f	-0.054765936
149	0x3d1f1b2b	0.03884427
150	0xbda953b7	-0.082679205
151	0xbf86bdf4	-1.0526719
152	0xbe5c5a08	-0.21518719
153	0xbf186b4a	-0.5953871
154	0x3e13faf5	0.14451201
155	0xbe9db14a	-0.30799323
156	0x3a888e11	0.0010418316
157	0x3d29a294	0.041414812
158	0xbc0c3af1	-0.008558975
159	0x3cd3a341	0.025834681
160	0x3ccb3e4e	0.024809983
161	0xbfcc119e	-1.5942876
162	0xbea4c9e9	-0.32185295
163	0x3d9683d7	0.07349365
164	0x3d1c882d	0.038215805
165	0xbdc3f022	-0.09567286
166	0x3ccded29	0.0251375
167	0xbe7fdc0d	-0.24986286
168	0x3dcbb29b	0.09946176
169	0xbd8636df	-0.065534346
170	0xbda00b61	-0.0781467
171	0xbe895a8b	-0.2682689
172	0xbe011fe8	-0.12609828
173	0xbf654862	-0.8956357
174	0x3eee55e8	0.46549916
175	0xbe6054e7	-0.21907388
176	0x3e08d480	0.13362312
177	0xbc88609c	-0.01664763
178	0x3c6531fe	0.01398897
179	0x3dbe0012	0.09277357
180	0x3cc0db1c	0.02354198
181	0x3d912881	0.07087804
182	0xbd2c311f	-0.042039033
183	0xbf95997d	-1.1687466
184	0xbe3d8a43	-0.18509774
185	0x3d938e5a	0.07204886
186	0x3e03abc4	0.12858492
187	0x3ea0d348	0.31411195
188	0x3cfcab5f	0.030843435
189	0xbdc9db5b	-0.09856292
190	0x3dd39648	0.10331398
191	0x3c87e2ec	0.016587697
192	0xbe1d9632	-0.15389326
193	0xbe482acf	-0.1954758
194	0x3db86d50	0.09005225
195	0x3dd76ff1	0.10519398
196	0x3e67d1d0	0.22638631
197	0xbf3df83d	-0.74206907
198	0xbe4ac205	-0.19800575
199	0xbd0421b2	-0.032258697
200	0xbe01dfe5	-0.12683065
201	0x3d9e8b14	0.07741371
202	0xbde9a1cc	-0.114078134
203	0xbece6533	-0.40311584
204	0xbc17172d	-0.009221834
205	0xbfd94cfa	-1.6976616
206	0x3cd348cd	0.02579155
207	0xbd39e38d	-0.045383025
208	0x3d6364fe	0.055516236
209	0xbdb7569b	-0.089520656
210	0xbdb552fc	-0.08853719
211	0x3d1c74ac	0.038197204
212	0xbd8a7bad	-0.067618705
213	0xbdc4ce32	-0.09609641
214	0xbd3de08c	-0.046356723
215	0x3e2e1b98	0.17002714
216	0x3dfad5a5	0.12247781
217	0x3d4b3f11	0.04962069
218	0xbcd7249a	-0.02626257
219	0x3d09cd6b	0.033643167
220	0xbe2cb007	-0.16864024
221	0xbde3d797	-0.11125105
222	0xbdc03f25	-0.09387044
223	0x3dba8c55	0.091087975
224	0xbe3ebefc	-0.18627542
225	0xbec12f6d	-0.37731495
226	0xbe90a4b1	-0.2825065
227	0xbe9ac402	-0.30227667
228	0x3d80a894	0.06282154
229	0xbd70b371	-0.05876488
230	0xbd7b31be	-0.061326735
231	0xbf4069ca	-0.7516142
232	0xbe9a5f3e	-0.3015079
233	0x3e9502d3	0.29103717
234	0xbe3bf74a	-0.18356052
235	0xbea755e4	-0.32682717
236	0xbe705451	-0.23469664
237	0x3c06eb58	0.008234821
238	0xbe43f061	-0.19134666
239	0x3ea8116d	0.32825795
240	0x3c45d441	0.012074531
241	0x3e827fd6	0.25488156
242	0xbd6178d8	-0.055046886
243	0x3e86ec90	0.26352358
244	0xbcb0d458	-0.021585628
245	0x3e23a0a9	0.15979256
246	0x3e58d1f6	0.21173844
247	0xbd86fc0c	-0.06591043
248	0xbe161115	-0.14654954
249	0x3e8a7c36	0.2704789
250	0x3d24d23e	0.040239565
251	0xbea52913	-0.322579
252	0x3f05d7fe	0.522827
253	0xbf6029e0	-0.87563896
254	0x3dc4b52f	0.096048705
255	0x3db91e09	0.09038932

conv_net.C2.weight f4 [64, 32, 1, 1]
0	0x3e0d1b34	0.13779908
1	0x3c010748	0.007875271
2	0x3d58bdb3	0.052915286
3	0xbeb9177a	-0.36150724
4	0x3db1e678	0.086865366
5	0x3f13387e	0.57508075
6	0xbe07ffba	-0.13281146
7	0xbdd18197	-0.102297954
8	0xbb810fbf	-0.0039386447
9	0x3de92470	0.11383903
10	0xbe9d8c9b	-0.30771336
11	0x3ca5f8bf	0.020260213
12	0xbdb05296	-0.08609502
13	0xbce3c628	-0.02780445
14	0x3e07fb7e	0.1327953
15	0xbe11f3c9	-0.14253153
16	0x3e221449	0.1582805
17	0xbe4c6a87	-0.19962512
18	0xbd383ca3	-0.044979703
19	0x3c90565d	0.017619306
20	0x3eba8888	0.3643229
21	0x3d92b6ea	0.07163794
22	0x3db8e2b0	0.09027612
23	0x3e660952	0.22464493
24	0xbe9d3817	-0.30706856
25	0x3d6bc61d	0.057561982
26	0xbd8ef36e	-0.06980024
27	0xbdf41089	-0.11917216
28	0x3dbe0916	0.09279077
29	0xbb7ddaa1	-0.003873505
30	0xbdb6cbd8	-0.08925599
31	0xbd9c29bc	-0.07625148
32	0xbdaae483	-0.083443664
33	0x3d91870e	0.07105838
34	0x3db0c4fd	0.086313225
35	0xbda300b9	-0.07959122
36	0xbdee60f3	-0.11639585
37	0xbc6ba472	-0.014382469
38	0xbd69d3ca	-0.057086743
39	0x3d2d2685	0.042273063
40	0xbe675e1b	-0.22594492
41	0xbe7da3f9	-0.24769582
42	0xbe0dbf9a	-0.13842621
43	0x3e63bc5a	0.22239819
44	0xbd2d59b0	-0.04232186
45	0xbe2a3d85	-0.1662503
46	0x3da55987	0.080737166
47	0xbec9625a	-0.3933285
48	0xbcdef641	-0.027217032
49	0xbeada861	-0.33917525
50	0xbd9c6671	-0.07636727
51	0x3d26e4ea	0.040745653
52	0xbe7da91a	-0.24771538
53	0xbe8d3f72	-0.27587467
54	0xbe283988	-0.16428196
55	0x3e0b2c01	0.13591005
56	0x3e8b81d6	0.27247494
57	0x3d7958e0	0.060875773
58	0x3e1e35a4	0.1545015
59	0xbdbe3559	-0.09287519
60	0xbe1d01a5	-0.15332659
61	0xbe18aa35	-0.14908679
62	0xbcd98ecb	-0.026557347
63	0xbe2e0ef4	-0.16997892
64	0xbdb81b0a	-0.08989532
65	0x3c84e564	0.016222663
66	0x3da7a96e	0.08186613
67	0x3d65dc07	0.056118038
68	0x3e14ed19	0.1454357
69	0xbe35b19c	-0.17743534
70	0x3e418228	0.18897307
71	0xbc91ccf1	-0.017797919
72	0xbcfb8196	-0.03070144
73	0x3e2efb05	0.17087944
74	0xbe264b52	-0.1623967
75	0xbe260757	-0.16213737
76	0x3d769233	0.06019802
77	0x3d16f0a4	0.036850587
78	0x3e8a6619	0.2703102
79	0x3d9f6091	0.077820905
80	0xbe8fe216	-0.28102177
81	0xbebcfee3	-0.36913213
82	0xbe2f4988	-0.17117894
83	0x3e6dab4e	0.23209879
84	0xbe6191ab	-0.22028224
85	0x3e93d864	0.2887603
86	0xbe1b7cb8	-0.15184295
87	0x3ea1b975	0.31586805
88	0x3d3ab83d	0.04558586
89	0xbd095575	-0.033528764
90	0x3e8159d0	0.25263834
91	0x3d28bd4d	0.041196156
92	0xbdb587f6	-0.08863823
93	0x3e1eab56	0.15495047
94	0xbea55694	-0.32292616
95	0xbe1c5240	-0.15265751
96	0xbda77702	-0.08176996
97	0xbe7dea5b	-0.24796431
98	0xbd87a528	-0.06623298
99	0xbe49d188	-0.19708836
100	0xbe14c693	-0.14528875
101	0x3e44a746	0.19204435
102	0xbdc8e3ec	-0.09809098
103	0xbee5fec4	-0.44920933
104	0xbec78750	-0.38970423
105	0xbe5d492f	-0.21609949
106	0x3e2f0c23	0.17094474
107	0x3da1db5c	0.079031676
108	0xbe4329e4	-0.19058949
109	0x3bb0b520	0.0053926855
110	0x3d236cfb	0.039898854
111	0x3eb7e442	0.35916334
112	0xbc83e09f	-0.016098319
113	0xbd9ad713	-0.075605534
114	0x3e4a3e9e	0.19750449
115	0x3e99e539	0.30057696
116	0xbddd5c6a	-0.10808642
117	0xbcfec982	-0.031101946
118	0xbc0d165f	-0.008611291
119	0x3e0d0e34	0.1377495
120	0x3e4064b5	0.18788417
121	0xbe0c1b6d	-0.13682337
122	0x3e8ad074	0.27112162
123	0x3d8e4327	0.06946402
124	0x3e152641	0.14565374
125	0x3e85209e	0.26001447
126	0xbe0bd9a7	-0.13657247
127	0x3e0b4489	0.13600363
128	0x3e54bc75	0.20775016
129	0x3e785659	0.24251689
130	0xbd60d3df	-0.054889556
131	0xbe0f9e60	-0.14025259
132	0xbe4ae7a9	-0.19814934
133	0x3ceb4425	0.028719017
134	0x3d08b656	0.033377014
135	0xbe4b5130	-0.1985519
136	0xbf32cdb0	-0.69845104
137	0x3ec77acf	0.38960883
138	0x3d825b7f	0.06365108
139	0x3ec1b6d1	0.3783479
140	0x3e1bb60d	0.15206166
141	0xbe31e2c7	-0.17371665
142	0xbeb60b4c	-0.35555494
143	0xbd1cc4cb	-0.038273614
144	0x3da36c00	0.07979584
145	0x3e43ae94	0.19109565
146	0xbcd0bfeb	-0.025482139
147	0xbdad8042	-0.08471729
148	0x3e1b4327	0.15162335
149	0x3dd1fced	0.1025332
150	0x3dbbc15b	0.09167739
151	0xbe230786	-0.15920839
152	0xbe7a2090	-0.24426484
153	0xbdb4a961	-0.08821369
154	0xbe013398	-0.12617338
155	0x3e03f7f2	0.12887552
156	0x3b9ffcc0	0.004882425
157	0xbd170e61	-0.036878947
158	0xbd86a031	-0.06573523
159	0x3e0fae9c	0.14031452
160	0xbd3002c9	-0.042971406
161	0xbdc50078	-0.0961923
162	0x3e0b4080	0.13598824
163	0x3e044201	0.12915803
164	0xbd8988c8	-0.06715542
165	0xbe8ba19d	-0.2727174
166	0x3d92ff54	0.07177606
167	0xbd18a407	-0.037265804
168	0x3e0a820f	0.13526176
169	0xbd061d41	-0.032742742
170	0x3db0018e	0.085940465
171	0xbed30e05	-0.41221634
172	0x3d5efdd8	0.054441303
173	0xbdf8d9f9	-0.1215095
174	0xbec674d5	-0.3876101
175	0x3da211b6	0.07913534
176	0xbda97fd4	-0.082763344
177	0x3e85668e	0.26054806
178	0x3d134aff	0.035960194
179	0xbe3efe46	-0.18651685
180	0xbe8b3d3b	-0.27195153
181	0xbe2a2bd4	-0.16618282
182	0x3dbb136a	0.09134562
183	0xbea92c9b	-0.33041844
184	0x3af155f8	0.0018412462
185	0x3e2bbf43	0.1677218
186	0x3c80c449	0.015718596
187	0x3a97cff2	0.0011582358
188	0x3e5ddf72	0.21667269
189	0x3cd4e074	0.025985934
190	0xbeaebfe7	-0.34130785
191	0xba017440	-0.0004938282
192	0xbdd74a7d	-0.105122544
193	0x3deb8a38	0.115009725
194	0x3d6d5000	0.057937622
195	0xbe30f360	-0.1728034
196	0x3e856093	0.26050243
197	0xbdf070b3	-0.11740246
198	0xbd1f0d49	-0.03883103
199	0xbe1b694e	-0.1517689
200	0xbd8ea1e3	-0.06964471
201	0x3dc21a0a	0.09477623
202	0x3ea4471b	0.320855
203	0xbd95c1e4	-0.07312372
204	0xbd547123	-0.051865708
205	0xbe9e5748	-0.30925965
206	0x3e8d32fa	0.27577955
207	0x3d969943	0.07353451
208	0xbe016466	-0.12635955
209	0xbd6a1eb2	-0.05715818
210	0x3cbc9daa	0.023024399
211	0xbd8a8b4f	-0.06764852
212	0xbdd04689	-0.101697035
213	0xbe5f26cf	-0.21792148
214	0x3e937642	0.2880116
215	0xbe8d3067	-0.2757599
216	0x3ca9e971	0.020741196
217	0xbbd2c5cc	-0.0064322706
218	0x3e9f5065	0.31116024
219	0xbe0c5bc8	-0.13706887
220	0xbae3c63f	-0.0017377808
221	0xbd13cf18	-0.036086172
222	0x3cd2fbbd	0.025754804
223	0xbce3c530	-0.027803987
224	0xbd1fc0a4	-0.039002076
225	0xbe84b43d	-0.2591876
226	0x3e32e49e	0.17470023
227	0xbeba3e6e	-0.36375755
228	0xbe544240	-0.20728397
229	0xbd973fde	-0.073852286
230	0xbe40a287	-0.18812
231	0x3e89492f	0.26813647
232	0x3d2205d5	0.039556343
233	0x3cda8985	0.026676903
234	0x3e3b14dc	0.18269676
235	0x3d2c4ae8	0.042063624
236	0xbd3d226e	-0.046175413
237	0x3eb25187	0.34827825
238	0x3d6838c1	0.05669475
239	0xbebea116	-0.37232274
240	0xbc85a529	-0.016314106
241	0x3da1f9a3	0.079089426
242	0x3db19b47	0.08672195
243	0xbecb2ce7	-0.39682695
244	0x3c8734ed	0.01650473
245	0x3e14891e	0.14505431
246	0x3d41717b	0.047227364
247	0x3cb9cf7c	0.022681944
248	0xbe0db9f0	-0.13840461
249	0x3e2bd9ae	0.16782257
250	0xbeb47119	-0.35242537
251	0x3e29d316	0.16584429
252	0x3e621c00	0.22080994
253	0xbdc4a5b9	-0.096019216
254	0xbe16bc76	-0.1472033
255	0x3e8f70ef	0.2801585

conv_net.C3.weight f4 [128, 64, 1, 1]
0	0xbe617ce1	-0.22020294
1	0xbd6bc19a	-0.05755768
2	0x3bec6dc3	0.007215233
3	0xbcf31efa	-0.029677857
4	0xbe2db02c	-0.16961735
5	0x3e4c03a0	0.19923258
6	0x3da16306	0.07880215
7	0xbd9efb2c	-0.07762751
8	0x3ca43318	0.020043895
9	0x3c8c7edc	0.017150335
10	0xbba179b7	-0.0049278396
11	0xbcbdb151	-0.02315584
12	0x3dee63e6	0.11640148
13	0xbee7c0b2	-0.45264202
14	0xbdacb9f7	-0.084339075
15	0xbe1e2761	-0.1544471
16	0x3d755257	0.05989298
17	0xbe1dee60	-0.15422964
18	0x3ccbeddd	0.024893695
19	0xbdeb5790	-0.114913106
20	0xbd597145	-0.053086538
21	0xbd8b5588	-0.06803423
22	0xbd823274	-0.063572794
23	0xbdf2db7d	-0.1185827
24	0x3bc0d3aa	0.0058846073
25	0xbd93d938	-0.072191656
26	0x3e413a2d	0.18869849
27	0x3ccce16e	0.025009837
28	0xbd08d786	-0.033408664
29	0xbe2b2ded	-0.16716738
30	0x3d38c364	0.045108214
31	0xbd2477a8	-0.040153176
32	0xbe82cd53	-0.25547275
33	0xbc20c383	-0.009812239
34	0x3e38ac31	0.18034436
35	0xbdb33616	-0.087505504
36	0xbd80cf76	-0.0628957
37	0xbd12a7b7	-0.035804477
38	0x3dbc63a9	0.09198696
39	0xbe004001	-0.12524416
40	0xbd1e1d9c	-0.038602456
41	0xba13e55a	-0.0005641781
42	0xbd160af9	-0.036631558
43	0xbd2a615e	-0.041596763
44	0xb8bc6dbd	-8.984979e-05
45	0xbe9e2de7	-0.30894396
46	0x3dd70340	0.10498667
47	0xbd678e7b	-0.056532364
48	0xbdf8d407	-0.12149816
49	0xbd8466ff	-0.064649574
50	0x3c80e04a	0.01573195
51	0xbcb55e37	-0.022139652
52	0x3d0dcfda	0.03462205
53	0x3e8a097d	0.26960364
54	0xbdd3a17c	-0.10333535
55	0xbe0508ed	-0.12991686
56	0x3d783f6f	0.06060737
57	0xbd926c1f	-0.07149529
58	0xbdb016e2	-0.085981146
59	0x3ca881f3	0.020569777
60	0x3cd56551	0.026049288
61	0xbdbe526a	-0.09293063
62	0x3dd8d268	0.10587007
63	0xbdfc9fa2	-0.12335135
64	0xbd2f5975	-0.042809922
65	0x3d8aaf62	0.06771733
66	0xbd72c033	-0.059265327
67	0xbcb13b37	-0.021634681
68	0xbcd1c95e	-0.025608715
69	0x3c9e64bd	0.019335145
70	0xbc85653e	-0.016283628
71	0xbdfde89b	-0.123978816
72	0x3cbbc6e6	0.02292199
73	0xbba51637	-0.0050380486
74	0xbd6beba5	-0.057597775
75	0xbb948b4d	-0.0045332075
76	0x3d80953f	0.062784664
77	0xbc71d474	-0.014760125
78	0x3c24add9	0.010051214
79	0x3dd49df3	0.10381689
80	0xbd48e539	-0.04904673
81	0x3c3447a6	0.01100341
82	0xbbf404af	-0.0074468474
83	0x3bb5d965	0.005549597
84	0x3d1dce67	0.03852692
85	0x399adc2f	0.00029537219
86	0x3c9f262c	0.019427381
87	0xbc8e4d23	-0.017370766
88	0xbe2fba88	-0.17161
89	0xbdabd5be	-0.083903775
90	0xbdd3483f	-0.10316514
91	0x3b0d3eb5	0.002155227
92	0x3dcb2f5b	0.09921142
93	0x3de27c61	0.1105888
94	0xbdab55a4	-0.08365944
95	0x3d4c9db6	0.049955092
96	0xbd02114c	-0.031754777
97	0x3d9e90bc	0.0774245
98	0xbc57b277	-0.013165108
99	0xbe2ba8b7	-0.16763578
100	0xbd6c5b9c	-0.057704553
101	0xbcabafb2	-0.020957801
102	0xbd358184	-0.04431297
103	0xbcebc47c	-0.028780214
104	0xbd032b6c	-0.032023832
105	0xbd829557	-0.063761406
106	0xbc89fe15	-0.016844789
107	0x3bec8880	0.0072184205
108	0xbde09c3c	-0.10967299
109	0x3b9a48e2	0.0047083953
110	0xbe137e70	-0.14403701
111	0xbc81e628	-0.015856817
112	0x3de44ab7	0.11147063
113	0x3b578c96	0.0032890192
114	0x3be8d0b6	0.0071049584
115	0x3976ca04	0.00023535645
116	0xbe0607c3	-0.13088898
117	0xbc479467	-0.012181378
118	0xbce4ccb1	-0.027929636
119	0xbddcce81	-0.10781575
120	0x3cdf68fc	0.02727174
121	0x3c3a32c2	0.011364641
122	0xbcd02eff	-0.025413034
123	0xbc9c8df4	-0.019110657
124	0xbe380fcc	-0.17974776
125	0x3d40b9ad	0.047052074
126	0xbcb11b04	-0.021619327
127	0x3b3dc1d6	0.0028954647
128	0xbc69e699	-0.01427617
129	0xbe6267b3	-0.2210987
130	0xbeb223a4	-0.34792817
131	0xbd520095	-0.051270086
132	0x3e7a8fdc	0.2446894
133	0xba1e125a	-0.0006029956
134	0x3cb04462	0.021516982
135	0x3b3bec91	0.002867494
136	0xbe22ff8b	-0.15917794
137	0xbd8457c7	-0.06462055
138	0xbdf6fb09	-0.120596
139	0xbdb83bc1	-0.08995772
140	0xbaf9959e	-0.0019041782
141	0xbdcaa385	-0.0989447
142	0x3db2c695	0.08729283
143	0xbe8675bc	-0.262617
144	0xbd2e318c	-0.04252772
145	0x3dc848aa	0.097794846
146	0x3c5cd66e	0.013478858
147	0xbd6ef7ac	-0.058341667
148	0xbdbbf773	-0.091780566
149	0xbde3f124	-0.11129978
150	0xbe4a59bd	-0.19760795
151	0xbd9679b3	-0.07347431
152	0xbd71ae43	-0.05900408
153	0xbea5042e	-0.3222975
154	0x3d5ccc3a	0.053905703
155	0x3bcfae52	0.0063379193
156	0x3d1c3e6d	0.03814547
157	0x3ba33dd3	0.0049817353
158	0xbd98729f	-0.07443737
159	0x3a02604c	0.0004973456
160	0xbe161747	-0.14657317
161	0x3d8bbe72	0.06823434
162	0xbdad5cab	-0.08464941
163	0x3cc86ff3	0.024467444
164	0xbda7546c	-0.08170399
165	0xbdb62bbe	-0.08895062
166	0x3d2c2f79	0.04203746
167	0xbcd85fba	-0.026412833
168	0x3df50cb0	0.119653106
169	0xbc4a744b	-0.012356828
170	0x3cb66297	0.022263808
171	0x3e2fc31f	0.17164277
172	0x3e0bd7f9	0.13656606
173	0xbc4baa08	-0.012430675
174	0xbd955ace	-0.0729271
175	0x3e499a82	0.19687846
176	0xbde3f72e	-0.1113113
177	0x3b70cd29	0.0036743379
178	0xbe76cae5	-0.24100836
179	0xbb7c28f2	-0.0038476554
180	0x3da392eb	0.07987007
181	0xbdfc3862	-0.12315442
182	0xbd968199	-0.073489375
183	0xbe16f3b9	-0.1474141
184	0x3db4fb98	0.0883705
185	0x9eb177eb	-1.8790201e-20
186	0xbc4d39c1	-0.012525977
187	0xbdaa5980	-0.08317852
188	0xbd545b78	-0.051845044
189	0x3cb71eec	0.022353612
190	0xbaa8f9fa	-0.0012891882
191	0x3d3cee84	0.046125904
192	0xbc60b249	-0.0137143815
193	0xbca0cfe9	-0.01963039
194	0xbd20dc04	-0.039272323
195	0xbd8b2204	-0.06793597
196	0xba165dff	-0.00057360524
197	0xbd6df48b	-0.058094542
198	0xbc7b278d	-0.015329254
199	0xbd81ff03	-0.06347468
200	0x3ceb2db1	0.02870831
201	0x3bdac9c1	0.006676883
202	0x3e6bebe8	0.2303921
203	0x3cb217bf	0.021739839
204	0x3de19181	0.11014081
205	0xbe127a3a	-0.14304438
206	0xbc9d5b08	-0.019208446
207	0x3d045d70	0.03231567
208	0xbe0af2de	-0.13569209
209	0x3d3d5d19	0.046231363
210	0xbc12f4b6	-0.008969476
211	0xbe18beb6	-0.149165
212	0xbb74c2c0	-0.0037347525
213	0xbce6bfaa	-0.028167564
214	0xbde494c0	-0.11161184
215	0xbd88c7ea	-0.066787556
216	0xbdf83c44	-0.1212087
217	0xbe035469	-0.12825169
218	0x3dead0b8	0.11465591
219	0xb8cdfa4e	-9.8217846e-05
220	0xbd469d9a	-0.048490144
221	0xbc0a3887	-0.008436329
222	0xbd76a3e0	-0.060214877
223	0xbe3154da	-0.17317525
224	0xbe2ce080	-0.16882515
225	0x3d807c96	0.06273763
226	0xbca692fb	-0.020333758
227	0x3d2e628f	0.04257446
228	0x3c19bca2	0.0093833525
229	0xbdfac763	-0.12245061
230	0xbe4f24cd	-0.20228882
231	0x3a8b5c2f	0.0010632331
232	0xbe70a8ce	-0.23501894
233	0xbd36f16e	-0.04466384
234	0x3b133788	0.002246352
235	0xbc28a42b	-0.010293047
236	0x3c302e8d	0.010753286
237	0xbce7c764	-0.028293319
238	0xba1ed8ee	-0.0006059547
239	0xbc017180	-0.007900596
240	0x3c80ef31	0.015739055
241	0xbb9530d6	-0.004552941
242	0x3c81e640	0.015856862
243	0x2fb33abe	3.260165e-10
244	0x3cebf208	0.028801933
245	0xbd300c9e	-0.042980783
246	0xbd7ac23b	-0.06122039
247	0xbe0a6ff9	-0.13519277
248	0xbc47c1fe	-0.012192247
249	0x3b166b0a	0.0022951984
250	0x3a3434e3	0.0006874336
251	0xbd14af0b	-0.036299746
252	0xbdaa74ce	-0.0832306
253	0xbaa4bac3	-0.0012567866
254	0xbdb5ee10	-0.088832974
255	0x3e041a84	0.1290074

conv_net.C4.weight f4 [5, 128, 1, 1]
0	0x3c52a157	0.012855849
1	0x3cd91321	0.02649838
2	0x3dca138d	0.0986701
3	0x3a9167fb	0.0011093611
4	0xbc5875b4	-0.013211656
5	0xb311a123	-3.3906996e-08
6	0x3da076ea	0.07835181
7	0xbdcf56ef	-0.10124003
8	0xbc3449a6	-0.011003887
9	0x3c11b1cc	0.008892488
10	0xbc776e89	-0.015102037
11	0xbdddebc3	-0.108359836
12	0xbe23264f	-0.15932582
13	0xbc2a226e	-0.010384185
14	0xbc012919	-0.007883334
15	0x3d805a7e	0.0626726
16	0x0a331ee5	8.624347e-33
17	0x3cc02ec9	0.023459809
18	0x2e97d99d	6.905341e-11
19	0x3db05863	0.086106084
20	0xbe3b04aa	-0.18263498
21	0x3e8f176b	0.27947554
22	0x3eb37a7b	0.35054383
23	0xbc0a14cd	-0.008427811
24	0x3ceb7f6f	0.028747289
25	0xbcd699db	-0.02619641
26	0xbd7d1524	-0.06178774
27	0xbd8f59b0	-0.069995284
28	0xbd0a7f01	-0.033812527
29	0xbd9fa08f	-0.07794296
30	0xbceb1af0	-0.028699368
31	0x3d153bb6	0.036433898
32	0x3b3849b5	0.0028120105
33	0x3eb48038	0.35254073
34	0xbd07dcfc	-0.03316973
35	0x3bc12855	0.0058947005
36	0xbe29c179	-0.1657771
37	0xbb900fcd	-0.004396415
38	0x3d17a6ec	0.037024423
39	0x3e25f1bf	0.162055
40	0x3b53f285	0.0032340598
41	0x3d1734b7	0.036915507
42	0xbd20f2c9	-0.039294038
43	0x3d1e50b6	0.03865119
44	0x3c5bd96d	0.013418538
45	0xbd1dc6d6	-0.038519703
46	0x3d0573ef	0.032581266
47	0x3bb0bfc8	0.005393956
48	0xbe2082f4	-0.15674955
49	0xbdd8feba	-0.1059546
50	0xbd134dc7	-0.035962846
51	0x3d32fda4	0.04369892
52	0x3d862e11	0.06551755
53	0x3cca518e	0.024697091
54	0xbb7dc8b9	-0.0038724376
55	0xbc4dcb31	-0.012560652
56	0x3c9d90f3	0.019234156
57	0xbdff23a0	-0.12457967
58	0x3b21bda8	0.0024679694
59	0x3c91e708	0.01781036
60	0x3da739a7	0.08165293
61	0xbcb8291c	-0.02248054
62	0x3c561ec0	0.013068855
63	0xbd328686	-0.043585323
64	0x0a112fef	6.990511e-33
65	0xbdb6bc33	-0.08922615
66	0x3b818978	0.003953155
67	0x3e387e07	0.18016826
68	0xbdf4bb14	-0.11949745
69	0x3cbbe8a0	0.022938073
70	0x3d222447	0.039585378
71	0x3c86081d	0.01636129
72	0x3c824217	0.015900655
73	0x3cff666a	0.031176765
74	0xbab6661d	-0.001391593
75	0xbbb6246e	-0.005558542
76	0x3c0ac0f7	0.008468858
77	0xbd288e4e	-0.041151337
78	0xbe22cb35	-0.1589783
79	0xbba45ccb	-0.0050159446
80	0xbbe01955	-0.0068389573
81	0x3cf4c304	0.029878147
82	0xbb642207	-0.003481032
83	0xbc9c568a	-0.019084234
84	0xbaa90fb2	-0.0012898354
85	0x3c1c3d9e	0.009536175
86	0x3e6dc09e	0.23218009
87	0xb9ebc9f1	-0.0004497315
88	0xbc889dcf	-0.016676812
89	0xbbbc0d68	-0.005738903
90	0xbbb64dd7	-0.0055634785
91	0xbe3b2a58	-0.18277872
92	0xbb8130e1	-0.0039425944
93	0x3b79b34e	0.0038101259
94	0xbc9178ea	-0.017757852
95	0x3ced0554	0.028933205
96	0x3c2ad2d6	0.010426244
97	0xbc87e5e4	-0.016589113
98	0xbd29cf3c	-0.0414574
99	0xbc4d103a	-0.012516076
100	0xbccb63a5	-0.024827788
101	0xbe0e5f49	-0.13903536
102	0xbce496e5	-0.027903983
103	0xb9ef8ed8	-0.0004569206
104	0x3d5fac9f	0.054607984
105	0x3cf08b37	0.029363258
106	0x3cde9deb	0.02717491
107	0x3c94632b	0.018113693
108	0x3ce6efe4	0.02819056
109	0xbe2152bf	-0.15754221
110	0xbdde238f	-0.10846626
111	0xbba4b3ae	-0.0050263023
112	0x3831d3af	4.2397234e-05
113	0x3e49d42d	0.19709845
114	0xbe7f255d	-0.24916597
115	0x3d952f50	0.07284415
116	0x3d3ba151	0.04580814
117	0xbdaf27c0	-0.085525036
118	0xbcead20a	-0.028664608
119	0xbdc0e7ec	-0.094192356
120	0xbd179929	-0.0370113
121	0x3cbbb211	0.022912057
122	0x3e093ed8	0.13402879
123	0x3d23ce2b	0.03999154
124	0x3d54650f	0.05185419
125	0x3de8fc07	0.113761954
126	0xbe5d3967	-0.21603929
127	0xbcd93bc6	-0.02651776
128	0x3cf4db93	0.029889857
129	0x3cab52ea	0.02091356
130	0xbe5d4737	-0.21609198
131	0xbe73cba5	-0.23808153
132	0x3c261afa	0.010138268
133	0x38576626	5.1355128e-05
134	0x3d7e21b0	0.062043846
135	0xbde875a5	-0.11350564
136	0xbc71fadf	-0.014769285
137	0xbdaa722a	-0.08322556
138	0xbcf75ac3	-0.030194646
139	0xbda5f2f2	-0.08102979
140	0x3dc07f06	0.09399228
141	0x3e0c7f3d	0.13720413
142	0xbca0a215	-0.019608537
143	0xbe06c4f6	-0.13161072
144	0x0a40d29a	9.2840735e-33
145	0x3dc0a23f	0.09405946
146	0xb4b52282	-3.3738985e-07
147	0x3c2c2001	0.010505677
148	0x3df2e08b	0.118592344
149	0xbe58a96a	-0.21158376
150	0xbe9e8e19	-0.30967787
151	0xbd19d232	-0.037553973
152	0x3cbfae6f	0.023398606
153	0x3da908ae	0.08253609
154	0xbcf691b1	-0.030098768
155	0xbcbb534f	-0.022866873
156	0x3bf05b31	0.0073350896
157	0x3e2e276e	0.17007229
158	0xbd55e96d	-0.052224565
159	0xbe1d810c	-0.15381259
160	0xbe82f4f3	-0.25577506
161	0xbea6a113	-0.32544765
162	0x3c920e20	0.017829001
163	0xbbb710b4	-0.005586708
164	0x3dc8cc0c	0.09804544
165	0x3d142d05	0.036175746
166	0xbdbb7bf6	-0.09154503
167	0xbd60821d	-0.054811586
168	0xbb9c1735	-0.0047635087
169	0x3d10abac	0.03531997
170	0xbba650a1	-0.0050755297
171	0xbe10f58f	-0.14156173
172	0xbac1e670	-0.0014793407
173	0xbc5556fb	-0.013021226
174	0x3d2bb91b	0.041924577
175	0x3e30367f	0.17208289
176	0x3e28ccdc	0.16484398
177	0x3e1481e2	0.14502671
178	0xbe06b62e	-0.13155434
179	0x3e059fff	0.13049315
180	0x3d64f524	0.055897847
181	0xbca0582f	-0.0195733
182	0x3d0dbcb5	0.034603793
183	0xbe07e819	-0.13272132
184	0xbb6f95bb	-0.0036557752
185	0x3cd69be9	0.02619739
186	0x3ccfe0ef	0.025375811
187	0xbb8e1c0a	-0.0043368386
188	0xbe1cea05	-0.15323646
189	0xbd5c63ab	-0.05380599
190	0x3ba0a706	0.0049027232
191	0xbcbacb8a	-0.022802133
192	0x09f1faad	5.8254374e-33
193	0xbd2a5740	-0.041587114
194	0x3bd21be1	0.006412015
195	0xbd84cdd9	-0.06484575
196	0x3e5aa26d	0.21351023
197	0xbe59cf32	-0.21270445
198	0xbd0e2fb9	-0.03471348
199	0x3c37629f	0.011192947
200	0x3cb87651	0.022517355
201	0x3d2eb4a2	0.042652734
202	0x3c8687b9	0.01642214
203	0xbbfa45f0	-0.0076377317
204	0x3d064bb1	0.03278703
205	0xbd557e1b	-0.052122217
206	0x3d1f3b53	0.038874935
207	0xbc80931f	-0.015695153
208	0xbc5d6f54	-0.013515312
209	0x3e8b5b92	0.272183
210	0x3dd438ec	0.103624195
211	0xbd0a8042	-0.033813722
212	0x39856942	0.0002544616
213	0x3bad75cc	0.0052935835
214	0xbe2bb912	-0.16769817
215	0xbb8291b6	-0.0039846553
216	0x3b861bf6	0.0040926887
217	0xbcd92e8c	-0.026511453
218	0xbc18e580	-0.009332061
219	0x3d9fa338	0.077948034
220	0xbb2b3ac7	-0.0026127563
221	0xbd38b0ff	-0.04509067
222	0xbd78b681	-0.060720924
223	0xbe43f4ca	-0.19136348
224	0x3de42c20	0.11141229
225	0xbd315f7a	-0.043303944
226	0xbd279377	-0.040912118
227	0xbb6e9fda	-0.0036411197
228	0xbd89230b	-0.06696137
229	0x3ded4eba	0.115872815
230	0xbd26b9fd	-0.040704716
231	0x3e0e2137	0.13879858
232	0x3d464f2b	0.048415344
233	0x3d616656	0.055029236
234	0xbdec7f6c	-0.11547741
235	0xbe45a10d	-0.19299717
236	0x3d2ece3e	0.042677157
237	0xbcb06ca8	-0.021536186
238	0x3ceb95ac	0.028757893
239	0xbccdce6a	-0.02512284
240	0x3c65730e	0.014004482
241	0xbd22a4eb	-0.03970806
242	0x3de0ad85	0.10970596
243	0x3e2d73a5	0.16938646
244	0xbe4714d6	-0.19441542
245	0xbd993aab	-0.07481893
246	0xbc09a451	-0.0084009925
247	0xbe4bca75	-0.1990145
248	0xbd2db946	-0.04241302
249	0x3e33ae06	0.17546853
250	0x3dcb9da2	0.099421754
251	0xbd7e7e0e	-0.062131934
252	0x3d4bfd3b	0.049802046
253	0xbd89934b	-0.06717547
254	0x3e0bb00a	0.13641372
255	0x3bb82314	0.005619416
