CNN_weights/NetworkA_weights_CV4.pt (torch, 394591 bytes, 4 tensors)

conv_net.C1.weight f4 [32, 17, 3, 3]
00000000: 6c11 9f3d 9583 02bc 2bb3 41ba 6acc 3c3d
00000010: 9400 66bd 41b2 0b3d 91eb a13c 30c2 483c
00000020: 05a6 a8bd b5c7 4c3d e021 943c 8385 023c
00000030: fdac 96bd 67e4 59be 5b53 a3bc c9de ac3d
00000040: fd1f e8bd aa34 aabd 2607 413d 710d 523d
00000050: e42d 82bb d027 013d 04b4 503e 3c9a f73d
00000060: 8cd2 243d 83ad b33d 1921 46bc 580e aebd
00000070: cc38 013e 1f76 a2bc f9c6 e93d 70fa 513d
00000080: 65ea 01bd ec4a a53d c856 d2ba 0917 d03d
00000090: e499 5abd c26c 233d bfb6 acbc 7643 b6bd
000000a0: a71f 6a3d d22d 823d cd56 0c3d fd31 2b3e
000000b0: 0fb7 a83d e480 2bbd 3896 c6bc deba 433c
000000c0: d531 55be 8e4e e8bc a85f 343e dea6 14bd
000000d0: 61b9 3d3d 6582 003e 534c 333d c0cf bcbd
000000e0: af01 c93c a1ca a23d 87f7 a13d 927b 813d
000000f0: ae61 063d bc7e a93d 61b0 ba3d 8f0b 113c
00000100: a282 dbbd 374b 273c a581 493c 8225 18bd
00000110: 8b31 7ebd 42ff 5f3d 901b 093e 5905 0e3e
00000120: 29bb 4b3c e0a8 debd bc7e edbc 6b3e d3bc
00000130: 5ca4 f23d 6ce7 d63c b2bb 41bd fb0b 033d
00000140: 18f2 533b 36a6 9abd 9275 56bd 8637 2bbd
00000150: 3848 8abc 1b43 3e3e 47be a13c da5b b1bd
00000160: f7e4 b6bc 00c3 81bd 21a2 8dbc 8061 9a3d
00000170: 1640 9fbd 74b4 3f3e 1be3 e1bd 5ddc 12be
00000180: beaf 7c3b 408f c3bd 8bf0 31bc e99f 8b3d
00000190: dc2d 3b3d 75ee 3c3d 71b4 55bd a43a bdbb
000001a0: 4ce9 33bd 6b2f 09bd 209a 1dbe e934 be3c
000001b0: 8466 203e a484 f33c 2016 34bd ff66 453e
000001c0: aebf c5bd 4fc1 b9bd 9173 323e d2e6 2b3c
000001d0: 2c0f b13d 7053 953c 9144 34bd c404 633c
000001e0: e933 a33c b6b3 b9bc 4204 893d e177 aa3b
000001f0: 7962 51bb dcc5 543d a20f 4fbd cdcf 3a3d
00000200: 6fcd 70bd c7e6 27be 21ce 423d 34b9 343e
00000210: baf5 22be 212e e4bd f538 5ebe 6155 cdbd
00000220: b0aa 243d 09c1 81ba d0ca 103d 2c9f c73d
00000230: f3de 533c eec7 853d 6117 a2bd 044a 7a3b
00000240: 6a91 a8bd 21d0 12be 6e53 20bd 6dd5 babc
00000250: 77aa acbe b4fe 3abe 1f31 c9bd 79b0 46be
00000260: 7206 a8bc 96f9 9c3e e823 f43e 66c8 5dbc
00000270: 32a0 d33e 6327 5a3f 3ac5 8b3e 0299 913e
00000280: 229e 983e b229 36bc 39fe 633d 7104 2f3d
00000290: d4ae 073c ad26 ed3b 7ee1 053e c05f 173c
000002a0: d0b9 9e3d c1ab 363c 7fbe 8dbb 642b 003d
000002b0: 425e 9c3d 46de 4fbd 451b 2e3e e74f e03d
000002c0: b1ed 923d e860 a23d 1fcf c4bc 6ada a03c
000002d0: f862 303d b0b3 9e3c 11fb 89ba 924c c53a
000002e0: 7441 9b3a 81ad 203c 92d6 b03d a0f0 8d3c
000002f0: 828e 763c 11ae 76bd 4ab3 d8bc 45d5 babd
00000300: 40c0 e23d eac0 213d f0de 1dbc f68f 5f3d
00000310: b89f 993d 0c67 85bd 0431 e6bc ceab 653d
00000320: 5c15 a4bc f140 503d 1b61 503d 42a9 54bd
00000330: 99d6 9e3c 8ca7 79bc e68f c0bb 3e4a f4bc
00000340: e4d6 5a3d 8038 ebbc b5e3 64bb 39de f6bc
00000350: 69ab 2f3b 5d4b 6a3c e645 b3bd ab9d c33d
00000360: dbaa c7bc 4a3c 1abd cabe 343d 2f91 813d
00000370: 60f9 54bd 2e4a 42bc 2c48 503b 5318 ddbb
00000380: df2f 283c a9c0 923c 26aa 1a3d 7a54 5fbd
00000390: 8b0e 4e3d 4d8c 923c 7c20 15bd 4af3 aaba
000003a0: a6aa 1f3d d53d 04bc 959f 593c 71d0 febb
000003b0: bbe3 883b 02f1 cdbc fd12 12ba deda 85bc
000003c0: be39 f03b 0ea3 343c dcd8 55bb b3a8 243d
000003d0: f9b4 0b3d 2a9a 383e c8c9 6d3d e4f2 70be
000003e0: 5f0c b23d 4976 b43b d538 683c 30c9 73bc
000003f0: 188e 6f3d f2ed 3f3d 3da9 473b 7611 f2bc
0.07766995 -0.007965942 -0.0007389064 0.046093382 -0.056152895 0.034105543 0.019765647 0.012253329
-0.08234791 0.049995143 0.01808256 0.007966402 -0.07357214 -0.21278535 -0.019937208 0.084409304
-0.11334226 -0.08310826 0.047125958 0.05128235 -0.0039727557 0.03153211 0.2038117 0.12089965
0.040239856 0.08773329 -0.012092852 -0.084988296 0.12619323 -0.019831715 0.11414904 0.051264226
-0.031717677 0.08070931 -0.0016047591 0.101606436 -0.053369418 0.03989864 -0.021083234 -0.08899586
0.057159092 0.06356396 0.034262467 0.16718288 0.08238041 -0.041870967 -0.024241552 0.011946408
-0.2081979 -0.02835777 0.17614615 -0.03629195 0.04631937 0.12549742 0.04377396 -0.09219313
0.024536936 0.07948805 0.0790854 0.06322397 0.032808 0.08276126 0.09115673 0.008852853
-0.107182756 0.010210804 0.012298976 -0.037145145 -0.062058967 0.054686792 0.1338942 0.13869227
0.012434759 -0.10872054 -0.028991096 -0.0257866 0.11847755 0.026233397 -0.04729814 0.031993847
0.0032340344 -0.075512335 -0.052358218 -0.041801 -0.01688014 0.18580286 0.019744052 -0.086600974
-0.022325976 -0.063360214 -0.017289223 0.07538128 -0.07775895 0.18721181 -0.11029645 -0.14341874
0.00385569 -0.09548807 -0.010860573 0.0681761 0.04569803 0.046125848 -0.052174035 -0.005774813
-0.04392366 -0.033492487 -0.15390825 0.023218589 0.15664107 0.029726334 -0.043966413 0.19277571
-0.096557006 -0.09070074 0.17426898 0.010492044 0.08645472 0.018228263 -0.044010703 0.013856117
0.019922214 -0.0226687 0.06690265 0.005202279 -0.0031949563 0.051946506 -0.050552018 0.04560833
-0.058789667 -0.16396628 0.04755986 0.17648774 -0.1591405 -0.11141611 -0.21701415 -0.1002605
0.040201843 -0.0009899448 0.035349667 0.097471565 0.012931573 0.06532274 -0.079146154 0.003819109
-0.082308605 -0.14337207 -0.039142065 -0.022806847 -0.33723804 -0.18261224 -0.09823822 -0.19403256
-0.020510886 0.3065917 0.47683644 -0.013536548 0.41333157 0.8521635 0.2729891 0.28437048
0.29808146 -0.011118339 0.055662367 0.042728845 0.008281428 0.0072372765 0.130743 0.009239137
0.07750285 0.011149348 -0.0043256874 0.03129138 0.07635166 -0.050749086 0.1700259 0.1095274
0.07174242 0.0792864 -0.024024544 0.019635398 0.043063134 0.019372791 -0.0010527094 0.0015052727
0.0011845068 0.009806992 0.08634676 0.017326653 0.015048625 -0.060224596 -0.02645268 -0.09122709
0.11071825 0.039490618 -0.009635672 0.05458065 0.07501167 -0.06513795 -0.028099544 0.05607205
-0.020029716 0.050843183 0.050873857 -0.05191923 0.019389438 -0.0152377 -0.005876529 -0.029820558
0.053427592 -0.028713465 -0.0034925763 -0.03013526 0.002680505 0.014300195 -0.087535664 0.09551557
-0.024373462 -0.037655152 0.044127263 0.0632652 -0.051995635 -0.011858506 0.00317813 -0.0067472844
0.01026532 0.017914133 0.037759922 -0.054523923 0.050306838 0.017889166 -0.036407933 -0.0013042476
0.038981102 -0.0080713825 0.013282676 -0.007776313 0.004177538 -0.025139336 -0.00055722875 -0.016339716
0.007331102 0.011025203 -0.003263048 0.040199947 0.034108136 0.18027559 0.05805376 -0.23530155
0.08693766 0.0055072648 0.014173706 -0.01487951 0.05848512 0.04685778 0.0030465864 -0.029549342

conv_net.C2.weight f4 [64, 32, 3, 3]
00000000: 13fb 10bd 27a0 83bc 3f61 333d 7e80 30bd
00000010: e69d 5abd 5855 d1bb 0365 6ebd 656c 603c
00000020: 07ce 4ebb 7ded 4cbd 6d6e a8bd ba26 7dbd
00000030: d9e0 7dbd 42a3 b3bd 25cb b3bd 2604 413d
00000040: 939e e6bc 0db8 2e3d 5522 85bd fc67 17bd
00000050: 9b67 c33d b606 42bd 8430 e73c 7997 fd3d
00000060: e191 0fbd 07d4 3f3d 10bd 5f3d 9561 183d
00000070: 8b04 f33c 5205 913d 18cd 443d 7a91 62bd
00000080: 3a3c b3bb ca94 d83d fd96 893d 0865 9a3d
00000090: 7bdb d9bc 872c 723d 2027 d63d fbfc e63c
000000a0: 385a 823d a4cc d03d 2178 c6bd 1a82 67bc
000000b0: aa6d 583d 9795 70bd 9825 353c 1ce1 893d
000000c0: 7114 24bd eb32 9d3b 173b 38bd adc0 e2bd
000000d0: 837e bebc ff65 f6bb a45d 4d3d 20bd 9c3c
000000e0: c2c5 a2bc 1adf 99bd 555f 343b d473 213d
000000f0: 538a acbd 4019 623d bb5f 0d3d ab8a 3cbd
00000100: 6c63 3e3c bef2 8aba f1f1 13bc 7446 32bd
00000110: 6d08 06be 1bc5 c9bc 0dcf a3bc 1610 9dbd
00000120: f33a 553d a9a2 a73d 6295 f8bd 4b71 823c
00000130: e988 6cbd f9cb 143d 2cb2 75bd 6502 1ebd
00000140: 5588 0a3c febf 5fbd 75f8 833b a6de 483d
00000150: f12c a7bc 28f3 813d 8ac3 1e3e be8f a23d
00000160: 475e 913d 2eaa 75bc dcdc bebc dc6e 1bbd
00000170: 9744 bfbd 40f8 82bd 6a19 8ebc 16ee 0abe
00000180: bd3c 883d c06a 9abc 5497 94bd 17c2 623d
00000190: 907e 1f3d 4b33 933d beb6 da3c 03ac 503d
000001a0: aaf5 c73d 355c 6b3c ac8b 623d c005 8cbc
000001b0: 1880 643d 708f 1cbd 2bc6 e83c bcc6 ea3d
000001c0: 01c0 123e 6af7 f7bd f5ee c03d dde0 813c
000001d0: cbec 243e 7759 59bd 53d2 be3c f347 233d
000001e0: 1b32 bdbd d4a2 d3bd d4c5 183d 65fd efbd
000001f0: 47e9 24be 2ced 84bd c3c1 75bd e18a 803c
00000200: c14f 2fbd e717 243d bf12 95bc fe5a d03b
00000210: 4dd8 f7bc ef50 4abd 7418 6ebd 7183 89bd
00000220: 9e52 113d a981 b8bc 8958 223e b986 e9bd
00000230: 81f6 c33a d8eb 8dbd c6cb 91bc 70f9 eb3d
00000240: 381c 9bbd fd62 5bbd dee9 99bc 3977 94bd
00000250: 4653 4cbc 7893 1b3c ed1c 3ebd 7397 cebb
00000260: 6e67 b93c 93c5 54bd 5736 5abc b7ca 9cbd
00000270: 748d acbc 9e20 8ebd 6f2b d5bd 780e b33d
00000280: 0085 743c 2cba bbbd b466 0cbd c48e f83c
00000290: 2c8b 93bd c780 aabc 77ba bebd bccb 3cbe
000002a0: 081b 01bd 5a61 59bd 90bc 28bc 7cc6 0abd
000002b0: 5a46 983d 0bf7 5a3d 5f92 c63d 8b0c c1bc
000002c0: ae35 1fbc 9a51 9abd 32a6 b83c e0e6 ddbd
000002d0: 30f1 17bd 757b 0dbe 0f9b 29bd 38fb c2bd
000002e0: ffc6 b7bd 9b4e 5b3c 436a ce3c e588 b3bb
000002f0: 65f8 0b3d be36 93bd 2dbf 6f3d b79a 583c
00000300: 3601 8fbd f9a6 123d df7e da3c b875 01be
00000310: a53f 66bd 45a7 9fbd d22b 90bc 6aca 81bd
00000320: c84e 4a3c c1b2 9f3c ca23 92bd e385 4cbd
00000330: c242 8b3c 303e 763d 0eb1 573d f06d 38be
00000340: 2741 59bd 99ce 123d a8d5 0dbe 3fe6 7fbd
00000350: 6435 40bd b367 7cbd b819 1e3d e80c b7bd
00000360: 152e e6bd 381c dc3c ebb7 89bb c6e8 813d
00000370: ee2b 4e3c 810b 83bd 1d53 8e3d e24b 9d3c
00000380: cf45 d33d 7b8a a53c 6f3b 643d 6e39 873d
00000390: b4e4 4fbc a93c 06bd f944 963d c160 69bc
000003a0: 008e 1c3d f929 a83d ca5a 093d 9a82 aabb
000003b0: 233d b9bd d88c 52bd 2272 073d 4a9c 4abd
000003c0: 4ce6 353d c42e bc3d ebb8 1e3d 49df 22bd
000003d0: fb79 34bd 0ad8 c73b ceca 88bd 853f 50bd
000003e0: afac 54bd df11 51bd c4e0 5ebc a5a7 a8bd
000003f0: 096a 68bd 2fd5 c63d 77cb 0bbc 293f 873d
-0.035395693 -0.016067578 0.043793913 -0.04309129 -0.05337324 -0.0063883476 -0.0582018 0.013697718
-0.0031555907 -0.050031174 -0.08224187 -0.06180451 -0.06198201 -0.08771373 -0.08778981 0.047123097
-0.028151786 0.042655993 -0.06500689 -0.0369644 0.095412455 -0.04736968 0.028221376 0.12382407
-0.03505123 0.046833064 0.054623663 0.037202436 0.029665252 0.07081093 0.048047155 -0.05531452
-0.005469826 0.10575254 0.06718252 0.075388014 -0.026593914 0.059124496 0.10456681 0.028196802
0.06364864 0.10195282 -0.096908815 -0.01413014 0.05283896 -0.05873641 0.011056326 0.06732389
-0.040058557 0.0047973297 -0.044978227 -0.11071906 -0.023253685 -0.007519483 0.05013813 0.01913315
-0.019869689 -0.07513256 0.0027522643 0.039417103 -0.08424821 0.05519986 0.034515124 -0.04603068
0.011620384 -0.0010600907 -0.009029851 -0.04352422 -0.13089152 -0.02463012 -0.01999619 -0.07669084
0.05205817 0.08185322 -0.121378675 0.015923163 -0.057747755 0.036327336 -0.05998437 -0.038576502
0.008455356 -0.054626457 0.004027421 0.04904046 -0.020407172 0.063452065 0.1550428 0.07937573
0.0709806 -0.014994187 -0.023298673 -0.03794752 -0.09339254 -0.06395006 -0.017346103 -0.13567385
0.0665221 -0.01884973 -0.07255426 0.05536088 0.03893906 0.07187518 0.026698466 0.050945293
0.097636536 0.014365246 0.055308983 -0.017092586 0.055786222 -0.03822273 0.028414806 0.11463687
0.14331056 -0.12107737 0.094205774 0.015854293 0.16105954 -0.053063836 0.02329365 0.039863538
-0.092380725 -0.103337914 0.03729804 -0.11718253 -0.16104613 -0.064905494 -0.05999924 0.015691223
-0.04280067 0.040061858 -0.018197415 0.0063585034 -0.030254507 -0.04939359 -0.05812879 -0.067145236
0.03547918 -0.022522764 0.15854086 -0.114026494 0.0014950783 -0.06929749 -0.017797362 0.11522186
-0.07573742 -0.0535612 -0.018788274 -0.072493024 -0.012471026 0.0094956085 -0.046414305 -0.0063046752
0.022632327 -0.051946234 -0.01331862 -0.07655852 -0.021063544 -0.06939815 -0.10408675 0.08742994
0.014924288 -0.09166369 -0.034277633 0.030341513 -0.07204279 -0.020813359 -0.09312909 -0.18437093
-0.03151992 -0.053071357 -0.010298863 -0.033880696 0.074352935 0.053458255 0.09695887 -0.023565551
-0.009717388 -0.075350955 0.022540186 -0.108350515 -0.03709525 -0.13816626 -0.04140764 -0.095205724
-0.08973502 0.01338544 0.025197154 -0.0054789656 0.034172434 -0.071881756 0.05853193 0.013220481
-0.06982653 0.03580377 0.026671825 -0.12642562 -0.05621304 -0.07795576 -0.01759902 -0.063374355
0.0123478845 0.019494416 -0.071357325 -0.04993237 0.016999606 0.0601179 0.052659087 -0.18010688
-0.05304065 0.035841558 -0.13851035 -0.06247544 -0.046925917 -0.061622333 0.038598746 -0.089380085
-0.11239258 0.026868924 -0.004202833 0.06343226 0.012583716 -0.063986786 0.06949446 0.019201223
0.10316049 0.020207634 0.055720743 0.06602751 -0.012688804 -0.032772694 0.07337374 -0.014244259
0.03822136 0.08211131 0.03353385 -0.005203557 -0.09044864 -0.05140385 0.03306783 -0.049465455
0.04440908 0.09188607 0.03875057 -0.039763723 -0.044061642 0.006098752 -0.06679307 -0.050841827
-0.051922496 -0.051042434 -0.013603393 -0.08235101 -0.056741748 0.0970863 -0.0085323965 0.06603844

conv_net.C3.weight f4 [128, 64, 3, 3]
00000000: dbdd 8cbd 55f5 e0bd 62a3 66bd ecfa 4d3c
00000010: c87c a03c 2b7f 053d 6602 8fbc 7c17 80bc
00000020: a979 0e3d 9830 11bc f814 193d da77 6fbd
00000030: 73d9 bfbb f62d 073d 6090 a3bd 716b f1bc
00000040: 09d6 ddbc e5c5 d5bc 3b3c 1abe af3d 76bd
00000050: 54b1 a63c ba00 adbd 8aad b6bc a47e a13d
00000060: 9e16 debd ff89 97bc 7470 40bd b0b1 cdbd
00000070: 5211 2e3c c303 033c 54eb fd3c 398c b23c
00000080: b757 053d 036c 4b3d 12ed 4abd 57b2 d13b
00000090: 8404 19bd 1c50 c63c 5ab8 06bd 330f 003d
000000a0: 7b48 063d 332e 18bd eba0 12bb c9d7 afbc
000000b0: c8be d2bc bf8a 39bd e491 69bc ea9b a23c
000000c0: c7c3 edbc f5b1 19bc bf9f 063d b331 f83a
000000d0: 8a44 bf3c 7dc3 2abd f990 7cbc 5af8 a4bd
000000e0: 734a 78bd 84b4 363d fa4b 9bbc ef08 6ebd
000000f0: 4047 713d 613d 68bc 6bbc a73c a19b 02be
00000100: 0d54 1abe 5776 33bd 89aa bbbc 5eb6 5ebd
00000110: c3d7 c4bd f226 a43b 8929 713b 7ee4 e6bc
00000120: 4659 d83b 0592 763d e4ef 17bd bd76 093d
00000130: 25c4 f73d 799a 5dbc 6bd8 e9ba 7883 34bd
00000140: d5c6 f73b 9f7f 323d 043f 873c 0916 b63d
00000150: e099 633b 44f6 99bc c34e 873c 882c a3bd
00000160: 91d0 e1bc 1fb6 4e3d 66d3 88bd 55a3 ae3d
00000170: bb88 7d3c 9802 533d 0e10 63bc 5125 aa3c
00000180: 86c0 ba3c 503e 613d 6228 b3bc d329 01bd
00000190: 88ed e53b 374f 34bc f863 6fbd 9992 8fbc
000001a0: 3794 583b c0ca e0bc 9bbf 313d 46f6 4f3d
000001b0: 6df2 ac3d b093 fabb 267a 6fbd 5696 88bb
000001c0: 4c13 27bd 68eb abbb dec4 293d 05e2 1fbd
000001d0: 2912 89bc b903 fbbc 26ba 52bc f41d 0fbd
000001e0: 870f 293d 9496 a53c f7df b3bb 30c9 45bc
000001f0: ba8b ec3c c139 a93d 7feb 30bd 45e6 87bd
00000200: 87e6 59bd 80a3 5dbb cfc3 953b 4715 0e3d
00000210: 4f4c 82bd 51f5 67bc bd5a 80bc e159 cbbd
00000220: c122 95bd 4291 a9bd 3d1e ff3c df1a 00bd
00000230: 2585 933c 2559 753b 04e6 14bd eaf9 a6bb
00000240: 1250 1bbc 0882 54bd 7005 b3bd 03bc 85bd
00000250: 1216 53bd 29d0 ed3d 204a 14bd 04f1 e7ba
00000260: 98a4 113d 4d7c c83b c005 a63c c7c4 3f3d
00000270: 3548 87bc a921 50bd 3be3 88bd 17d5 203d
00000280: cb6a 413b cc81 9cbc b717 d93d 941e 853a
00000290: 034d 333d bb44 1bb9 1e70 fcbd d4ab 8b3d
000002a0: c181 bdbd 5e6a 11be 3b87 8e3d b13c 463c
000002b0: 1f1d 67bd 4164 d4bd 6897 88bc da91 edbc
000002c0: 0746 32bd d992 92bd 5d22 0e3c e249 123d
000002d0: 26b9 53bd e5bf 39bd c070 00bd 9dec 9ebd
000002e0: 53ab 13bd 6ae0 20bc 9321 2d3d b04b 9dbc
000002f0: dfa1 e73c 977e dcbd d33c 46bd 3b5c 84bd
00000300: 93cb 90bb 4fbb a33d f27f 43bd 6e2f 6c3b
00000310: 83be 9c3d 6d14 7a3b fab9 e3bc 2740 3fbc
00000320: 1c8b 8c3d 0bc8 99ba 412c 85bd cf72 ca3b
00000330: 5dcd cebd 1a1c 833d 8d2f dabc 9e22 2cbd
00000340: 7baf 5fbd d4c0 a83a 2b56 04bd bcb3 ebbd
00000350: 7339 813c 6315 193d b0ba 76bd 2598 173d
00000360: ba73 063e aaf0 603d 97cf b93d b8ae bebd
00000370: 39ae 12be 12ee 2dbd d8b4 6ebd f6ea a3bd
00000380: 2451 21bd bc36 bb3d 69e3 9e3b 13b9 9b3c
00000390: b4de 0a3d c66e 3bbd 7e9c ffbc d3c5 f5bc
000003a0: 8c0b 63bc cfa3 4b3d ccdd d43b 99eb 9c3c
000003b0: 263a c53c 93e7 c8bc f769 b0bc cc6e 983b
000003c0: ccb1 74bd 81ba cbbc d399 353d 06f5 c7bc
000003d0: e027 e3bd 485a 2dbd 3055 95bd 65c6 44bd
000003e0: 280e c73c 633d 6fbd 160f 37bc 6c0c f2bc
000003f0: e0a1 cebd 636d 9abd 740e 6abd 3ddd 6ebd
-0.06878253 -0.10984293 -0.056308158 0.0125720315 0.01959075 0.03259198 -0.017457198 -0.015636198
0.034783993 -0.008861683 0.037373513 -0.05846391 -0.0058547794 0.033002816 -0.07986522 -0.029470177
-0.027079599 -0.02609534 -0.15062039 -0.06011742 0.020348229 -0.08447404 -0.022299547 0.07885483
-0.10844158 -0.018498419 -0.046982244 -0.10043657 0.010624247 0.007996502 0.030996002 0.021795379
0.032554355 0.049663555 -0.049542494 0.0063994336 -0.037357822 0.024208121 -0.032890655 0.031264495
0.032783967 -0.037153434 -0.0022373747 -0.021465199 -0.025725737 -0.045298334 -0.014255974 0.019849736
-0.029024018 -0.009380807 0.03286719 0.001893571 0.023348112 -0.04169034 -0.015415424 -0.08055182
-0.060617875 0.044605747 -0.018957127 -0.05811399 0.05890584 -0.01417479 0.020475587 -0.1275468
-0.15071125 -0.04381403 -0.022908466 -0.054373138 -0.09611466 0.0050095255 0.0036798439 -0.028185125
0.006602439 0.06019785 -0.037094012 0.033560503 0.120979585 -0.013525599 -0.0017840987 -0.04407069
0.0075615444 0.04357874 0.01650954 0.088909216 0.0034729168 -0.018794186 0.016517049 -0.07967478
-0.027565273 0.050466653 -0.06680946 0.08527247 0.015474494 0.051516145 -0.013858808 0.020769747
0.02279688 0.054991066 -0.021869842 -0.031534027 0.0070168413 -0.011005214 -0.058444947 -0.017525958
0.0033047327 -0.027440429 0.04339562 0.050771974 0.084446765 -0.0076470003 -0.0584661 -0.004168312
-0.040789887 -0.0052465685 0.041447513 -0.03903391 -0.016732292 -0.030641424 -0.012861764 -0.034940675
0.041274574 0.020213403 -0.005489345 -0.012071893 0.02887522 0.08262969 -0.043193337 -0.06635717
-0.053198364 -0.0033819377 0.0045704613 0.03468826 -0.06362211 -0.014157609 -0.015668267 -0.099292524
-0.072820194 -0.08279659 0.031142348 -0.031275626 0.018007824 0.0037437167 -0.036352172 -0.00509571
-0.0094795395 -0.05188182 -0.087412715 -0.06530001 -0.05153472 0.11611969 -0.036203504 -0.001769573
0.03555736 0.0061183334 0.020266414 0.04681852 -0.016513923 -0.05081335 -0.06683966 0.03926572
0.0029513116 -0.01910486 0.10600226 0.0010156208 0.043774616 -0.00014807556 -0.12326072 0.06819883
-0.09253264 -0.14200732 0.06959387 0.012099431 -0.056424256 -0.103706844 -0.016673759 -0.029000212
-0.043523815 -0.07156915 0.008675185 0.03571499 -0.051690243 -0.04534902 -0.031357527 -0.07759974
-0.03605206 -0.0098191295 0.042268347 -0.01920113 0.028275428 -0.107663326 -0.04839785 -0.06462904
-0.004418799 0.07994711 -0.04772944 0.0036039012 0.07653525 0.0038159147 -0.027798641 -0.01167301
0.068624705 -0.0011732591 -0.065025814 0.006178237 -0.10097764 0.06401844 -0.026634002 -0.0420252
-0.05461071 0.001287485 -0.03230874 -0.11508891 0.015774464 0.03737391 -0.060236633 0.03701033
0.13130084 0.054917015 0.09072798 -0.09310669 -0.14324273 -0.04246337 -0.058277935 -0.080037996
-0.039384022 0.09141299 0.0048488867 0.019009149 0.033903793 -0.04575994 -0.031202551 -0.030001557
-0.013857733 0.049716767 0.006496167 0.01915531 0.024075579 -0.024524486 -0.021534903 0.00465188
-0.059739873 -0.024869205 0.04433615 -0.024408828 -0.1109159 -0.042322427 -0.07291639 -0.048040766
0.024298742 -0.058408152 -0.01117303 -0.029546939 -0.10089469 -0.07540395 -0.05714269 -0.058316458

conv_net.C4.weight f4 [1, 128, 3, 3]
00000000: 3507 0dbc 68f1 68bd 4b6e 04bd 59b6 e4bb
00000010: 9959 95bd e152 11bd 9c41 44bc d782 0fbc
00000020: d4b1 52bc cfbd e93a 12c9 a1bb 2bc2 8dbd
00000030: 6639 233b 12b6 063c cd71 723c d37d c13b
00000040: 5196 1d3c 3fda c03b 3770 dabc f370 06bd
00000050: 1198 03bd 5881 5dbc 40db efbc 510c 77bd
00000060: 59ed 67bc 8332 b8bc 25ae 7dbd 1fd9 743c
00000070: 1ed0 fd3d dbb1 323e e7b5 893b 12cf 86bb
00000080: 5f00 1e3a 6735 9fbb dedf dc3a a8a7 e83a
00000090: 54e7 b8bc e406 8fbc 87cf de3c cf36 c1bc
000000a0: 8a44 d0bc e82a 473d 1b6d 11bc f86d c9bb
000000b0: 5891 3d3d 65db ecbb 44da 9c39 cf76 a7bb
000000c0: 4ac8 0bbd 473c aabc b059 33bc 4b42 113e
000000d0: 0cca 39bd 7324 9fbc f8d3 c53e 8ace b63b
000000e0: abb1 b33b 20d1 023d 439d 803c 98a1 4939
000000f0: a45c 2bb8 8433 243c 00b0 3c3b 8205 91bd
00000100: 406f 75bd 6766 a9bd 6afc 86bd cb75 6ebd
00000110: 2675 d2bd 6060 53bd 8dfb 46bd c064 62bd
00000120: 7929 e2bb d202 203d 653f 14bc 9698 953d
00000130: 19f9 ec3d d57e 29bd 868d d03b 463c 95bd
00000140: 7547 8cbd 8f85 84bc ba88 46bd 68cd fabc
00000150: 53ae 2abd 7713 c3bd 68f6 3dbd e26f dfbc
00000160: e4f7 78bd 8dc8 17bd 1eff a03c b4d6 c93d
00000170: ead2 d13d 1587 7d3b baf8 243d 33e8 083e
00000180: cd6e e33b f749 c73b befe 3e3d 276d 04bd
00000190: d3f6 0abd e730 a2b9 5d2f 09bc 892c 86bd
000001a0: 37e8 ca3b 32a1 ecbb c834 a6bd 56ac 523b
000001b0: 6983 943d 51f7 ba3d a245 8f3d b316 383d
000001c0: 2b37 ea3d 9de8 483d 273d a93c 67a6 393d
000001d0: f2d0 e53c dd4f 38bd 5296 85bd 70ca 85bd
000001e0: f721 88bd c99c 1abe c3d0 cdbd 6cb2 6c3b
000001f0: 6a30 3abd 043b abbd 769a 87bb 6063 2fbb
00000200: 06f5 223b 3b22 8dbc 1bfd adba 695d 68bb
00000210: 0bd0 52be d10d 84bc 1740 53bb 1453 2bbe
00000220: d476 5bbe b0e2 13be 1f74 41bd 4f58 33be
00000230: 783a 2cbe f0bb d2bc f5e4 92bc 157a dcbd
00000240: d05e 58bd 81f8 6bbc 63e8 543b d10f 98bd
00000250: aa2e c83d dd3e 9b3c 9650 0cbc 8ad6 813c
00000260: d93b 4c3c b94f abba ad37 733c 297a 643c
00000270: 2569 ae3e f40b dd3c 8ff2 9f3c 3016 84bb
00000280: e626 32bb 4f8d 1dbb 0525 f0bc 6a6f 9a3c
00000290: 80f7 893d 6ba6 27bd acef f53d 814a 65bd
000002a0: 947f 5bbc 0c7b 2b3b aaf9 42bc 6b57 febc
000002b0: cb19 10bd 63d4 3aba f93a 18bd b1af 51ba
000002c0: db41 2f3e 609b 9cbc 0096 b5bc 4206 e5b8
000002d0: 23bc 583b 41c0 a03c 48d7 f73a 8cb2 033d
000002e0: 0b42 993d 0811 d53d bff4 983c f423 5f3d
000002f0: ef9e e43d b622 873b 6d3f 00ba 8724 6a3a
00000300: 1f3f 593d 6ed3 8fbb 0a24 b4ba ecf1 7e3b
00000310: cd52 413a d17c b9b9 1ce7 c6bd d13f 8bbe
00000320: 697e 5bbe eb62 06bd d11f 27bd 95fb 84bc
00000330: af9f b8bc 6dd4 f33b 9f99 5bbc 0190 063d
00000340: 460f 3e3b 8043 43bc 27d8 3d3e eab9 c2bb
00000350: 201a f1bb a7af 043c 81b9 bcbb 33a0 83bb
00000360: f5ac 053d ba73 073d f222 863d fb17 603c
00000370: 87a6 893c 82ba d03e 3ed7 fb3b f832 9f3b
00000380: 90f0 7f3c be5e f03b 1407 5c3c 763f 433c
00000390: ec3b ce3b 573d 113d a7e0 793c 6d43 7a3b
000003a0: b1ad 1e3b be75 b53b 1c3e d63d 07c1 af3d
000003b0: e055 153d 2ae0 023e 9013 d03d 07a5 1e3d
000003c0: 7d9f d23d 20f6 733d 1403 073d 0cd7 f83d
000003d0: e27d d03d 3653 023e b1fc 623e cd1c 203e
000003e0: 3fc3 1e3e 3b9d 443d d435 a7bb 87ce de3c
000003f0: 1ea5 abbc b841 28bd 610c 37bc cdf9 4c3d
-0.008607675 -0.056870848 -0.032331746 -0.0069797453 -0.0729248 -0.03547943 -0.011978533 -0.008759222
-0.01285978 0.0017833057 -0.0049372995 -0.069218 0.0024906038 0.00822212 0.01479764 0.005904892
0.009618358 0.005885392 -0.026664836 -0.03282256 -0.032127444 -0.0135196075 -0.029279351 -0.06031448
-0.014155709 -0.022485023 -0.061933655 0.014944344 0.12393211 0.17450659 0.0042025927 -0.00411404
0.0006027277 -0.004858661 0.0016851386 0.0017750161 -0.022571243 -0.01745934 0.027198566 -0.023585705
-0.025423307 0.048624903 -0.00887611 -0.0061471425 0.04628119 -0.0072283023 0.0002991726 -0.0051105986
-0.034126557 -0.020780696 -0.010946676 0.14185445 -0.045358703 -0.01942656 0.38638282 0.0055788206
0.005483826 0.03193772 0.015699988 0.00019229052 -4.0855855e-05 0.010022048 0.0028791428 -0.07081129
-0.05992055 -0.08271485 -0.06591113 -0.058217805 -0.102762505 -0.051605582 -0.04857974 -0.055271864
-0.0069019166 0.03906519 -0.009048318 0.07304494 0.11570949 -0.041380722 0.006364527 -0.07286887
-0.06849567 -0.016176967 -0.048470236 -0.030615523 -0.041670155 -0.09525197 -0.04637757 -0.02727503
-0.060783282 -0.037056495 0.0196529 0.098554045 0.10245307 0.0038685251 0.040276267 0.13369827
0.0069406987 0.0060818153 0.04662966 -0.03233066 -0.033926796 -0.00030935483 -0.008373109 -0.06551463
0.006192233 -0.0072213644 -0.08115536 0.0032146177 0.07251627 0.09129203 0.06995703 0.044943523
0.11436304 0.049049962 0.020659043 0.04532471 0.028053734 -0.04499804 -0.06522812 -0.065327525
-0.06647103 -0.15098871 -0.10049584 0.003611709 -0.045456327 -0.08360866 -0.004138286 -0.0026762113
0.0024865284 -0.017228236 -0.0013274284 -0.0035456067 -0.20587175 -0.01611987 -0.0032234245 -0.1673091
-0.21432048 -0.14441943 -0.047229882 -0.17514156 -0.16819179 -0.025724381 -0.01793144 -0.10765473
-0.052824795 -0.01440251 0.0032487146 -0.07424892 0.097745255 0.018950874 -0.008564135 0.01584937
0.012465441 -0.0013070024 0.014844817 0.013945141 0.34064594 0.026983239 0.01952484 -0.0040309653
-0.002718383 -0.0024040525 -0.029314527 0.018851954 0.0673666 -0.040930193 0.120086044 -0.055979256
-0.013397116 0.002616587 -0.011900345 -0.031047544 -0.035180848 -0.0007126985 -0.037165616 -0.00079988973
0.17114966 -0.019117057 -0.022166252 -0.000109207365 0.0033071123 0.019622924 0.0018908763 0.032152697
0.074833 0.10403639 0.018671392 0.054477647 0.11163127 0.004124011 -0.00048922637 0.00089318346
0.053038713 -0.004389218 -0.0013743651 0.003890152 0.0007374704 -0.00035378945 -0.09712049 -0.27197126
-0.2143494 -0.03280918 -0.040801827 -0.016233245 -0.02253708 0.0074410946 -0.013403325 0.032852177
0.0029000803 -0.011917949 0.18539487 -0.005942573 -0.0073578507 0.008098519 -0.0057594185 -0.0040169
0.032635648 0.03306935 0.06549634 0.013677592 0.01680304 0.40767294 0.007685571 0.004858371
0.015621319 0.007335513 0.013429422 0.011916986 0.0062937643 0.03545889 0.015251315 0.0038187162
0.0024212415 0.0055377176 0.10461065 0.08581739 0.03645885 0.12780824 0.10159981 0.0387316
0.10284326 0.059560895 0.03296192 0.12150392 0.1018026 0.12727055 0.22166707 0.15635987
0.15504168 0.04800151 -0.0051028524 0.02719809 -0.020952757 -0.0410783 -0.011172385 0.050042916
