CNN_weights/NetworkA_weights_1982-2012_allsamples.pt (torch, 394591 bytes, 4 tensors)

conv_net.C1.weight f4 [32, 17, 3, 3]
000000 9a 5e e4 3d c2 dd 04 3d db 71 52 3e 6c 5e 8a bd
       0.11150856 0.032438047 0.20551245 -0.06756291
000010 5e a1 98 be 82 87 f7 3c 16 b7 34 3e 4d 46 4b bd
       -0.29810613 0.030215982 0.17647967 -0.04962759
000020 e4 b6 b4 bc 14 f5 41 3d d0 2f a5 3d a5 78 8c bc
       -0.022059865 0.047352865 0.0806576 -0.017147372
000030 4d aa 52 bd 4d 12 3e be c7 f3 6a 3c 9d 96 81 3d
       -0.051431943 -0.18561669 0.014340348 0.06327555
000040 8c 71 cf bd 08 29 20 bd 56 3a 9b 3d fb 16 63 3d
       -0.10129079 -0.03910163 0.07579486 0.055441838
000050 b0 9f 84 bc c6 d3 b7 3c 46 65 f3 3d 36 71 50 3a
       -0.016189426 0.022439849 0.11884551 0.000795144
000060 3d 49 8d 3d 76 0b a3 3d fb 01 c6 bc ea e2 1d 3c
       0.06898735 0.079611704 -0.024170866 0.00963662
000070 3a f1 28 3e 76 5e 4f 3d b6 1e 6c 3e 95 36 82 3e
       0.1649827 0.050627194 0.2305859 0.25432268
000080 3c 9e 0e 3e 23 8b 79 3d e1 af 16 3d 3c 49 01 3e
       0.13927549 0.060923707 0.036788825 0.12625593
000090 ee 49 38 be c1 d0 75 3d fb 1d 26 3e 0a e5 64 be
       -0.17996952 0.060013536 0.16222374 -0.22352996
0000a0 83 70 ae 3b bd 98 ce 3d a3 7f c9 bc a7 f9 03 3e
       0.005323471 0.10087726 -0.024596995 0.12888204
0000b0 cd ce 6b 3e f5 0b 03 3d d3 0f 80 bc d4 c4 86 3c
       0.23028107 0.031993825 -0.015632546 0.016451277
0000c0 d1 69 1d be df ac 0b bd 47 d8 d3 3d f9 a1 b8 bd
       -0.15372397 -0.03410041 0.10343986 -0.09015269
0000d0 68 7f 08 3d e8 a7 d0 3d 56 69 f6 3c 24 9d 08 be
       0.03332463 0.101882756 0.030079525 -0.13341194
0000e0 53 83 93 3d cd 43 0c 3d 14 c9 a8 bc 67 38 99 3d
       0.072027825 0.034244347 -0.020603694 0.07481461
0000f0 6a f3 ab 3d 7e a0 3c 3d 5e 94 92 3d a7 bb 4d bd
       0.08396037 0.046051495 0.07157205 -0.050227787
000100 34 0c 4a be c7 07 df 3d 95 ea 02 bc 96 5c a4 bd
       -0.19731218 0.10890155 -0.007990499 -0.08025472
000110 f9 32 86 39 4a 0a bb 3d c2 34 b1 3d 36 d3 9e 3d
       0.0002559645 0.09132822 0.08652641 0.07755129
000120 ed a6 d1 bb ed 51 51 bd ca 58 cb 3d e5 f1 aa bd
       -0.006398073 -0.05110352 0.099290445 -0.08346919
000130 fb f6 7d 3d 21 ed de 3d 4a 2a 98 bd a4 05 1f 3d
       0.062003117 0.108850725 -0.07429941 0.03882374
000140 69 42 79 3d 92 87 64 3d ac 37 55 bd 55 e4 00 3c
       0.06085435 0.055793352 -0.052055046 0.007866939
000150 fa 51 04 bd 3e 9a cc bc 67 6e e3 3c b4 c7 91 bc
       -0.03230474 -0.024975892 0.027762605 -0.017795421
000160 af 73 80 3c a4 63 66 bb f5 78 c5 bd 18 82 6d bc
       0.015680162 -0.0035154605 -0.09642211 -0.014496349
000170 ff d8 5f be 19 b2 fc 3d 41 de d8 3c 6d 1f 56 bc
       -0.21860121 0.12338657 0.026473166 -0.013069016
000180 82 55 b4 bd f7 5a 4e 3c de 35 85 3c a5 68 61 3d
       -0.08805372 0.01259493 0.016261037 0.055031437
000190 35 9d 95 3d 68 db 5e bd 25 ac 86 bd ee c5 8e 3d
       0.073053755 -0.05440846 -0.06575803 0.06971346
0001a0 35 8c b9 bc 4e cd a0 bc 8a 05 22 be ca 9f 15 3d
       -0.022649864 -0.019629147 -0.15822425 0.03652934
0001b0 19 5d 28 3d 4a 2f 0e bd 51 f9 40 be a4 25 bf 3d
       0.04110441 -0.034713067 -0.18845107 0.09333351
0001c0 8a ec a9 bd 05 0a d6 bd c7 4a b1 3d 22 06 01 bd
       -0.08297069 -0.1045113 0.08656841 -0.03149999
0001d0 95 65 36 3d c0 2f dc bc 04 81 56 bc f7 9f 1f 3d
       0.04453047 -0.026878238 -0.013092283 0.038970914
0001e0 df c4 62 3d dc ee 89 bd 14 5d 84 bd a5 91 66 3b
       0.055363532 -0.06735012 -0.06463066 0.0035182026
0001f0 94 74 3b 3d a4 75 4c bc b1 cd b9 3c a2 e8 06 3e
       0.045765474 -0.01247922 0.02268109 0.1317468
000200 7c 92 25 bc b5 c0 f6 bd 00 54 45 3c c2 b9 9d bd
       -0.010105725 -0.12048475 0.012043953 -0.07701446
000210 91 76 e3 3c de 09 81 3c ba e4 a0 bd 5f ad da bd
       0.027766498 0.015751775 -0.07856126 -0.10677599
000220 f7 c4 67 3c fd 82 09 3d 62 67 2e 3d 29 7c fa 3d
       0.014146081 0.033572186 0.042579062 0.12230713
000230 35 98 3d 3c 6f 89 fe bb ee 0f 1b bc f4 1a a1 3c
       0.0115719335 -0.007767848 -0.009464247 0.019666173
000240 b7 aa 79 bd 01 eb be bd 25 6d b9 3c 72 c6 e8 3c
       -0.060953822 -0.09322167 0.022635052 0.028414939
000250 37 59 15 be 88 6b e2 bb d6 79 19 be e7 bc 37 be
       -0.14584814 -0.0069097914 -0.14987883 -0.17943154
000260 50 71 5b bd a0 0f b2 3d a1 3b ab 3d b6 92 82 bd
       -0.05357486 0.086943865 0.08360983 -0.06375639
000270 57 1e ab 3e 3e 06 f5 3e cc 6f b4 bc ea 54 66 3e
       0.33421585 0.47856325 -0.022025965 0.2249333
000280 34 6f c2 3c 30 48 26 be 8e 02 a7 3b 8d d6 47 3c
       0.023734666 -0.16238475 0.00509674 0.012197149
000290 76 5b 1d 3c 8c 53 48 3c fd b7 cd 3d 3e 5c 5c bd
       0.0096043255 0.01222695 0.100448586 -0.053798907
0002a0 60 f6 d1 3c a4 36 11 bd 7d b0 ce bc bf ff 02 3e
       0.025630176 -0.0354525 -0.02523064 0.12792872
0002b0 2f 52 26 bb 0a 65 40 be 9f fe 08 3e c9 09 2c be
       -0.0025378575 -0.18788543 0.1337838 -0.16800608
0002c0 4e 3e 33 3b ac 17 df 3d 9b 41 7d bd 29 6d 30 3d
       0.002735037 0.10893187 -0.061830144 0.043072853
0002d0 f9 73 86 bd 45 66 53 3c c4 97 df bb b2 37 dd bc
       -0.06565089 0.012902801 -0.006823512 -0.027004097
0002e0 ef 23 e8 bd b8 c0 c6 bd ea c8 5a 3b 66 00 c0 3d
       -0.11334979 -0.09704727 0.0033383914 0.09375076
0002f0 d6 31 6b 3c 71 40 b5 3b 2b 58 9c 3d 79 4c 61 3d
       0.0143551435 0.0055313637 0.07634004 0.05500457
000300 f6 9a 4a be 02 da b2 bd 8c 40 86 3e 1f 5a 38 be
       -0.19785675 -0.08732988 0.2622112 -0.18003128
000310 8a 65 f1 bd f8 7b a3 3d 7c 19 42 38 43 ae 3a 3c
       -0.11786945 0.079826295 4.627694e-05 0.011394086
000320 fd 8b 81 bd f4 9d dc 3c 10 a3 d0 bc 11 7e 5e 3d
       -0.06325529 0.026930787 -0.02546838 0.054319445
000330 e3 77 dc 3c e5 78 a3 bd 91 fa 3c 3d 99 57 1f be
       0.026912635 -0.07982043 0.046137396 -0.1556076
000340 04 f8 25 be 5c 26 88 bd 72 68 5d bd 25 e7 a8 3c
       -0.16207892 -0.066479415 -0.054054685 0.02061803
000350 4f 4b e0 bd 51 82 5b 3e 00 19 91 3e 14 3d 04 3e
       -0.10951864 0.2143643 0.28339386 0.12913924
000360 96 a0 4b 3c b2 13 e5 bd bb ce 18 3d f3 c0 f5 bb
       0.012428423 -0.11185397 0.03730653 -0.007499808
000370 14 e5 3f bd 52 31 85 bc 1f 48 94 3d 2d de ca 3d
       -0.046849325 -0.01625887 0.072403185 0.09905658
000380 a4 e2 6a bd 25 0c 93 be 33 f8 74 be 1d 75 9a be
       -0.057345048 -0.28720203 -0.23922805 -0.30167475
000390 15 a5 4b be 86 9a 7f be b5 31 e6 bd 7c 3a 3f be
       -0.19887193 -0.2496129 -0.112399496 -0.18674654
0003a0 14 6d 74 be 22 21 a0 bd 42 3b 30 3d 13 ed 93 3c
       -0.23869735 -0.078188196 0.043025263 0.018057382
0003b0 a2 b4 98 bd 66 52 89 bc 29 64 b6 bd 6a 12 c6 3c
       -0.07456328 -0.016762923 -0.08905823 0.024178702
0003c0 02 1a c9 bc e6 ec 45 3d e2 46 21 bc 46 ca 39 3d
       -0.024548534 0.048321627 -0.00984356 0.04535892
0003d0 3a f5 bd bc f2 ac 1d bb 3d 82 b1 3d 4b 90 70 be
       -0.023188222 -0.0024059382 0.08667419 -0.23492543
0003e0 07 37 9b bd a8 93 23 3e bd 85 f2 3d 8b b7 db 3c
       -0.07578855 0.15974295 0.11841915 0.026820919
0003f0 ba 8d f5 bc f5 5e 36 bd 16 4c 67 bd 12 80 c5 3c
       -0.029974807 -0.04452415 -0.056469046 0.02410892

conv_net.C2.weight f4 [64, 32, 3, 3]
000000 2f 62 89 bc 90 21 3c bd 28 74 4c bd 87 57 b0 3d
       -0.01677045 -0.045930445 -0.049915463 0.086104445
000010 0a 5c 24 3d 0f f3 49 3c a1 94 35 3d 03 37 9a 3c
       0.040126838 0.012326016 0.044331197 0.01882506
000020 75 3c 95 bb ab e7 13 3d 61 05 b4 bd 83 69 d8 bc
       -0.004554326 0.036109608 -0.087900884 -0.0264175
000030 86 75 a9 bd e5 15 5a bd 81 b8 91 3d 6f 00 61 3c
       -0.08274369 -0.053243537 0.071152695 0.0137330135
000040 ed 47 ed 3c 1e 2d 5d bd bb dc 6e bd 6d 11 a0 3d
       0.028964961 -0.053998105 -0.058315974 0.07815824
000050 60 19 31 3d 3e c2 d1 3c 02 f7 0c bb 54 a7 23 bd
       0.04323709 0.025605317 -0.0021509533 -0.0399545
000060 72 0e 39 bd 26 64 19 be 0d f5 e3 bd 3f 0f e9 bb
       -0.04517979 -0.1497961 -0.11130724 -0.007112413
000070 3c bd b4 3d 78 a0 00 3d 7e 9a 17 3d 1d 27 b5 bd
       0.08825156 0.031403035 0.03701257 -0.08845351
000080 d6 18 32 bd 7b 3a 29 3d b3 43 ed 3c 66 69 80 3c
       -0.043480717 0.041315537 0.028962946 0.015675258
000090 16 6a a4 3d b4 c2 9c 3c ba 22 92 3c 38 3d 0d 3c
       0.08028047 0.01913581 0.017838825 0.008620553
0000a0 fa 83 66 bd 6c dd f2 bc 34 61 97 bb 09 3e 48 bd
       -0.056278206 -0.029646598 -0.004619742 -0.048887286
0000b0 b4 ad 0f 3d 83 da b7 bc 5c be 0b 3c 2c 1f a6 3d
       0.035077766 -0.022443062 0.008529272 0.08111414
0000c0 f6 b8 05 3d 71 ad 8d bd 26 d0 c8 bd 65 e0 75 bb
       0.032647096 -0.06917847 -0.09805326 -0.0037517783
0000d0 ff 3b 86 3c 77 80 0d bd 5f ce 72 bd ea ce 40 3d
       0.01638603 -0.03454634 -0.059278842 0.04707233
0000e0 cd d9 13 bc c9 6f 5a 3d 05 23 16 bc c1 0a 67 bd
       -0.009024096 0.053329263 -0.009163623 -0.05640674
0000f0 71 1c 97 3b dd 94 29 bd 7b a5 c6 bd 8c aa 8d 3d
       0.004611545 -0.041401733 -0.09699532 0.06917295
000100 3e 31 d4 bc 41 4e 41 3d c1 55 21 3e 92 ee c9 bd
       -0.025902387 0.04719377 0.15755369 -0.09859957
000110 05 a2 60 be 86 bf e6 3d 65 19 48 3d 72 5f 90 bd
       -0.21936806 0.11266999 0.048852343 -0.07049455
000120 76 52 0d bc f6 82 46 3c 16 10 b3 3c a8 09 4e 3d
       -0.008625617 0.012116184 0.021858256 0.050302178
000130 18 a6 28 3c be d0 80 ba 12 11 ee bc 64 ec 66 bd
       0.010293506 -0.0009827835 -0.029060874 -0.056377783
000140 92 46 7c bd d7 d0 a9 3d f9 d0 f7 3d 23 b4 83 3d
       -0.06159074 0.08291786 0.12100405 0.06430843
000150 2b 3b 0a 3d 7d 5c 9b 3e 8a 66 5a 3e 9e bd 96 bd
       0.033747833 0.30344 0.21328178 -0.07360385
000160 d3 61 dd 3d 41 1f e9 3d 0e d8 ac bd 75 2e d6 bd
       0.10809674 0.11382914 -0.08439647 -0.1045808
000170 4f d2 64 bd 5f 1c 6a bb 6b ca c4 3b a1 e5 35 3d
       -0.05586463 -0.0035722477 0.0060055754 0.044408444
000180 15 de b6 bd 81 b6 71 bb 93 d8 69 38 9c df 9e 3d
       -0.089290775 -0.0036882462 5.575323e-05 0.07757494
000190 f5 f6 3a bd 28 80 e3 3c a7 fb 8e 3d 0f 07 a5 bd
       -0.045645673 0.02777107 0.069815926 -0.08057987
0001a0 de ea 5a bd c9 79 a1 bb f0 c9 bf bc 63 30 da 3c
       -0.053446643 -0.004927848 -0.023411721 0.0266344
0001b0 1c 51 27 bc 85 76 d7 bc 86 96 ad 3c e8 d0 be 3d
       -0.010212209 -0.026301632 0.02118994 0.093171895
0001c0 f0 82 75 3b 44 bf 6f be 26 ea ad 3d 4a 63 a1 3d
       0.0037462078 -0.23412806 0.08491926 0.07880266
0001d0 f2 cb ed bc 9c a0 e3 bd 8c 75 1a 3e 54 f0 eb 3d
       -0.029027913 -0.11114618 0.15083903 0.11520448
0001e0 14 86 b7 bc d3 7d d9 bd 94 f5 b4 bc cb d0 e9 bd
       -0.0224028 -0.10619702 -0.022089757 -0.11416777
0001f0 2b 89 a2 bd 5a 84 39 3e 5e 5d 0c 3a f9 be 96 3d
       -0.07936319 0.18116894 0.0005354489 0.07360644
000200 bf af a2 3d 35 7f 41 bd 90 17 3c bd b5 19 80 3d
       0.07943677 -0.047240455 -0.04592091 0.06254903
000210 ae 06 d9 bd 99 1f d4 bc 21 9d 05 3d fc 5b bd 3c
       -0.10596977 -0.025893973 0.032620553 0.02311515
000220 c5 14 a3 3d 51 1c 25 3d ff 1b ab 3d da 8d 5f 3c
       0.07962946 0.040310208 0.08354949 0.01364466
000230 46 0e 8d bd 08 55 b9 bc 6b 35 e8 3d 86 61 81 bc
       -0.06887488 -0.022623554 0.11338314 -0.015793573
000240 8f 3f a6 3c 65 68 7c 3d e4 ac 0b 3d e2 61 3f bd
       0.020293979 0.061622996 0.03410043 -0.046724208
000250 7a 9c 19 be f4 55 3f bd b7 49 91 bc 20 7c c6 bc
       -0.15001097 -0.04671283 -0.017735345 -0.02422911
000260 0c 81 e1 bd 93 be 68 38 88 ca 50 3c 91 cc 52 3d
       -0.11010942 5.5490596e-05 0.0127436 0.05146462
000270 85 94 93 3d 02 bf 6b 3c 0e 88 5f 3c f4 72 4a bd
       0.07206062 0.0143888015 0.013643278 -0.049426034
000280 94 93 a7 bd 67 48 64 bd 54 a2 48 bd 87 20 00 bc
       -0.08182445 -0.05573311 -0.048982933 -0.007820255
000290 29 91 f3 3b e0 82 83 bc f9 27 1b be 21 f0 2b be
       0.007433076 -0.016053617 -0.15151967 -0.1679082
0002a0 68 2e 29 3c bc c9 59 bd 67 cd 48 3c 43 73 a0 bd
       0.0103260055 -0.053170905 0.012256003 -0.078344844
0002b0 16 e7 ac 3d a0 91 61 3e 91 86 e7 bd 66 3c 85 bc
       0.08442514 0.22028208 -0.113049634 -0.016264152
0002c0 a2 6c 45 3d 10 90 ff bd 8c ee aa bd 15 03 f1 bc
       0.048199303 -0.124786496 -0.083462805 -0.029420415
0002d0 00 73 89 3d a7 23 50 b8 63 54 e0 bd 98 50 b5 bc
       0.06711388 -4.962427e-05 -0.109535955 -0.022133157
0002e0 b3 95 1c bd 8d 06 1d be f0 69 2c 3d f3 36 88 bc
       -0.0382287 -0.1533453 0.042093217 -0.016627764
0002f0 4f 1e 36 bb b0 0a 6b bb df ab 38 3c 78 96 40 bb
       -0.0027789061 -0.0035864525 0.011271446 -0.0029386561
000300 24 7f 75 3d b2 78 90 3d c8 5e cd bd 7e 29 c2 3b
       0.059935704 0.07054271 -0.10027844 0.0059253564
000310 35 25 71 ba 06 bc 18 3d 7d 74 a5 3c 4b 30 90 bd
       -0.00091989647 0.037288688 0.020197148 -0.07040461
000320 19 1f 1c be 5a ef 87 3d ca 1d af bc e3 b3 d1 bc
       -0.15246238 0.066374496 -0.02137651 -0.025598472
000330 bd b0 8e 3b 63 9f e9 bc 2b 53 86 3d 2a 7f 90 bd
       0.004354565 -0.028518384 0.06558832 -0.070555046
000340 f5 c3 29 be 45 73 32 bc cf 69 af 3a 50 8f 20 be
       -0.16578658 -0.01089174 0.0013382974 -0.1567967
000350 be 5f 19 bd 38 23 f7 bc 03 24 88 3d 49 f8 98 3d
       -0.037444822 -0.03016816 0.06647494 0.07469232
000360 c4 41 03 be c8 50 ca bd e4 cf 81 ba f9 28 10 bd
       -0.12818056 -0.09878689 -0.0009903875 -0.035195325
000370 d1 f8 2b bd 87 ed c0 bc 0e 6e cf ba 09 43 4b bd
       -0.041985337 -0.023550762 -0.0015825646 -0.049624477
000380 20 4e 82 3b d6 c3 10 bd 14 c0 08 3d 24 2b 0d bd
       0.0039765984 -0.035343014 0.033386305 -0.03446497
000390 9e e9 f3 3c c6 db 96 bd b2 27 0c 3d b2 e9 38 3d
       0.029774483 -0.07366137 0.034217544 0.045144744
0003a0 eb 6b e7 bc 2f e3 c7 bc 3f cd a9 3b e7 84 d9 3c
       -0.028249701 -0.024400322 0.005181938 0.02655263
0003b0 06 3b 4a bd 57 c7 98 bc df af 91 bd 70 79 7f bd
       -0.049372695 -0.01864974 -0.07113623 -0.06237167
0003c0 30 35 1e 3d 0b 10 47 3d 41 89 ed 3d ea 80 c9 3c
       0.038624942 0.048599284 0.11598445 0.024597604
0003d0 2b b8 3f bc a4 59 11 3d 1f 2a 3f 3d 36 93 99 b9
       -0.011701624 0.03548588 0.04667103 -0.00029292115
0003e0 d1 65 04 bd b2 86 29 3c b2 ed 71 3c 84 92 84 bc
       -0.032323662 0.010347055 0.014766144 -0.016183145
0003f0 bd 67 11 bd d6 a8 94 bd 18 74 f3 3b 0e ed 2d bd
       -0.035499323 -0.072587654 0.007429611 -0.0424624

conv_net.C3.weight f4 [128, 64, 3, 3]
000000 2c 64 49 bc 67 bf 3f bd 7b 43 50 bd 4c 2e 95 bc
       -0.012291949 -0.046813395 -0.050845604 -0.018210553
000010 81 bb 98 bc 00 e8 80 bd c7 cb 56 bc b9 e5 34 bd
       -0.018644096 -0.062942505 -0.013110108 -0.044164393
000020 54 b0 c5 bc 02 fe 4c bd fe 92 5e 3d ef 03 d5 3c
       -0.024131931 -0.05004693 0.0543394 0.026002852
000030 2c 29 c2 bb d9 46 5a bc c9 93 17 bd 9d ba c5 3c
       -0.005925318 -0.013322555 -0.037006173 0.024136836
000040 3f 0b 6a bb 3d 30 6c bd fa 6a 5f bc 8e 23 ba 3c
       -0.003571227 -0.05766319 -0.013636345 0.022722032
000050 5b 14 06 bc 6e 9c bf bc 3e a3 75 bd d1 29 52 3d
       -0.008183564 -0.023390021 -0.059970133 0.05130941
000060 ef 4b ea bd 88 3d 7e be 85 21 a9 bd cc 59 84 bd
       -0.114402644 -0.2482816 -0.082583465 -0.0646244
000070 2e ee 21 bd 2f 60 e9 bc 70 4b dd bc c2 65 e7 bc
       -0.039533786 -0.028488247 -0.02701351 -0.028246764
000080 42 a9 53 3d 30 69 27 bd b7 58 9c bd 8b 59 07 3d
       0.05167509 -0.0408718 -0.076341085 0.03304438
000090 e6 60 a7 bc 95 fb 5c bd e7 90 37 bd cc 70 f5 3c
       -0.020431947 -0.053950865 -0.044815924 0.029961012
0000a0 23 0d 96 3c 8b 05 9a 3b 80 73 a5 b9 19 ab 11 bc
       0.018316811 0.004700368 -0.00031557307 -0.0088908905
0000b0 d1 7d 2d bc dc 16 dc bb 20 f0 43 bc e8 ff 6d bd
       -0.010589079 -0.0067165922 -0.011959106 -0.05810538
0000c0 39 14 69 bd 67 e4 5f bc a6 cc 2d bd 01 37 00 bd
       -0.05690405 -0.013665295 -0.042431496 -0.031302456
0000d0 68 d6 16 3d a5 13 c4 bc d0 a0 5d bb 05 23 cc bb
       0.036825567 -0.023935148 -0.0033817776 -0.0062297606
0000e0 d1 31 31 bd 11 19 84 bc dd 21 1a 3c dd bf 1e bd
       -0.0432604 -0.016125234 0.009407488 -0.038757194
0000f0 8d 3b 51 bd dd d8 d9 3c 87 09 75 3c c8 23 2b 3d
       -0.051082183 0.026592666 0.014955885 0.04178217
000100 0b 11 29 bc f1 88 fa 3c 36 91 10 3c c7 59 c0 bc
       -0.010319005 0.030582877 0.0088236835 -0.02348031
000110 35 fd 1a 3b 7e 9a 67 ba a6 1a 6c bb 46 b8 f4 3b
       0.0023649458 -0.0008834972 -0.0036026626 0.007468256
000120 e0 06 89 bb c1 25 a6 bd 10 81 b2 bd af ca c3 3b
       -0.0041817278 -0.0811267 -0.08716023 0.0059750895
000130 ed e3 75 bd e0 c7 99 bd fe ee b3 bc cc b5 90 bd
       -0.06003182 -0.07508826 -0.021964546 -0.07065925
000140 d4 5e 18 bd 79 e5 82 bd 41 91 ed bc 3d f8 ba bc
       -0.03719981 -0.06391425 -0.028999927 -0.022823447
000150 85 15 97 bd 08 50 3f 3d d9 4a 61 bd 26 1d 71 3c
       -0.073771514 0.046707183 -0.05500302 0.014716422
000160 d9 ab ff bc 5b 3e 9b bb 7d 8e 88 bd a4 67 95 bc
       -0.031209873 -0.004737658 -0.066678025 -0.018237896
000170 a4 33 1b 3d a2 f0 89 bd 39 9a d9 3c 23 73 d6 3c
       0.037891045 -0.0673535 0.026562797 0.026177948
000180 69 9a 8f bc d3 29 91 3d 45 fa e6 bc b1 e6 c3 bd
       -0.017529683 0.070880555 -0.02819551 -0.09565485
000190 dd 34 b2 bb ef 2d 05 bd dd 4c a6 bd 18 9b 49 bc
       -0.0054384307 -0.03251451 -0.08120129 -0.012305044
0001a0 6f 67 ed bc e1 bf 81 bc 9a 60 38 bb ca 72 2e bd
       -0.028979985 -0.015838565 -0.002813375 -0.04258994
0001b0 87 c9 a4 bc b1 9d 08 3c ce 55 bb 3c 0b d4 4b bd
       -0.020115627 0.008338378 0.022868063 -0.049762767
0001c0 28 dc 71 bd 4f ff a3 bb 6b 58 90 bd e8 59 92 bd
       -0.059047848 -0.0050048004 -0.070481144 -0.071460545
0001d0 ae fc 2e bc d7 43 82 3c 50 7c f6 3b 03 9b 54 3c
       -0.010680361 0.01590149 0.0075221434 0.012976411
0001e0 a3 d7 43 bd 52 b4 3e bd 68 51 81 bc 25 4a 3b bd
       -0.04781307 -0.046558686 -0.015785888 -0.045725007
0001f0 4b e3 15 bd 08 40 dc bc 86 9a 12 bc d8 d8 cd bc
       -0.036593717 -0.026886001 -0.008947974 -0.025127813
000200 13 b8 df bc b8 36 a7 3d 65 ca 58 bb 57 fa 6d 3d
       -0.027309453 0.08164734 -0.003307962 0.05810007
000210 d3 93 9a bc 9b 7e db bb 03 0b f9 bc e3 2f 9d bc
       -0.018869316 -0.006698442 -0.030400759 -0.019187873
000220 90 16 68 bb 63 85 50 bd 6f 9b 0c bd a2 44 e4 bc
       -0.003541384 -0.050908457 -0.03432792 -0.027864758
000230 a9 c5 43 bd f1 1e 62 bd 16 3d 7e bd e2 79 b2 bd
       -0.047795925 -0.05520529 -0.062069975 -0.087146536
000240 bb a7 24 3b 1f 57 12 3d 62 d6 ba bc 00 c4 8d bd
       0.002512439 0.035727616 -0.022807304 -0.0692215
000250 6b ec a6 bd 3f 9f 20 3d 47 58 da 3b db df b3 bc
       -0.08150562 0.03921437 0.0066633555 -0.021957329
000260 d6 3f 8c bd b3 b6 bd bb 3b 3c 08 bd f4 99 6e bd
       -0.06848113 -0.0057896017 -0.033260565 -0.05825229
000270 3c bd 35 3d ec 6e 2f bb 1e 13 9f bc 3d a5 82 3c
       0.04436992 -0.0026768995 -0.019418295 0.015947932
000280 74 2c 0b 3c fb 7b 5f 3c d5 66 4f bd 65 75 09 bd
       0.008494485 0.013640399 -0.050635178 -0.03355922
000290 0e 11 99 3d 0b ae 2e bd 16 ee ea 3c 59 fc 26 bc
       0.07473956 -0.04264645 0.028677981 -0.010192
0002a0 63 78 a0 bd 6f e5 60 bd 54 57 7d 3c b5 87 37 3c
       -0.07835462 -0.054906305 0.015462715 0.011201789
0002b0 50 cf f8 3b b6 cb 18 3e dc 67 19 bd d1 ca d4 bd
       0.007593073 0.1492146 -0.037452564 -0.10390247
0002c0 50 31 fa 3b c5 19 18 be 39 f7 18 bd 76 f1 9a bc
       0.007635273 -0.1485358 -0.037345145 -0.018913966
0002d0 b7 46 ab bc 50 f2 8e 3d 0a 41 80 3d 92 04 03 bd
       -0.020907743 0.06979811 0.06262405 -0.03198678
0002e0 cb 23 30 3b 85 6a d2 3c bf 2b 87 3d e8 ae 1d 3d
       0.0026876803 0.025685558 0.06600141 0.03849688
0002f0 da 33 59 3b 12 ce 38 3d 9c 4a 8f 3c 8d f9 75 3d
       0.0033142478 0.0451184 0.017491631 0.060052443
000300 11 bc 45 ba 8e c7 db bc 60 2b 6f bd 81 29 55 bd
       -0.00075429777 -0.026828554 -0.058390975 -0.052041534
000310 d3 ff 01 3b 75 1c ae 3c a5 fe 5d 3c f4 65 4e 3d
       0.001983632 0.021253804 0.0135494815 0.0503902
000320 2b c5 6f 3b 33 27 13 3c 7f 20 1b bd bd 42 b1 bc
       0.0036586027 0.008981514 -0.037872788 -0.021638269
000330 e7 20 45 bd ff c5 d8 bc 12 aa cb bd 68 73 99 ba
       -0.04812708 -0.0264616 -0.09944548 -0.0011707367
000340 6a 7b 73 bd 85 76 0a bb fa a3 1a bd 6e b1 71 bd
       -0.05944387 -0.0021127772 -0.037754036 -0.0590071
000350 dc af 3b 3c 49 40 8a 3c 4a b4 ba bd 8a 8f 97 bb
       0.011455502 0.016876357 -0.09116419 -0.0046252655
000360 b8 b1 84 bc 98 c4 8c 3b f1 4f f2 ba e6 ea 9d 3c
       -0.016198024 0.0042958967 -0.0018486959 0.019277047
000370 98 43 ea 3b 7d 82 d6 bc fa 63 81 bc 02 61 25 3d
       0.007149171 -0.026185269 -0.015794743 0.040375717
000380 45 7b 82 bc c5 47 8c 3d dd eb be 3d b3 e8 b7 3d
       -0.01592792 0.068496265 0.09322331 0.08979931
000390 55 d0 7c 3d a5 5a 1e 3c aa 18 8d 3d 97 8d 76 3d
       0.06172212 0.009665166 0.0688947 0.060193624
0003a0 8c 22 b3 be 3a 42 14 bc b6 a5 48 bd de 6e a5 ba
       -0.34987295 -0.009048993 -0.04898616 -0.0012621542
0003b0 15 a9 88 3c 6b b8 81 bd 12 6f 10 bd 38 f5 08 3d
       0.016682187 -0.06334003 -0.035262175 0.033436984
0003c0 57 99 5d 3d 9c 26 96 bb c8 43 f0 3c 59 d8 31 3d
       0.054101314 -0.0045822393 0.029329196 0.043419216
0003d0 84 df b0 bd b1 8c 9a bd 77 11 0d 3d a7 51 92 bc
       -0.08636382 -0.07546366 0.034440484 -0.0178612
0003e0 a4 af 60 bd ba 83 9f bd 50 9e 24 be 3a 7e ba bd
       -0.054855004 -0.07788797 -0.16076016 -0.09106107
0003f0 76 96 e5 3b 12 ce 15 3c 79 33 8a 3d 96 75 69 3d
       0.0070064617 0.009143369 0.06748099 0.056996904

conv_net.C4.weight f4 [1, 128, 3, 3]
000000 38 24 95 bb 8b 6c d3 bd 78 eb 2d bc d5 f5 7f 3c
       -0.0045514368 -0.10323437 -0.010615222 0.015622576
000010 55 67 ff b9 e6 d9 2b 3c 3a 87 8c 3b 94 76 07 3b
       -0.00048714378 0.010488963 0.004288581 0.0020670043
000020 40 0a 4c 3c e3 6a 07 3d cc 86 61 3d 17 43 df 3a
       0.012453616 0.03306092 0.055060193 0.0017033544
000030 f2 7b 12 bb 2a 5e 89 bd c4 d3 4f bc a6 71 c3 3b
       -0.002235171 -0.067074135 -0.012684766 0.0059644757
000040 f2 c4 28 3d 02 7d a9 3c 90 96 60 bd 12 b2 72 bd
       0.041203447 0.020689491 -0.054831088 -0.059251852
000050 0b 82 72 bd 95 26 4e ba 4f 65 0c bd a2 b4 b1 bd
       -0.05920605 -0.00078640255 -0.034276303 -0.08677031
000060 13 4a 14 bb cf f3 3c bc 26 82 78 bd 57 d4 6e bc
       -0.002262716 -0.011532738 -0.060670994 -0.014576993
000070 34 29 18 3d 3a 82 12 3c 4d 2b 12 3b 4b 19 7a 3c
       0.03714867 0.008942181 0.0022303641 0.015264819
000080 84 3f 09 3d 8e ef 54 3c eb d3 17 3c 42 3b 25 3e
       0.03350784 0.012996567 0.009266834 0.16135886
000090 04 12 ea bb da f4 45 bb 8b 0d e3 3c 1c ca fc bc
       -0.007143261 -0.0030205757 0.027716419 -0.030858092
0000a0 7b 1f 11 bd a8 c7 f1 3a 68 73 a9 bc 90 35 ac bb
       -0.035430413 0.0018446343 -0.020684913 -0.0052554086
0000b0 e8 d9 aa 3d 15 8f 81 3d 71 52 29 3d bb 35 de 3c
       0.083423436 0.06326119 0.041338388 0.02712523
0000c0 d5 e1 23 3d 67 e0 1a 3c df d0 75 3c 8b 35 01 3d
       0.040010292 0.009452916 0.015003412 0.031545203
0000d0 a3 66 1c 3b 78 a7 af 3c 00 4e a4 16 91 28 93 16
       0.0023864887 0.02144216 2.6544854e-25 2.3774732e-25
0000e0 5d 92 87 16 49 21 99 16 39 87 8a 16 4a fb 81 16
       2.1902795e-25 2.473949e-25 2.238044e-25 2.099966e-25
0000f0 d6 a6 96 16 c0 5f 8c 16 d3 bb 86 16 8d 04 91 bc
       2.4339095e-25 2.2678647e-25 2.1767401e-25 -0.017702365
000100 37 19 d2 bc a4 01 62 bc ca 35 c4 bb c0 82 a6 bc
       -0.025646789 -0.0137943365 -0.0059878575 -0.020326018
000110 10 5a cd bb 6f b8 ca bc eb 95 91 bc c2 73 a9 bc
       -0.00626684 -0.024746148 -0.017771682 -0.02068508
000120 02 ad 97 3d 14 80 fb 3d c4 29 b3 3d 9a de cc 3d
       0.074060455 0.12280288 0.087482005 0.100033954
000130 dc 80 1d 3e c5 12 02 bc e6 39 62 3d 01 04 04 3d
       0.15381187 -0.007939045 0.055230998 0.03223038
000140 52 eb 2c 3c e2 4a a9 bc 2a 6c 42 bd 68 bb 10 bd
       0.010554152 -0.02066559 -0.047466435 -0.035334975
000150 6d d1 b2 bd 73 ab 1f be 66 3e c5 bd af bf 68 bd
       -0.08731351 -0.15592746 -0.09631042 -0.05682343
000160 f4 33 a4 bd ba 99 3b bd c8 7d ad 3d 76 d2 96 3c
       -0.08017722 -0.045800902 0.084712565 0.018410902
000170 d9 79 6b 3c dd 7a cb bd 11 ad 23 bc 41 fa 18 3b
       0.014372312 -0.09935544 -0.009989993 0.0023342522
000180 7b 88 0f bc 8c 56 8b 3c ce cb 7b 3b a2 12 64 bd
       -0.008760567 0.017009042 0.0038421038 -0.055681832
000190 9b 81 c1 bc 99 5b 0e bb 68 3a ec bd f9 89 6c 3a
       -0.023621371 -0.0021722077 -0.115345776 0.0009023245
0001a0 26 50 25 3b 32 18 3f bc c0 3c cc bb ca 89 06 bc
       0.0025224774 -0.011663483 -0.006232828 -0.008211562
0001b0 bf 58 2e 3c 90 cd 83 bd 0b 31 04 be 8a e7 f4 3c
       0.010641276 -0.06435692 -0.12909333 0.029895563
0001c0 c8 0b 9f 3d b8 c3 3c be a3 05 34 3c fb d2 5b 3a
       0.07765919 -0.18434036 0.010987672 0.00083856256
0001d0 da 54 b2 bd e0 4c e6 bc 7f 2b 1f bd e3 69 da bc
       -0.087075904 -0.028112829 -0.03885984 -0.026661819
0001e0 df 56 4f bc cd 9c 73 be 27 58 9c bc 5d 10 8f bb
       -0.012654989 -0.23790284 -0.019085003 -0.0043659643
0001f0 dc 1c 18 bc 3a 9c ff bb c3 dd 5b 3d 31 d1 dd 3c
       -0.009284224 -0.007800606 0.053678285 0.02707729
000200 b9 41 2e 3d 3a 9a 87 3d 11 5d 29 3d a1 a2 93 3d
       0.042543147 0.06621213 0.04134852 0.072087534
000210 a7 36 3a 3d 06 bd 5f 3c 18 62 16 3d 86 c5 bd bb
       0.045462277 0.013655907 0.036714643 -0.005791369
000220 ac e4 9b bc 26 84 11 bd 3e 55 a1 bb ec 41 5a bc
       -0.019029938 -0.035526417 -0.0049234917 -0.013321381
000230 e8 9d 74 bd 0b 4a 86 bc a8 1d 7d bc f3 fa 95 bd
       -0.059720904 -0.016392728 -0.015448965 -0.073232554
000240 b0 ca 12 bd 11 b2 05 bc 1d c5 04 bc 66 16 ba bc
       -0.03583783 -0.00816013 -0.008103636 -0.022715759
000250 99 37 91 ba 26 e5 ac bb fe 3c b3 39 26 bd b8 b9
       -0.0011079191 -0.00527634 0.00034186983 -0.0003523614
000260 7f 0b 93 bb 5c 45 30 3d 6f 2b 8c 3d 4d 1a fe 3d
       -0.0044874544 0.043034896 0.06844222 0.1240736
000270 c2 a7 34 3d ee 2d 6e 3e be 65 76 3e ca 74 0c 3c
       0.0441053 0.23259708 0.24062249 0.008572767
000280 56 1d 15 3d f9 f2 67 3d da f4 b4 bd 0f 22 a4 bb
       0.03640493 0.0566282 -0.08835764 -0.005008943
000290 7d 60 cc 3b b7 da 0b be 13 eb 60 3d 32 bc b3 3c
       0.0062370882 -0.13657652 0.054911684 0.021940324
0002a0 ff ff ae 3d 8b f6 46 3d f3 61 9e 3c c0 7f 9c 3c
       0.08544921 0.048574965 0.019333815 0.019103885
0002b0 de 52 98 be 50 72 0d bc d0 ac 0f 3c c1 bf 86 3c
       -0.29750723 -0.008633211 0.008769229 0.016448857
0002c0 25 4a 68 ba 8f 15 15 3c ce b9 24 3c 40 85 21 3c
       -0.0008861146 0.009099378 0.010054065 0.009858429
0002d0 53 6a b4 bc 8c 34 ed bc 15 ff 9b bc 06 ac 5f bb
       -0.022023356 -0.02895572 -0.019042531 -0.0034129634
0002e0 25 ec 3a 3a 73 58 02 3d 35 6a 2c bc 98 ef 66 3d
       0.0007130525 0.031822633 -0.010523369 0.05638084
0002f0 ba 7d 0f 3e 70 28 28 3e 53 1d 1b 3e 38 19 1a 3e
       0.14012805 0.16421676 0.15147905 0.15048683
000300 03 d0 c7 3d df 20 e3 3d 35 9f ba 3c d2 3f e0 bb
       0.09756472 0.11090254 0.022780994 -0.0068435455
000310 a1 8f 16 3a 91 dd 93 3b ca 02 a6 bc 54 7a 0d be
       0.0005743448 0.0045124968 -0.020265002 -0.13816196
000320 82 04 da bd c5 95 23 bc f2 fb dc bb ab 84 12 bd
       -0.10645391 -0.009984438 -0.0067439014 -0.035771053
000330 9c 80 92 3b d0 fe 27 3c 45 ac 3f bc 5f 9a 62 3d
       0.004470898 0.010253623 -0.011698787 0.055323
000340 fa 42 b9 3c 4d 4e 8e 3c 11 00 5f 3e 3a b3 37 3d
       0.022614945 0.017371321 0.21777369 0.04484866
000350 6d 45 87 3c 4b 19 e3 3c b9 bf 2a 3c 25 72 1e 3c
       0.016512597 0.027722022 0.010421687 0.009670769
000360 7b b3 5b bc 7c 65 e6 bb 22 c5 dc 3b 42 bd b6 bc
       -0.013409491 -0.007031141 0.0067373673 -0.022307042
000370 2d 93 f0 bc eb 8a e8 3d a3 c9 85 bc b1 bb c6 bc
       -0.029367054 0.113546215 -0.0163315 -0.02425942
000380 c3 07 a9 bc 41 9d 79 3c db e6 c5 3c 1a 36 02 3d
       -0.020633584 0.015235246 0.024157932 0.031789877
000390 2f e1 57 3c 9c 34 1c 3d 5d e3 17 3d c2 25 0a 3c
       0.013176247 0.03813611 0.037082065 0.008431854
0003a0 15 59 ec 3b 48 42 42 3c 81 78 79 3c 6f 4d 44 3d
       0.007212768 0.011856623 0.015226484 0.04792541
0003b0 6e a7 87 3c c9 7c 43 3c 5e ab d7 3d 2c e4 43 3c
       0.016559329 0.011931607 0.105307326 0.011956256
0003c0 c7 d6 98 ba 89 0f 6c 3c 9f b9 53 3a 50 c0 ad 3d
       -0.0011660688 0.014408001 0.0008076671 0.08483946
0003d0 44 ce a0 3d 5d 51 36 3d a6 cb 32 3f d8 1d c5 3c
       0.07851842 0.044511188 0.6984199 0.024062082
0003e0 82 fc 6e 3c 2b f7 70 3b 97 0c 33 3d 98 24 c3 3c
       0.01458657 0.0036768417 0.04371318 0.02382116
0003f0 d6 3e db 3d 3b 50 b7 3d d0 3b 77 3d 70 dd 1c 3e
       0.107053444 0.089508496 0.060359776 0.15318847
