CNN_weights/NetworkA_weights_CNNopt.pt (torch, 394591 bytes, 4 tensors)

conv_net.C1.weight f4 [32, 17, 3, 3]
000000 26 45 c4 bd b6 14 a4 bd 2d 68 05 be e0 d0 2a 3d
       -0.095835015 -0.08011763 -0.13028021 0.041703105
000010 6f 40 7d bd a8 3e b5 3d a4 fe 0a 3e ff 17 f3 3d
       -0.061829027 0.08849841 0.135737 0.11869811
000020 17 f7 0c 3e 7d 88 4d bb e0 f5 cf 3d 54 54 62 bd
       0.13766132 -0.003136187 0.10154319 -0.055256203
000030 10 8c ae 3b 80 12 06 bd 69 7a 76 3d 13 29 01 3e
       0.0053267553 -0.032732487 0.060175333 0.12613325
000040 a8 86 d5 bd cf 69 e7 3b 08 19 30 3e 74 71 2d 3e
       -0.10426074 0.007062174 0.17197049 0.1693781
000050 59 f0 44 3d fb 3c b5 3c 6f e0 5e 3e 4c 72 95 3d
       0.048080776 0.022123804 0.21765302 0.07297191
000060 29 9b 6f 3d cf 4a 4c 3d e7 df a4 3c 38 23 2e be
       0.05849758 0.04987603 0.020126296 -0.17005622
000070 a2 e3 e4 3d 9e a9 03 3d 92 9b c7 3e b4 f4 91 3e
       0.1117623 0.03214418 0.38985878 0.28507006
000080 bf 6d da 3d bd a2 5d 3e cd 8e 79 3e 74 39 e3 3b
       0.10665464 0.21644111 0.2437088 0.006934339
000090 20 71 d0 bd 57 41 76 3d 7d 1c 04 3d 73 db da bd
       -0.10177827 0.060120907 0.03225373 -0.10686388
0000a0 3c 5c b7 3d c9 a1 f5 3c 85 18 ce bd fb f2 03 bc
       0.08953139 0.029984372 -0.100632705 -0.0080535365
0000b0 92 e9 d2 3d 69 c3 64 bd 45 64 a2 bd a7 f1 dd 3d
       0.10298456 -0.05585042 -0.07929281 0.10837107
0000c0 5d 12 47 bd 5f c4 54 bc c3 b0 20 3e b8 dd f7 bd
       -0.048601497 -0.012986272 0.15692429 -0.12102836
0000d0 79 5a 5b bc f6 18 9b 3d 3c b8 5a 3c ee b7 31 be
       -0.01338827 0.0757312 0.013349589 -0.1735532
0000e0 c1 c2 2e bc fd 70 c6 3c e4 1f 9b 3d 12 3b f5 3d
       -0.01066655 0.024223799 0.07574442 0.119741574
0000f0 c9 80 85 3d 1c cf 05 3e 67 c9 da 3d 4c 2b e4 bd
       0.065187044 0.13067287 0.10682946 -0.11141071
000100 e7 60 3f be d9 df 10 b9 2c 04 1f 3d 83 54 28 3c
       -0.18689309 -0.000138163 0.038822338 0.010274055
000110 bb 66 6d 3c a6 42 d3 3d a5 87 2a 3e 4e 24 e9 3d
       0.014489825 0.103154466 0.16653307 0.11383878
000120 3c 48 28 be d6 c9 24 3d 0e 2b bb 3d 91 fa 2f bc
       -0.16433805 0.04023155 0.091390714 -0.010740892
000130 e2 95 08 3e 1f 1f 1b 3e 2f 8e 60 be 29 de 8b 3d
       0.13338426 0.1514859 -0.21929239 0.06829483
000140 09 9c 5c bc b3 fd 24 bd e3 f9 6f 3d 49 2b a9 bc
       -0.013464936 -0.04028101 0.05858792 -0.020650523
000150 0b 4b 75 bc a2 db 8c 3d 27 f7 aa 3c a9 c0 c9 3c
       -0.014971505 0.06877829 0.020869805 0.024628
000160 5b 44 06 ba 0b e2 69 bd 03 11 0e 3d 8a a4 3c bd
       -0.000512188 -0.057100337 0.034684192 -0.046055354
000170 dd 11 d0 bb 25 ff 82 3d 82 ad d0 bd 8f 00 9f 3d
       -0.0063497857 0.06396321 -0.10189344 0.077637784
000180 7f 45 f8 bd 48 9d c1 bd c9 14 68 3c 12 60 88 3d
       -0.1212263 -0.09453827 0.014165112 0.06658949
000190 58 e1 25 3d 11 de 42 3c 8c aa 86 3c 73 11 e4 bd
       0.040498108 0.011893765 0.016438745 -0.11136141
0001a0 30 ba f2 bc ea 52 b3 bc 70 d0 d0 bd 69 2a f9 3c
       -0.029629797 -0.021890122 -0.10196006 0.03041573
0001b0 b1 f9 d0 bd dc f5 cb bd 59 df 3f be 89 e0 00 bc
       -0.10203875 -0.09959003 -0.18737544 -0.007866033
0001c0 c0 8a e1 bc 71 80 98 3a 7d d5 be 3d 7e c2 06 39
       -0.027531981 0.0011634958 0.093180634 0.0001285169
0001d0 9a f1 4f 3d 0f 17 16 3c 8b 2c 6f bd 8c 06 91 3d
       0.05076752 0.009160771 -0.05839209 0.07081327
0001e0 42 f6 6b 3d 66 71 0f bd 8b 45 f4 b9 dd f0 ef 3c
       0.057607897 -0.035020255 -0.0004659112 0.029289657
0001f0 de 12 8b bc 52 d7 99 3c 3f f4 c5 3d 22 db d8 3d
       -0.01697677 0.01877943 0.09665727 0.10588671
000200 21 76 3b bb f9 47 9e bc 4e 50 1e 3e d6 9f be 3b
       -0.0028604346 -0.019321429 0.15460321 0.005817394
000210 c1 2a 11 bd 88 ae d8 bd b9 da 67 be b7 41 12 3c
       -0.035441164 -0.10580164 -0.2264203 0.0089268
000220 d8 71 de 3c 35 98 1c bd f0 53 8d bd 8c a3 76 3d
       0.027153894 -0.038231093 -0.069007754 0.060214564
000230 e9 1c a6 bc 4a 4e ee 3c 8f d3 9b bd cd 2c 1b bc
       -0.020277457 0.029090066 -0.07608711 -0.009471131
000240 cc 8b 0d 3d 5a e3 85 bd e0 f4 c6 3d b4 30 4d 3e
       0.03455715 -0.065375045 0.09714675 0.2003811
000250 c3 28 fd bd 39 ff 93 3d 3f dd e2 3c de 2d 43 3c
       -0.1236129 0.07226414 0.027693389 0.011912791
000260 42 31 aa 3c ef 6f 2b 3c 40 7b 21 3b a2 9e f7 bd
       0.020775441 0.010463699 0.0024640113 -0.12090804
000270 02 7f 8d 3e d6 1f 05 3f b1 e0 e9 3d 48 2c 91 3d
       0.27635962 0.520017 0.114198096 0.07088524
000280 09 1d e4 bb 0f 3f 65 bd 14 8a bd 3c c5 5c 22 bb
       -0.006961469 -0.05596834 0.02313713 -0.0024774533
000290 f6 9a 71 3c 69 86 6f bc 18 f3 2b 3e 99 d1 26 bd
       0.014746418 -0.014619448 0.16791952 -0.04072723
0002a0 fc 61 28 3c 50 fc 33 bd c3 70 01 bb 82 9f 9d bd
       0.010277268 -0.043941796 -0.001975105 -0.07696439
0002b0 f0 a7 51 bd 32 5d 5a be e4 f9 7b 3d 41 a6 73 be
       -0.05118555 -0.21324614 0.06151761 -0.2379389
0002c0 6b 2f 09 be e3 06 76 3d a4 38 8b be 42 5f 0f be
       -0.13396995 0.06006516 -0.2719165 -0.14001182
0002d0 6d d5 87 bc 9e 38 a0 bc eb de 91 bc a8 51 5f 3d
       -0.016581262 -0.019558247 -0.01780649 0.054521233
0002e0 0b 98 61 3d 20 d8 43 bd f3 34 eb bc be 19 10 3d
       0.05507664 -0.047813535 -0.028711772 0.0351808
0002f0 bc f8 1e bd 97 70 d0 be 5d d2 8b 3c ed f7 0b 3e
       -0.03881143 -0.407109 0.017068082 0.13668795
000300 7a 82 9f be ca db d8 bb e1 c2 bf 3e b9 1a 0a be
       -0.31154233 -0.006617998 0.37453368 -0.13486756
000310 28 59 6e bc 5c 91 78 3e 11 06 0f be 7f 8d 79 3c
       -0.014547624 0.242742 -0.13967158 0.015231489
000320 37 05 b4 3d e1 fa 96 bd 4d aa 64 bc c3 35 12 3e
       0.08790057 -0.0737207 -0.0139566185 0.14278321
000330 75 70 12 bd e9 60 b7 bc 25 7f bc 3c b4 fb 85 be
       -0.03575178 -0.022385078 0.023009846 -0.26168597
000340 98 e3 53 be 0d 2d 7e be 16 c0 1c 3d 05 89 b0 3c
       -0.20692289 -0.24821873 0.038269125 0.021549711
000350 ec 6d 03 be 10 2a a3 3e a7 8b 79 3e d4 41 35 3e
       -0.128349 0.3186803 0.2436968 0.17700893
000360 23 1a 33 bd 5b 20 1f be 50 23 81 bd 14 43 14 bc
       -0.043726098 -0.15539686 -0.063055634 -0.009049196
000370 15 94 86 bd 7d 8a 79 bc 3d 48 96 3d 75 07 c6 3d
       -0.06571213 -0.015230772 0.07337997 0.09669391
000380 44 07 dd 3d b1 c1 94 3c bd bb fe 3c ef 1a a4 bd
       0.107924014 0.018158766 0.03109538 -0.0801295
000390 35 1c d5 3c 2b 9a 5d 3c 4f 83 f5 3c c1 39 ca bd
       0.026014427 0.013525526 0.02996984 -0.09874297
0003a0 36 5b fe bd a7 c2 82 bc f3 23 67 bd 74 41 7d 3c
       -0.12419741 -0.015961958 -0.05643077 0.0154575
0003b0 25 65 06 bd 2d 11 48 3c 9d 29 3e bd 65 bf bf b9
       -0.032811303 0.012211126 -0.046426404 -0.0003657296
0003c0 89 d9 b5 bc aa ba b3 3c 72 c9 19 bd 38 e2 06 bd
       -0.022198455 0.021939594 -0.03754563 -0.032930583
0003d0 6f 1d ae bc 27 f1 86 3d e3 eb a7 3c da ac 3d be
       -0.02125427 0.06588965 0.020498222 -0.18522969
0003e0 ee 35 1d bd cb 54 59 3d c1 e6 50 3e 95 c9 a8 bd
       -0.03838151 0.05305938 0.20400526 -0.08241574
0003f0 8a 9d 4a 3d 2a 2f 7e bd 93 05 00 3d e4 a7 1f bd
       0.049466647 -0.062056698 0.031255316 -0.038978472

conv_net.C2.weight f4 [64, 32, 3, 3]
000000 8c b1 a5 3c a1 e4 2d bd 05 f6 41 3c c1 30 47 bd
       0.020226263 -0.042454366 0.011838441 -0.04863048
000010 db 7d 72 3c 46 17 6f 3c 44 8b 0e 3d 9b 27 a8 ba
       0.014800514 0.014592951 0.034800783 -0.0012829186
000020 9c 7c 6b 3c 12 fb ec bc 02 41 d2 bc 69 f1 ec bc
       0.014372971 -0.028928313 -0.025665764 -0.028923707
000030 11 39 25 bd d0 f4 f8 3c 03 f6 bf 3d d6 a6 56 3d
       -0.040337626 0.030390173 0.09373095 0.0524052
000040 99 a3 d0 3d c5 ee 0e 3d 02 37 d3 bc 30 37 e5 bd
       0.10187454 0.034895677 -0.025783066 -0.11192167
000050 6f d7 d1 bd 99 cb 06 3e 5c 9f c6 3c d0 12 d0 3c
       -0.10246169 0.13163604 0.02424591 0.025399595
000060 d1 a4 11 bd ff 79 f6 bd 36 b5 4f be 07 4d a9 bc
       -0.03555757 -0.12034988 -0.2028397 -0.020666612
000070 b6 63 08 be 41 e5 d6 bd 7c 98 ad bd 29 60 16 3e
       -0.13319287 -0.104929455 -0.0847635 0.1468512
000080 8b a0 31 3e 47 45 49 be f3 55 15 3e e6 d1 21 3e
       0.17346399 -0.19655333 0.14583568 0.15802726
000090 92 77 17 bd d0 4f ac bc 56 e3 e7 bc cc 71 91 bb
       -0.036979266 -0.021034151 -0.028306644 -0.0044386145
0000a0 40 f0 14 bc 00 f8 49 bd 80 43 2b bc 7f 21 d5 bc
       -0.009090483 -0.049308777 -0.010453105 -0.026016949
0000b0 fa 94 9f bc d8 46 38 3d 9e b6 74 3c 03 67 00 be
       -0.019480217 0.044989437 0.014936117 -0.12539296
0000c0 80 b8 e8 3a 8c d6 75 3d a6 8a 73 bd 47 40 4f 3d
       0.0017755181 0.06001906 -0.059458397 0.05059841
0000d0 af 5c 64 bd c6 b8 f0 bd 15 ac 81 3d 9d 7c 2a bd
       -0.055752452 -0.11753993 0.0633165 -0.041622747
0000e0 f0 4c 5d 3d dc 3f a6 3d d0 87 c1 3d 94 3a 30 bc
       0.05402845 0.08117649 0.09449732 -0.010756154
0000f0 5b d7 4a 3d a1 70 1d bd d0 7d 36 be 78 24 e0 3d
       0.049521785 -0.03843749 -0.17821431 0.10944456
000100 85 7c ea bd ad e0 45 be c8 e4 ef bc 66 58 4b bd
       -0.114495315 -0.19323988 -0.029283896 -0.04964485
000110 87 8b 48 bd 59 ee d3 bc 57 b1 2b 3d 90 ab 79 bc
       -0.04896119 -0.025870489 0.04191717 -0.015238658
000120 e4 32 8b 3d cf d8 6c bd 68 a0 1c be 59 5b ed 3d
       0.06796816 -0.057823952 -0.15295565 0.11589689
000130 a5 f1 00 3b a7 9f b9 bc 98 f8 7a 3e 9f 16 a9 3d
       0.0019675281 -0.022659136 0.24508893 0.08256268
000140 c4 4b d6 bc 51 0b d6 bc e6 af 95 bd 2d 27 87 bd
       -0.026159175 -0.026128443 -0.073089406 -0.06599269
000150 05 6b 5a bc 68 ca 9b 3d c4 db 8c 3d a3 29 b8 bc
       -0.0133311795 0.07606965 0.068778545 -0.022480791
000160 c6 c3 89 3d 34 57 27 bd 33 2c de 3c ea 59 6b 3d
       0.06726794 -0.040854648 0.027120685 0.057458796
000170 41 ca 0f 3e cc 25 6b bd 50 e7 2e bc ea 4b 3b bc
       0.14041997 -0.057409093 -0.010675266 -0.011431674
000180 d4 90 3d bd 53 91 60 bc 11 0a 71 bd 81 c5 92 bd
       -0.046280697 -0.013706523 -0.05884749 -0.07166577
000190 18 eb 9a 3c b3 fa 00 3e bb 06 4f 3d ce 84 8c 3d
       0.01891093 0.12595634 0.050543528 0.06861268
0001a0 a8 05 d5 3c 93 bf 7c 3c 39 aa b1 3c 47 87 9c bc
       0.026003674 0.015426534 0.021687614 -0.019107474
0001b0 b1 88 8e 3c 94 c2 c9 bc 1e af 0e bd dc 45 31 3d
       0.017399164 -0.024628915 -0.034834974 0.043279514
0001c0 2c 22 59 bc 2d 87 c6 3d 83 dd 6d bd 25 a5 24 3c
       -0.013252776 0.096937515 -0.05807258 0.010049139
0001d0 dc c9 34 bd 35 a5 1e be b5 7d 8e 3c 04 32 1c 3e
       -0.04413782 -0.15492709 0.017393926 0.15253454
0001e0 89 42 10 be 2b c0 94 bd 22 15 20 3e 8a 93 5d 3d
       -0.14087881 -0.07263216 0.15633062 0.054095782
0001f0 85 1e d9 bd 62 73 6b 3d 19 ad a8 3d 67 1e 0b 3d
       -0.10601524 0.057483084 0.08236141 0.03396454
000200 88 6f 9e 3d ee f7 0b bd 70 aa eb bd 97 17 2a 3c
       0.07736117 -0.03417199 -0.11507118 0.010381601
000210 42 67 ed bd 84 86 b0 bd f1 c6 5a bd 77 2f 90 3d
       -0.115919605 -0.08619407 -0.05341238 0.07040303
000220 dc 42 ba 3d 25 28 3a 3e ed 36 91 3d 76 00 12 bd
       0.09094784 0.18179376 0.070905544 -0.03564497
000230 c5 74 6d 3b 55 0c ea bc 92 5f 52 be e7 95 4c be
       0.003623293 -0.028570333 -0.2054427 -0.19979058
000240 fc 9f d2 3c fc 27 87 bd e1 cb 34 bc c8 e0 e9 bc
       0.025711052 -0.06599423 -0.011034937 -0.028549567
000250 e3 5b e5 bd 5f db bd bc 08 7d cf 3d e0 c9 22 bd
       -0.111991666 -0.023175893 0.1013127 -0.039743304
000260 b1 41 79 3d 8c 0c 0a be b2 0f 9a bd 85 ef b7 bc
       0.060853664 -0.13481349 -0.07522525 -0.022453079
000270 c2 74 2c bc 72 ef 0e 3d 1d f3 e3 bc cf ed 27 3c
       -0.010525884 0.03489632 -0.027825886 0.010249569
000280 12 ba 9e 3c 5c 2d 69 3c d1 f4 9b bd 69 8c 7a bc
       0.019375835 0.014232006 -0.076150544 -0.015292265
000290 65 7c d7 3c 8a 8e 51 bc 0c 2b 3e bd 23 a7 f8 bc
       0.026304433 -0.012790332 -0.04642777 -0.030353134
0002a0 cc 02 e6 bc 63 fc 90 bd 29 81 89 bd 30 1b 96 3d
       -0.028077506 -0.07079389 -0.067140885 0.07329404
0002b0 c0 d0 c3 bc 98 fc 30 bd f0 98 ac 3d 43 40 4f 3d
       -0.02390325 -0.043209642 0.08427608 0.050598394
0002c0 dc b3 5c bd 8e 5c 33 bc fd fe 4b 3d d2 93 97 bd
       -0.053882465 -0.01094736 0.049803723 -0.07401241
0002d0 3b b9 59 3e 76 b9 2d 3e 01 67 c7 3d fc 0b 80 3d
       0.21262066 0.16965279 0.09736443 0.06252286
0002e0 a1 7c 9a bc 20 2d 2d be 2c 73 d3 bb ed d4 d7 bd
       -0.018858256 -0.16911745 -0.0064529385 -0.10538659
0002f0 f9 0d 65 be c9 64 3b 3d 9a 75 04 3c 4e 0a fb 3c
       -0.22368611 0.045750413 0.008084679 0.030644562
000300 af 77 d1 bc 88 08 a4 3c f4 49 85 3d ab 1d 2d 3d
       -0.025569765 0.0200236 0.06508246 0.04226462
000310 f5 1c 99 3c 88 86 d7 bc fa 30 85 bd e6 4f 8c bd
       0.018690566 -0.026309267 -0.06503482 -0.06851177
000320 d5 ef bc bd 82 12 46 3a fd 1b 82 bd 78 90 84 3c
       -0.09225432 0.00075558585 -0.063529946 0.01618217
000330 e9 04 97 3d 10 f4 07 bd cd bc 09 3b 40 0b 98 bd
       0.073739834 -0.03319174 0.0021017075 -0.07424021
000340 50 22 08 be 3e 85 06 be 7a 30 6e bd 2e b3 a6 bd
       -0.13294339 -0.13136765 -0.0581517 -0.081396446
000350 51 68 82 bd a1 53 a9 3d bf 2d 8f 3d 12 71 11 3e
       -0.06367553 0.08267904 0.06991147 0.14203289
000360 8d 5d 7f 3c 11 2d 76 3c 3a 94 03 3c 85 26 e8 3c
       0.015586269 0.015025393 0.008030945 0.02833868
000370 cc 02 71 3d 21 6b fa 3c 83 96 56 3d d6 fe 04 bd
       0.058840558 0.030568661 0.052389633 -0.032469593
000380 0b 0a 9d bd 57 c5 bc bc fd b2 0a bc 4b 3d 45 bd
       -0.07667931 -0.023043318 -0.008465526 -0.048154157
000390 74 88 81 bb 3c 7f 65 3d 45 cf a6 3d d0 53 8b 3c
       -0.003953034 0.056029543 0.08145002 0.017007738
0003a0 68 c6 8d 3c a0 cb 5c 3d cd 55 85 bd f7 f9 8f 3c
       0.017306522 0.05390513 -0.06510506 0.017575247
0003b0 cf a6 e2 3b b5 7d 69 3b b0 48 05 bd ac f8 dc 3c
       0.006916858 0.0035627906 -0.032540023 0.026974045
0003c0 2f 01 bd 3c 32 55 00 3e c8 2b b8 bc 07 e5 32 3b
       0.023071853 0.125325 -0.022481814 0.0027297155
0003d0 17 de 45 bc ee f0 e4 3c e2 99 01 bd c9 3f bd bc
       -0.012076876 0.027946915 -0.031640895 -0.023101704
0003e0 06 74 fa 3c 40 c5 c7 bc 0c cd c3 3c 11 1e 56 3d
       0.030572902 -0.024386048 0.023901485 0.052274767
0003f0 35 e7 ad bc 1f 3d 93 bb 2d 08 1a be ef 0a 01 bd
       -0.021228412 -0.00449337 -0.15042181 -0.031504568

conv_net.C3.weight f4 [128, 64, 3, 3]
000000 23 66 8f bd d5 75 2c be 80 42 a2 bb db c7 bf 3b
       -0.07001903 -0.16841824 -0.004951775 0.005852682
000010 4e e5 3a bd e4 26 f4 3c a1 23 00 3d e8 40 c5 bb
       -0.04562884 0.0298037 0.03128398 -0.0060197003
000020 32 83 53 3d c0 7b 7c 3c df d3 80 bc 73 54 24 bd
       0.05163879 0.015410364 -0.015726028 -0.0401196
000030 45 bc 89 bd ef f1 6e bd e0 db 6a bd b2 09 4b bd
       -0.06725363 -0.058336195 -0.057338595 -0.049569793
000040 24 34 7d bd 05 46 67 bd d8 54 60 bd b7 2c 3d bd
       -0.061817303 -0.05646326 -0.054768413 -0.04618522
000050 e3 65 07 bd 20 08 d4 bd 48 1b ea bd e0 97 62 3c
       -0.03305615 -0.10353112 -0.11430985 0.013830155
000060 fb f5 2f bd f0 3f a4 bc d4 68 18 3d 71 74 3d bd
       -0.042959195 -0.020050019 0.037209347 -0.046253625
000070 03 a6 45 bc a5 94 e9 3b 4a eb fe bc d5 30 65 bd
       -0.012063506 0.0071283155 -0.031118054 -0.055954773
000080 82 69 e5 bb 20 0d 06 bd 58 45 23 3d 16 b2 3e 3d
       -0.007001103 -0.03272736 0.039861053 0.046556555
000090 24 00 ad bc e2 65 11 bd c0 01 c7 3d d0 6f 78 bd
       -0.021118231 -0.035497554 0.09717131 -0.060653508
0000a0 9c 12 09 be 71 02 2e bd 5f 44 8f bc 55 fc d1 3c
       -0.13386005 -0.042482797 -0.017488657 0.025633017
0000b0 d4 96 c8 bc 78 ad a2 bd b8 53 e2 3c 48 16 f0 3c
       -0.024485983 -0.07943243 0.02762781 0.0293075
0000c0 59 52 48 3c da 37 36 3d dd d1 3e 3d 89 54 82 bc
       0.012226664 0.044486858 0.04658686 -0.01590945
0000d0 07 30 71 3c 4b bd 7c 3d bb ab 93 ba 9b 07 bb bb
       0.014720923 0.06170396 -0.001126639 -0.0057076938
0000e0 66 9d 15 3d 05 e6 09 3d 69 a1 77 3c 9e a7 8d 3c
       0.03652706 0.03366663 0.015114167 0.01729184
0000f0 29 96 67 3d 6d 67 45 bd 75 7c bd bd e7 4d 05 3d
       0.05653969 -0.048194338 -0.09252254 0.032544997
000100 9e 13 ab 3b 4a a1 ed bc 16 97 5d 3b 58 12 49 bc
       0.0052208444 -0.029007573 0.0033811978 -0.01227244
000110 41 53 1f bd de 29 97 3d 84 4e 0c 3d 7f 31 d7 bd
       -0.038897756 0.073810324 0.034254566 -0.105074875
000120 20 3e d7 3c bf 4e ba bc 59 22 0b be 0a 3b a1 3b
       0.02627474 -0.022742627 -0.13587321 0.004920368
000130 05 b5 ed bb 77 09 e0 3b 19 8b 66 bd f6 ce 22 bd
       -0.007254245 0.006837066 -0.056284998 -0.039748155
000140 e0 7c 21 3d f7 eb 5b bd 8a 63 cb bd 4a c6 86 3c
       0.03942573 -0.05369183 -0.09931095 0.016451973
000150 c2 85 e0 bc da 0d 94 be c1 30 ee bc ef f8 61 bd
       -0.02740753 -0.28916818 -0.029075982 -0.055169042
000160 98 18 ec 3d f9 7c 03 bb ac 55 0b 3d 5a 1d dd 3c
       0.115281284 -0.0020063503 0.03401725 0.026991535
000170 46 65 ac bc 0e e0 c1 3c 97 cc cc bd 31 e2 e1 3c
       -0.021044385 0.023666408 -0.0999996 0.027573677
000180 92 85 fc bc 80 54 a7 bd b7 58 e2 3d 40 9e c2 bc
       -0.03082541 -0.08170414 0.11052077 -0.0237571
000190 3c b7 27 3c e4 11 ad bb 34 99 c1 3c 45 91 4b 3d
       0.010236558 -0.0052816737 0.023632623 0.049699087
0001a0 f9 e5 61 bc 13 1a 91 bb cc 52 f7 bb 54 32 0b bd
       -0.01378774 -0.004428157 -0.007547712 -0.033983544
0001b0 e9 e8 bb bd 8d 76 8b bc 76 89 e4 3b 44 04 db bd
       -0.091752835 -0.017024303 0.0069743944 -0.10694173
0001c0 86 d0 c4 3c 81 36 ad bd e3 30 76 bd 7a 5b 0c bd
       0.024025213 -0.084576614 -0.060105216 -0.034266926
0001d0 b8 bf 69 bc 69 8e c1 3d f4 eb 92 3d 18 2e b7 3c
       -0.014266901 0.09450991 0.07173911 0.022360846
0001e0 09 2e 22 bd 7c 1f c0 bd e7 0d 1d bc a6 80 16 bd
       -0.039594684 -0.09381005 -0.009585834 -0.036743782
0001f0 90 ca 00 bc a3 5d 21 bd 61 80 96 bd 93 f1 cb bd
       -0.007860795 -0.03939594 -0.07348705 -0.09958186
000200 96 a1 6a 3c 5d 7e 9f bd 02 c2 3f bc b6 7a 08 3e
       0.014320752 -0.07787774 -0.01170397 0.1332806
000210 06 de 97 3c 2b b3 22 3d 5b 4f 0f bd d4 24 69 3d
       0.018538486 0.03972165 -0.03498779 0.056919888
000220 09 68 ff 3c ba e2 51 bc 85 b4 7d bb a3 7d ab bc
       0.031177538 -0.0128104035 -0.0038712334 -0.020933932
000230 34 3d 95 3a b5 85 64 bd c4 3b 95 bd c9 70 44 bd
       0.0011386038 -0.055791575 -0.0728679 -0.047959123
000240 09 3c 2a bd e5 ab 6b 3c 1a f7 d0 bc bc 6b b6 bd
       -0.04156116 0.014384245 -0.025508452 -0.089072675
000250 52 4c 8a bc eb 2b fc bd 77 73 0d 3d 37 67 9c 3d
       -0.016882095 -0.12313064 0.034533944 0.07636874
000260 70 a4 6e bd 01 8d bb 3c ea 3b b5 b9 de d8 42 bd
       -0.05826229 0.022894384 -0.0003456765 -0.047570102
000270 7f 5e e0 bb 95 07 02 3d da bd 53 bd 79 8f ac bd
       -0.0068472023 0.031745512 -0.05169473 -0.08425803
000280 a9 25 a3 bc 03 46 0d bd c4 1c 55 bc 82 88 a9 3b
       -0.019915419 -0.034490597 -0.013007347 0.0051737437
000290 53 88 47 bd 7f 6f 86 bd 87 74 36 bd 0f 04 c1 bc
       -0.048713993 -0.06564235 -0.044544723 -0.023561506
0002a0 97 2f 40 bc 23 70 33 bc f9 f1 68 bd 8c c8 40 3d
       -0.011730096 -0.010952028 -0.056871388 0.047066256
0002b0 76 ac 0b bd 24 9f 2c bd a3 92 9d 3c b5 b3 fd bc
       -0.03410002 -0.042143956 0.01923496 -0.03096948
0002c0 28 9f a5 bc 24 e9 ef bd 72 b3 9c bd d5 3d d5 3c
       -0.020217493 -0.1171439 -0.07651414 0.02603046
0002d0 55 53 26 3c 26 a4 74 3c b6 fe 9d bb fb 70 35 bd
       0.010151704 0.014931714 -0.0048216237 -0.0442972
0002e0 d1 09 dc bc c4 84 ec 3c 0e 6c 0a 3d 7d 1f 86 bb
       -0.02686015 0.028871901 0.033794455 -0.004093109
0002f0 fa 16 1d bc d0 96 88 bc d9 dd 83 bd 54 11 65 bd
       -0.009587998 -0.016673476 -0.064387985 -0.05592473
000300 06 7d 9f 3c c9 3e 14 3e e0 09 83 3d ba d2 08 3d
       0.019468796 0.14477076 0.06398368 0.03340409
000310 02 9e d6 3c 4d cc 19 3c 7f b9 90 3d 20 6e de 3c
       0.02619839 0.009387088 0.070666306 0.027152121
000320 64 a1 93 bd 86 5d b4 3d 35 25 89 bc 8a 91 af 3c
       -0.07208517 0.08806901 -0.016741375 0.021431703
000330 22 27 3a 3d 37 04 4a bc 64 41 88 bc 93 3c 91 bd
       0.045447476 -0.012330106 -0.016632743 -0.07091632
000340 ee c2 11 bd e7 0c 6c bd 9c 7c 59 bd ad d3 e0 bc
       -0.03558629 -0.057629492 -0.053097352 -0.027444685
000350 a1 b1 8c bd 7a 79 f4 bc a1 59 3a bc cc c4 aa 3c
       -0.068698175 -0.02984308 -0.011373908 0.020845793
000360 8e 62 d0 3d 1a de b8 bc 9f 71 08 bd e5 b3 cd 3c
       0.10175048 -0.022566844 -0.033311483 0.025110194
000370 90 cf 99 bd d1 16 77 3c 1d a0 f2 bd 98 d1 64 bc
       -0.075102925 0.015081123 -0.118469454 -0.013965987
000380 fa 5e d3 3c 4f 61 98 3d 35 a0 6e 3d 34 ff 3b bc
       0.025802124 0.07440435 0.058258254 -0.011474419
000390 66 d2 f1 3d 3e 92 e8 3b c5 b9 a0 bd 6f ac b8 bc
       0.118077084 0.0070975116 -0.07847933 -0.02254316
0003a0 d4 b0 1c bc 85 cf 2e be 0f a8 52 bd d7 6f 4b 3d
       -0.0095636435 -0.1707135 -0.051429804 0.049667206
0003b0 7b 89 6a 3d b4 c9 4c bd d5 6e fd bb d4 d7 ff bc
       0.057260018 -0.049997047 -0.0077341595 -0.031230845
0003c0 c4 e3 72 bc 20 f6 e0 bc 69 b9 c7 3c 01 5f 1c 3c
       -0.014824811 -0.027461112 0.024380403 0.009544135
0003d0 31 24 08 bd b4 82 71 bd ed 3c 4d 3d a9 c7 03 be
       -0.03323764 -0.05896254 0.05010693 -0.12869133
0003e0 de 2b 72 bb 13 a5 c9 bd f9 cc 0f be 40 19 bd bd
       -0.0036952416 -0.098459385 -0.14043035 -0.09233332
0003f0 a9 31 ac 3d 99 df c8 3d 38 f6 5c 3d eb 3d 21 3d
       0.084079094 0.09808273 0.05394575 0.03936569

conv_net.C4.weight f4 [1, 128, 3, 3]
000000 f4 d6 69 bc bb ec 22 bc 07 52 67 bd 39 00 75 bb
       -0.01427244 -0.009944136 -0.05647471 -0.0037384166
000010 0f 53 ea bd 53 03 4f bd 72 fc 0d bd 33 f8 a5 bd
       -0.114416234 -0.05054028 -0.03466458 -0.08103981
000020 a8 2f e9 bc d4 2c 12 3c c9 61 86 bc cf d1 f3 bd
       -0.028465107 0.008921821 -0.01640405 -0.11905252
000030 d1 49 70 3c 9c f7 1c bc 00 04 0a bd 78 d3 dc 3c
       0.014666037 -0.009580519 -0.03369522 0.026956305
000040 35 34 c7 3b 4f 25 39 bc d6 6e c8 3d 74 d4 88 bc
       0.0060792216 -0.011300399 0.09786765 -0.016702868
000050 fc f6 82 bc 94 38 fe bc a6 a5 b0 bc 4a 6e 2c bc
       -0.015986912 -0.031032838 -0.021563362 -0.010524342
000060 de 39 cd bb 7d 22 75 bb dc 37 4e 37 ff 32 81 bd
       -0.006263002 -0.003740459 1.2291563e-05 -0.06308555
000070 f1 b0 29 3d b6 4d 06 3d 56 3b 9f bd e8 f0 8e bc
       0.04142851 0.032788955 -0.07774989 -0.017448857
000080 39 02 98 3d 89 2c 6e bd 61 74 de 3c 55 ea 18 3d
       0.07422299 -0.05814794 0.027155103 0.03733285
000090 cf c5 9d 3c 45 47 a8 3c 5e 3e c9 3c 1e a4 b9 3b
       0.019259362 0.020541796 0.024565872 0.0056653162
0000a0 fb d5 78 3c 3f da b9 3c 28 65 82 3c 8e da 74 3c
       0.015187736 0.022687076 0.015917376 0.014944686
0000b0 fe 4f f3 3c b5 8b 75 bc d1 00 b6 bc 11 cd 7f bc
       0.02970123 -0.014986922 -0.022217186 -0.0156128565
0000c0 50 97 e7 bc ad 41 16 bd ad b5 2d bd f6 1c 06 bd
       -0.028270394 -0.036683727 -0.042409588 -0.032742463
0000d0 ae 06 8b bd 8e d1 a5 bd 64 57 98 bc 87 ea 11 bd
       -0.067883834 -0.0809661 -0.018596359 -0.035624053
0000e0 e0 b8 e6 bc 23 f2 3a bc 2e 69 08 bd df db 6d bc
       -0.028164327 -0.011410269 -0.033303432 -0.014517753
0000f0 49 b9 4d bc 4e 03 ff bc 9d 02 b6 bc 80 72 81 3b
       -0.012556382 -0.031129505 -0.022218043 0.003950417
000100 bc 7a 31 bc 88 6f 06 3d cb 37 82 3b e4 f3 2f bc
       -0.010832485 0.03282121 0.003973936 -0.0107393
000110 27 fa ab 3d 54 b3 3c 3c c9 f2 39 3e 20 ce c4 3d
       0.08397322 0.0115173645 0.18159021 0.09609628
000120 69 38 8e bc 46 a3 a4 bc ae 19 2a bc 5d df 96 bc
       -0.017360883 -0.020097386 -0.010382099 -0.018417055
000130 07 d5 45 3e 4a 5c 88 bb 31 28 9f bb 77 b9 9e bc
       0.19319545 -0.0041613923 -0.004857086 -0.019375546
000140 b4 35 be bb e4 ec 1c 3e a5 ac 43 3e c7 70 6b 3d
       -0.0058047418 0.15324742 0.19108827 0.0574806
000150 5c 1a fd bb 35 bf 98 3b 6f ea 74 3a 8e 97 52 3a
       -0.0077240895 0.0046614655 0.00093427947 0.00080334477
000160 8e 67 60 3a cf cd 53 b9 14 66 21 3c 44 61 6c 3d
       0.0008560353 -0.00020199198 0.0098509975 0.057709947
000170 b7 50 91 3d b6 d7 83 bc 13 45 50 3c 48 70 34 3d
       0.07095473 -0.01609407 0.012711781 0.044052392
000180 b3 64 96 bd 5e 68 2b bd 55 c6 43 bc 0e 0f 8e b9
       -0.073434256 -0.04184758 -0.0119491415 -0.00027095567
000190 bc 6b 15 bb 60 3d b0 ba 39 18 20 3b 2d b5 58 bc
       -0.002279981 -0.0013446026 0.00244285 -0.013226789
0001a0 e6 f7 1f bb 64 2b 92 3c bf 0f 25 3d 05 be 51 3e
       -0.0024409234 0.017842956 0.04029822 0.20482643
0001b0 35 41 8e 87 e3 3e 87 87 dd ea 83 87 ee 5e 8c 87
       -2.140411e-34 -2.0349504e-34 -1.984873e-34 -2.1120653e-34
0001c0 09 15 84 87 e0 e5 7f 87 d9 9e 88 87 18 04 7f 87
       -1.9873516e-34 -1.9251622e-34 -2.0556368e-34 -1.9185271e-34
0001d0 19 fb 72 87 bb 47 fe bc d9 70 b4 bc 85 f3 ba 3a
       -1.8279847e-34 -0.031040063 -0.022026466 0.0014263248
0001e0 0c f4 5e bc 2e c4 45 be df 80 4b 3b 85 6a 3a bc
       -0.01360799 -0.19313118 0.0031052155 -0.011377935
0001f0 1d a8 aa 3b 46 c9 02 bb 60 d7 23 bd ec 5e 63 bc
       0.005208029 -0.0019956394 -0.04000032 -0.013877612
000200 0a 5c ee bc 23 8f 33 bd 20 3a e7 bc b4 e6 17 bd
       -0.029096622 -0.043837678 -0.028225958 -0.03708525
000210 5d 51 99 bd c6 88 1b bd d5 e0 10 bd 91 4d 33 bc
       -0.07486222 -0.037972234 -0.035370667 -0.010943786
000220 8e f6 b2 ba 55 13 18 bc 32 1e 74 bc 6b d9 8b bc
       -0.0013653801 -0.009281953 -0.014899777 -0.017071446
000230 80 00 90 bc e6 bc 97 bc 2e 38 b4 bc 00 4a 9a bc
       -0.017578363 -0.018522691 -0.021999445 -0.018834114
000240 3e f1 70 bd 8c 50 4c bd 77 08 f8 bc 14 72 24 be
       -0.058823816 -0.049881503 -0.030277474 -0.16059142
000250 0b b2 bf bd fb a7 a6 bc ce 18 0f 3c 94 c0 19 3b
       -0.09360131 -0.020343771 0.008733941 0.0023460733
000260 c8 0e 4b bc 2d 5b 4d bb 71 20 ae 3b a4 9d 3f bc
       -0.012393661 -0.0031334863 0.005313926 -0.011695299
000270 a9 46 ef 3a 47 a3 f6 3b bb da 88 3e db bd fc 3b
       0.0018255311 0.0075267884 0.26729378 0.007713062
000280 b0 10 ad 3c 94 e3 32 3d 87 fc 4d 3c 90 b5 a6 bc
       0.021126121 0.043674067 0.012572414 -0.020350248
000290 ba 5b bb bd 66 2e 2e 3c 02 ca 59 3c ca 9d 93 bd
       -0.09148355 0.010631179 0.013292791 -0.0720783
0002a0 dc 22 3c 3d 9c ea 20 3d ca f0 88 bc 92 fc be bb
       0.045931682 0.03928624 -0.01671638 -0.0058284486
0002b0 c7 93 69 bc 18 4c 0e 3a b2 0f 85 bc 14 fc 8a bb
       -0.014256424 0.0005428209 -0.016242836 -0.004241476
0002c0 26 68 15 3e 54 af 58 bc 2a 05 2a bc 11 a1 42 bc
       0.1459051 -0.013225395 -0.010377208 -0.011879222
0002d0 4d db ab 3c cf 05 99 3d d2 a7 8e 3b 09 b3 f5 3b
       0.020978594 0.07471811 0.004353502 0.0074981493
0002e0 46 41 03 be 8f 2c 92 bd bf ff 9e bb ea 20 05 3e
       -0.12817869 -0.07137405 -0.0048522647 0.13000837
0002f0 5e 20 56 bc 3d 70 75 3d be c0 7c 3d c3 26 36 3d
       -0.01306924 0.059921492 0.06170725 0.04447056
000300 8a 1c 5c 3d c9 57 3f 3d 82 a6 14 3c 53 81 de ba
       0.053738154 0.046714578 0.009072902 -0.0016975797
000310 df 31 55 3b 63 f7 10 3c fc 74 d7 bd 19 2b 86 bd
       0.0032530946 0.008848044 -0.1052036 -0.06551189
000320 28 24 da bd 65 cb 8f bd fa 46 9a bc 1c b8 bb bd
       -0.106514275 -0.07021216 -0.018832672 -0.091659755
000330 db 83 b7 bd 43 e2 33 bd 09 5c d7 bd cc 5b 7e 3c
       -0.08960696 -0.043916952 -0.10515601 0.015524816
000340 c6 e7 ca 3c 50 29 8d 3b 76 a5 90 3c 0e 84 c5 3c
       0.024768721 0.0043079033 0.017657023 0.02411082
000350 3d 8c 9c 3b c6 d3 be ba ab b2 23 be 0f d3 70 3c
       0.00477746 -0.0014558963 -0.15986125 0.014698758
000360 34 cf f7 3b d5 c3 53 3c 99 32 fe 3c d9 31 09 3b
       0.0075625423 0.012925108 0.031029986 0.0020934253
000370 b7 df 07 bc d9 a7 50 3e eb ac 25 3b 72 09 ad 3b
       -0.008293084 0.20376529 0.002528007 0.005280667
000380 8a 6d b4 3b 63 69 e2 ba ee b1 9f ba b6 2a 88 ba
       0.005506222 -0.0017273839 -0.0012183764 -0.0010388705
000390 58 08 e4 38 94 57 b3 3d 13 99 8e ba 40 0a d9 38
       0.00010873441 0.087569386 -0.001087936 0.000103492755
0003a0 6e 3d 72 ba 45 ad b4 b9 3b 95 96 3a 6e 2f 88 3c
       -0.0009240721 -0.0003446137 0.0011488566 0.016624179
0003b0 ab 08 ad 3b 75 61 8e 3b 14 8b cb 3e b9 f1 5c 3b
       0.0052805743 0.004345114 0.39754546 0.0033713414
0003c0 41 9f 68 3c b1 89 87 3c c7 8a 1a 3c 47 bd 03 3e
       0.014198125 0.016545149 0.009432501 0.12865172
0003d0 a8 00 0e 3d ec 82 2a 3c 04 d4 89 3e 94 d1 4c bc
       0.034668595 0.010407191 0.26919568 -0.012501139
0003e0 c3 58 64 ba 97 98 a4 3b 1c ec 0b 3c 37 19 9d 3b
       -0.00087107363 0.005023073 0.00854018 0.0047942656
0003f0 e2 fa c7 3c 48 c0 b0 3c bc 65 35 bc 8a 32 86 3c
       0.024411622 0.021576062 -0.011071619 0.01638152
