CNN_weights/NetworkA_weights_CV2.pt (torch, 394591 bytes, 4 tensors)

conv_net.C1.weight f4 [32, 17, 3, 3]
0	0xbdc792f8	-0.09744829
1	0xbd3a697b	-0.04551075
2	0x3c09e038	0.008415274
3	0x3d61a327	0.055087235
4	0x3d9db6f6	0.07700913
5	0x3d04cdfb	0.032423
6	0x3e599210	0.21247125
7	0x3e06b253	0.13153963
8	0x3d69ef9b	0.05711327
9	0x3c8ccd77	0.017187817
10	0x3cdffc66	0.027342033
11	0xbb87eb41	-0.0041479175
12	0xbb5c9706	-0.0033659353
13	0xbef92e2e	-0.48668045
14	0x3d9290c2	0.071565166
15	0x3d791284	0.060808674
16	0xbd413af6	-0.04717537
17	0xbd204077	-0.03912398
18	0x3d7cd400	0.061725616
19	0x3d1988eb	0.03748409
20	0xbc1cbc60	-0.0095663965
21	0x3da01222	0.078159586
22	0xbc5a9039	-0.013340049
23	0x3db289c6	0.087176844
24	0x3e16f292	0.1474097
25	0x3dc64efa	0.09683032
26	0x3dfae4aa	0.122506455
27	0xbd98a951	-0.074541695
28	0xba836da0	-0.0010027178
29	0xbbbb4358	-0.005714815
30	0x3deaa84a	0.1145788
31	0x3ddca35b	0.10773345
32	0x3c81feb6	0.015868526
33	0x3d60ec0f	0.054912623
34	0xbac0569e	-0.0014674251
35	0x3d82fe98	0.06396216
36	0x3d6f0208	0.058351547
37	0x3d81a723	0.06330707
38	0x3bb558ed	0.0055342824
39	0x3a656352	0.00087504566
40	0xbd6ac08c	-0.057312533
41	0x3bf773a0	0.0075516254
42	0x3d3259f1	0.043542806
43	0xbba53942	-0.005042226
44	0x3c10e05c	0.008842554
45	0x3d7181d8	0.05896172
46	0xbc5b5f31	-0.013389395
47	0x3d7c265e	0.061560027
48	0xbc4c63f9	-0.012475007
49	0xbcb8c90a	-0.0225568
50	0x3d87012e	0.06592022
51	0xbd135bb5	-0.03597613
52	0xbd7d18bb	-0.061791163
53	0xbd0b61c1	-0.034028772
54	0x3d82714e	0.063692674
55	0x3d05fe3a	0.032713152
56	0xbaa15704	-0.0012309258
57	0x3d22cf47	0.039748456
58	0x3c424be8	0.011858918
59	0x3ca9eef4	0.020743825
60	0xbd4a5c88	-0.04940465
61	0x3c98c022	0.018646304
62	0x3d921184	0.07132247
63	0x3c50296f	0.012705191
64	0xbdb3fc96	-0.08788411
65	0x3d31e817	0.04343423
66	0xbba55ee7	-0.0050467136
67	0xbc39f481	-0.011349798
68	0x3cfd6aa6	0.030934643
69	0xba103408	-0.00055009173
70	0x3de853f4	0.11344138
71	0x3d46df9f	0.048553105
72	0x3d1bbe48	0.038023263
73	0x3d3d870e	0.046271376
74	0xbd39e189	-0.045381103
75	0x3d453ac2	0.04815174
76	0x3dc31cd9	0.09526987
77	0x3cb5c4f4	0.022188641
78	0xbd319560	-0.043355346
79	0x3cd59c29	0.02607544
80	0x3b919c0c	0.004443651
81	0x39e118d8	0.00042933854
82	0xbcd5fd65	-0.026121804
83	0x3c6d2962	0.014475198
84	0x3ca80701	0.020511152
85	0x3ca9ae51	0.020713003
86	0x3c0f2eed	0.008739215
87	0xbd8e0163	-0.06933858
88	0xbbaa6e73	-0.005201155
89	0xbd437722	-0.047721036
90	0xbc87dd47	-0.016585005
91	0xbda3085d	-0.079605795
92	0xbd49ddce	-0.049283795
93	0x3cb6cdce	0.022314932
94	0xbe2df6f2	-0.16988733
95	0xbcdae881	-0.026722195
96	0xbda398c9	-0.07988126
97	0xbd654a40	-0.055979013
98	0x3e09d7c0	0.13461208
99	0x3bb255f0	0.0054423735
100	0x3e0f4d91	0.13994433
101	0xbd8c0c12	-0.0683824
102	0xbdb9f977	-0.09080785
103	0x3e035990	0.12827134
104	0xbd51e947	-0.05124786
105	0xbd02fb8a	-0.031978168
106	0xbc97d691	-0.01853493
107	0x3b0b8331	0.0021287913
108	0x3d83fc7c	0.06444642
109	0xbd8c22e0	-0.068425894
110	0x3d4bd7a1	0.049766187
111	0x3d1e4827	0.03864303
112	0xbdd2465e	-0.10267328
113	0xbce4b613	-0.027918851
114	0x3d974f7d	0.07388208
115	0xbce28b42	-0.027654294
116	0x3da6c5fa	0.0814323
117	0x3be0a8ae	0.0068560457
118	0xbcdb3b37	-0.026761634
119	0xbc89c5fb	-0.016818037
120	0x3d1a5fef	0.037689146
121	0x3d995aa9	0.07487995
122	0xbce9b90a	-0.028530616
123	0xbc579bf0	-0.013159737
124	0xbc424b7e	-0.011858819
125	0xbc916b92	-0.017751489
126	0x3c022a73	0.007944691
127	0x3d32f66d	0.04369204
128	0x3c2c4a19	0.010515713
129	0xbc90ade9	-0.017661052
130	0x3cb0584f	0.021526484
131	0x3a1ec84a	0.0006057067
132	0xbc9948cd	-0.018711472
133	0xbb69d4b6	-0.0035679764
134	0xbdae4a4d	-0.085102655
135	0x3b97542c	0.0046181884
136	0xbbfb1fa0	-0.007663682
137	0x3c36c52c	0.011155408
138	0x3d144fe6	0.03620901
139	0xbcf9c346	-0.030488621
140	0x3c4cecd8	0.01250764
141	0x3c6a9e2a	0.014319936
142	0xbcdb509b	-0.026771834
143	0x3bc535b7	0.006018366
144	0xbd800a36	-0.062519476
145	0xbd805b70	-0.0626744
146	0x3d0ca7e5	0.034339804
147	0xbd558cfc	-0.052136406
148	0x3bcff14b	0.006345903
149	0xbdce8d21	-0.10085512
150	0xbe627f65	-0.2211891
151	0xbe289dc6	-0.16466436
152	0xbe409046	-0.18805036
153	0xbdcc9dab	-0.0999101
154	0xba5f9177	-0.0008528451
155	0xbe7fe25a	-0.2498869
156	0x3da538bc	0.08067462
157	0x3f1d63d5	0.61480457
158	0x3d5ef5f4	0.054433778
159	0x3e43158b	0.19051187
160	0x3c420ee9	0.011844375
161	0xbe0b4fd3	-0.1360467
162	0x3d6d3179	0.05790851
163	0xbacf75b1	-0.0015827921
164	0x3cc60680	0.024173021
165	0xbae7e0ed	-0.0017690934
166	0x3e090ee3	0.13384585
167	0xbcdf9b01	-0.027295591
168	0x3d6c1140	0.05763364
169	0xbd8b0b74	-0.06789294
170	0xbca65f61	-0.020309152
171	0xbdf08d82	-0.117457405
172	0xbde900d2	-0.113771096
173	0xbe5df733	-0.2167633
174	0x3c449347	0.011998004
175	0xbe72ec5d	-0.23722978
176	0xbe057aed	-0.13035174
177	0xbc74578e	-0.014913453
178	0xbe17aad0	-0.14811254
179	0xbd94ae6c	-0.07259831
180	0xbcb17c4e	-0.021665718
181	0xbccc3aba	-0.024930347
182	0x3d8728b9	0.06599564
183	0x3d3d766f	0.046255525
184	0xbc594de9	-0.013263204
185	0x3cb88c4b	0.022527834
186	0xbd41b590	-0.047292292
187	0xbd90c0e5	-0.07068042
188	0x3a143ca7	0.000565479
189	0xbe7edd13	-0.2488902
190	0xbd87ebdd	-0.06636784
191	0x3d865241	0.065586574
192	0xbe4a475d	-0.19753785
193	0xbdbebdd6	-0.09313552
194	0x3e79036f	0.24317716
195	0xbe0a6b8f	-0.13517593
196	0x3cdf9031	0.027290436
197	0x3e64e4e3	0.22352938
198	0xbd559b90	-0.05215031
199	0x3cc4f392	0.024041925
200	0xbd57ec3d	-0.05271553
201	0x3c1404b8	0.009034328
202	0x3d7cca67	0.061716463
203	0x3d298997	0.04139098
204	0xbdb16ec3	-0.08663704
205	0xbce0228c	-0.027360223
206	0x3d248711	0.040167872
207	0xbea2cd32	-0.31797177
208	0xbe2a1452	-0.16609314
209	0xbe0966ad	-0.13418074
210	0xbcb638af	-0.022243826
211	0xbbcb5bed	-0.0062060268
212	0xbcb95b54	-0.022626556
213	0x3e9a794d	0.3017067
214	0x3e213ab2	0.15745047
215	0x3e01a951	0.12662245
216	0x3d56d10b	0.052445453
217	0xbd05a3ec	-0.03262703
218	0x3ca237c9	0.019801991
219	0xbd8e6c8e	-0.06954299
220	0xbe0a9002	-0.13531497
221	0xbd7306a2	-0.059332497
222	0x3db0050e	0.08594714
223	0x3dd0a5c3	0.101878665
224	0x3d9dad2a	0.07699044
225	0xbd8c3179	-0.06845374
226	0xbd65e715	-0.05612858
227	0xbd3c9d1c	-0.04604827
228	0xbd2dfce3	-0.0424775
229	0x3d03d8a5	0.03218903
230	0x3d5ea09d	0.05435239
231	0xbd8dd3a0	-0.0692513
232	0x3c9124eb	0.0177178
233	0x3d8ef9be	0.06981228
234	0x373d9a69	1.1301229e-05
235	0xbb991d12	-0.004672655
236	0x3d1dfc4a	0.03857068
237	0xbc546e29	-0.012965717
238	0xbcbc058d	-0.022951866
239	0xbd26ff72	-0.040770955
240	0xbce53a11	-0.02798179
241	0xbcb78046	-0.022400033
242	0xbc9877db	-0.018611839
243	0xbd80af6b	-0.06283458
244	0x3bb26cb1	0.005445086
245	0xba63083d	-0.00086605904
246	0x3dbf20b2	0.09332408
247	0xbe1d70c2	-0.15375045
248	0xbc8ca71d	-0.01716953
249	0x3dc2a1cd	0.09503517
250	0x3e375732	0.17904356
251	0xbd019273	-0.031633805
252	0xbd0a04aa	-0.033695854
253	0xbd468a93	-0.048472
254	0xbcc43ddb	-0.023955276
255	0x3dd154d7	0.1022126

conv_net.C2.weight f4 [64, 32, 3, 3]
0	0x3dce7719	0.1008131
1	0x3c7f8d15	0.015597601
2	0xbd8f0ccb	-0.06984862
3	0x3db37689	0.08762843
4	0x3ca5809b	0.020202925
5	0xbbb92592	-0.0056502307
6	0x3d354cb8	0.044262618
7	0xbd775de3	-0.06039227
8	0x3c03c5c8	0.00804276
9	0x3da998fb	0.08281132
10	0xbde5aeec	-0.11215004
11	0xbcb303a3	-0.02185232
12	0xbdd25283	-0.10269644
13	0xbcad70dd	-0.021171981
14	0x3c99c228	0.018769339
15	0xbd7ab291	-0.06120545
16	0x3d364859	0.04450259
17	0x3d84691e	0.06465362
18	0xbc2c7e11	-0.010528103
19	0x3e1853b4	0.1487568
20	0x3e30f21b	0.17279856
21	0xbaabbfb4	-0.0013103397
22	0x3db93cd6	0.09044807
23	0x3e08b48f	0.13350128
24	0xbd9e4816	-0.07728593
25	0xbcc78335	-0.024354557
26	0x3b8d827e	0.0043185344
27	0x3dafa5ed	0.0857657
28	0x3b6b9bf1	0.0035951103
29	0xbd689f02	-0.056792267
30	0xbd0f665c	-0.035009727
31	0xbdd7cb9a	-0.10536881
32	0x3cee9664	0.029124446
33	0xbcb4298e	-0.021992471
34	0xbc915fe3	-0.017745918
35	0x3cbc3e4c	0.022978924
36	0x3d9ffe15	0.07812134
37	0x3d1380c8	0.036011487
38	0xbcaed370	-0.021341056
39	0x3dc36cf9	0.09542269
40	0x3d15b4d0	0.03654939
41	0x3d1f6a80	0.038919926
42	0xbd4c02c3	-0.04980732
43	0xbd773851	-0.060356442
44	0xbd3048a4	-0.043038025
45	0xbd9e70d3	-0.07736363
46	0x3cddefc2	0.027091864
47	0xbd002f4b	-0.031295102
48	0xbd59360b	-0.053030055
49	0xbd61e1f7	-0.055147137
50	0xbdf058ba	-0.11735673
51	0x3db70ecd	0.0893837
52	0x3d332805	0.043739337
53	0x3d5ddcb1	0.054165546
54	0xbc9f71ad	-0.019463385
55	0xbd7ccf01	-0.06172085
56	0x3cad21b6	0.021134239
57	0x3d9c4d7f	0.07631969
58	0xbce2040b	-0.027589818
59	0xbd31ac26	-0.043377064
60	0xbcef18c6	-0.029186618
61	0xbc8aefe7	-0.016960097
62	0xbd380bcc	-0.044933125
63	0xbce7d96a	-0.028301913
64	0x3d7f4ed6	0.062331043
65	0x3e01f7fe	0.12692258
66	0x3dd92bbd	0.106040455
67	0x3d055edf	0.03256118
68	0xbd9cd827	-0.07658415
69	0x3e21e4e3	0.1580997
70	0xbc0f6dfc	-0.00875425
71	0xbd8b6f97	-0.068083934
72	0x3dc886be	0.09791325
73	0xbaeeae55	-0.0018209914
74	0x3d34a20a	0.044099845
75	0x3ca31feb	0.01991268
76	0xbd267ad0	-0.040644467
77	0xbcd429f4	-0.025898911
78	0xbdcf83b4	-0.10132542
79	0xbd3f24e6	-0.04666605
80	0xbda4f02b	-0.08053621
81	0xbd4043d9	-0.046939705
82	0x3cc42805	0.023944864
83	0x3d04796f	0.03234237
84	0xbce8c4eb	-0.02841421
85	0x3e2180c6	0.1577178
86	0x3dffe0e7	0.124940686
87	0xbd7a6463	-0.061130892
88	0x3dad1283	0.084507965
89	0x3ce0b2d3	0.02742902
90	0xbca1219c	-0.019669347
91	0xbdc7e396	-0.097602054
92	0xbda588b7	-0.08082717
93	0xbb8af79c	-0.004240943
94	0xbccb2335	-0.024797061
95	0x3cf38b0c	0.029729389
96	0xbb941c85	-0.0045200014
97	0x3cdce170	0.026962966
98	0x3dab1994	0.08354488
99	0xbbe3b470	-0.006949
100	0xbdb81e93	-0.089902066
101	0xbda1e803	-0.07905581
102	0x3d58bf69	0.052916918
103	0x3d4d059f	0.05005419
104	0xbc31fbdc	-0.010863271
105	0xbd751618	-0.059835523
106	0xba5e90e1	-0.00084902166
107	0x3add9be0	0.0016907416
108	0xbd1789ae	-0.036996536
109	0x3de098a6	0.109666154
110	0x3c46a9e9	0.012125471
111	0xbd2dd0f5	-0.042435605
112	0x3b77e086	0.0037823035
113	0xbcac65d7	-0.021044655
114	0xbdd083ca	-0.10181387
115	0xbdc4586b	-0.09587177
116	0x3cd7978d	0.026317382
117	0x3b10bbcb	0.002208459
118	0x3d887786	0.06663422
119	0x3cfc26b1	0.030780168
120	0xbc14b76e	-0.009076936
121	0x3ddd358d	0.108012296
122	0xbd68ea4f	-0.05686408
123	0xbcd05704	-0.025432117
124	0xbd9783b8	-0.0739817
125	0xbdaff2bc	-0.0859122
126	0x3d91cd4a	0.07119234
127	0xbcbac60f	-0.02279952
128	0x3d26cc04	0.04072191
129	0x3d1ea1a3	0.038728368
130	0x3d17b9ea	0.037042536
131	0x3d8a1439	0.067421384
132	0xbd595ac9	-0.053065095
133	0xbdfacff4	-0.12246695
134	0xbdf1e98a	-0.11812122
135	0x3d9ff448	0.07810265
136	0x3c8f27bc	0.017475002
137	0x3dc252c1	0.0948844
138	0x3d1f59a4	0.038903847
139	0xbe6c68cb	-0.2308685
140	0x3d2d6761	0.042334918
141	0x3c77ed34	0.015132237
142	0x3d61ee2c	0.05515878
143	0x3d37e072	0.044891782
144	0xbd901ac5	-0.07036356
145	0x3ca69d55	0.020338694
146	0x3d92f29d	0.07175181
147	0x3bb7911e	0.005602016
148	0x3d150b8c	0.036387965
149	0x3cd85c89	0.026411312
150	0xbe083e3b	-0.13304989
151	0xbd9f9cde	-0.07793592
152	0xbe451a94	-0.1924842
153	0xbd8bf973	-0.06834688
154	0x3d9ceea2	0.07662703
155	0x3d8d53a4	0.06900719
156	0xbdbe3191	-0.09286798
157	0x3dbd0c3c	0.09230849
158	0xbd409d16	-0.04702481
159	0xbe7314ea	-0.23738447
160	0xbd29138f	-0.04127842
161	0xbe4247d7	-0.18972717
162	0xbcdc5644	-0.026896603
163	0xbd02fcf8	-0.03197953
164	0xbd0b1fb4	-0.03396578
165	0x3ca046c7	0.019565
166	0xbcb33d45	-0.021879802
167	0xbc8525be	-0.016253348
168	0xbd5bea19	-0.05369005
169	0x3d05482d	0.032539535
170	0x3cbaff8e	0.022826936
171	0xbcf16541	-0.029467227
172	0xbd00d69a	-0.03145466
173	0xbc5cb7e3	-0.013471576
174	0xbd4289d7	-0.047494736
175	0x3c305ef1	0.010764823
176	0x3b648e0e	0.003487471
177	0x3c3cd400	0.011525154
178	0x3d0f300a	0.034957923
179	0xbda96be1	-0.082725294
180	0xbd6b4826	-0.057441853
181	0xbdf39664	-0.11893919
182	0xbe34c7d4	-0.17654353
183	0x3d082cbc	0.033245787
184	0x3de90fc6	0.11379962
185	0xbc3a098f	-0.011354818
186	0x3d263c82	0.04058505
187	0x3d413875	0.047172982
188	0xbd978dd7	-0.07400101
189	0xbc9e4614	-0.019320525
190	0x3d2856f3	0.041098546
191	0xbd226ec9	-0.039656434
192	0x3cf9b143	0.030480033
193	0x3caade2c	0.020857893
194	0x3b8ad091	0.004236289
195	0xbd276c99	-0.04087505
196	0xbd003aa1	-0.031305913
197	0xbd66a2df	-0.05630767
198	0x3e48d383	0.19611935
199	0xbd0f64c7	-0.03500822
200	0xbe15b20c	-0.146187
201	0x3c9c820f	0.019104986
202	0xbe2abeeb	-0.16674392
203	0x3cc3b4d2	0.023889933
204	0x3dfec70a	0.124403074
205	0xbbbe5c45	-0.005809339
206	0x3d61fb6c	0.055171415
207	0xbdb8dfd4	-0.09027067
208	0xbd4fbf25	-0.0507194
209	0x3cf6d465	0.030130574
210	0x3cdb5b9d	0.026777083
211	0x3d15a939	0.036538336
212	0x3e06bff8	0.13159168
213	0xbcb02849	-0.021503584
214	0xbd9d0526	-0.076669976
215	0x3d80453a	0.06263204
216	0x3ce4bd3e	0.027922269
217	0x3e06dcb2	0.13170126
218	0x3e3e40a9	0.18579353
219	0xbcbd7327	-0.023126198
220	0xbce5534d	-0.027993822
221	0xbcb4f52f	-0.022089569
222	0xbe1bd3fa	-0.15217581
223	0xbe12e24f	-0.14344142
224	0xbd202fb8	-0.03910801
225	0xbcbbc19d	-0.02291947
226	0x3c5d0ce1	0.01349184
227	0x3db76eed	0.08956704
228	0xbd8ddf47	-0.069273524
229	0x3cc1c6a9	0.023654299
230	0x3d94658f	0.07245933
231	0xbd04eb4a	-0.03245095
232	0x3d9cdad3	0.07658925
233	0xbd03f65f	-0.03221738
234	0x3cd29205	0.025704393
235	0xbdf22b57	-0.11824673
236	0xbd4dd717	-0.050253954
237	0xbb405ec2	-0.0029353355
238	0xbe01d47f	-0.12678717
239	0x3bd529e0	0.006505236
240	0xbc84b90b	-0.016201517
241	0xbdb67d0c	-0.089105695
242	0xbdb63d6e	-0.088984355
243	0x3dcdf606	0.10056691
244	0x3d84b335	0.064794935
245	0xbcbf33cd	-0.02334013
246	0x3de2cda2	0.110743776
247	0x3d89983a	0.06718488
248	0xbb88f4b5	-0.004179562
249	0xbd549822	-0.051902898
250	0xbd28c408	-0.041202575
251	0x3d5a562f	0.053304847
252	0xbd669713	-0.05629642
253	0xbd66341b	-0.056202035
254	0x3d35e8ac	0.044411346
255	0x3d8d8ef1	0.069120295

conv_net.C3.weight f4 [128, 64, 3, 3]
0	0xbd7e8a59	-0.062143657
1	0x3cf46e47	0.02983774
2	0xbafb7a86	-0.0019186295
3	0xbd029859	-0.03188357
4	0x3cb369c8	0.021901026
5	0xbc1c9634	-0.009557296
6	0xbc0b9e77	-0.008521668
7	0xbd9c1bdb	-0.076225005
8	0xbddcbe4d	-0.107784845
9	0xbcf96823	-0.030445164
10	0xbd162d3e	-0.03666424
11	0xbcbb1414	-0.022836722
12	0xbd091e62	-0.03347624
13	0x3c574dd8	0.013141118
14	0x3cc5db3f	0.024152396
15	0x3c384d18	0.011248849
16	0xbd4ab982	-0.04949332
17	0xbd1eee57	-0.038801517
18	0xbce4dc4c	-0.027937077
19	0xbd7bdb37	-0.061488356
20	0xbd59cc18	-0.053173155
21	0xbd07953b	-0.0331013
22	0x3d03daef	0.032191213
23	0xbb637866	-0.0034709214
24	0xbb6d54f1	-0.003621396
25	0x3d5214cc	0.051289365
26	0x3ce2f713	0.027705705
27	0x3c784107	0.0151522225
28	0x3c8c42f5	0.017121771
29	0x3be356d4	0.006937841
30	0xbd29415e	-0.041322105
31	0x3c30b703	0.010785821
32	0xbd2e4eea	-0.042555727
33	0xbd24ec31	-0.040264312
34	0x3d85a933	0.06526413
35	0xbd3503c2	-0.044193037
36	0x3d5aaeef	0.053389486
37	0x3d8354b0	0.06412637
38	0x3db0f02c	0.08639559
39	0xbb73aa62	-0.0037180413
40	0x3ca940ba	0.020660747
41	0x3c9e2ad2	0.019307528
42	0xbe240323	-0.16016822
43	0xbd49a04d	-0.04922514
44	0xbdd827b4	-0.10554448
45	0xbc82cb24	-0.015966006
46	0xbdab2764	-0.083571225
47	0xbd85aeaa	-0.06527455
48	0x3c079d58	0.00827726
49	0x3d1090b3	0.035294246
50	0x3cb7d773	0.022441601
51	0x3d640ca9	0.055676136
52	0xbda74e41	-0.081692226
53	0xbd894a41	-0.06703616
54	0xbc743d54	-0.0149072
55	0x392083b3	0.00015307851
56	0xbd97c387	-0.07410341
57	0xbd9a0977	-0.075213365
58	0xbca59880	-0.02021432
59	0xbc6f1825	-0.014593159
60	0x3de15d5d	0.11004136
61	0x3d27ac2f	0.04093569
62	0xbdafdd70	-0.08587158
63	0xbde83f4b	-0.11340197
64	0xbd891067	-0.066925816
65	0xbbdd9ba2	-0.0067629376
66	0xbdce3874	-0.10069361
67	0xbdde451c	-0.10853025
68	0xbd8d33aa	-0.0689462
69	0xbdd8329c	-0.10556528
70	0xbd22595b	-0.039635997
71	0x3caf8db2	0.02142987
72	0x3d86afb4	0.065764815
73	0x3d3aaab9	0.04557297
74	0x3d310b5a	0.043223716
75	0xbde009df	-0.10939383
76	0x3d45db7a	0.048305012
77	0x3d27fdfe	0.04101371
78	0xbdd59d0a	-0.104303434
79	0x3c844f1c	0.016151004
80	0x3d1444f8	0.036198586
81	0x3db5571b	0.08854505
82	0x3cf945fb	0.030428877
83	0x3d63dbd9	0.055629585
84	0x3d2fac68	0.04288903
85	0x3bd2310e	0.006414539
86	0x3b861460	0.0040917844
87	0xbcd2d8d7	-0.025738163
88	0xbd329098	-0.043594927
89	0x3c8da247	0.017289294
90	0xbdcd31b5	-0.100192465
91	0xbdb4c277	-0.08826154
92	0xbd97acb8	-0.0740599
93	0xbdaf556f	-0.08561217
94	0xbd0385eb	-0.032110136
95	0x3d1f798d	0.03893428
96	0xbdcefd9f	-0.10106968
97	0xbdb91417	-0.09037035
98	0x3b9bfc86	0.0047603277
99	0xbd57200d	-0.0525208
100	0x3cfaba05	0.03060628
101	0xbbc3b71a	-0.005972755
102	0xbcf7e2f5	-0.030259589
103	0x3d36c32a	0.044619717
104	0xbda8f354	-0.08249536
105	0x3abb5ab2	0.0014293997
106	0x3de3eedc	0.11129543
107	0xbcd361d3	-0.025803482
108	0x3c1ca417	0.009560606
109	0x3c8794ba	0.01655041
110	0x3e24e827	0.16104184
111	0xbd4cdce7	-0.050015356
112	0xbd025132	-0.031815715
113	0x3d0241b6	0.031800948
114	0xbd3e69a5	-0.04648747
115	0xbd39a142	-0.045319803
116	0xbce4a54c	-0.027910851
117	0xbd1b53a6	-0.03792157
118	0xbd1a62dc	-0.037691936
119	0xbdc42541	-0.09577418
120	0xbc9b5902	-0.01896334
121	0xbc9263e2	-0.017869893
122	0xbd2db51a	-0.04240904
123	0x3d36dc27	0.044643547
124	0x3dc6c0b1	0.09704722
125	0xbd4f19fd	-0.050561894
126	0xbbe24387	-0.0069050225
127	0xbd951c17	-0.07280748
128	0xbe34b599	-0.17647399
129	0x3cb477df	0.022029815
130	0xbd01bc90	-0.031673968
131	0xbdcf3a4d	-0.10118542
132	0xbcd9cb0d	-0.02658608
133	0xbd29c3c9	-0.04144648
134	0xbd929a20	-0.07158303
135	0x3e076165	0.13220747
136	0x3df1a6fb	0.11799427
137	0xbd47f1a0	-0.048814416
138	0xbd95f379	-0.07321829
139	0xbd73f01d	-0.05955516
140	0xbe079529	-0.13240494
141	0xbdb146b5	-0.086560644
142	0xbd463eb9	-0.04839966
143	0xbc5e8295	-0.013580938
144	0xbd971883	-0.07377722
145	0x3b225d6f	0.002477493
146	0xbd88fe21	-0.06689096
147	0xbda51b33	-0.080618285
148	0xbb701ae4	-0.0036637122
149	0xbdd2f8db	-0.10301372
150	0xbddc1109	-0.10745437
151	0x3c772812	0.015085237
152	0xbd92fc38	-0.07177013
153	0x3e02b247	0.1276332
154	0x3cf27482	0.02959657
155	0xbdaa6ae9	-0.08321173
156	0x3c0c885f	0.008577435
157	0xbbc0aed0	-0.0058802143
158	0xbc37ada5	-0.011210834
159	0xbc4bc094	-0.012436051
160	0xbc444055	-0.011978229
161	0x3d3e96b4	0.04653044
162	0xba38d4db	-0.0007050761
163	0x3d85db5c	0.0653598
164	0x3d9fdbf2	0.07805623
165	0xbe1d7d1e	-0.1537976
166	0xbdd8b5f3	-0.10581579
167	0x3d948753	0.072523735
168	0xbcde5c29	-0.027143555
169	0xbce64193	-0.02810744
170	0x3d4d60a7	0.050141003
171	0x3ce9ad47	0.028525008
172	0x3d0e8185	0.03479149
173	0x3e25ac24	0.16178948
174	0xbca9c3f6	-0.020723324
175	0xbda3be03	-0.07995226
176	0xb9b26f2d	-0.00034033638
177	0xbd02b316	-0.03190907
178	0xbcfa371b	-0.030543854
179	0x3cc36071	0.023849698
180	0xbb44016f	-0.002990808
181	0x3d8bdbe5	0.06829051
182	0x3e2d5846	0.16928205
183	0xbdafb274	-0.08578959
184	0xbd871544	-0.06595853
185	0x3cbfac6c	0.023397647
186	0xbcbdf3ca	-0.023187537
187	0xbd5df5b7	-0.05418941
188	0xbd91895b	-0.071062766
189	0x3caf902f	0.021431057
190	0xbcc249a1	-0.02371675
191	0x3d5bbb95	0.05364569
192	0x3db83232	0.08993949
193	0x3d5e4591	0.054265562
194	0x3caece3d	0.021338576
195	0x3becd1e4	0.0072271693
196	0x3cd23981	0.025662186
197	0xbd546329	-0.05185238
198	0xbcd48c24	-0.02594573
199	0x3d952481	0.07282353
200	0xbdf95cb6	-0.12175886
201	0xbd4c070c	-0.049811408
202	0x3d1a6d49	0.03770188
203	0xbc012440	-0.007882178
204	0xbc57e8be	-0.013178049
205	0xbcaf80d8	-0.021423742
206	0xbd236853	-0.039894413
207	0xbce2ba1c	-0.027676634
208	0xbcda086b	-0.026615342
209	0xbab7f3bd	-0.0014034432
210	0xbdb79abb	-0.08965059
211	0x3c326e14	0.0108905025
212	0xbd452ffb	-0.04814146
213	0xbdbb35d0	-0.09141123
214	0xbc9e1a5a	-0.019299675
215	0xbcde09f8	-0.027104363
216	0xbca33395	-0.019922057
217	0xbd2f4aa2	-0.042795785
218	0xbdc0d4d8	-0.09415597
219	0x3d4b5413	0.049640726
220	0x3ccb0cc4	0.02478636
221	0x39d9b736	0.00041525968
222	0x3d0bdc63	0.034145724
223	0xbd670c68	-0.056408316
224	0xbda20104	-0.0791035
225	0xbdad6611	-0.08466733
226	0xbd91ac38	-0.07112926
227	0xba5a43de	-0.0008326153
228	0xbd04edc5	-0.032453317
229	0xbccfb3dd	-0.02535432
230	0x3d74902c	0.059707806
231	0x3b6aa2b7	0.0035802552
232	0xbd73d68e	-0.059530787
233	0x3d2c366a	0.04204408
234	0xbbcfb30b	-0.0063384823
235	0x3dcc4291	0.09973634
236	0x3d24b607	0.040212657
237	0xbde864a6	-0.11347322
238	0xbc0a0835	-0.008424808
239	0x3de73975	0.11290256
240	0xbd184553	-0.037175488
241	0xbceca100	-0.028885365
242	0x3d826018	0.06365985
243	0xbd88da88	-0.066823065
244	0xbcc00c01	-0.023443224
245	0xbd7993d2	-0.060931988
246	0xbe0ef5cf	-0.13960956
247	0xbd89ba09	-0.067249365
248	0xbd6241c4	-0.0552385
249	0xbdc3b653	-0.0955626
250	0xbe019db2	-0.12657812
251	0xbd8af21d	-0.06784461
252	0x3d1af169	0.037827883
253	0x3b3d40ec	0.0028877808
254	0x3c9c045d	0.01904505
255	0x3d4b496e	0.049630575

conv_net.C4.weight f4 [1, 128, 3, 3]
0	0xbd328885	-0.043587226
1	0xbd9626b2	-0.07331599
2	0xbd811f75	-0.06304828
3	0xbce3d03a	-0.027809251
4	0xbd7d746d	-0.06187861
5	0xbdbe2850	-0.09285033
6	0xbcb48bb2	-0.022039268
7	0xbc91c7e1	-0.017795505
8	0xbd731f71	-0.059356157
9	0xbafdb269	-0.0019355539
10	0xbbb59931	-0.0055419435
11	0xbdcb9970	-0.09941375
12	0x3b8ba562	0.0042616585
13	0x3b73494e	0.003712255
14	0x3b9e7d54	0.0048367176
15	0x3be44633	0.006966376
16	0x3bb29c9e	0.005450799
17	0x3c2a55ef	0.010396465
18	0xbc0d27f3	-0.008615482
19	0xbd21f2a5	-0.039538044
20	0xbcca4d72	-0.024695132
21	0xbc3030d2	-0.010753827
22	0xbd3b9668	-0.045797735
23	0xbcc2998b	-0.023754856
24	0xbc0835d4	-0.008313615
25	0xbce07d7b	-0.027403584
26	0xbbd478f5	-0.0064841458
27	0xbc901802	-0.017589573
28	0xbce61ba2	-0.028089348
29	0x3c331623	0.010930571
30	0xbccaf41e	-0.024774607
31	0xbd8c5342	-0.06851818
32	0x3d16ac03	0.036785137
33	0x3b8b48cb	0.004250621
34	0x3cc052fd	0.023477072
35	0x3dd75ac1	0.10515357
36	0xbccdf33b	-0.025140395
37	0xbcc7b06e	-0.02437612
38	0x3c4b2111	0.01239802
39	0xbcc5de14	-0.024153747
40	0xba567685	-0.0008181113
41	0x3d41c58c	0.047307536
42	0xbc81aea0	-0.015830338
43	0xbcefad17	-0.02925734
44	0x3d8c1ce4	0.06841448
45	0xbdebd8eb	-0.11515983
46	0xbe28c060	-0.16479635
47	0xbddfa653	-0.10920396
48	0xbd6e08e2	-0.05811394
49	0xbe17713b	-0.14789288
50	0xbe00b4fa	-0.12569037
51	0xbd2b0c3f	-0.041759726
52	0xbda975e4	-0.08274439
53	0xbdbf1285	-0.09329704
54	0xbb96555e	-0.0045878133
55	0xbc291094	-0.010318894
56	0xbc7b79d5	-0.015348871
57	0x3a39a7ce	0.0007082195
58	0xbdc3c546	-0.09559111
59	0xbd1caf0d	-0.03825288
60	0xbbb643bb	-0.0055622733
61	0xbd2759f0	-0.040857255
62	0xbce661a9	-0.02812274
63	0x3d7e0c3f	0.062023398
64	0x3ef1ba6a	0.47212535
65	0x3cc05deb	0.023482284
66	0x3bdd9caf	0.006763063
67	0x3d756ced	0.059918333
68	0x3d8d46c1	0.06898261
69	0xba85e7e6	-0.0010216206
70	0x3c2a2e79	0.0103870565
71	0x3ce05a00	0.027386665
72	0x3c051ee7	0.0081250435
73	0x3c7e18d7	0.015508852
74	0x3c14197b	0.009039278
75	0x3c02b0e6	0.007976746
76	0x3e981097	0.29700157
77	0xbb8acc75	-0.004235799
78	0x3c31bde6	0.010848498
79	0xbcc5464a	-0.024081368
80	0x3beab6a1	0.0071628843
81	0xbdad301d	-0.084564425
82	0xbd948d73	-0.07253542
83	0xbd0a04d2	-0.033696003
84	0xbe05ca6c	-0.13065499
85	0xbdf9cee0	-0.121976614
86	0xbcf90cbe	-0.030401584
87	0xbd8dbe42	-0.069210544
88	0xbd944715	-0.0724012
89	0xbd0e8a21	-0.0347997
90	0x3c936793	0.017993724
91	0x3d07e933	0.03318138
92	0x3d3d8969	0.046273623
93	0x3badf19f	0.0053083445
94	0x3cbac707	0.022799982
95	0x3d17adb7	0.0370309
96	0x3bc3521a	0.005960715
97	0x3c16e326	0.00920943
98	0x3ca9a8a4	0.020710297
99	0xbd00b0fb	-0.03141878
100	0x3c6e3550	0.014539078
101	0xbc218dbf	-0.009860455
102	0xbd154333	-0.03644104
103	0x3b205823	0.0024466596
104	0xbc100a42	-0.008791508
105	0xbcf8a940	-0.030354142
106	0xba58e243	-0.0008273462
107	0xbc7e1ea9	-0.01551024
108	0x3d3b2559	0.045689914
109	0x3c45d1ea	0.012073973
110	0x3cf30432	0.029665086
111	0x3d884e18	0.0665552
112	0x3d2ea681	0.04263926
113	0x3d108a70	0.035288274
114	0x3d2db115	0.042405207
115	0x3cd45958	0.025921509
116	0x3d0eae5a	0.034834243
117	0xbd951b42	-0.0728059
118	0xbd93f24c	-0.07223949
119	0xbc86603f	-0.016403316
120	0xbd1c0c14	-0.038097456
121	0xbdc4a372	-0.09601487
122	0xbd4369f5	-0.04770847
123	0xbcb07cf3	-0.021543955
124	0xbd4921ee	-0.049104623
125	0xbd681572	-0.056661077
126	0x3da5ab02	0.08089258
127	0x3db2e5f5	0.08735267
128	0x3dc40510	0.09571278
129	0x3dcac89f	0.09901547
130	0x3e19062d	0.14943762
131	0x3df2f04b	0.118622385
132	0x3de8a96b	0.11360439
133	0x3dd85a7f	0.10564136
134	0x3dfce58d	0.12348471
135	0xbce2fad4	-0.027707495
136	0xbc9e6f59	-0.019340204
137	0xbcaf343b	-0.02138721
138	0xbd132527	-0.035924103
139	0xbd11823b	-0.035524588
140	0xbd125014	-0.0357209
141	0xbd19ce1c	-0.037550077
142	0xbc9a4c69	-0.018835263
143	0xbd1f6a4d	-0.038919736
144	0xbd396938	-0.04526636
145	0xbc92ab3f	-0.017903922
146	0x3ab12301	0.001351446
147	0xbd81a67c	-0.063305825
148	0x3da81cc2	0.0820861
149	0x3ca16be3	0.019704765
150	0x3af303e4	0.0018540588
151	0x3d0216be	0.03175997
152	0x3c9289d6	0.01788799
153	0xbc04e6d8	-0.008111678
154	0xbb20481c	-0.0024457043
155	0x3b1c0c0d	0.0023810894
156	0xbcd57f49	-0.02606167
157	0xbd407aab	-0.046991985
158	0xbc449a4f	-0.011999681
159	0xbd942871	-0.07234276
160	0xbe9a80ae	-0.301763
161	0xbdf0f9fa	-0.11766429
162	0xbac276c5	-0.0014836421
163	0x3b02ea3e	0.0019976045
164	0x3e62d711	0.22152354
165	0xbbea59d3	-0.007151821
166	0xbc3c0aeb	-0.011477212
167	0xbcb268d5	-0.021778503
168	0xbbcf1544	-0.0063196737
169	0xbc4e737c	-0.012600776
170	0xbbc0075b	-0.005860252
171	0x3c22ec01	0.009943963
172	0x3c7ffd3a	0.015624339
173	0x3c9b0596	0.018923562
174	0x3b17cac6	0.0023161634
175	0x3bd1a0d2	0.006397345
176	0x3e9ccbd2	0.30624253
177	0xbb66ddd8	-0.0035227444
178	0xbaa9afc8	-0.0012946064
179	0xbb2850d3	-0.002568294
180	0x3ccc104c	0.024910115
181	0x3db7f83b	0.08982893
182	0x3d2d9feb	0.042388838
183	0x3c1966ad	0.009362859
184	0x3dde8559	0.10865278
185	0x3dc54bb9	0.096335836
186	0x3c997fd5	0.018737713
187	0x3db389d7	0.08766525
188	0x3d9783db	0.07398196
189	0x3d91c00b	0.071167074
190	0x3d697cac	0.057003662
191	0x3d093421	0.03349698
192	0x3d9aa9de	0.07551931
193	0x3c109ba0	0.008826166
194	0x3c852ef4	0.01625774
195	0x3d026423	0.03183378
196	0x3c34b62d	0.011029762
197	0x3c7ad154	0.015308697
198	0xbc19a708	-0.009378202
199	0xbe43d2ce	-0.19123384
200	0xbdd112a5	-0.10208634
201	0xbba244a4	-0.0049520303
202	0xbcc6692c	-0.024220072
203	0x3a524344	0.00080208876
204	0x3bc29028	0.005937595
205	0xbb488735	-0.0030598168
206	0x3ba73efa	0.005103943
207	0x3cd74bb8	0.026281223
208	0x39c01ada	0.000366411
209	0x3c722a53	0.014780599
210	0x3d8129d3	0.063068055
211	0x3b6e42e8	0.0036355797
212	0x3b927cde	0.0044704517
213	0x3cdfdc28	0.027326658
214	0xbdef9554	-0.11698404
215	0xbc2d95a2	-0.010594757
216	0xbca1046e	-0.019655433
217	0xbe269cf9	-0.16270818
218	0xbc37beac	-0.011214893
219	0xbc30819f	-0.010773092
220	0xbc6a209b	-0.01429
221	0xbbc0449b	-0.0058675534
222	0xbb40bd81	-0.0029409828
223	0xb9b829ac	-0.00035126263
224	0xba13eea9	-0.0005643168
225	0x3b0d724c	0.0021583019
226	0x3b5da4a3	0.0033820055
227	0x3a82fa97	0.0009992894
228	0xb9c0a685	-0.0003674516
229	0x3d3e66a4	0.046484604
230	0x39d096c8	0.00039785192
231	0xba9497d8	-0.0011336757
232	0xbb05bad7	-0.0020405555
233	0xba8ad4cb	-0.0010591982
234	0xbd3386e8	-0.04382983
235	0x3d5bfd53	0.053708386
236	0xbd223362	-0.039599784
237	0xbcf0f9ea	-0.029416043
238	0x3d168805	0.036750812
239	0xbd08a6d0	-0.03336221
240	0xbd4d1b4d	-0.050074864
241	0xbcbace84	-0.022803552
242	0xbd5f07f2	-0.054450937
243	0x3cc6ebcc	0.024282359
244	0x3cb30271	0.02185175
245	0x3c51d41e	0.01280692
246	0x3eaf6e33	0.34263763
247	0x3cc50e1d	0.024054581
248	0x3c0056fb	0.007833238
249	0x3c622807	0.013803489
250	0x3b5cd20e	0.0033694538
251	0x3c2aefe5	0.010433172
252	0x3cf2338b	0.029565593
253	0x3c79b9bf	0.015242039
254	0x3b95a6d4	0.0045670066
255	0x3c8f5406	0.01749612
