CNN_weights/NetworkB_weights_1982-2017_OPT.pt (torch, 46815 bytes, 4 tensors)

conv_net.C1.weight f4 [32, 12, 1, 1]
0.18572558 0.10580405 -0.060367234 -0.010190416 0.23023906 0.12924848 -0.07535697 -0.66697747
-0.3496778 -0.10516936 -0.09278643 -0.21350616 -0.08136896 -0.37460423 -0.1604945 0.13417926
-0.20735751 0.22353727 0.067201816 0.167716 0.14794827 0.41775042 0.1797536 0.08535077
-0.036039405 0.09361388 0.003211337 0.016447531 0.030436577 0.040659133 0.076598644 -0.42953518
-0.2915922 0.09603487 -0.19410086 0.3889029 -0.071379885 0.09736266 -0.049878772 -0.0034928767
-0.09180325 -0.56352437 -0.18528266 0.19841802 0.28582853 0.46476626 -0.0048208605 -0.1314536
-0.12871175 -0.2461642 0.20269844 -0.07664216 -0.05543362 -0.078275576 0.021096382 -1.0121592
0.33912823 -0.13781089 0.03727648 -0.0800547 -0.021998141 -0.015379731 -0.029188665 -0.0791424
0.011254818 0.067288786 -0.029400442 -1.5355498 -0.36100808 0.27960446 -0.03875617 0.23383997
-0.30206007 -0.06633503 -0.06478922 0.32364196 -0.118590735 0.26039314 -0.29848903 0.19512863
-0.082083724 -0.12708746 -0.024677068 0.20495532 0.051251777 -0.018857813 -0.13298409 0.38983858
0.022193767 -0.050694834 -0.0529819 0.0919871 -0.090161435 0.25928855 -0.08308154 0.34104848
0.03001034 -1.5794381 -0.4229731 -0.12682909 0.085301735 -0.108788885 -0.14846471 -0.0016766064
-0.032192647 -0.1862564 -0.14421077 0.14000425 -0.003828353 0.0410397 0.014053246 0.027039725
0.056213148 0.07023365 -0.0011483065 0.05557028 0.102325425 -1.4289659 -0.094218634 -0.3577859
-0.050710134 0.11842632 0.030107422 -0.16944416 0.17837593 -0.16299056 -0.017594125 -0.248358
0.060291853 -0.26354197 0.07346168 0.7903379 -0.077127814 0.13887787 -0.023204623 0.1974684
0.057276145 0.40964928 -0.021861188 0.33504853 -0.025871513 0.5094986 -0.042875417 -0.9192209
0.021520667 -0.06520469 -0.10292795 0.12770878 -0.33919996 0.017741067 -0.1821179 -0.9178356
-0.22678228 -0.58005834 0.18056038 -0.38668 0.0052832756 0.028392341 -0.03468454 -0.008223763
0.029145584 -1.5271841 -0.34779495 0.071664214 -0.06592389 -0.09908096 0.039421905 -0.09567009
0.2624417 -0.08430301 0.021434069 -0.120634735 0.07266298 -0.6994562 0.41491953 -0.31723422
0.14064474 -0.080599084 0.024441613 0.081837796 0.06757554 0.020447541 0.009754106 0.014300602
-0.023799641 0.09659033 0.113740586 0.3612386 -0.13856477 -0.11744129 0.0817498 0.31912497
-0.21560594 -0.16065426 0.055101775 0.14236782 0.14999066 -0.66936076 -0.08932967 0.027922435
-0.22653462 0.15148441 -0.12973158 -0.3756762 -0.025401281 -0.2111182 0.21845506 -0.7677155
0.26563817 -0.1916835 -0.16573976 0.1150459 -0.12930983 -0.059183504 -0.044892706 0.27081034
0.16948697 0.015265989 0.052998517 0.0374659 -0.19586006 0.032149304 -0.007701705 0.13649294
-0.060691185 -0.42270392 -0.23383959 -0.5152525 -0.029119872 -0.0761976 -0.22197822 -0.243474
-0.415861 -0.13712585 -0.4041686 -0.18688424 -0.2884074 -0.2127626 -0.23077281 0.52531105
0.046901878 0.3044974 -0.0014881612 0.07894899 0.17199397 -0.15235262 0.15861547 -0.19398738
-0.15952267 -0.30044827 -0.02234468 0.004591466 0.31460565 -1.1337382 -0.109040946 0.053990386
00000000: d92e 3e3e cbaf d83d a243 77bd b4f5 26bc
00000010: cac3 6b3e b759 043e c154 9abd 09bf 2abf
00000020: f808 b3be 0963 d7bd d006 bebd 5ca1 5abe
00000030: c5a4 a6bd 20cc bfbe ac58 24be 4a66 093e
00000040: 8755 54be f4e6 643e 1ba1 893d bebd 2b3e
00000050: c07f 173e 62e3 d53e 5411 383e 62cc ae3d
00000060: 0e9e 13bd a2b8 bf3d 4b75 523b f9bc 863c
00000070: 2156 f93c 318a 263d c0df 9c3d 09ec dbbe
00000080: 934b 95be eead c43d 60c2 46be 481e c73e
00000090: 9e2f 92bd 1366 c73d af4d 4cbd bfe8 64bb
000000a0: 5803 bcbd 2243 10bf bdba 3dbe 182e 4b3e
000000b0: 1e58 923e d8f5 ed3e 4ff8 9dbb c69b 06be
000000c0: 03cd 03be 7812 7cbe 2e90 4f3e 91f6 9cbd
000000d0: 5d0e 63bd f24e a0bd 52d2 ac3c 6f8e 81bf
000000e0: 37a2 ad3e 4c1e 0dbe 39af 183d b8f3 a3bd
000000f0: 7235 b4bc 44fb 7bbc 111d efbc 6915 a2bd
00000100: 2166 383c b4ce 893d 32d9 f0bc e58c c4bf
00000110: 0dd6 b8be 5128 8f3e cabe 1ebd bf73 6f3e
00000120: 9ea7 9abe a9da 87bd 36b0 84bd 66b4 a53e
00000130: b3df f2bd 4052 853e 8ed3 98be cdcf 473e
00000140: 831b a8bd 3723 02be 9027 cabc cfdf 513e
00000150: 62ed 513d b37b 9abc fb2c 08be ec98 c73e
00000160: b4cf b53c 63a5 4fbd 8c03 59bd bc63 bc3d
00000170: 8fa6 b8bd 78c1 843e a826 aabd e89d ae3e
00000180: 3fd8 f53c 072b cabf ee8f d8be 7cdf 01be
00000190: adb2 ae3d b5cc debd 2207 18be 93c1 dbba
000001a0: 70dc 03bd ffb9 3ebe fdab 13be 465d 0f3e
000001b0: 1be5 7abb 3f19 283d 963f 663c 6a82 dd3c
000001c0: c23f 663d a9d6 8f3d c682 96ba a99d 633d
000001d0: fe8f d13d 5be8 b6bf b3f5 c0bd b72f b7be
000001e0: 6eb5 4fbd 8089 f23d d7a3 f63c c582 2dbe
000001f0: 2ea8 363e ffe6 26be 8e21 90bc 8f51 7ebe
00000200: 97f4 763d f9ee 86be 1473 963d 9653 4a3f
00000210: 30f5 9dbd 0036 0e3e 9f17 bebc 2835 4a3e
00000220: 649a 6a3d 8dbd d13e 3c16 b3bc 7b8b ab3e
00000230: 7ff0 d3bc 806e 023f 229e 2fbd 1052 6bbf
00000240: 1c4c b03c 098a 85bd e4cb d2bd 17c6 023e
00000250: 9eab adbe b755 913c 1d7d 3abe 46f7 6abf
00000260: 9d39 68be b47e 14bf d2e4 383e ecfa c5be
00000270: 541f ad3b 0e97 e83c 6011 0ebd f6bc 06bc
00000280: b8c2 ee3c c57a c3bf 2e12 b2be b0c4 923d
00000290: 1b03 87bd f5ea cabd dd78 213d aeee c3bd
000002a0: c25e 863e 0ea7 acbd 8096 af3c 580f f7bd
000002b0: 54d0 943d 900f 33bf 5570 d43e 866c a2be
000002c0: 2d05 103e 2211 a5bd c739 c83c 939a a73d
000002d0: 0b65 8a3d 9a81 a73c b0cf 1f3c 124d 6a3c
000002e0: 77f7 c2bc 27d1 c53d d3f0 e83d 44f4 b83e
000002f0: ece3 0dbe 0f85 f0bd 706c a73d 5964 a33e
00000300: cec7 5cbe 8d82 24be 66b2 613d dfc8 113e
00000310: 2797 193e 3a5b 2bbf 79f2 b6bd 97bd e43c
00000320: b1f8 67be bb1e 1b3e 5bd8 04be a258 c0be
00000330: 5916 d0bc 5f2f 58be afb2 5f3e 0189 44bf
00000340: ba01 883e ae48 44be afb7 29be 2f9d eb3d
00000350: cc69 04be 676a 72bd 6ae1 37bd a7a7 8a3e
00000360: fe8d 2d3e 331e 7a3c f914 593d d875 193d
00000370: 8a8f 48be fdae 033d 965e fcbb cec4 0b3e
00000380: 5297 78bd a66c d8be a573 6fbe 96e7 03bf
00000390: cc8c eebc 7d0d 9cbd 424e 63be 4051 79be
000003a0: bceb d4be b86a 0cbe 30ef cebe 955e 3fbe
000003b0: 22aa 93be 70de 59be b54f 6cbe c97a 063f
000003c0: 2f1c 403d 15e7 9b3e 670e c3ba 02b0 a13d
000003d0: 301f 303e 5302 1cbe 186c 223e a1a4 46be
000003e0: e959 23be 5bd4 99be 310c b7bc 0274 963b
000003f0: fe13 a13e 551e 91bf dc50 dfbd 0625 5d3d

conv_net.C2.weight f4 [64, 32, 1, 1]
-0.312664 -0.31675288 0.2601498 -0.36545092 0.13150884 0.09576807 -0.046360966 -0.065983176
-0.23714007 0.36887684 -0.2843084 0.054635994 0.3832298 0.15093848 -0.11058319 -0.15666692
0.080765046 0.1158544 0.019164896 0.09627927 0.22129327 0.14790264 0.13733388 0.08062672
-0.087492526 0.11310905 0.02252337 -0.09401804 0.18023662 -0.1686219 0.06561746 -0.05771334
-0.06557839 0.123540305 0.28522763 -0.08159821 -0.0986238 -0.025424913 -0.0011814489 0.18118852
-0.2946021 -0.24511613 -0.23492326 0.0969432 -0.15411776 -0.10597019 0.2426248 -0.47852767
-0.0023383854 -0.22905584 -0.19884934 -0.04755004 -0.07406742 -0.08405459 -0.86661714 0.07926429
0.11376509 0.090870544 0.18452778 -0.06063607 -0.11197302 -0.3386009 -0.19881356 -0.20118155
0.1794915 0.14243373 -0.100874275 0.2451094 0.10253668 0.007704954 -0.11971201 -0.19908185
-0.005276776 -0.45155108 0.03965967 -0.46512374 0.11363319 0.5420583 0.036125798 -0.17063326
-0.10982149 -0.16732179 -0.13855267 0.15446937 -0.25033858 0.2035653 -0.06337012 -0.0009483834
0.04441351 -0.3800803 0.2726827 0.20653546 -0.24995379 0.08934039 0.038632315 -0.10706024
-0.095280215 -0.035904787 0.06998347 -0.09267501 -0.044966236 0.19834574 0.059209574 -0.5396804
-0.16631012 0.09957775 0.20620759 0.47680524 -0.10904962 0.0984605 -0.09618381 0.18085691
-0.30117634 0.20007557 0.17749292 0.22248289 -0.12816827 -0.07225906 -0.060506396 0.063050255
-0.1540161 -0.1515703 0.055189293 -0.10629037 0.07109365 0.48474887 -0.15175149 0.08729301
0.13786988 0.21108402 -0.07910983 -0.024690377 -0.28855723 -0.030859828 0.24041528 -0.27843112
-0.42116022 0.1781495 0.20581734 -0.30805597 0.16593267 -0.5295285 -0.13743535 0.08133904
-0.11781044 -0.25607347 -0.040990505 -0.04825078 -0.074758396 -0.09968483 0.1604313 0.22403575
0.018039549 -0.074027136 0.06626692 0.00591783 0.042627964 0.0782533 0.03412856 -0.33152846
-0.074442945 0.06273847 0.17004815 0.12414786 -0.2655763 -0.16216856 0.23780577 0.037328225
0.274294 0.01692415 0.13040443 -0.4690018 -0.04428806 -0.19710328 -0.33949637 0.09461692
-0.10129634 0.090518706 -0.39054957 -0.38948223 -0.29119447 0.22666968 -0.29371834 -0.24363872
-0.0770614 0.029296335 -0.18115574 -0.09750828 -0.23723496 -0.21014513 -0.20452051 0.07018567
-0.16098775 0.16351084 -0.2588085 -0.015120336 0.15847182 -0.039090317 -0.062260684 0.08315541
0.23112622 -0.028064804 0.35816574 -0.27324864 -0.094526686 -0.038652148 0.180803 0.07222998
0.0037104434 -0.24448292 -0.109022394 -0.16442962 -0.054856624 0.025388455 0.057790782 -0.13810034
-0.1924087 -0.06422551 0.23359543 -0.08792016 0.08628564 -0.12966195 0.108302586 0.039590996
-0.07250395 -0.4697152 0.16225733 -0.08850283 -0.09394434 -0.23348983 -0.076345585 0.13290708
-0.102756545 -0.2575587 0.41536564 -0.6572314 0.0103085525 0.045269508 0.079747885 -0.00017935573
-0.046586785 0.09911571 -0.037642464 -0.09298589 0.032879196 0.03662897 0.07538822 0.12450701
-0.01860689 0.1298795 -0.13028133 0.13887033 0.103661545 -0.29899412 0.105789535 0.17079315
00000000: 7f15 a0be 6f2d a2be 5b32 853e 621c bbbe
00000010: 41aa 063e 0d22 c43d ffe4 3dbd 3022 87bd
00000020: d9d4 72be 6ddd bc3e df90 91be fec9 5f3d
00000030: b236 c43e 9e8f 1a3e 7179 e2bd 4b6d 20be
00000040: 2568 a53d 1245 ed3d b3ff 9c3c 112e c53d
00000050: b49a 623e ca73 173e 41a1 0c3e 9f1f a53d
00000060: 482f b3bd b8a5 e73d ee82 b83c 888c c0bd
00000070: f38f 383e 38ab 2cbe 7262 863d d364 6cbd
00000080: f74d 86bd b302 fd3d 5b09 923e f61c a7bd
00000090: 46fb c9bd e847 d0bc d9da 9aba 7c89 393e
000000a0: 16d6 96be b9ff 7abe b98f 70be 288a c63d
000000b0: 0cd1 1dbe e606 d9bd a372 783e 9401 f5be
000000c0: 993f 19bb 9d8d 6abe 299f 4bbe d5c3 42bd
000000d0: a9b0 97bd d024 acbd 9fda 5dbf 5155 a23d
000000e0: acfd e83d 561a ba3d daf4 3c3e 875d 78bd
000000f0: 1c52 e5bd 195d adbe c895 4bbe 8902 4ebe
00000100: 9fcc 373e 26da 113e 2c97 cebd f5fd 7a3e
00000110: c0fe d13d d779 fc3b 922b f5bd 1ddc 4bbe
00000120: cee8 acbb b431 e7be 2e72 223d b324 eebe
00000130: 85b8 e83d 55c4 0a3f a5f8 133d 7cba 2ebe
00000140: 17ea e0bd 6756 2bbe c0e0 0dbe 382d 1e3e
00000150: 612c 80be 6c73 503e 32c8 81bd ef9c 78ba
00000160: f1ea 353d e399 c2be 119d 8b3e 087e 533e
00000170: e3f3 7fbe 18f8 b63d eb3c 1e3d 6642 dbbd
00000180: 4622 c3bd e610 13bd 7e53 8f3d 65cc bdbd
00000190: 842e 38bd 251b 4b3e bd85 723d 7f28 0abf
000001a0: 334d 2abe 6bef cb3d 1528 533e d11f f43e
000001b0: 6855 dfbd a9a5 c93d 04fc c4bd 8e32 393e
000001c0: c933 9abe 9ce0 4c3e b4c0 353e 8ed2 633e
000001d0: 8b3e 03be 8ffc 93bd 8ed5 77bd 7e20 813d
000001e0: 66b6 1dbe 3f35 1bbe 2b0e 623d c4ae d9bd
000001f0: 8c99 913d 0131 f83e be64 1bbe adc6 b23d
00000200: c32d 0d3e 6926 583e 5604 a2bd 7943 cabc
00000210: c6bd 93be c0cd fcbc 6c2f 763e 868e 8ebe
00000220: 50a2 d7be d36c 363e c8c1 523e 83b9 9dbe
00000230: 41ea 293e 2e8f 07bf dabb 0cbe 1595 a63d
00000240: 9a46 f1bd 101c 83be a9e5 27bd 9ca2 45bd
00000250: ee1a 99bd 8f27 ccbd 1a48 243e a169 653e
00000260: adc7 933c 8a9b 97bd f3b6 873d 5bea c13b
00000270: a99a 2e3d 4443 a03d 64ca 0b3d 19be a9be
00000280: 8b75 98bd 077d 803d 1a21 2e3e 3c41 fe3d
00000290: 9ef9 87be 840f 26be 5b83 733e 7be5 183d
000002a0: 4370 8c3e 84a4 8a3c bd88 053e 0121 f0be
000002b0: 6667 35bd 71d5 49be 78d2 adbe 84c6 c13d
000002c0: 7574 cfbd df61 b93d 1df6 c7be 376a c7be
000002d0: 7117 95be 191c 683e 4062 96be 6e7c 79be
000002e0: 5ed2 9dbd defe ef3c e480 39be 6cb2 c7bd
000002f0: b9ed 72be 4930 57be d36d 51be 81bd 8f3d
00000300: f9d9 24be 636f 273e 8c82 84be 49bb 77bc
00000310: 7046 223e 2b1d 20bd 0f05 7fbd 624d aa3d
00000320: 5aac 6c3e 29e8 e5bc 8061 b73e 3fe7 8bbe
00000330: 3597 c1bd b751 1ebd 6c24 393e 50ed 933d
00000340: e92a 733b bb59 7abe 2247 dfbd 3d60 28be
00000350: 57b1 60bd 73fb cf3c 07b6 6c3d 2d6a 0dbe
00000360: c906 45be aa88 83bd a433 6f3e 7c0f b4bd
00000370: 87b6 b03d 1ac6 04be bfcd dd3d 2b2a 223d
00000380: f37c 94bd 837e f0be c926 263e f940 b5bd
00000390: e465 c0bd f517 6fbe 135b 9cbd cb18 083e
000003a0: 0672 d2bd bcde 83be ceaa d43e 5140 28bf
000003b0: 34e5 283c 856c 393d dc52 a33d 7011 3cb9
000003c0: c9d1 3ebd 2dfd ca3d fc2e 1abd 636f bebd
000003d0: 56ac 063d 4208 163d 2465 9a3d 88fd fe3d
000003e0: 7a6d 98bc 22ff 043e 7868 05be 0634 0e3e
000003f0: 814c d43d c215 99be 2fa8 d83d 66e4 2e3e

conv_net.C3.weight f4 [128, 64, 1, 1]
0.014985186 -0.062232006 0.045937452 0.073255144 -0.014671154 0.06751852 -0.07900633 0.0077355984
-0.04774727 -0.028149787 0.024987504 -0.23469299 0.07645272 0.0154428 0.1019469 -0.018882673
-0.007723457 -0.15892527 0.19859673 -0.010659422 -0.08939267 -0.15477405 0.0074240654 -0.069333754
0.051511165 0.012321124 5.0987474e-05 0.1376035 -0.12716644 -0.014670266 -0.06602556 -0.009866268
-0.031613275 0.03969738 -0.20832291 -0.0065255966 0.13591026 0.109998144 0.044035822 -0.013227846
-0.014925178 -0.040853787 -0.022511847 -0.0173677 -0.09674093 -0.105577506 -0.13227618 -0.099547096
-0.15772706 0.10383465 -0.024187716 -0.07004295 -0.06531242 0.09219657 -0.027717292 -0.0041700047
0.043992735 0.23070092 -0.04844543 0.02404303 -0.07568939 0.15998964 -0.08423583 0.060090646
-0.06447701 0.02090726 -0.27618307 0.09443356 -0.021531994 0.04222501 -0.07509511 -0.030106977
-0.06807047 -0.2386468 0.002839997 -0.16171408 -0.0049803383 -0.12865616 -0.33081925 -0.021432674
0.119622454 -0.044317413 0.18946554 -0.23345241 0.14707012 -0.10539608 0.032055352 -0.43677518
-0.12598528 0.028285507 0.010836044 -0.44690418 0.2571994 -0.1478239 -0.015892247 0.077087075
-0.09697857 0.2755473 -0.149197 -0.07139716 0.19417512 0.1825419 0.158195 -0.15350655
-0.16556172 -0.28858724 0.025502654 0.046431545 -0.0842254 0.124621935 -0.024920467 -0.15263118
-0.06384612 -0.010799507 0.07264897 0.038886055 -0.16822104 0.06864684 -0.17781164 0.061272804
-0.20819844 -0.060605146 0.22199549 0.22604668 -0.47156224 0.12486398 0.12580943 0.019420901
-0.14208506 -0.06373815 0.08690369 -0.005489774 -0.32190025 -0.15288818 0.04521693 -0.009649985
-0.09099329 -0.1602944 0.07623215 -0.05112284 -0.07896178 -0.20158494 -0.06530536 -0.053329844
-0.06052122 0.10648076 0.032202084 -0.10906573 0.1524245 -0.08134151 -0.12629284 0.11180622
0.007954191 -0.18773313 0.013477649 -0.13317381 -0.13700731 -0.08419729 0.11277661 0.1801756
-0.02126403 0.052383754 -0.018270165 -0.06648714 0.038197 -0.103938125 -0.21108285 0.07878199
0.11304519 -0.08503077 -0.092592314 0.11915811 -0.004252438 0.10611815 -0.11738118 0.18441962
-0.037892513 -0.00048818326 0.24263595 -0.14293548 0.041983895 -0.18730922 -0.0334115 -0.07295198
-0.11850642 0.12881984 -0.06661243 -0.032075386 0.070933826 -0.05243188 -0.06952553 0.051757555
0.06759009 -0.272463 -0.1027973 -0.26242065 0.0845252 0.15018268 0.09097316 -0.15044324
-0.14288674 -0.15258689 0.328473 -0.24000382 -0.0035930036 -0.0035808976 0.16506612 0.13764496
0.082419805 0.10544309 0.053166803 -0.04753652 -0.30026418 0.08201044 0.079658754 0.02953252
0.07784287 -0.05669696 -0.04145846 0.07589014 0.21502995 -0.07287948 -0.28401753 -0.17768855
0.031320553 0.103508115 -0.04722453 0.13755885 0.11433688 -0.07890861 -0.19882211 0.008083496
-0.20689513 0.030971842 -0.03337478 -0.18723328 -0.04654433 0.12269195 -0.21604395 -0.17465273
-0.15490337 0.02745403 0.0033912736 -0.05105267 -0.073750325 -0.04621607 -0.20510365 -0.16968863
0.069335386 -0.036348846 -0.084529616 -0.026374685 -0.13147958 -0.012500858 0.10436102 -0.12833858
00000000: 6d84 753c fde6 7ebd e928 3c3d cb06 963d
00000010: 485f 70bc 2647 8a3d 12ce a1bd e77a fd3b
00000020: a492 43bd 629a e6bc 98b2 cc3c 5c53 70be
00000030: 3e93 9c3d cc03 7d3c 89c9 d03d d6af 9abc
00000040: 0e15 fdbb 4ebd 22be f15c 4b3e dba4 2ebc
00000050: 8113 b7bd 177d 1ebe 9345 f33b dbfe 8dbd
00000060: 5ffd 523d 8ade 493c 62db 5538 efe7 0c3e
00000070: eb37 02be 8e5b 70bc 6938 87bd 21a6 21bc
00000080: ec7c 01bd b899 223d 9a52 55be acd4 d5bb
00000090: 0f2c 0b3e b546 e13d e85e 343d 9bb9 58bc
000000a0: bc88 74bc 4d56 27bd c46a b8bc b546 8ebc
000000b0: 1c20 c6bd 0539 d8bd 6873 07be 59df cbbd
000000c0: 3483 21be 43a7 d43d 5125 c6bc ae72 8fbd
000000d0: 85c2 85bd 8ed1 bc3d 600f e3bc 89a4 88bb
000000e0: ba31 343d dd3c 6c3e b76e 46bd e3f5 c43c
000000f0: 0a03 9bbd 53d4 233e d683 acbd 9c21 763d
00000100: 860c 84bd b445 ab3c de67 8dbe 6266 c13d
00000110: dd63 b0bc 22f4 2c3d 77cb 99bd e8a2 f6bc
00000120: 8868 8bbd d45f 74be 3e1f 3a3b 6098 25be
00000130: 1b32 a3bb 71be 03be 2461 a9be 9393 afbc
00000140: 9efc f43d 2d86 35bd 4103 423e 260e 6fbe
00000150: 8d99 163e e6d9 d7bd 794c 033d ffa0 dfbe
00000160: 4902 01be 02b7 e73c aa89 313c a0d0 e4be
00000170: a4af 833e 265f 17be 7530 82bc d4df 9d3d
00000180: b39c c6bd 8914 8d3e 19c7 18be ad38 92bd
00000190: d8d5 463e 44ec 3a3e dffd 213e d230 1dbe
000001a0: 0389 29be b5c1 93be f1ea d03c 012f 3e3d
000001b0: 5e7e acbd c939 ff3d 0226 ccbc 594b 1cbe
000001c0: c1c1 82bd 6af0 30bc fcc8 943d fc46 1f3d
000001d0: 2342 2cbe b796 8c3d 4114 36be 31f9 7a3d
000001e0: f931 55be 1a3d 78bd c952 633e c878 673e
000001f0: 9b70 f1be b0b8 ff3d 30d4 003e 9518 9f3c
00000200: bf7e 11be 2689 82bd 90fa b13d 90e3 b3bb
00000210: 1cd0 a4be b88e 1cbe 6335 393d f81a 1ebc
00000220: b15a babd 3724 24be 9a1f 9c3d 2f66 51bd
00000230: b7b6 a1bd 486c 4ebe d1be 85bd 6570 5abd
00000240: 19e5 77bd 9612 da3d 55e6 033d da5d dfbd
00000250: 2b15 1c3e 6196 a6bd e952 01be a9fa e43d
00000260: 4c52 023c 1d3d 40be 5bd1 5c3c b75e 08be
00000270: a54b 0cbe a16f acbd 6cf7 e63d f47f 383e
00000280: e731 aebc 5990 563d 50ab 95bc 692a 88bd
00000290: 7574 1c3d 83dd d4bd 1a26 58be 7458 a13d
000002a0: 3d84 e73d 9d24 aebd 0aa1 bdbd 2b09 f43d
000002b0: 0958 8bbb 7954 d93d 8b65 f0bd 7fd8 3c3e
000002c0: 2e35 1bbd d9f2 ffb9 8f75 783e ae5d 12be
000002d0: 4ef7 2b3d fdcd 3fbe 7fda 08bd d967 95bd
000002e0: 7eb3 f2bd 59e9 033e 196c 88bd 7b61 03bd
000002f0: c145 913d d0c2 56bd 6763 8ebd bbff 533d
00000300: ac6c 8a3d 4580 8bbe 6487 d2bd 005c 86be
00000310: 8c1b ad3d 7dc9 193e 2350 ba3d cb0d 1abe
00000320: e750 12be bd3f 1cbe 9d2d a83e 90c3 75be
00000330: 9978 6bbb 7ead 6abb 1807 293e cdf2 0c3e
00000340: b7cb a83d 8cf2 d73d 6fc5 593d a7b5 42bd
00000350: 3abc 99be 17f5 a73d 2124 a33d 2fee f13c
00000360: 156c 9f3d 123b 68bd 59d0 29bd 4a6c 9b3d
00000370: d030 5c3e d641 95bd bf6a 91be fdf3 35be
00000380: fb49 003d 10fc d33d 826e 41bd 3adc 0c3e
00000390: 7429 ea3d d69a a1bd 0698 4bbe a470 043c
000003a0: 51dc 53be a9b8 fd3c feb3 08bd 15ba 3fbe
000003b0: 44a5 3ebd eb45 fb3d a03a 5dbe 2ad8 32be
000003c0: fd9e 1ebe 46e7 e03c 2140 5e3b 9b1c 51bd
000003d0: 690a 97bd 104d 3dbd b106 52be dbc2 2dbe
000003e0: b6ff 8d3d 87e2 14bd dd1d adbd b90f d8bc
000003f0: 95a2 06be 66d0 4cbc 3bbb d53d 306b 03be

conv_net.C4.weight f4 [5, 128, 1, 1]
0.09158016 0.011235376 -0.013283481 0.005214611 -0.021364054 0.05649274 -0.013375149 -0.17842345
0.013918233 -0.007912423 -0.016724361 -0.026698127 -0.24636804 0.006832432 -0.027107196 0.068497814
1.28753635e-36 0.022131698 0.21001658 0.0015792949 -0.06163787 -0.04327035 0.57475084 0.025183171
0.037135754 -0.08190548 0.03744908 0.13402615 0.0323277 -0.05212387 -0.18363173 0.11523685
0.2114442 0.23045473 -0.0056930594 0.0145460125 -0.13632147 0.02964455 0.26003698 0.18517868
-0.10590615 0.040935457 -0.015480686 0.009679283 -0.0037120671 -0.3184945 -0.24041608 0.053158227
-0.21184298 -0.1946219 0.05404815 -0.027643938 0.0434252 0.115133494 0.055209618 -0.0025302563
0.12386262 -0.00026346144 -0.06998592 0.0075102397 0.12806888 -0.04335858 0.021431085 0.032038167
-0.03854248 -0.037524436 -0.0011241409 -0.01078821 -0.013722283 -0.09658057 0.13104722 -0.0042019016
0.035652556 0.0038500554 -0.1826482 -0.029159714 -0.03803136 -0.042243466 -0.13497709 -0.01829828
-0.0032702214 0.009414293 -0.0052096085 -0.024821466 0.010761494 0.038836595 0.36356962 -0.011365821
-0.0063736397 -0.019335447 0.115221865 0.009784846 0.010611765 -0.46091452 -0.017636297 0.004602166
0.0460125 0.009273531 0.014034436 0.11069642 -0.055457644 -0.21367264 -0.044240728 0.024854578
0.046763673 -0.004688366 -0.027677743 0.06186943 0.008192049 -0.018939467 -0.054807056 0.039495632
-0.039945237 0.061729867 -0.14980482 0.007712543 -0.05093751 -0.14813203 -0.065102786 0.12972109
0.015511486 0.012349154 0.14222981 0.010516395 -8.979069e-05 0.06353386 -0.22963981 -0.014111149
0.027541233 0.01379522 -0.14600968 -0.14278084 -0.08061915 -0.07716291 -0.046200775 -0.028318666
-0.0022470248 -0.009016554 -0.017707588 -0.788877 0.12550062 0.044294458 -0.055845976 -0.1321535
1.1921037e-36 0.041544437 -0.28132465 -0.022112478 0.057157595 -0.026563084 -0.33540174 0.017445082
0.06826679 -0.10046818 0.05339278 -0.3837669 0.08332327 0.1601116 0.10908742 -0.10702671
-0.21080837 -0.19776174 0.017082663 -0.0074271034 0.13323279 0.116117075 -0.028117687 -0.081233405
-0.038500156 -0.0016595465 -0.027712954 -0.059405994 0.02423212 0.213738 0.12209961 0.11678469
0.17948425 0.09947877 -0.3846262 -0.0076050335 0.024960332 -0.029687008 -0.055076107 -0.087766096
-0.11293168 0.004500917 -0.1240492 -0.037726298 -0.01607023 -0.05915502 0.04084753 -0.14396594
0.007837188 0.012000818 0.0019496933 0.2048458 0.17189619 -0.18185787 -0.15602234 -0.19076875
0.12628745 0.029452872 0.08665527 0.03428089 -0.022109363 -0.018267393 0.06591189 -0.0010368438
0.0043821274 0.007091269 0.19613644 -0.005467675 0.021844655 -0.07995763 -0.26340878 -0.03581169
0.034790147 -0.09722175 -0.13954447 -0.016482642 0.0035788622 -0.05186835 -0.006691011 0.011380215
0.43306854 -0.14182508 0.003909478 0.051608138 0.048480097 0.25894958 -0.049846113 0.18974711
0.13209836 0.08120344 -0.10178821 -0.28562412 0.04536305 -0.028995486 -0.061150312 -0.012449491
0.0027477678 0.12936534 0.15313832 0.05361845 -0.27316475 0.01418967 -0.070940785 -0.28244665
0.05791985 -0.011464463 0.028454516 0.20804192 0.20950718 -0.100239664 0.16479819 0.009900095
00000000: 618e bb3d 9514 383c f5a2 59bc 54df aa3b
00000010: ab03 afbc ee64 673d 7123 5bbc a3b4 36be
00000020: 4d09 643c 1ca3 01bc 8701 89bc 08b6 dabc
00000030: e747 7cbe 98e2 df3b e90f debc 9548 8c3d
00000040: 1e10 db03 894d b53c 960e 573e 5800 cf3a
00000050: fe77 7cbd 403c 31bd df22 133f f04c ce3c
00000060: a91b 183d 0fbe a7bd 3564 193d 273e 093e
00000070: 0d6a 043d d77f 55bd f509 3cbe 4c01 ec3d
00000080: d484 583e 53fc 6b3e d88c babb 6652 6e3c
00000090: db97 0bbe 21d9 f23c 9123 853e 7b9f 3d3e
000000a0: 53e5 d8bd f0ab 273d b4a2 7dbc db95 1e3c
000000b0: 2746 73bb b611 a3be a22f 76be 71bc 593d
000000c0: 5eed 58be f74a 47be 9861 5d3d 8a75 e2bc
000000d0: 9fde 313d 1ccb eb3d 7b23 623d a8d2 25bb
000000e0: afab fd3d 3221 8ab9 c754 8fbd 7518 f63b
000000f0: 7d24 033e c498 31bd 3e90 af3c 743a 033d
00000100: b8de 1dbd 39b3 19bd e957 93ba 08c1 30bc
00000110: 6dd3 60bc 09cc c5bd 3e31 063e 1bb0 89bb
00000120: 6a08 123d 3651 7c3b 2108 3bbe 5ae0 eebc
00000130: c5c6 1bbd 7c07 2dbd 6f37 0abe 46e6 95bc
00000140: 3651 56bb 683e 1a3c 5db5 aabb 6356 cbbc
00000150: fa50 303c 1f13 1f3d cc25 ba3e b537 3abc
00000160: f7d9 d0bb 5f65 9ebc 71f9 eb3d 9e50 203c
00000170: f8dc 2d3c fdfc ebbe ff79 90bc c4cd 963b
00000180: 9a77 3c3d 02f0 173c b1f0 653c ceb4 e23d
00000190: 8e27 63bd 00cd 5abe c435 35bd d49b cb3c
000001a0: 448b 3f3d dda0 99bb 6fbc e2bc cd6a 7d3d
000001b0: f237 063c f126 9bbc 5d7d 60bd 2cc6 213d
000001c0: 9e9d 23bd 75d8 7c3d 6f66 19be 80b9 fc3b
000001d0: daa3 50bd ecaf 17be 9c54 85bd 9bd5 043e
000001e0: e323 7e3c 1b54 4a3c b1a4 113e f54c 2c3c
000001f0: 024e bcb8 0a1e 823d b326 6bbe 7332 67bc
00000200: 279e e13c 5905 623c 9083 15be 2435 12be
00000210: a71b a5bd 9607 9ebd 063d 3dbd 8cfc e7bc
00000220: d242 13bb 2bba 13bc 810f 91bc d8f3 49bf
00000230: 3c83 003e 1b6e 353d c0be 64bd 3f53 07be
00000240: 70d3 ca03 802a 2a3d c909 90be 3a25 b5bc
00000250: 151e 6a3d d39a d9bc c7b9 abbe fde8 8e3c
00000260: 75cf 8b3d 43c2 cdbd 63b2 5a3d 187d c4be
00000270: 64a5 aa3d 4cf4 233e 3a69 df3d d230 dbbd
00000280: 26de 57be 0e82 4abe f1f0 8b3c 0f5f f3bb
00000290: 2d6e 083e cace ed3d 1057 e6bc b35d a6bd
000002a0: 57b2 1dbd 2485 d9ba 4706 e3bc b353 73bd
000002b0: 7082 c63c 22de 5a3e 5c0f fa3d d02c ef3d
000002c0: b8ca 373e 86bb cb3d baed c4be a533 f9bb
000002d0: 9c79 cc3c 2b32 f3bc 7c97 61bd b6be b3bd
000002e0: ba48 e7bd 6e7c 933b 820d febd e486 1abd
000002f0: b7a5 83bc 894c 72bd bd4f 273d cf6b 13be
00000300: 8d67 003c 149f 443c da8c ff3a 19c3 513e
00000310: 8e05 303e f338 3abe 52c4 1fbe e258 43be
00000320: 7f51 013e 2647 f13c 5178 b13d 1e6a 0c3d
00000330: b21e b5bc 80a5 95bc d0fc 863d b4e6 87ba
00000340: f397 8f3b e05d e83b fed7 483e 2f2a b3bb
00000350: 90f3 b23c d3c0 a3bd 84dd 86be 47af 12bd
00000360: 1d80 0e3d 321c c7bd bfe4 0ebe 9b06 87bc
00000370: 588b 6a3b e873 54bd 4540 dbbb 1574 3a3c
00000380: 29bb dd3e 983a 11be 141b 803b 0e63 533d
00000390: 1193 463d 0a95 843e 702b 4cbd 114d 423e
000003a0: cb44 073e fd4d a63d 5676 d0bd 533d 92be
000003b0: 9bce 393d f187 edbc c078 7abd f3f8 4bbc
000003c0: e513 343b 5978 043e 4bd0 1c3e 059f 5b3d
000003d0: 40dc 8bbe ca7b 683c 6749 91bd d99c 90be
000003e0: 5d3d 6d3d 71d5 3bbc 7219 e93c f108 553e
000003f0: 0d89 563e 744a cdbd dbc0 283e 0234 223c
