CNN_weights/NetworkB_weights_CV2.pt (torch, 46815 bytes, 4 tensors)

conv_net.C1.weight f4 [32, 12, 1, 1]
0	0xbc78e121	-0.015190394
1	0x3dd6b24b	0.104832254
2	0x3b33cb02	0.0027434235
3	0x3d3f4ca1	0.04670394
4	0x3d90c374	0.0706853
5	0xbc7b59cd	-0.015341234
6	0xbe0988c0	-0.13431072
7	0xbfb24648	-1.3927698
8	0xbeed81e9	-0.46388176
9	0x3d0e9591	0.034810606
10	0xbd034137	-0.032044616
11	0xbea15e56	-0.31517285
12	0xbdb49175	-0.08816806
13	0xbf926706	-1.143769
14	0xbe939b92	-0.28829628
15	0x3e41fd5e	0.18944308
16	0xbe1ea55a	-0.15492764
17	0x3d9f373c	0.07774207
18	0xbb850154	-0.004058996
19	0xbd15836b	-0.036502283
20	0x3bf25f19	0.0073965904
21	0x3e7af61b	0.24507944
22	0x3c56de41	0.013114513
23	0x3e3eec2b	0.18644778
24	0xbc5b9739	-0.0134027535
25	0x3d25d864	0.04048957
26	0x3a73bf21	0.0009298195
27	0x3d1f0315	0.0388213
28	0x3ca42d8a	0.020041246
29	0xbd905ea8	-0.07049304
30	0x3d8a75fe	0.067607865
31	0xbf078721	-0.52940565
32	0xbe5be6be	-0.2147474
33	0xbb38adfa	-0.002817987
34	0xbe28a6ac	-0.1646983
35	0x3f06c851	0.5264941
36	0xbdf319af	-0.11870133
37	0x3e61396b	0.2199456
38	0xbdaffefc	-0.08593556
39	0x3db6ca8f	0.08925354
40	0xbdad3807	-0.08457952
41	0xbe53c6aa	-0.20681253
42	0xbd51db00	-0.051234245
43	0x3e376868	0.17910922
44	0x3e889725	0.26677814
45	0x3ecce80b	0.40020785
46	0xbd00aa1c	-0.03141223
47	0xbe87c61b	-0.2651833
48	0xbdef6f32	-0.11691131
49	0xbd970bdd	-0.073753096
50	0x3e1070b1	0.14105488
51	0xbde74bcf	-0.11293756
52	0x3b84096f	0.004029445
53	0xbdc87f51	-0.09789909
54	0xbbc81908	-0.0061064996
55	0xbf620b7b	-0.8829877
56	0x3ea9e6a9	0.33183792
57	0xbe712783	-0.23550229
58	0x3cfb3608	0.030665413
59	0x3d3b120c	0.045671508
60	0xbd9016f5	-0.07035629
61	0x3d8e243c	0.06940505
62	0xbe0414d5	-0.12898572
63	0xbd09e18a	-0.033662356
64	0xbdbb771b	-0.09153577
65	0xbd9385a9	-0.07203228
66	0xbdfdc504	-0.123910934
67	0xbf8122c6	-1.0088737
68	0xbe6b9435	-0.23005755
69	0x3d9195fe	0.07108687
70	0xbc6cee8a	-0.014461169
71	0x3ededbef	0.4352717
72	0xbe75c2c6	-0.24000081
73	0xbd83ce74	-0.06435862
74	0xbdc0a584	-0.094065696
75	0x3e1e96b6	0.15487179
76	0xbe4ed3c0	-0.20197964
77	0x3e5757f8	0.21029651
78	0xbe84b9fb	-0.25923142
79	0x3e8e89fb	0.27839646
80	0xbd6191fb	-0.05507086
81	0xbea1a79f	-0.31573197
82	0xbd16a522	-0.036778577
83	0x3eef328e	0.46718258
84	0x3e49261c	0.19643444
85	0xbd4b1aab	-0.04958598
86	0xbdd5b19c	-0.10434267
87	0x3e395082	0.18097118
88	0xbcefcbd7	-0.029272003
89	0x3cd32e9f	0.025779067
90	0xbd99ebbd	-0.07515667
91	0x3e67f1c9	0.22650827
92	0xbde27c87	-0.11058908
93	0x3e9269ac	0.28596246
94	0xbd710c6b	-0.058849733
95	0x3e8cf922	0.27533823
96	0x3c586432	0.013207482
97	0xbf47d503	-0.78059405
98	0xbeab35c6	-0.33439463
99	0xbe4eecf1	-0.20207573
100	0x3e1990b4	0.14996606
101	0xbe807aa1	-0.25093558
102	0xbe66ec86	-0.22551164
103	0x3c0ef49c	0.008725312
104	0xbd279d76	-0.04092165
105	0xbee22e34	-0.44175875
106	0xbe245b34	-0.16050416
107	0x3e1d22f9	0.15345372
108	0x3a200762	0.0006104616
109	0x3d4cf7fe	0.05004119
110	0x3bcfc296	0.006340335
111	0xbbe6fb51	-0.007049002
112	0x3d4162ef	0.04721349
113	0xbe2190e0	-0.15777922
114	0x3d794a9b	0.060862165
115	0xbd0de180	-0.03463888
116	0x3dba2b0a	0.0909024
117	0xbfbe8afe	-1.4886167
118	0xbd9a2463	-0.075264715
119	0xbd91f2b6	-0.071263716
120	0xbda63685	-0.081158675
121	0x3c5a3818	0.013319038
122	0xbde2b5a5	-0.11069802
123	0xbd0828ea	-0.033242144
124	0x3dfd49a0	0.123675585
125	0x3e2c2e53	0.16814546
126	0xbca4749d	-0.020075137
127	0x3bb3bbe7	0.005485046
128	0x3d87e21d	0.066349246
129	0xbb7f60d9	-0.0038967638
130	0x3ed5c37b	0.41750702
131	0x3e526cd8	0.20549333
132	0xbea725ca	-0.32646018
133	0x3cb0776f	0.021541325
134	0xbd3eeac9	-0.046610627
135	0x3e21568a	0.15755668
136	0xba693822	-0.0008896609
137	0x3eb4ed0e	0.35337108
138	0xbd5f01cc	-0.054445073
139	0x3e863430	0.2621169
140	0xbd92a21b	-0.071598254
141	0x3edc350f	0.4300923
142	0xbdcafcf8	-0.09911531
143	0xbf3b3222	-0.7312337
144	0x3e0c9b84	0.137312
145	0xbdfdc116	-0.12390344
146	0xbd105971	-0.035241548
147	0x3e715f12	0.23571423
148	0xbdecf914	-0.115709454
149	0x3db64288	0.088994086
150	0xbdd4a431	-0.103828795
151	0xbf8403bc	-1.031364
152	0xbdd9f287	-0.106419615
153	0xbe8c04e3	-0.27347478
154	0x3e091978	0.13388622
155	0xbe97ff5e	-0.29687017
156	0x3dbfbc64	0.093621045
157	0x3c9197b0	0.017772526
158	0x3cecfc1c	0.028928809
159	0x3df569c8	0.11983067
160	0x3db0c2e0	0.086309195
161	0xbfbaa9ac	-1.458303
162	0xbe6ec592	-0.23317555
163	0x3dcba3f8	0.09943384
164	0x3ce7a99c	0.028279118
165	0x3d0801f6	0.033204995
166	0x3d9390b1	0.07205332
167	0xbeda138a	-0.42593032
168	0x3ea65a8b	0.32490954
169	0xbcc5336d	-0.024072373
170	0xbda35d5f	-0.079767935
171	0xbd9325c5	-0.07184938
172	0xbd8391e7	-0.06424313
173	0xbecf346d	-0.40469685
174	0x3ea35389	0.3189967
175	0xbec984c3	-0.39359102
176	0x3dcfa510	0.10138905
177	0xbd48b4c4	-0.049000517
178	0xbd9b86ba	-0.075940564
179	0x3d145986	0.03621819
180	0x3e5d419a	0.21607056
181	0x3cfb5173	0.030678486
182	0xbbf81216	-0.0075705154
183	0xbf556fec	-0.83373904
184	0xbe7e705b	-0.24847548
185	0xbcbc20dc	-0.022964887
186	0x3e12b756	0.1432775
187	0x3eb9aeae	0.36266083
188	0x3d7051e3	0.058671843
189	0x3d875b79	0.06609244
190	0x3e0bdf60	0.1365943
191	0xbcb138de	-0.021633562
192	0xbe53779d	-0.20651098
193	0xbc1b878a	-0.009492764
194	0x3d61882f	0.055061515
195	0x3e05a206	0.13050088
196	0x3db305f1	0.087413676
197	0xbf886c72	-1.0658095
198	0xbe7c74d1	-0.24653937
199	0x3cab7890	0.020931512
200	0xbe0bb41c	-0.13642925
201	0x3e874df8	0.26426673
202	0xbda53d0c	-0.080682844
203	0xbeab19a4	-0.33418
204	0xbbb616d4	-0.0055569205
205	0xbdad03f4	-0.084480196
206	0x3c87f431	0.016595932
207	0xbf3622d0	-0.7114687
208	0x3e880e74	0.26573527
209	0xbf25bb53	-0.6473896
210	0xbe079dda	-0.1324381
211	0x3cdae218	0.026719138
212	0xbdb8ff70	-0.09033096
213	0xbce8ab53	-0.028402006
214	0xbbbedcd6	-0.0058246655
215	0x3ecb25c4	0.3967725
216	0x3df47491	0.11936296
217	0x3d4ad60f	0.04952055
218	0xbe0e3a55	-0.1388944
219	0xbb1abee1	-0.0023612308
220	0xbe32e608	-0.17470562
221	0xbdb2579a	-0.08708115
222	0xbe5735f7	-0.2101668
223	0x3d530b71	0.051524583
224	0xbe32e09b	-0.17468493
225	0xbf0c57bd	-0.5482138
226	0xbe8f7df8	-0.28025794
227	0xbe9f3292	-0.3109327
228	0x3d7b9d37	0.06142923
229	0xbe2668db	-0.16250937
230	0x3d698ee8	0.05702105
231	0xbf13a9f0	-0.5768118
232	0xbe68cd6e	-0.22734615
233	0xbc56e505	-0.013116126
234	0xbe81734d	-0.2528328
235	0xbe278768	-0.16360247
236	0xbe4dcffe	-0.20098874
237	0xbe8e3ae6	-0.2777931
238	0xbe0b7353	-0.13618211
239	0x3f0d5e43	0.55221957
240	0x3d1e0847	0.038582113
241	0x3ea9aca6	0.33139533
242	0x3c4c5012	0.012470262
243	0x3d3183d1	0.0433386
244	0x3e082e9e	0.13299033
245	0x3e01273a	0.1261262
246	0x3dd093b7	0.10184424
247	0x3e0e2383	0.13880734
248	0xbe640d80	-0.22270775
249	0x3d38a60e	0.045080237
250	0x3d281220	0.04103291
251	0x3d875d19	0.06609554
252	0x3eae6843	0.3406392
253	0xbf98179f	-1.1882209
254	0xbe32e4ed	-0.17470141
255	0x3d4bcda4	0.04975666

conv_net.C2.weight f4 [64, 32, 1, 1]
0	0xbef7c722	-0.48394114
1	0x3e01c32d	0.1267211
2	0x3e17ef44	0.14837366
3	0xbe0f4d67	-0.1399437
4	0xbd616cc2	-0.05503536
5	0x3e6f04f7	0.23341738
6	0xbd95a256	-0.07306354
7	0x3da3cb78	0.07997793
8	0xbea102ec	-0.31447542
9	0x3e97df46	0.29662532
10	0xbe55939e	-0.20857093
11	0x3ba55acf	0.0050462256
12	0x3d72f658	0.059316963
13	0x3e19e453	0.15028505
14	0x3a57b9e5	0.00082292996
15	0xbe8c7da2	-0.274396
16	0x3dd9f9cc	0.10643348
17	0xbe82b511	-0.25528768
18	0xbd5cd9bb	-0.05391858
19	0x3d114e29	0.03547493
20	0x3da7c42f	0.08191716
21	0x3ca997da	0.020702291
22	0x3dc89648	0.09794289
23	0xbe031522	-0.1280103
24	0xbc071b43	-0.008246246
25	0x3db8a167	0.0901516
26	0x3da122de	0.078679785
27	0xbd5a0b27	-0.053233292
28	0x3e3ad886	0.1824666
29	0xbe4af7d7	-0.19821106
30	0x3d278d50	0.04090625
31	0xbeba5006	-0.36389178
32	0xbe15767a	-0.14595976
33	0x3e8e3a6e	0.27778953
34	0x3e5608e2	0.20901826
35	0xbd849310	-0.064733624
36	0xbe8a4ae8	-0.27010274
37	0xbce69ee9	-0.028151946
38	0xbe0cea10	-0.13761163
39	0x3db4d88d	0.08830366
40	0xbe221821	-0.15829517
41	0xbd94aaee	-0.07259165
42	0xbe370e80	-0.17876625
43	0x3e6578fc	0.22409433
44	0xbddc5e99	-0.107602306
45	0xbd2c3090	-0.0420385
46	0x3e6831a3	0.22675185
47	0xbdc0e20c	-0.09418115
48	0xbdab4f69	-0.08364756
49	0xbc102170	-0.008797035
50	0x3e8d542b	0.27603278
51	0x3cde2846	0.027118813
52	0xbe7757e6	-0.24154624
53	0xbe0670ce	-0.13128969
54	0xbe5faaf7	-0.21842562
55	0x3e4faf9b	0.20281832
56	0x3e15ca8b	0.14628045
57	0x3e1f5a45	0.15561779
58	0x3e2e7fde	0.17040965
59	0xbeea22a1	-0.45729545
60	0xbd6b950c	-0.05751519
61	0x3ddfe4d6	0.10932319
62	0xbe48cbc2	-0.19608977
63	0xbe932714	-0.28740752
64	0x3de757f9	0.11296076
65	0x3e132279	0.14368619
66	0xbe1cbbd2	-0.15306023
67	0x3dbabba0	0.09117818
68	0x3ea201d5	0.31642023
69	0x3e40b679	0.18819608
70	0xbc236cb6	-0.009974649
71	0xbe1389db	-0.14408056
72	0x3c4e959c	0.012608912
73	0xbd906e16	-0.07052247
74	0xbd6960ee	-0.056977205
75	0xbec39633	-0.3820053
76	0x3dd8a939	0.10579152
77	0x3e358843	0.17727761
78	0x3e6c430e	0.23072454
79	0x3b2538ae	0.0025210786
80	0xbde0e55f	-0.10981249
81	0x3ce3dcae	0.02781519
82	0xbe495923	-0.19662909
83	0xbdde7817	-0.10862749
84	0xbefa518c	-0.4889034
85	0x3e3f4c65	0.18681486
86	0x3dd9d08a	0.10635479
87	0x3e6e2d03	0.23259358
88	0x3d2e49a7	0.04255071
89	0xbe9b870a	-0.30376464
90	0x3ea2e5bb	0.31815895
91	0x3c62710a	0.013820896
92	0xbf332269	-0.6997438
93	0xbc8ea161	-0.017410936
94	0xbd219677	-0.039450135
95	0xbd0d17c2	-0.034446485
96	0x3da8fe0f	0.08251583
97	0xbe44cdf8	-0.19219196
98	0x3e2f2c01	0.1710663
99	0xbe239b91	-0.15977313
100	0xbd33733b	-0.043811064
101	0x3e688817	0.22708164
102	0xbde5554b	-0.11197909
103	0xbebc6730	-0.36797476
104	0xbcfbcede	-0.03073829
105	0xbe98126e	-0.2970156
106	0x3e1fb0ce	0.1559479
107	0x3eb4813b	0.35254845
108	0xbe10d49a	-0.14143601
109	0x3d3a91da	0.04554925
110	0xbda0a573	-0.07844057
111	0x3ec62368	0.38698888
112	0xbd005d27	-0.031338837
113	0x3eb10aab	0.34578452
114	0x3e12a459	0.14320506
115	0x3e652e24	0.22380883
116	0xbe07dce8	-0.13267863
117	0xbdb4731e	-0.08811019
118	0xbd53f629	-0.05174843
119	0xbd581a37	-0.052759375
120	0x3d623536	0.055226527
121	0xbe35c28a	-0.17749992
122	0xbd35b32b	-0.04436032
123	0xbd64f6ca	-0.05589942
124	0x3e44f57b	0.19234268
125	0x3e998b78	0.2998922
126	0xbd91c211	-0.07117093
127	0x3d9b3104	0.07577708
128	0x3e51bf2e	0.20483086
129	0xbcd0a300	-0.02546835
130	0x3c668efb	0.014072175
131	0xbcf2009a	-0.029541302
132	0xbd9fa600	-0.07795334
133	0xbe5a7a3c	-0.21335691
134	0x3d87aa78	0.06624311
135	0xbe2cc6c7	-0.16872703
136	0xbe5fd449	-0.21858324
137	0x3da4cc53	0.08046784
138	0x3ded863b	0.11597868
139	0xbdfaf285	-0.12253288
140	0x3eba42a7	0.36378977
141	0xbf2a7497	-0.6658415
142	0xbe178fc0	-0.1480093
143	0xbd861daf	-0.065486304
144	0xbdf6ba4d	-0.12047253
145	0xbe8ac32d	-0.27102032
146	0x3cdf43e5	0.027254054
147	0x3dd28a0a	0.10280235
148	0x3cc75f7c	0.024337523
149	0xbdebde89	-0.115170546
150	0x3e336451	0.17518736
151	0x3e0d7c0f	0.13816856
152	0x3e2e1d8e	0.17003462
153	0x3db016a6	0.0859807
154	0x3c3b9686	0.011449462
155	0x3bd80403	0.006592275
156	0xbdadaecc	-0.084806055
157	0x3e483505	0.19551475
158	0xbd00ad66	-0.031415366
159	0xbe9ad8da	-0.3024357
160	0x3e2c7a14	0.16843444
161	0xbe01ff19	-0.12694968
162	0x3d827b73	0.06371202
163	0xbe33bb30	-0.17551875
164	0xbe45820a	-0.19287887
165	0xbe824624	-0.25444138
166	0x3e765df5	0.2405928
167	0xbe8d53cd	-0.27602997
168	0xbe5b8ec6	-0.21441182
169	0x3d4e6bfa	0.050395943
170	0x3e9e3922	0.30902964
171	0xbe81a398	-0.25320125
172	0xbe0d312d	-0.1378829
173	0xbdaaf2d1	-0.08347095
174	0xbecc981b	-0.39959797
175	0x3e27070b	0.1631128
176	0x3e5e9b7b	0.21738999
177	0x3db79ec2	0.089658275
178	0xbf1ce0d5	-0.61280566
179	0xbdc271fe	-0.094943985
180	0xbcd7eb49	-0.02635731
181	0x3d8ccb86	0.068747565
182	0x3d773182	0.06034995
183	0xbe61128c	-0.21979731
184	0xbe61c2f3	-0.22047023
185	0xbb7e3892	-0.0038791043
186	0x3e8a8861	0.27057174
187	0x3e867ee2	0.2626868
188	0x3d371abb	0.044703227
189	0xbe28b0d2	-0.16473702
190	0xbe62b396	-0.22138819
191	0xbe008640	-0.12551212
192	0xbe02c879	-0.12771787
193	0x3ec95517	0.3932273
194	0xbe50cef4	-0.20391446
195	0xbe03e273	-0.12879352
196	0x3e750f0e	0.23931524
197	0xbd9f68c1	-0.07783652
198	0x3cf45cd2	0.029829416
199	0xbe642903	-0.2228127
200	0x3e6e1dd3	0.23253565
201	0x3e047605	0.12935646
202	0x3e746e67	0.2387024
203	0xbe090c35	-0.13383563
204	0xbb61725b	-0.0034400437
205	0xbf60bc8e	-0.8778771
206	0xbcd88f96	-0.026435655
207	0xbd310005	-0.04321291
208	0xbe375329	-0.17902817
209	0xbf08828b	-0.5332419
210	0x3e5c07ab	0.214873
211	0xbe62b0ce	-0.22137758
212	0xbedba477	-0.42898914
213	0x3ad17c57	0.0015982491
214	0x3e0d19c4	0.1377936
215	0xbe09ee88	-0.13469899
216	0xbd967772	-0.07347001
217	0xbd42010c	-0.04736428
218	0x3de11ab8	0.10991424
219	0x3d4a695b	0.04941688
220	0xbea52ce5	-0.32260814
221	0xbd8d6540	-0.069040775
222	0x3e6a8ee2	0.22906068
223	0x3cec120e	0.028817203
224	0xbd7358af	-0.059410747
225	0xbe6b9773	-0.23006992
226	0x3e048234	0.12940294
227	0xbe6c35e8	-0.23067439
228	0xbe14c469	-0.1452805
229	0xbe58dc26	-0.2117773
230	0xbd9a3bf3	-0.07530966
231	0x3e1e73dc	0.15473884
232	0x3e12d959	0.14340724
233	0xbe811266	-0.2520935
234	0x3d4731e3	0.04863156
235	0xbda73bd9	-0.08165712
236	0xbd840344	-0.06445935
237	0xbe6de4b1	-0.2323177
238	0x3e26abc1	0.16276456
239	0xbe4a4032	-0.19751051
240	0xbdac4ab7	-0.08412688
241	0x3e9b6adf	0.30354974
242	0x3d7df5b4	0.0620019
243	0xbd2f3565	-0.04277553
244	0x3de9a3ea	0.11408217
245	0x3e31f33a	0.1737794
246	0x3ca4ae02	0.020102505
247	0xbd81bf86	-0.06335358
248	0xbd3485c5	-0.044072885
249	0x3e9aa621	0.3020487
250	0xbe9b3937	-0.3031709
251	0xbd567ef2	-0.05236716
252	0x3dc1539e	0.09439777
253	0xbdddda40	-0.108326435
254	0xbde22125	-0.11041478
255	0x3e1c80b9	0.15283479

conv_net.C3.weight f4 [128, 64, 1, 1]
0	0xbd20d632	-0.039266773
1	0xbda1e4d6	-0.07904975
2	0xbe0ddc12	-0.13853481
3	0x3b809f1a	0.0039252164
4	0xbd24e2c3	-0.04025532
5	0x3e27e660	0.16396475
6	0x3c502202	0.012703421
7	0xbd51619a	-0.05111847
8	0xbcfc5fd0	-0.030807406
9	0x3c714236	0.014725259
10	0x3e01161b	0.12606089
11	0xbd19665b	-0.03745113
12	0x3ca34c48	0.019933835
13	0xbe324b9f	-0.1741166
14	0x3cbb5c89	0.022871273
15	0xbe0a72a3	-0.13520293
16	0xbca491d1	-0.020089062
17	0xbeacbfbd	-0.33740035
18	0x3dcaf31f	0.09909653
19	0xbd474ebf	-0.048659083
20	0xbdd84cf1	-0.105615504
21	0xbc9ebedf	-0.019378124
22	0x3ce18421	0.027528824
23	0xbdeb8838	-0.11500591
24	0x3b66dc6e	0.0035226601
25	0xbe578f09	-0.21050657
26	0xbd8180b0	-0.06323373
27	0x3b5da91a	0.0033822716
28	0x3ddb081e	0.106949076
29	0xbe346eba	-0.17620364
30	0xbc3d25af	-0.011544629
31	0xbd868293	-0.06567874
32	0xbd2b3f85	-0.041808624
33	0x3e1814c0	0.14851665
34	0xbcd589ba	-0.02606665
35	0xbda48eaa	-0.080350235
36	0xbdf75e51	-0.12078536
37	0x3b4d91ad	0.0031367347
38	0x3dd0b3ae	0.10190521
39	0xbd202212	-0.039094992
40	0x3ce88e96	0.028388303
41	0xbd943a8d	-0.0723773
42	0x3c2e5838	0.01064115
43	0x3dd6be8f	0.10485565
44	0xbdcfbbcf	-0.101432435
45	0x3d7ee16b	0.062226694
46	0x3e11bc2c	0.14231938
47	0x3e1914e7	0.1494938
48	0xbd7cd9dd	-0.061731208
49	0xbabe3a20	-0.0014513172
50	0xbcc206e4	-0.023684926
51	0xba885510	-0.0010401327
52	0xbd9ad10a	-0.07559402
53	0xbd529dbe	-0.051419966
54	0x3d8463b7	0.064643316
55	0xbd8a2fdb	-0.06747409
56	0x3dbc445c	0.09192726
57	0xbeaef781	-0.34173205
58	0xbda6b282	-0.081395164
59	0xbdc8edf1	-0.09811009
60	0x3d8b45fc	0.06800458
61	0xbe312165	-0.17297895
62	0x3d298655	0.041387875
63	0x3e0f1277	0.13971888
64	0xbe42ccab	-0.19023387
65	0x3e19debd	0.15026374
66	0xbe003f5e	-0.12524173
67	0xbe460c6e	-0.19340679
68	0xbd9ed582	-0.07755567
69	0xbd5ac770	-0.053412855
70	0xbd3338ce	-0.043755345
71	0xbca652bb	-0.02030312
72	0x3cbe3a6e	0.02322122
73	0xbbdcce7a	-0.006738481
74	0x3d2e3bf3	0.04253764
75	0x3db92bd9	0.090415664
76	0x3cf7910c	0.03022053
77	0xbeaf3e14	-0.3422705
78	0xbd159db0	-0.036527336
79	0x3d8bef8e	0.06832801
80	0xbc917779	-0.017757164
81	0x3dd906e4	0.105970174
82	0x3d2ee8bd	0.042702425
83	0xbdc0f300	-0.094213486
84	0x3e51b00b	0.20477311
85	0xbe9b40bb	-0.30322823
86	0x3cbaea78	0.022816882
87	0xbce0704b	-0.027397295
88	0x3e40fcc8	0.18846428
89	0xbe82c468	-0.2554047
90	0xbdd3d73b	-0.10343786
91	0xbd09fbc1	-0.033687357
92	0x3e1f1df0	0.15538764
93	0x3e265db3	0.16246681
94	0xbd071775	-0.032981355
95	0xbde0c99a	-0.109759524
96	0xbb32fea5	-0.0027312424
97	0x3e335312	0.17512158
98	0xbe43d13c	-0.19122785
99	0x3d965b90	0.07341683
100	0x3d5547a1	0.052070264
101	0x3e1c34f1	0.1525457
102	0x3e226508	0.15858853
103	0xbe0334a7	-0.12813054
104	0xbe104cda	-0.14091817
105	0xbe0c2ee0	-0.13689756
106	0xbce931c5	-0.028466115
107	0x3d6917f4	0.05690761
108	0x3c014af6	0.007891407
109	0x3dcfde22	0.1014979
110	0xbba73702	-0.005102993
111	0xbe8c2b1a	-0.27376634
112	0xbced69db	-0.02898114
113	0x3e1354db	0.14387839
114	0xbd206c68	-0.039165884
115	0xbe0e2faf	-0.13885377
116	0xbdb07cb4	-0.08617535
117	0xbd5045b5	-0.050847728
118	0x3d80fb2d	0.06297908
119	0xbdc9a896	-0.09846608
120	0x3d70f2a6	0.058825158
121	0x3ce7f07a	0.02831291
122	0x3e486143	0.19568352
123	0x3e0ac885	0.13553055
124	0xbe43898a	-0.19095436
125	0xbdbed4f0	-0.09317958
126	0xbd39c8f9	-0.045357678
127	0xbd69aa88	-0.057047397
128	0x3d7a623c	0.06112884
129	0x3d3e79c0	0.04650283
130	0x3dc76057	0.09735172
131	0xbe6d0477	-0.23146234
132	0x3d0298e0	0.031884074
133	0xbca4dc26	-0.020124506
134	0xbdc88a7e	-0.0979204
135	0x3d5f3fe7	0.0545043
136	0xbe373596	-0.17891535
137	0x3c037c1f	0.008025198
138	0x3e0b0d20	0.13579226
139	0xbea7c389	-0.3276637
140	0xbd12ea46	-0.03586795
141	0xbd488789	-0.04895738
142	0x3d817c83	0.06322577
143	0xbd4b7de2	-0.049680598
144	0xbe494362	-0.19654611
145	0x3dfe4f30	0.124174476
146	0x3ce48911	0.02789739
147	0xbdfa9583	-0.12235548
148	0x3b10d942	0.0022102152
149	0xbe9c14a0	-0.30484486
150	0xbd33a0fd	-0.043854702
151	0x3e7d3fbe	0.24731347
152	0x3d4cbef5	0.0499868
153	0xbe801da8	-0.25022626
154	0x3da2fa95	0.07957951
155	0xbeb67511	-0.3563619
156	0xbe90eab8	-0.28304076
157	0xbece71f1	-0.40321305
158	0x3e0c0379	0.136732
159	0xbd7d5812	-0.06185157
160	0xbc1dee72	-0.009639369
161	0xbda70f5f	-0.08157229
162	0x3e422e7e	0.18963048
163	0xbdc3a231	-0.0955242
164	0xbe1a7df9	-0.15087117
165	0xbd8c8cfd	-0.06862829
166	0xbdd66a65	-0.10469512
167	0xbd342a5d	-0.043985713
168	0x3d95ef05	0.0732098
169	0xbe09c624	-0.13454491
170	0xbc8dcc1b	-0.01730924
171	0x3e5a42a4	0.21314484
172	0x3e31113a	0.17291728
173	0xbe4ab804	-0.19796759
174	0xbe7cf8df	-0.24704312
175	0x3e3178b1	0.17331196
176	0xbd1f56f7	-0.038901296
177	0xbd9a4d57	-0.07534283
178	0x3dd728c5	0.10505823
179	0xbdd39c9a	-0.10332604
180	0xbde0cd4c	-0.10976657
181	0x3c299ef9	0.010352843
182	0x3d55464d	0.052068997
183	0xbdbe1f4e	-0.09283315
184	0x3dbefc79	0.09325499
185	0x3e4b8663	0.19875483
186	0x3d999ec0	0.07500982
187	0x3caa087e	0.020756003
188	0x3db94f46	0.09048323
189	0xbd8c3187	-0.06845384
190	0xbcb22886	-0.021747839
191	0xbe42eac8	-0.19034874
192	0xbe6bbf9b	-0.2302231
193	0xbe0dbca3	-0.1384149
194	0xbb2ada7d	-0.002607017
195	0xbe8bbe55	-0.2729365
196	0x3df17987	0.117907576
197	0xbe081364	-0.13288647
198	0x3e85cb57	0.26131698
199	0xbf324061	-0.69629484
200	0xbe65f88b	-0.22458093
201	0x3ede1c63	0.43381032
202	0x3e98b749	0.29827335
203	0xbebaa6bf	-0.36455342
204	0xbd3fe1e0	-0.04684627
205	0xbe246ef7	-0.16057955
206	0x3e853fd0	0.26025248
207	0x3e5b319a	0.2140564
208	0xbe381574	-0.17976934
209	0xbe5766b6	-0.21035275
210	0x3cb86659	0.02250974
211	0xbdbaea35	-0.09126703
212	0xbd6d631a	-0.05795584
213	0xbe47a446	-0.19496259
214	0xbd2f1dcc	-0.042753026
215	0x3cec592b	0.028851112
216	0xbd8d863f	-0.06910371
217	0xbdc362f0	-0.09540355
218	0x3d602a0f	0.05472761
219	0xbddb04f2	-0.106943026
220	0x3d6f177e	0.058372013
221	0xbd8148af	-0.063126914
222	0xbeafff2f	-0.34374377
223	0xbe5e8d3c	-0.21733564
224	0xbd3d42ac	-0.04620616
225	0x3ee7f962	0.4530745
226	0xbdcbe10f	-0.09955036
227	0xbf1829fe	-0.59439075
228	0xbda54f8b	-0.08071812
229	0xbdc7916e	-0.097445354
230	0xbf55f970	-0.83583736
231	0xbec75a10	-0.389359
232	0x3cc19d47	0.023634566
233	0xbb8d66f8	-0.0043152533
234	0xbd8c3b25	-0.068472184
235	0x3db0804e	0.08618222
236	0xbcfaae12	-0.030600581
237	0xbf21fc6e	-0.632758
238	0xbe2246c2	-0.15847304
239	0xbdfa5049	-0.122223444
240	0x3d24641c	0.040134534
241	0xbee2dba4	-0.44308197
242	0x3c14aab1	0.009073899
243	0xbd37cd1c	-0.044873342
244	0x3d065845	0.032799024
245	0xbe918fb0	-0.28429937
246	0xbf11639f	-0.56792635
247	0xbdab0e1e	-0.08352302
248	0xbe9e9a21	-0.30976966
249	0xbd03cb41	-0.03217626
250	0x3c15796d	0.009123188
251	0x3e319d5f	0.17345189
252	0xbdf4c331	-0.11951292
253	0xbe6991b9	-0.22809495
254	0x3dc27dd9	0.0949666
255	0xbe57ae23	-0.21062522

conv_net.C4.weight f4 [5, 128, 1, 1]
0	0x3c59b46c	0.013287645
1	0x3ca7a084	0.020462282
2	0xbc834e7d	-0.016028637
3	0x3c8a0722	0.016849104
4	0xbdafe403	-0.08588412
5	0x3c380067	0.011230565
6	0xbc562c8a	-0.013072142
7	0x3c4a424b	0.012344907
8	0xbb7b8dd8	-0.0038384106
9	0x3d912cfd	0.07088659
10	0xbca70b1f	-0.020391045
11	0xbd175ae5	-0.03695192
12	0x39dd7e3e	0.00042246463
13	0x3cb45d90	0.02201727
14	0xbc270c1e	-0.01019576
15	0x3c98b4a5	0.018640826
16	0x89b78075	-4.4176448e-33
17	0x3d500ba0	0.050792336
18	0x3d80f06c	0.06295857
19	0x3d99a8d3	0.07502904
20	0x3cdad04e	0.026710656
21	0xbcfd29d3	-0.030903732
22	0x3ee3f8bd	0.4452571
23	0xbd33a166	-0.043855093
24	0xbbe6c8de	-0.007042988
25	0xbd04429e	-0.032290094
26	0xbdaadc8f	-0.083428495
27	0x3e281dcd	0.16417618
28	0x3d113545	0.035451192
29	0xbd90386b	-0.07042011
30	0xbd740e92	-0.059584208
31	0xbd018abb	-0.031626444
32	0xbc1c316d	-0.009533268
33	0x3e66017f	0.22461508
34	0xbc5b60f2	-0.013389813
35	0xbc627d86	-0.013823872
36	0xbe214c7a	-0.1575183
37	0x3e433b8a	0.19065681
38	0x3d405e7b	0.046965104
39	0x3ddc3108	0.107515395
40	0xbd867759	-0.065657325
41	0x3d83f544	0.06443265
42	0xbce1970c	-0.027537845
43	0xba9d54c1	-0.0012003408
44	0xbb7c39e5	-0.0038486656
45	0xbcaa036d	-0.020753587
46	0xbc18312a	-0.009289065
47	0x3d2e20aa	0.04251162
48	0xbe6a37ad	-0.22872801
49	0xbe690bbd	-0.22758384
50	0xbd6170a2	-0.055039056
51	0xbca49f4b	-0.020095488
52	0xbc086978	-0.008325927
53	0x3e01f775	0.12692054
54	0x3d377f31	0.044799034
55	0x3b2a8ed5	0.0026025076
56	0x3cb2e0b5	0.021835664
57	0xbdcd7559	-0.10032148
58	0xbc56fc21	-0.013121636
59	0xbc9c370a	-0.019069213
60	0x3d87122b	0.06595262
61	0xbbb6bd10	-0.005576737
62	0x3d022c7f	0.031780716
63	0xbcbf1da3	-0.023329562
64	0x9288f325	-8.642746e-28
65	0xbce4f64b	-0.027949473
66	0xbd7599b6	-0.059961043
67	0x3ba9269e	0.005162074
68	0xbd945f42	-0.072447315
69	0xbd049ac3	-0.032374155
70	0xbb717e4a	-0.0036848956
71	0x3e454917	0.19266163
72	0x3b2b5954	0.0026145773
73	0xbca1e493	-0.019762313
74	0x3d81eb64	0.06343725
75	0x3dc23ae1	0.094838865
76	0xbdd1b33f	-0.102392666
77	0xbcee3066	-0.029075813
78	0xbd9c1b11	-0.0762235
79	0x3e08f769	0.1337563
80	0x3bb72808	0.005589489
81	0xbbd2d53e	-0.006434112
82	0xbd913138	-0.07089466
83	0xbc943beb	-0.018094977
84	0xbb84e628	-0.004055757
85	0x3d56c7cc	0.052436635
86	0x3eafab12	0.34310204
87	0x3bbe8081	0.0058136587
88	0xbcecae70	-0.028891772
89	0xbc23e05f	-0.010002225
90	0x3d288250	0.0411399
91	0xbe0aa2bb	-0.13538639
92	0x3c9074e6	0.017633867
93	0xbe6464f0	-0.2230413
94	0xbc0c558f	-0.008565321
95	0xbccc7c58	-0.024961635
96	0xbcd1ef50	-0.025626808
97	0xbd838aeb	-0.06422981
98	0x3d70b8fd	0.05877017
99	0x3dc2b2b4	0.09506741
100	0xbc2d110b	-0.010563145
101	0xbe795d94	-0.24352103
102	0xbd85a363	-0.06525304
103	0x3c0d172c	0.008611482
104	0x3b77c885	0.0037808728
105	0xbd7fef9f	-0.06248438
106	0xbb57381e	-0.0032839845
107	0x3d3e4637	0.04645368
108	0xbc87dc8e	-0.01658466
109	0x3dc3f698	0.095685184
110	0xbd790783	-0.06079818
111	0x3d563d4e	0.05230456
112	0x3c42af94	0.011882681
113	0x3dd88d8f	0.10573875
114	0xbe7e9fc3	-0.24865632
115	0x3decdad2	0.11565174
116	0x3cf7268f	0.030169753
117	0xbdaa61d9	-0.08319444
118	0xbc97c93f	-0.018528579
119	0x3e42577d	0.18978687
120	0xbe7e42ed	-0.24830218
121	0x3cdbbd37	0.026823623
122	0x3e10961c	0.14119762
123	0x3dc730f0	0.09726131
124	0x3cf12d8e	0.029440667
125	0x3bc752ca	0.0060828673
126	0xbe2e12f3	-0.16999416
127	0xbbdd61b6	-0.006756033
128	0x3c84ab76	0.01619504
129	0x3d1a1a86	0.03762295
130	0xbe8c758d	-0.27433434
131	0xbf18eb2b	-0.5973384
132	0x3e295d85	0.16539581
133	0x3da61bf1	0.08110798
134	0xbd53cddc	-0.051709995
135	0xbcae0862	-0.021244232
136	0xba259cb0	-0.0006317599
137	0xbdc1c136	-0.0946068
138	0xbd46ae2b	-0.048505943
139	0xbe5f6493	-0.2181571
140	0x3be17116	0.006879936
141	0x3d8b6216	0.06805818
142	0xbcc60dd5	-0.024176518
143	0xbe18f9e3	-0.14939074
144	0x89971c94	-3.6378802e-33
145	0x3d83d7f1	0.06437672
146	0xbe1da6cc	-0.15395659
147	0xbd30f631	-0.043203536
148	0x3d3af1ce	0.04564076
149	0xbb8f1053	-0.0043659597
150	0xbebfd706	-0.37468737
151	0xbca96d96	-0.020682137
152	0x3dbaa466	0.09113388
153	0xbf1f7c33	-0.6229889
154	0xbdc621dc	-0.09674427
155	0xbe8848ba	-0.26617986
156	0xbcb35bd8	-0.02189438
157	0x3e1a4e74	0.1506899
158	0x3e1c810a	0.152836
159	0xbe4d852a	-0.2007033
160	0xbe35684b	-0.17715566
161	0xbdb04c2e	-0.0860828
162	0x3d1681cb	0.036744874
163	0x3c580151	0.013183908
164	0x3db4058c	0.087901205
165	0x3d223f49	0.039611135
166	0xbd48bc39	-0.049007628
167	0xbd3c3772	-0.045951314
168	0xbd922d53	-0.07137551
169	0xbeba8ffa	-0.3643797
170	0xbd66790e	-0.05626779
171	0xbcbea69c	-0.023272805
172	0xbcf31db6	-0.029677253
173	0xbcad0a16	-0.021122973
174	0x3cf21c2d	0.02955445
175	0x3dca7f55	0.09887568
176	0x3e69eaed	0.22843523
177	0x3dbdf6ff	0.092756264
178	0xbdd4c6f1	-0.103895076
179	0x3ea72759	0.32647207
180	0x3b6d559e	0.0036214362
181	0xbdcbb630	-0.09946859
182	0xbdd0ce04	-0.10195544
183	0x3b02cfbe	0.001996025
184	0x3d80a2a0	0.06281018
185	0x3d257584	0.040395275
186	0xbc88d25e	-0.016701873
187	0x3c4efd44	0.012633625
188	0xbde9e67f	-0.11420917
189	0xbe1765f6	-0.14784989
190	0xbcac7c41	-0.021055343
191	0xbe0a9c3c	-0.13536161
192	0x9242a6b3	-6.142108e-28
193	0xbe64cc5a	-0.22343579
194	0xbc481386	-0.012211686
195	0x3e87a505	0.26493087
196	0x3df30f9a	0.1186821
197	0xbda8880a	-0.082290724
198	0xbb88ae97	-0.0041712034
199	0xbe9ba179	-0.3039663
200	0x3dac2d4b	0.084070764
201	0x3e138cbb	0.14409153
202	0x3d988e19	0.07448978
203	0x3ca01716	0.019542258
204	0xbd05a27c	-0.03262566
205	0xbd1f0f49	-0.038832936
206	0x3dc28c9e	0.09499477
207	0xbe0806e4	-0.13283879
208	0xba098b81	-0.0005246923
209	0xbc0b310d	-0.008495581
210	0x3e43d77c	0.1912517
211	0xbc6be605	-0.014398103
212	0xbd09a5ad	-0.033605266
213	0xbd96f815	-0.07371537
214	0xbe966445	-0.29373375
215	0x3d1608df	0.036629554
216	0x3c409b09	0.011755713
217	0xbdb18931	-0.08668745
218	0xbcdbe496	-0.026842397
219	0x3dabd694	0.08390537
220	0x3c4ffb44	0.012694184
221	0x3d9777ea	0.07395919
222	0xbd78557a	-0.06062839
223	0xbc65aa09	-0.01401759
224	0x3d5c5dbc	0.05380033
225	0xbd52a95a	-0.051431037
226	0x3e422d5f	0.1896262
227	0x3cd75c6c	0.026289187
228	0xbd0f1c1b	-0.034938913
229	0x3e8b2e87	0.27183935
230	0xbd46b798	-0.048514932
231	0x3d9e72da	0.0773675
232	0x3e605411	0.21907069
233	0x3dd65571	0.104655154
234	0xbe1e166b	-0.1543824
235	0xbe57b394	-0.21064597
236	0x3cfdaa9c	0.030965142
237	0x3d850a83	0.064961456
238	0x3cb90c54	0.022588886
239	0xbdbdd87c	-0.09269807
240	0x3cdcab19	0.026937054
241	0xbc36a342	-0.011147322
242	0x3e6a59b0	0.22885776
243	0x3e397c18	0.18113744
244	0xbe32de8f	-0.17467712
245	0xbda4137d	-0.080115296
246	0x3c91fc39	0.017820464
247	0xbd62304a	-0.055221833
248	0xbb325f72	-0.0027217534
249	0x3d2dd9bc	0.042443976
250	0x3da63b0c	0.08116731
251	0x3b6dca08	0.003628375
252	0x3e0c1bc9	0.13682474
253	0x3cffa0a7	0.031204535
254	0x3d9de1f2	0.07709111
255	0x3c8a0b80	0.016851187
