CNN_weights/NetworkA_weights_CV4.pt (torch, 394591 bytes, 4 tensors)

conv_net.C1.weight f4 [32, 17, 3, 3]
00000000: b6fd 0b3e 4dcc 313e aff4 f8bd e318 f2bd
00000010: ffbe 9b3d d00e 6e3d 61a4 28be fab3 8d3d
00000020: 1dd9 063d aed4 a6bc d026 353e bf0a f5bd
00000030: ac06 16bd 94f7 00be 9a5a 1f3d 9cac 4d3d
00000040: f832 42bc 3ea0 223d c231 56bd e7da bc3d
00000050: ad6b 793d e95d dfbd 2faf 273e 2bda 373e
00000060: 7f82 a6bd cae8 6ebd c22e 5b3d 60d7 c8be
00000070: 42be 303e 3ef9 153e e911 453e 3a09 d33d
00000080: 3660 27be 1bdc 23bd 103f 4bbc f801 99bd
00000090: bf79 51be cdaa 943d c20c 223e 60d1 74be
000000a0: 8e25 ba3c c4d4 c93c b190 37be 0fc4 6a3d
000000b0: 3c33 933e 6e6d 25be eacc 27be 8b54 903d
000000c0: d966 143d 55a3 473e 984e 903e 776a 4fbe
000000d0: 8bc0 89bd e493 f63a 4a30 64be 877b 56be
000000e0: d803 e2bd 7860 4abc 8527 e43d 8dea d33c
000000f0: 9d7f 233e 5089 553e aec7 cd3d 7751 1ebd
00000100: 4ab3 73be 54a3 993d 1872 82bd b8a9 94be
00000110: 5cef aebd 7d96 5c3e 2511 663e 2ef9 743e
00000120: 9343 11bd 4b10 ffbd 2695 73bd 6e2c 0d3e
00000130: 95cf a1bb f938 0cbd 1cac 28bd 2e99 973d
00000140: e50b 0c3d 89db 613c 3a45 8bba be7b a53c
00000150: 111e 46bc f67b f7bc 1793 9dbc e90f 043c
00000160: 72a1 0fbc 86a3 0b3c ace2 9a3d 157b 0e3d
00000170: 18e7 183e 1b5a 5a3d 8558 36be 228e adbc
00000180: f4a1 3b3c bca5 aebd f902 94bd aeb1 443d
00000190: 1c5c 1a3d 3078 74bd 1380 02be 30e8 803d
000001a0: 7edf 2d3d 4b6d 903c 49e4 fbbc 8a13 093d
000001b0: bd92 f13c 69b7 593d ea0b 2e3e ace1 823c
000001c0: 5dce c5bd 1e95 143d a289 39bc ac28 98bd
000001d0: dbdf 003e af99 143e c53a 8d3e e7a1 95be
000001e0: 5c50 56bd 32c0 f53b 5e68 90be 8628 aabe
000001f0: ce7c f23e de26 dd3d c56d d9bd a768 873d
00000200: a8f0 833d 5bbd 18bd 7e19 b23d 4569 a53d
00000210: 84ad 8f3b 8cec 863a e04b d8bd 6487 3fbd
00000220: b86d a33d 2664 18be c4bf f0bd 43e4 423e
00000230: 462f 283c 5dd1 d63d 4202 9fbd 5234 a63c
00000240: 2e5f 783e 2bd1 ddbd 6d13 d73c d500 763e
00000250: c3be 7abe 6e3f e2bd 108e 653d 3c89 10bd
00000260: 931d cebd dbc6 d8bd f573 2dbe 1a7b 53be
00000270: dab8 af3d d327 713f faef 0cbd 9aa4 57bd
00000280: 57f3 44be 08e8 5dbe a358 163c 3822 17bd
00000290: 75d5 47bc acb2 d4bd de71 8f3e 9783 9bbd
000002a0: 1a5b 993d 58ca 00be 2d1b 2d3c 6461 60be
000002b0: 2226 25be 41c0 85be 27fa 6ebd 244b 18bf
000002c0: fc3a d3bd 8f79 d6bd b0a1 90be e851 60be
000002d0: 86b1 75bc 0124 893c 1126 a2ba f46f 15bb
000002e0: 2226 233d e340 12be 5ad6 8c3c 59b3 f93c
000002f0: 2317 003d 7682 b9bd 8c9f 033e 07d1 943d
00000300: 0b8b 4cbe bb36 59be e4a4 803e 2138 e9bb
00000310: 5011 02bd f8b5 3c3d 32ae a63c 4cd5 34bd
00000320: 1341 c13d dfcb 773e f4d9 d7bd f606 3fbe
00000330: b95a db3d 53bf 2cbd e583 63bd 508b 55bd
00000340: 3ad1 1ebd d907 91bd 52e4 33bd 3b66 87bd
00000350: e4f2 85bd 0be4 053e d351 123e a51d 753d
00000360: 3d72 023e 3e4a e33d a23a 933d b889 273d
00000370: 0436 85bd f5cc 2d3d a7ad 03be 056c 1abe
00000380: 91c5 3cbd 3fbc 7abd 94cf 8abd e759 453e
00000390: a6fb f1bd fade 35be d644 d9bc 96fa a03d
000003a0: 62f2 77bc 9b6e b83c 1b56 4fbd 966b 983c
000003b0: de1d 9bbc 757e 483d feb4 22bd 9fff cebb
000003c0: 207b 85bc 80fb f33a ae9a aaba 22c7 963c
000003d0: e4a7 3cbd 2012 0dbe c3d9 ea3d 50a0 b9bc
000003e0: 2d2d a6bc 18a9 123d a110 c43d 6ed1 acbd
000003f0: 2a44 583d 3b6a 9abd 237e 503d 2152 edbd
0.13671002 0.17363091 -0.12156045 -0.11821153 0.07604789 0.058119595 -0.16468956 0.069190934
0.0329219 -0.020365085 0.17690587 -0.1196494 -0.036627457 -0.12594444 0.038904764 0.05021344
-0.011852972 0.0397036 -0.052293546 0.0922144 0.060893703 -0.10906584 0.16375421 0.17954318
-0.08130359 -0.058327474 0.05351139 -0.39226818 0.17260078 0.1464586 0.19245113 0.10304494
-0.16345295 -0.04000483 -0.012405172 -0.07471079 -0.20456599 0.0725914 0.15825179 -0.23907995
0.022722986 0.024637587 -0.17926289 0.057315882 0.28750026 -0.16155025 -0.16386762 0.07047375
0.036230896 0.194959 0.28184962 -0.20255457 -0.06726178 0.0018812385 -0.22284046 -0.2094556
-0.110358894 -0.0123521015 0.1114035 0.025868678 0.1596665 0.20853162 0.100478515 -0.03865191
-0.23798862 0.075018555 -0.06369418 -0.29035735 -0.08541748 0.21541782 0.22467478 0.2392318
-0.035464834 -0.124542795 -0.05946841 0.1378648 -0.004938076 -0.03423402 -0.04117976 0.074022636
0.03419103 0.013785251 -0.001062549 0.020200606 -0.012092129 -0.030210476 -0.019235177 0.008060434
-0.008766519 0.008522874 0.075627655 0.03478535 0.14931905 0.053308588 -0.17807205 -0.021185938
0.011452187 -0.08527705 -0.072271295 0.04802101 0.0376855 -0.059684932 -0.12744169 0.06294286
0.042449467 0.01763024 -0.030748503 0.0334659 0.029488916 0.05315343 0.16996732 0.01597675
-0.09658501 0.03627502 -0.011324318 -0.074296325 0.12585394 0.1451175 0.275839 -0.29225084
-0.05232273 0.007499718 -0.28204626 -0.33234042 0.47360843 0.10798429 -0.1061664 0.06611758
0.06442386 -0.03728996 0.086962685 0.08076719 0.0043846983 0.0010293885 -0.10561347 -0.046759978
0.079799116 -0.14881954 -0.117553264 0.19032387 0.010265177 0.104891516 -0.077641025 0.02028862
0.24255058 -0.10830911 0.02625438 0.24023755 -0.24486832 -0.110472545 0.056043684 -0.035287127
-0.100642346 -0.10584804 -0.16938765 -0.20652428 0.085801795 0.9420139 -0.034408547 -0.05264721
-0.19233452 -0.21670544 0.009176406 -0.036897868 -0.012196888 -0.103856415 0.2801656 -0.07593458
0.07488079 -0.12577188 0.010565561 -0.21912152 -0.16127828 -0.2612324 -0.058344033 -0.59489655
-0.10313985 -0.10472404 -0.28248358 -0.21906245 -0.014995938 0.0167408 -0.0012370964 -0.0022802325
0.03983129 -0.14282565 0.017192055 0.030481027 0.031272065 -0.090580866 0.12853831 0.07266431
-0.19974916 -0.21212284 0.25125802 -0.007117287 -0.03175479 0.046071976 0.020346735 -0.04414873
0.0943624 0.24198864 -0.10539618 -0.18654999 0.10710663 -0.04217465 -0.055545706 -0.052134812
-0.038773753 -0.07081575 -0.043918915 -0.06611296 -0.06540468 0.13075273 0.14289026 0.059842724
0.12738891 0.11098145 0.07188918 0.040902823 -0.06504443 0.04243179 -0.12859212 -0.15080269
-0.04608685 -0.06121468 -0.06777874 0.19272576 -0.11815576 -0.1776084 -0.026522081 0.078602955
-0.015133472 0.022513678 -0.050619226 0.018605988 -0.01893514 0.048948724 -0.03972339 -0.0063170935
-0.016294062 0.0018614382 -0.0013016069 0.0184055 -0.04605855 -0.13776445 0.11467316 -0.02265945
-0.020285213 0.03580579 0.09573484 -0.08438383 0.05279938 -0.07539793 0.050901543 -0.115879305

conv_net.C2.weight f4 [64, 32, 3, 3]
00000000: 3f10 ea3c b069 06bd 2151 ab3c 2fc7 2ebd
00000010: 7944 a2bc 9bf8 d4bd 3cb1 78bc fea3 babd
00000020: 1971 df3d ae67 dc3c c431 e1bc 7b43 9ebd
00000030: a5ef 213b f563 183c 0bf8 36bd d695 95bc
00000040: aa35 2b3d 80ea c6bd 8fee 983c ef28 543d
00000050: ebb0 e63d e2aa bfbd 875b e4bb 1f6d afbd
00000060: fd47 243d a818 88bd 4f3a 4cbd 71d0 9e3d
00000070: 2730 96bc 7c6d 833d 3d45 393d e572 a3bd
00000080: 083f aa3d 1cb3 133e 5567 a83d 7714 283d
00000090: 6eb7 393d 8cef 1d3d 71f2 0a3e 4205 8fbc
000000a0: e8b5 a83d f578 d2bc b057 d8bd 3793 00bd
000000b0: 3959 583d 65c7 223d 5359 dbbc 3ea9 d2bd
000000c0: 6dcb 1fbc fd3c 52bd 290c 1f3d deca 553d
000000d0: d8de 3d3d 68a6 fe3b c962 fe3b 4f2d 203d
000000e0: 7d71 ae3c f271 443c ae6c 193d 3fad 743d
000000f0: 4a09 0f3c eeaf 56bd 6cc3 4b3c 2bd1 57bd
00000100: d963 fd3d 9b02 183e 51b5 743c 3531 89be
00000110: 7dad a53d 166b 62bb 27c9 5fbd caf4 a33d
00000120: 0e1f b03c 77c5 193c 4e14 53bd 415a b73d
00000130: a7de a83c 5ead 903d d328 193d 7aa4 0ebd
00000140: 1537 5e3d 23e1 4a3d e87e dd3c 7757 1dbc
00000150: 952f 8d3d 5fc4 6f3b cebb 9ebd bce5 353d
00000160: b63d 963c c2eb 11bd 520e 00bd fb7f 71bc
00000170: f12d e03c a068 953c 196c a13c 8d66 92bd
00000180: d03a a3bc 932b b1bd afef b13c c67d 2fbd
00000190: 9299 d93d e505 94bc c56e 723d 1ba0 a33b
000001a0: bc94 b2bd 8c11 48bd 5198 5539 0f09 b2bd
000001b0: b366 90bc 46cc 8bbd 65d7 b0bc aef7 063e
000001c0: d72e ca3d c71f bcbd fe4e cd3d 5cb6 7f3c
000001d0: a205 a33c 66e8 043d c41f 8abc e3af 9cbc
000001e0: 0c15 a6bd 4762 ad3d 8082 33be 9d6c 7fbc
000001f0: 6d37 26bc f69f 933c 7e7b 83bd 842b 4d3d
00000200: 30c0 013c 1dea 84bd 6df9 cfbd b7bb a6bc
00000210: 0e11 b5bd 58ef c9bc 20c5 13be 4ee5 b1bd
00000220: 4acb 65bc 7a70 6cbd 5512 f5bc dc38 003d
00000230: ad4a d73d 72b7 5c3c 127d 11bd e4cc 86bc
00000240: a716 373c dd80 e7bd 8ec9 b9bd 0dcf c0bd
00000250: 5ca2 61bc 417e 63bd 3a65 933d 6fdd c7bd
00000260: 8574 71bd 5155 89bd 5f6c b3be d896 94bd
00000270: 5c26 1e3d c92a 02bd ec2e dbbc 2f50 3f3d
00000280: 5f2d 703d 302f b6bd 3a0d c0bb 5e79 de3c
00000290: d318 b2bc f4a8 4c3d ab62 adbc 5478 a43c
000002a0: cbf3 5b3d 6d3c 583c e7d9 68bd 71fe d8bc
000002b0: d81f dbbc aaf9 0fbe d985 253d 8958 db3c
000002c0: 3cc0 f0bd 528a c83c 9923 0a3e f668 acbb
000002d0: 7b70 953c a919 00be 179f 12be 1838 5d3d
000002e0: 2f0a 7fbd 139e 01bc 4257 bcbd e069 f6bd
000002f0: d10b 9fbd 3c7d a43d 6e86 91bc 25da 9bbd
00000300: a7d8 ecbc 05a1 b93c 05a9 0dbd 8ba5 e23c
00000310: 5dda c3bc a771 d9bd 2896 c13d b995 f13c
00000320: f203 c93c 5553 ccbc 2c3b 59bc 2642 5b3c
00000330: dda6 d63c afd6 69bc 7ad1 84bd 5e52 c13c
00000340: c381 28bd 1650 ba3b 3f7f a73d 93fc 2abe
00000350: cfb0 27bd 54fd bcbd dcf3 913c 74c3 2dbc
00000360: 4441 503d 02cf 863d 31db 8e3c 6f2c 86bd
00000370: b034 9e3d a22d 27be 182b 10bc 7d04 a0bd
00000380: 3d2d 35be bf2f b83c 1a25 b83d 7481 0fbd
00000390: 9699 d43d 8e97 dc3d 896b 8c3d ba53 893d
000003a0: 26df 1abd 93ab 613d 24af 0b3c 32e8 a3bd
000003b0: a807 da3d 9680 9d3d 1c0e d1bb ac27 853d
000003c0: 2a49 9a3d 56bc 95bc 40f6 adbc e417 e6bd
000003d0: af92 78bb 1fca 063d d3be b1bc fd70 35bd
000003e0: 396d 973c 3978 1e3d 27d1 0fbd ac93 a93d
000003f0: 0cc6 ae3d ebd7 813d e586 683d a5fb 0a3e
0.0285722 -0.032815635 0.020912709 -0.042670425 -0.019808041 -0.1039898 -0.015178975 -0.0911331
0.109102435 0.026904907 -0.02748955 -0.07727715 0.002470949 0.009301175 -0.044670146 -0.018259924
0.041799225 -0.09712696 0.018668441 0.05179685 0.11264213 -0.09358765 -0.0069689187 -0.08565735
0.040107716 -0.06645328 -0.049860295 0.07754601 -0.018333508 0.06417367 0.045232046 -0.07980899
0.083128035 0.14423794 0.08222834 0.04103514 0.045340948 0.038558528 0.13569047 -0.017458562
0.08237821 -0.025692442 -0.105636 -0.031390395 0.052819464 0.03974094 -0.026775992 -0.10286187
-0.00975309 -0.051327694 0.038829956 0.052195422 0.0463551 0.007771302 0.007763241 0.03910571
0.02129435 0.011990057 0.03745716 0.059735533 0.008730242 -0.052413873 0.012436729 -0.052689712
0.1237256 0.14844744 0.014935807 -0.26795354 0.08089731 -0.0034548691 -0.054635193 0.08005674
0.021499183 0.009385458 -0.051533036 0.089527614 0.020613981 0.07064317 0.03739245 -0.034824826
0.05425175 0.049531113 0.027038053 -0.009603373 0.06893841 0.0036585552 -0.07750665 0.044408545
0.018339973 -0.035625227 -0.031263657 -0.014739986 0.027365657 0.018238366 0.019704865 -0.07148466
-0.019925505 -0.08650889 0.021720735 -0.042844556 0.10624994 -0.018069217 0.05918767 0.0049934513
-0.08719775 -0.04884486 0.00020370005 -0.08693134 -0.017627096 -0.068260714 -0.021587083 0.1318042
0.09872215 -0.091857485 0.10024832 0.015607443 0.019900147 0.032448195 -0.01686085 -0.019126838
-0.08109483 0.084660105 -0.1753025 -0.01558986 -0.0101450505 0.018020611 -0.06420039 0.050090328
0.007919356 -0.06489966 -0.10154996 -0.020353181 -0.088411435 -0.02465026 -0.14430666 -0.086863145
-0.014025519 -0.057724454 -0.029915968 0.031304225 0.1051229 0.013471471 -0.035519667 -0.016455121
0.011174834 -0.113038756 -0.09071647 -0.09414492 -0.01377162 -0.055540327 0.07197042 -0.09759032
-0.058949012 -0.06705726 -0.35043618 -0.07255334 0.0386108 -0.031779084 -0.026755773 0.04670733
0.05863702 -0.08895719 -0.0058609517 0.027157482 -0.021740353 0.049965814 -0.021165213 0.020076908
0.053699296 0.013198 -0.056848433 -0.026488515 -0.026748583 -0.14060083 0.04041085 0.026775615
-0.11755416 0.024480019 0.13490142 -0.0052615358 0.018242111 -0.12509789 -0.143185 0.054008573
-0.06226557 -0.007911223 -0.091963306 -0.12031913 -0.07765926 0.08031699 -0.017764296 -0.07609967
-0.028911902 0.022659788 -0.034585018 0.027666828 -0.023907835 -0.106173806 0.09452468 0.029490339
0.024538014 -0.02494208 -0.013258737 0.01338247 0.026202613 -0.014272376 -0.06485267 0.023598846
-0.041139375 0.0056858165 0.08178567 -0.16697912 -0.040940102 -0.09228006 0.017816477 -0.010605682
0.050843492 0.06582452 0.017438503 -0.06551444 0.07724893 -0.16326001 -0.008799337 -0.07813356
-0.17693038 0.022483705 0.089914516 -0.035035565 0.10380857 0.10771094 0.06856448 0.06705423
-0.037810467 0.055095267 0.0085256435 -0.08003272 0.106459916 0.076905414 -0.006379856 0.065017074
0.07533486 -0.018278282 -0.021235585 -0.112350255 -0.0037929227 0.0329076 -0.021697437 -0.044297207
0.018484699 0.038688872 -0.035111573 0.08280119 0.08533868 0.06340011 0.05676927 0.13572557

conv_net.C3.weight f4 [128, 64, 3, 3]
00000000: d44e 743d cb6c bd3c f7f7 9fbd e46d 11bd
00000010: 5938 c2bd 9cd3 943b 3b50 45bc 63b0 963d
00000020: b2e7 d33b 9d49 0abd e893 8c3d 2ee1 b6bc
00000030: c7bc 8bbd 1ffe eabd 7534 48bc 061f e13d
00000040: 5085 d33b f2bd 093c fef1 e1bd 7a6d ac3c
00000050: 0f7e 45bd fbd8 fc3c 1f54 9a3c 0424 5cbd
00000060: 9935 c4bd a315 8fbc 7538 fe3c 1257 b7bc
00000070: aa6d 42bd ebcb d5bc d05d e73c 7379 af3c
00000080: edff 243d 4124 5bbc c3b8 283c 3957 0dbd
00000090: 1a08 4a3a 0cd7 983a ea94 fabb df0a 65bc
000000a0: dfa1 47bd 8a6a 333d 41b3 46bd f15a cfbd
000000b0: e4f3 8b3b ae10 57bd f6d5 dd3c 84c9 043d
000000c0: f034 ccbd 2501 78bd 7391 a4bd 4733 b5bd
000000d0: 84fd ffbc 205f e2b5 1e43 95bc bf08 3a3c
000000e0: 7fdc de3c 84f3 973b cf55 cebc 5e39 c83b
000000f0: 5f58 97bd 018c 913d 4e0b 993d 0fee 553d
00000100: ec22 c7bb c230 b4bb de08 8abc 9b3e 11bd
00000110: 64dd 153d 931d 933c c3d2 debc 5c30 91bc
00000120: ca8e 92bd e469 e4bc 07fc c3bd 5e43 dabc
00000130: 693f 6abd ae3f 5fbd c495 77bc 801b 97bd
00000140: b1ab 20bd eb67 9fbd 2415 57bd 122c a53c
00000150: 0f8a 39bd 8629 debd 6217 c73d 31df 43bd
00000160: ca0c 98bd 0139 d7bc 7626 8a3c a6f5 393d
00000170: d2da e8bb dcfc 993d b2e2 84bd 0f99 823d
00000180: 48a5 cf3c fd8c 7bbc 9ebf db3c 8a37 a53d
00000190: ad57 03bd 6d7a ea3c 4467 fabc f657 5f3d
000001a0: c7d9 c3bc 1a6b 97bd ca70 da3b 3cee 52bd
000001b0: 8a88 e3bd aad1 63bb 12cf 91bd b51c fdbc
000001c0: 8297 053e b3f2 51bc cb01 aabd 17c3 eabd
000001d0: 7291 1d3d 28da b53c e280 55bd 8137 db3c
000001e0: 1feb 62bc fa13 8f3b ea58 36bd 3ce3 a93d
000001f0: 478e 413d a8d1 603c 7308 27bd e2bf 213d
00000200: 1285 633d d9ca e6bc 0623 ad3b 923b f1bc
00000210: cea1 84bc ac7f 1abb d7ef 0bbd 1b10 263c
00000220: 4de9 9dbc 11dd 01bd 0e4f 92bd 10e2 5fba
00000230: ee84 e4bd 60c8 0ebc 2e2a f23c cea8 91bc
00000240: a337 003d bd49 023d 7856 7e3d 5f4e 46bd
00000250: c38e 9bbd a064 ba3d 3fdd 89bd cd57 a4bd
00000260: 6e29 96bc 5d53 1dbd 4361 fa3b 3916 9d3c
00000270: da9a 273c 1fc1 fe3c 551c 3a3d 732f a3bd
00000280: c91b c4bc 5441 e0bd f572 043d 7170 1d3d
00000290: 34a9 82bd e95b 7bbd 741e 2fbb 9b49 8c3d
000002a0: 9ba0 afbd 5358 acbc 4cff 3b3c b32d 9dba
000002b0: 59e3 803d c351 75bd 7069 883d c762 98bb
000002c0: 3282 52bd 6046 6f3b ec58 f33c 85cf a8bd
000002d0: ccd0 08be 4899 893d 09d6 60bd 5f77 efbd
000002e0: c71c 6bbd 32be 4ebd db93 a1bd b3af 98bd
000002f0: 4bb1 ddbd 552e 14bd 5346 ac3b c60b 8b3a
00000300: c830 c9bc d907 373d 8733 c6bd b1fb 223c
00000310: 3e61 a73d 4b50 8fbd 2738 183a 051a 93bd
00000320: ee32 aebd 1a28 093d ef43 ccbc 519f 9a3c
00000330: b8d6 95bc f83a 3e3d 6dee ea3b 9764 20bd
00000340: af46 14bb 2985 863d a602 a63d 19ca 163d
00000350: 2fe8 5abd 0cec 793c d117 033d 8f07 b6bd
00000360: 4822 c5bc cc8b 90b9 ef09 78bd e778 853d
00000370: 601b 9bbc c63c 2fba 6ec3 5abd 1d36 23bd
00000380: 3199 c7bc 2efa b9bd 2ce3 96bb 4cc5 24bd
00000390: 3381 1bbd 442c 963c 2785 48bc 5930 dcbd
000003a0: 9799 4fbd 474e 61bd cb8d 35bc 3742 003d
000003b0: c4fa 2ebd 4d70 953c 955e 433c 6540 ffbc
000003c0: 6386 cfba 81bc 57bc 4e59 3abd 410a 3cbd
000003d0: 11a3 5dbd 9f82 3d3d cfe4 84bd 9df4 1dbd
000003e0: a17b 623c c058 1fbe 71b5 12be 8394 43bd
000003f0: e4f8 43bc 2d7c 6c3d 10b4 2ebc a3d3 8539
0.05964549 0.023123166 -0.078109674 -0.03550519 -0.09483404 0.0045418274 -0.012043054 0.07357862
0.006466829 -0.03376161 0.068641484 -0.02232417 -0.06823116 -0.11474251 -0.012219538 0.109922454
0.006455101 0.008407103 -0.110324845 0.021048296 -0.048215922 0.030865183 0.01883894 -0.053745285
-0.095805354 -0.017466372 0.03103278 -0.022380386 -0.047467865 -0.026098212 0.028242975 0.021420216
0.040283132 -0.013375343 0.010297957 -0.03450701 0.00077068957 0.0011660769 -0.0076471465 -0.013979643
-0.048738357 0.043802775 -0.048510794 -0.101247676 0.0042710174 -0.05250614 0.027079564 0.032418743
-0.099710345 -0.060547967 -0.08035555 -0.08847671 -0.031248815 -1.6865997e-06 -0.01822048 0.011354624
0.02720475 0.0046371836 -0.025187401 0.0061103543 -0.07389902 0.07106782 0.07472859 0.052228983
-0.006077161 -0.0054989764 -0.016849931 -0.035460096 0.036588088 0.017958438 -0.027200108 -0.017723255
-0.07156141 -0.027882524 -0.09569555 -0.026643451 -0.05718938 -0.05450409 -0.0151113905 -0.07378292
-0.039226238 -0.07783493 -0.052510396 0.020162616 -0.04529768 -0.10847764 0.09721257 -0.047820274
-0.07424314 -0.026272299 0.016864043 0.045400284 -0.0071061635 0.07518932 -0.06488551 0.0637685
0.025347367 -0.015353438 0.026824769 0.08067234 -0.032066036 0.02862283 -0.030566819 0.054527245
-0.023907555 -0.07393475 0.0066662775 -0.05149673 -0.11110027 -0.003476242 -0.07119574 -0.030897478
0.13046077 -0.012814212 -0.08301123 -0.11462992 0.038468786 0.022198752 -0.052124865 0.026759865
-0.013850003 0.004366395 -0.04451839 0.08295295 0.047254827 0.013721861 -0.040779542 0.039489634
0.055546828 -0.028172897 0.005283716 -0.02944735 -0.016190436 -0.0023574634 -0.034164276 0.010135676
-0.019276286 -0.031704966 -0.07143985 -0.0008540461 -0.11158167 -0.008714765 0.029561128 -0.017780688
0.03130306 0.031808604 0.06209418 -0.048414584 -0.07595589 0.09101224 -0.067316525 -0.08024559
-0.018330302 -0.03840958 0.007640989 0.019175636 0.010229791 0.031097947 0.045437176 -0.079680346
-0.02393903 -0.1094996 0.032336194 0.03843731 -0.06379929 -0.06136695 -0.0026721032 0.06849977
-0.08575555 -0.02103821 0.011474442 -0.0011991769 0.06293363 -0.059892427 0.066607356 -0.004650447
-0.051393695 0.0036510453 0.029705487 -0.08242706 -0.133609 0.06718689 -0.05489162 -0.1169269
-0.05740049 -0.050474353 -0.07889529 -0.07455387 -0.108248316 -0.036177 0.0052574067 0.0010608367
-0.024559394 0.04468522 -0.09677797 0.009947703 0.08172844 -0.069977365 0.0005806707 -0.07182697
-0.08505808 0.03348551 -0.024934737 0.018874796 -0.018290862 0.046442956 0.007169536 -0.03915843
-0.0022625139 0.06568367 0.08105974 0.03681383 -0.053444084 0.015254032 0.032005135 -0.088881604
-0.024064198 -0.00027569977 -0.06055635 0.06517201 -0.018933952 -0.0006684776 -0.053409033 -0.03984653
-0.02436504 -0.09080921 -0.0046047177 -0.04022722 -0.03796501 0.018331654 -0.012238777 -0.10751409
-0.050683584 -0.05500629 -0.011081169 0.031313147 -0.042719617 0.018242026 0.011924406 -0.031158635
-0.0015832897 -0.013167501 -0.045495324 -0.045908216 -0.05411059 0.046267148 -0.06488954 -0.03856336
0.013823421 -0.15561199 -0.14327027 -0.047749054 -0.011961196 0.05773561 -0.010663047 0.00025525418

conv_net.C4.weight f4 [1, 128, 3, 3]
00000000: bbba ecbc ad20 62bd e47b 43bd 737e 3bbd
00000010: 4f0b e8bd 2a7f b8bd a4ce 03bd 17c6 6bbd
00000020: b930 4cbd 071c 183d 351e c8bd bda9 13bc
00000030: 0d2c b4bc 6f3d 1eba 87ac 453c b94c 283c
00000040: 5eec 013d 2f9d 023d 9145 c83d 2e28 d4bb
00000050: 5ab5 a73b a1d4 0f3c 6eea 9eba 2ee8 a638
00000060: 1a35 063c cffd 543b 1fe4 0c3b ab17 33be
00000070: e0e6 ccbc 4318 0abc a326 093d 7a7c c6bd
00000080: c190 b83b 47c3 bb3c da4c 013d de53 38bb
00000090: fb96 13bd 8a9d 8a3c 1c6a 543d f324 f8bd
000000a0: 0022 e6bc a8c6 943d 85e1 aabc ab42 b3bb
000000b0: 9a80 1a3d 48b0 9b3d e414 543d e3f5 f43c
000000c0: 05ff dc3d 63ba 293e c975 323d 3241 983d
000000d0: 9f93 973d 58d6 3a3d b84c c73d 14f8 c13d
000000e0: 16c7 a03d e433 fe3d de25 f13d 28c0 c43d
000000f0: f29b ce3d 896f b93d 46db 7e3d c8eb 5d3d
00000100: be1d 423d d881 373d 85c9 163d a194 9c3d
00000110: c33e 993d 8e25 893d f249 013e e9aa b13d
00000120: 8668 6a3d c828 233e 10bf 843d a4e8 2b3d
00000130: 335b 9e3e ade8 9ebc db30 c83c 8f0b d73a
00000140: 0137 7e3a f4ee 6cbc f794 183b 337c b9bb
00000150: 45a3 a6bd 974a 0cbd a7d3 1abd 17bf 48bd
00000160: 4804 26bd 8dd4 0cbd e428 c13d 211f 973d
00000170: 8928 953d bcad c83d 4f81 b33d 8c0f ac3d
00000180: e7b4 973d 9d27 863d 0a4c 623d 3776 d63a
00000190: d2f0 dabb 496e fd3b 01af a739 8769 d0bc
000001a0: 17da 5f3c 8bdb a8ba 9ca0 a6bb 7a06 893e
000001b0: 8649 123d ff98 743d 15f7 463d d3ed 7a3d
000001c0: a28a b63d ebc7 913d 7ce2 7f3d de95 b43d
000001d0: 52cb 633d e1ce 1dbd d24b b8bc 4ca6 763c
000001e0: afeb 43bd 2526 50be a1bf 74bc 8c77 b03b
000001f0: bf25 8abc 1dd4 cebc 8da0 5e05 bf34 3105
00000200: fbdf 4105 8058 cf04 5e11 9604 78cb d304
00000210: 29e1 ac04 694e 9704 ce9e e304 cffd 0dbe
00000220: 05e3 39be ad8a 08be 7ecb bcbd 70b6 25bd
00000230: 84f6 66bd 7e2a d4bc bd6e 7bbc 0569 41bc
00000240: d148 58bc 092d 51bc 7994 8e38 fe21 c4bc
00000250: 5122 863d a092 943b bc44 1dbb 2506 52bc
00000260: f1b7 9dba 0d1e 87bc f61a fdbc 0758 23bd
00000270: e488 08bd cd4a 97bd ecd3 92bd d219 91bd
00000280: fd7a a4bd 1801 47bd 8d4c 683d 7b8b 4a3d
00000290: 9640 503d fe84 d33d 90af d23d b479 473d
000002a0: 47eb 303e 3c70 eb3d 068a 833d 5cea a6bb
000002b0: 4438 d7bc 9813 d8bb 6cac 2d3b d516 bbbb
000002c0: 4735 853e 8de5 563b 6860 04bc eebb 20bb
000002d0: 29d3 303c 0e7d 3f3d f976 153d 5120 083d
000002e0: e4fd 933d d38b 683d d063 f83d 7ea1 3e3e
000002f0: bf5f d23d a7a2 f43d 9758 cc3d 7b0e ad3d
00000300: a3ab 803d 8598 8c3a 74fe 2a3b 8d1d a33b
00000310: 0555 57bb 4b00 963a c48b 81bc 89fb efbc
00000320: 21bc 1bbd f2a9 303d b5d7 743c 1ae3 13bd
00000330: 4b7f 233d 1be6 983b 9a93 31bd 74bd 173b
00000340: 8e66 b2ba 330a 863b 049e 493c 8a9a 863c
00000350: cfbd ac3c 9b40 c43c 8886 d1bd e886 283d
00000360: d8ba 563c 0390 a03c 7b48 cc3c 7727 513c
00000370: f2f8 ef3c d308 773e d511 473c e19a a33c
00000380: 5cbb ed3c d6af ea3c 2684 043d 686d c03c
00000390: 5466 053d 51af 723d 9545 493d 582d f43a
000003a0: ba9e c23c 784e 8d3c 121c c63d a806 883e
000003b0: 770b 9a3d 6899 4cbb f215 5c3c 42ea c9bb
000003c0: 6270 27bb 25ce 003b 4dc1 66ba 2a2e 183e
000003d0: 1d23 053e c911 783d 1da7 d53e db48 e93d
000003e0: d573 493d d5b3 ac3c a36e 7a3d 660c 353d
000003f0: 9abb adbc 3c6a 05bd 52c5 debc 5c64 8dbc
-0.028897634 -0.055206943 -0.047725573 -0.04577489 -0.11330282 -0.090086296 -0.03217949 -0.05756196
-0.049851153 0.037136104 -0.097713865 -0.009012637 -0.021993661 -0.0006036376 0.0120650595 0.010272198
0.031719558 0.031888183 0.09778894 -0.0064745164 0.0051180543 0.008778722 -0.0012124309 7.958744e-05
0.008191371 0.0032499915 0.0021498275 -0.17489497 -0.025012434 -0.008428636 0.033484112 -0.09691711
0.0056324904 0.022920264 0.031567432 -0.002812616 -0.036032658 0.016920824 0.051859006 -0.121164225
-0.028092384 0.07264453 -0.02085949 -0.005470594 0.0377203 0.07601982 0.051777735 0.029902404
0.107908286 0.16575007 0.04356936 0.0743431 0.07401203 0.04561457 0.0973143 0.09471145
0.07850473 0.12412241 0.11774801 0.096069634 0.10088338 0.09054477 0.062220834 0.054179937
0.047391646 0.044801563 0.036813278 0.07645536 0.07482674 0.06696616 0.12625864 0.08675177
0.057228588 0.15933526 0.06481755 0.04196991 0.30928954 -0.019398058 0.024437359 0.0016406643
0.0009697527 -0.014461268 0.002328215 -0.0056605577 -0.0813661 -0.034250822 -0.037799504 -0.049010362
-0.040531427 -0.03438239 0.094316274 0.07378984 0.07283122 0.09798762 0.08764898 0.08401403
0.07407551 0.065505244 0.055248298 0.0016362135 -0.00668154 0.0077340943 0.0003198311 -0.025440944
0.0136628365 -0.0012882812 -0.005085064 0.26762754 0.03571465 0.05971622 0.04857548 0.061261963
0.08913161 0.071182095 0.06247185 0.088176474 0.055613823 -0.038527373 -0.022497091 0.015054297
-0.047832187 -0.20327051 -0.014938266 0.005385345 -0.016863702 -0.025247628 1.0467878e-35 8.332188e-36
9.115955e-36 4.874674e-36 3.528078e-36 4.9792718e-36 4.0643783e-36 3.5571938e-36 5.3513283e-36 -0.13866352
-0.18153007 -0.1333415 -0.092185006 -0.04045719 -0.05638744 -0.025899168 -0.015346226 -0.011804824
-0.0132009545 -0.012767085 6.798743e-05 -0.02394199 0.06549514 0.0045340806 -0.0023997268 -0.012818848
-0.0012032968 -0.016493822 -0.030896645 -0.03987887 -0.033333674 -0.07387314 -0.07169327 -0.07085003
-0.08031271 -0.048585027 0.05671363 0.049449425 0.050842844 0.103281006 0.10287392 0.04870005
0.17277251 0.114960164 0.0642281 -0.005093856 -0.026271947 -0.0065941326 0.0026500477 -0.005709509
0.2601721 0.0032790632 -0.008079626 -0.0024526077 0.010792532 0.04675012 0.036490414 0.033233944
0.0722616 0.05677397 0.12128413 0.18616292 0.10272168 0.11945086 0.09977835 0.084500276
0.06282737 0.0010726607 0.0026091607 0.004977888 -0.0032857072 0.0011444179 -0.015813716 -0.029294746
-0.03802121 0.043130822 0.014944007 -0.036105253 0.039916318 0.0046661026 -0.043353654 0.0023153694
-0.0013610886 0.0040905713 0.01230574 0.016431112 0.021086602 0.023956588 -0.10230738 0.04114428
0.01310607 0.01959992 0.024936905 0.012765757 0.029293511 0.2412446 0.012150248 0.019971313
0.029020004 0.028648298 0.03235259 0.023489669 0.03256829 0.059249226 0.049138624 0.0018629236
0.023757327 0.01724933 0.09673323 0.26567578 0.07521718 -0.0031219367 0.013432967 -0.006161959
-0.0025549163 0.0019654122 -0.0008802608 0.1486136 0.13001676 0.060563836 0.4172906 0.11390849
0.04918273 0.021081844 0.061140668 0.044201277 -0.02120762 -0.032572016 -0.027193699 -0.01725977
