CNN_weights/NetworkB_weights_CV1.pt (torch, 46815 bytes, 4 tensors)

conv_net.C1.weight f4 [32, 12, 1, 1]
00000000: de70 933b 1511 473e a23e 473d 9ca7 893d
00000010: 1b2a 1d3e 1cc7 723d c822 0dbe 854b 75bf
00000020: 51b6 cabe 03dd 663e c8fa 24bb dd83 f7be
00000030: 80f7 dcbd 2c81 6dbe f2dc 21be 4808 3d3e
00000040: 8931 81be 8bb4 9d3a 76fc 063c 0ab2 ca3c
00000050: a3ba f0bc f7f2 133f aaf7 1b3e 3c04 9b3e
00000060: 1e9d b8bc f68f 2c3d 767b a1bc 2386 3fbd
00000070: 9f3c 433d 0962 be3d fbdd e93d 0703 52bf
00000080: 2370 33be 4053 c03d f72b f6bd 021e ec3e
00000090: 9ecf 9ebd 38a7 863e 89a5 64bd b439 283d
000000a0: 72bc d4bd 03ba 8bbe e5f1 04be 244a 613d
000000b0: a8dc 9c3e 2a84 a33e 022a 0ebc ec3d 0abe
000000c0: 54c3 05be 295c 8cbe f567 0e3e 0740 9dbd
000000d0: d0ca 0ebd fe39 92bd c589 fdbc b361 81bf
000000e0: 90fe d13e bbf8 09be 69b3 9d3d b220 28bd
000000f0: 4b0d de3a 4173 be3d 04a7 a1bd 5ad7 5ebf
00000100: c357 92bd a9a2 ec3d d692 43be 563b 9bbe
00000110: 57eb eabd 7072 7c3d 5911 503d fb15 833e
00000120: 0075 a3be bd0c d6bd 4e0e 08bd c90d 3a3e
00000130: 1e20 16be 8838 c73e 5b51 96be e7a4 9d3e
00000140: 5a65 c3bd 024e 25be eb75 acbc f94d 233e
00000150: c339 9f3e cbb8 35bc c2b6 b2bd c95d a73d
00000160: ec67 0d3d 8eda 7cbd ddd3 afbd 8239 7939
00000170: 8d31 a0bd a984 e03d bcf0 98bd 4ef5 d83e
00000180: a66e 94bc 05b1 81bf 7511 f0be c620 3bbe
00000190: 40ac a63d 3101 9ebe d709 60be 1ff1 9fbd
000001a0: caa8 173d 988b 8ebe 5131 07be 3199 413e
000001b0: c4c9 07bc 7a35 1d3d f510 9fbb dc7a 09bd
000001c0: 81f8 4d3d 23e0 49bd 050c aa3d acb0 f93c
000001d0: 9eca e53d 8fdf adbf d75f c2bd 211f 3dbe
000001e0: fd02 c4bb bcfb f63d 80c6 82bd b534 0abe
000001f0: b6bb c93b ff9f 8dbd fa42 1bbe 59b8 43be
00000200: eb89 043d 0fff c5be f2b3 cd3c ce4e 613f
00000210: 9cba 92be 044b 1a3e 5aec bdbd c37f 263e
00000220: 6a4f 35bc 2d6c 983e 2101 65bd 5d1f 633e
00000230: 7be0 5bbd c183 a83e b157 b8bd e030 38bf
00000240: 7ded ba3d 25c5 d2bd 5835 98bd bda0 1a3e
00000250: e18f 22be 71bf 053e cadb d7bd 8354 8ebf
00000260: 3090 a0be abaf 3ebe 3056 c73d 6cba bebe
00000270: 8e31 4a3c d35a 943b 15f7 8fbb 628f 243d
00000280: 6370 153d 1cdd bbbf abad aabe 203a bd3d
00000290: a18f f63b 108f 183d 4277 6d3c b96d 52be
000002a0: 35ac 673e d59a 61bd f7ff 91bc ccf5 05be
000002b0: 780a b8bc 03f0 1ebf 1bae 9b3e d2a7 ccbe
000002c0: 6e8f d23d da03 babd cb08 24bd 0745 723e
000002d0: dd33 363e 184c a23c 7a41 76bb 2251 01bf
000002e0: a5c0 34be 58af 90bc 8411 2f3e cbda a13e
000002f0: f509 863d 5bd6 b83d 112c 0e3e cfab 3f3d
00000300: 3a01 57be b64f 703d fe04 fa3d 408b d23d
00000310: fce5 313e e3e1 77bf 253b 7cbd 4004 27bd
00000320: 3557 0bbe bfef b03d 4b42 00be 701f 9fbe
00000330: f8da bbbc 8ac9 27be 8fa3 9a3d e22f 42bf
00000340: 3370 453e a78d a8be 48df eabd f4e0 713d
00000350: 9c67 cabd 8235 683e 30f7 5abd ea14 e23e
00000360: 0382 d53d 8f82 283d e450 c4bd e7a0 af3c
00000370: f3be 02be c422 03be 56e0 4abe 4b3c 533e
00000380: 3ba8 cfbd ad7a 44bf bfd0 81be 24f7 fbbe
00000390: 1f8b a13d c1d3 ebbd bf5a 42bd 37ea fdbe
000003a0: 267c e2be 8b8a 603c 33b2 57be b1ce 473d
000003b0: 3f41 41be de5f 42bd d5b8 47be 45aa 8c3e
000003c0: 3521 6e3d 78f8 863e ded1 4cbc b561 463d
000003d0: 48b6 5b3d 239c 5fb9 1bdc 8b3d 0df5 f13d
000003e0: 5b60 59be 2118 203d 41b5 d4bc 5425 7e3c
000003f0: f0a7 413e 2689 b3bf 84b1 87be 8d54 393d
0.004499539 0.1944011 0.048643716 0.06721422 0.15348093 0.059271917 -0.13782799 -0.9581836
-0.3959222 0.22545247 -0.0025173891 -0.4834279 -0.107893944 -0.23193806 -0.1580694 0.1846019
-0.25233105 0.0012031955 0.008238902 0.024743099 -0.02938587 0.5779261 0.15231195 0.30276668
-0.022535857 0.04212948 -0.019712191 -0.046758782 0.047665235 0.092960425 0.114192925 -0.8203587
-0.17523246 0.09390879 -0.120201044 0.46116644 -0.077544436 0.26299453 -0.05582193 0.041070655
-0.103875056 -0.27290353 -0.129829 0.055002347 0.30637097 0.3193677 -0.008677008 -0.13500184
-0.13062793 -0.27414063 0.13906844 -0.07678228 -0.034861386 -0.071399674 -0.030949483 -1.010794
0.41014528 -0.1347379 0.077002354 -0.041046806 0.0016941217 0.09299327 -0.07893184 -0.8704735
-0.071456455 0.115544625 -0.19098982 -0.30318707 -0.11470669 0.061632574 0.050797794 0.25602707
-0.319252 -0.104516484 -0.033216767 0.18169321 -0.14660689 0.38910317 -0.29358944 0.30789873
-0.09540816 -0.16143039 -0.021052321 0.15947713 0.31098756 -0.011091421 -0.087262645 0.08172185
0.034522936 -0.061731867 -0.085853316 0.00023767914 -0.07821951 0.10962803 -0.074677914 0.42374653
-0.018119168 -1.0132147 -0.4688832 -0.18274221 0.08138323 -0.30860284 -0.21878754 -0.07809662
0.037026204 -0.27840877 -0.13202406 0.18906094 -0.008287851 0.038381077 -0.0048543164 -0.033564433
0.05028582 -0.04928602 0.08303074 0.030479752 0.11220287 -1.358385 -0.09490936 -0.18468906
-0.0059818015 0.12059733 -0.06385517 -0.13496669 0.00615641 -0.069152825 -0.15162268 -0.19113292
0.03235809 -0.38671157 0.025110219 0.8801087 -0.28657997 0.15067679 -0.09273596 0.16259675
-0.011066297 0.29770032 -0.05590928 0.22179933 -0.053680878 0.3291302 -0.09001101 -0.7194958
0.091273285 -0.102915086 -0.074320495 0.1510038 -0.15875198 0.1306131 -0.10539968 -1.1119541
-0.31360006 -0.186217 0.09733236 -0.37251604 0.012340916 0.0045274287 -0.004393468 0.040175803
0.036484133 -1.4676852 -0.33335623 0.09239602 0.007524446 0.03724581 0.014493765 -0.20549668
0.22624286 -0.0550793 -0.017822249 -0.13082045 -0.02246593 -0.6208498 0.3040627 -0.39971787
0.10281263 -0.09082766 -0.040047448 0.23659144 0.17793222 0.019811675 -0.0037575648 -0.50514424
-0.17651613 -0.017661735 0.17096525 0.31612238 0.06544868 0.0902526 0.13883997 0.04679471
-0.20996562 0.05866977 0.122079834 0.10280466 0.17372888 -0.9682905 -0.061579842 -0.040775537
-0.13607486 0.08639478 -0.12525289 -0.31078672 -0.02293156 -0.16385475 0.075507276 -0.75854313
0.19281082 -0.32920572 -0.11468369 0.059052423 -0.09883043 0.22676662 -0.053458393 0.4415658
0.104251884 0.041140135 -0.09585741 0.021439029 -0.12768154 -0.12806231 -0.1981214 0.20628469
-0.10139509 -0.7674969 -0.25354573 -0.4921199 0.07887863 -0.11514998 -0.047449823 -0.49592754
-0.44235343 0.013704906 -0.21064071 0.0487811 -0.18872546 -0.047454707 -0.19504102 0.27473655
0.058137137 0.26361442 -0.012501208 0.048433024 0.053640634 -0.00021325103 0.06829091 0.11814318
-0.21228163 0.03908551 -0.025965335 0.015511829 0.1891172 -1.4026229 -0.2650262 0.04524665

conv_net.C2.weight f4 [64, 32, 1, 1]
00000000: 862f 6bbe f50b 3dbe 7a40 0e3d 1e0f 49be
00000010: 3ad6 ff3c 4875 44be 8213 debd 71c3 a43d
00000020: f6f2 60be e0d8 993e f5e3 76bd 1f68 383e
00000030: 22ab 3e3e 4fc8 89be 4be1 6e3d 71b7 a6be
00000040: 80eb 133e 4e6b 0abb c153 04be 8c91 853e
00000050: eada cf3d 04cb 0fbd 8c83 143e ad50 363e
00000060: 214b a93d 4619 6d3d ad0b 1dbe be2b d5bd
00000070: 81ad 4c3e 2ade 4cbe 9151 213d 9230 79be
00000080: 1d40 2fbd a11b 423e d335 e03c fe57 2ebe
00000090: 731c 07be 8c84 60be 85b8 25bd a72e d5bb
000000a0: 826e 22be 7eda 3abd e225 2abe e4ac 393e
000000b0: 6b28 303e 4fdd dcbd 0e4f 173e 4d16 babc
000000c0: 6c8c 053d 3eb7 8a3d fa3b 9ebc 0a76 1f3e
000000d0: 5758 bdbe 4cd1 a2bb ba4d a6bd a510 773e
000000e0: d995 5e3e 32aa 143e 8f11 933d 4534 88be
000000f0: 1118 a6be d6d4 41bb 66a3 3ebe b060 54be
00000100: 3403 b3bd 991f 98bd cce0 ef3c bea6 b43d
00000110: 6a3f 863e 204d b83d 3135 2bbe e784 f23c
00000120: 2acd d8bb bb69 f5be 48c8 f6be ef0c f0be
00000130: 3409 0a3e 7fce b73e 2add 043e 21cd 0c3e
00000140: 4e24 5fbe ab1a 223d b203 67bc babd 0c3d
00000150: 7d9e 60be 81f2 e13e 2974 22be 4d5c 053e
00000160: 2110 ea3d 7ffa cfbe eb59 c13e e20b 133e
00000170: 512c b2be 95ab 573c a2ec ae3d 5285 fabd
00000180: 72b4 d73d ed7c 96bd 4632 513e f9b2 4cbe
00000190: f700 1d3e 1465 9a3e 72a7 aabd bc67 b1be
000001a0: 1368 b43b 8003 be3d 93bc 29be b9a5 783e
000001b0: 8872 b4bd 1a5d ea3d 28b7 8bbd 589a bc3e
000001c0: c700 82bd 2839 35bd f3f9 9f3d 205b a83e
000001d0: c51f 12be 78dd 69be d3d8 a83d f041 093e
000001e0: 500c 253e c40c 6dbe 7116 a93c c3f1 043e
000001f0: 6f1b 193e f800 a83e e781 1dbe 2ab0 fb3d
00000200: 53b0 323e 60aa bf3b 2e1c abbd a133 4fbe
00000210: 5673 dabd a9e5 d7be 8eff 3c3e a49f bcbd
00000220: 603e 4bbe 0ca1 09be 415d 663e a2d6 75bc
00000230: 11f1 973e 3ede 26bf 57ae 51be ceaa adbb
00000240: 950f c03d e6c0 34bf 4b0b 4ebc 55d9 20bc
00000250: 75a7 e9bc e7a2 b33d 831b b23d 9cc6 d1be
00000260: e462 3dbd 5add df3c 1e61 c63d d5bc 533d
00000270: 9575 43bc 0a8b 193e 3c3a 82bb e56f 53be
00000280: d4b8 c5bd 8f61 2ebe 21f1 1ebd 0163 dd3d
00000290: 5af1 8dbd a323 cabe 1b02 833e d3b0 bcbd
000002a0: 4401 8c3d 1011 08bf 91ad b73d ec96 a0be
000002b0: b5bf 35be abe0 0bbf ff5c 13bf e12e 903d
000002c0: db0e 5abe 9a3f 913d b27e 0bbe 4b57 f1bd
000002d0: 7b7f 913b 77b4 c93e 47a6 71be b0d3 29be
000002e0: be9a 1ebe 5b45 be3d b8f0 ab3e b2a2 033e
000002f0: 11ba 553c 43fe 59be 6a2d 67be 3685 19be
00000300: 943e 63be ae57 a43e d04a 04bd 5e1a 8bbd
00000310: 6bad 633e 947a 99be e19b e73d 483f 28be
00000320: 6d19 7f3e 559d 223b e179 2e3e afaa bdbd
00000330: 3218 43be f6a1 f83d abcf d03d 156a 0f3e
00000340: 38de d93b d125 25bf 66be b0bd 5fb0 043e
00000350: 7f7e 92bd df1e d0bc 680e 063e db41 23be
00000360: 095f c2bd c469 0f3b d1db 123e 94e1 ba3d
00000370: 06f2 2abe c7b2 6cbe 27e0 c03d 9959 56bc
00000380: ad57 ccbd 87e6 09bd 5404 d7bc 1e7c a0bd
00000390: 1d38 ecbe 4b7f 9bbe 7707 8fbd 1e9e 0d3e
000003a0: 618d dbbd c877 ccbe 288e 983e 46b0 98be
000003b0: ea32 fbbd 18a4 74b9 e802 173e 25db 52be
000003c0: d44b ce3c 84b9 1b3e a05c 203e 32d5 6abe
000003d0: 609e 343e 16db ab3d c206 473e 041c febe
000003e0: 139a 913b df75 673e 00d9 75bd 7d7a 67bd
000003f0: edce 013e dc86 84be 9052 0ebd 731b b63d
-0.22967348 -0.18461592 0.03472946 -0.19634673 0.03123008 -0.19185364 -0.108435646 0.0804509
-0.21967682 0.30048275 -0.06027599 0.18008469 0.1861997 -0.26910636 0.058320325 -0.3256183
0.14445305 -0.0021121087 -0.12922575 0.26087606 0.101491764 -0.03510572 0.14503306 0.17804213
0.08266283 0.05788543 -0.15336485 -0.10408734 0.19988061 -0.20006624 0.03938443 -0.24334934
-0.042785753 0.18955852 0.027369415 -0.17025754 -0.13194446 -0.21925563 -0.040459175 -0.0065058055
-0.15862468 -0.045618527 -0.16616014 0.18132359 0.17202918 -0.10784399 0.1477625 -0.022715712
0.03260462 0.06773232 -0.019315708 0.15572372 -0.3698146 -0.004968798 -0.08120294 0.24127443
0.2173685 0.1451805 0.071810834 -0.26602378 -0.32440236 -0.0029576323 -0.18617019 -0.20740008
-0.08740845 -0.07427902 0.029281996 0.08820866 0.26220256 0.089990854 -0.1671951 0.029604388
-0.0066162543 -0.47932228 -0.48199677 -0.46884868 0.13480073 0.35899732 0.12974992 0.13750125
-0.21791193 0.039576214 -0.014100002 0.034360625 -0.21935458 0.44130328 -0.15864624 0.13023491
0.114288576 -0.406208 0.37763914 0.14360002 -0.34799436 0.013163467 0.08541228 -0.1223246
0.10532464 -0.073480465 0.20429334 -0.19990148 0.153324 0.3015524 -0.08332719 -0.34649456
0.0055055707 0.09278011 -0.16575842 0.24281968 -0.088109076 0.11443539 -0.06822044 0.36836505
-0.063478045 -0.04424396 0.07811346 0.32882023 -0.14269932 -0.2283839 0.08244481 0.1340406
0.16117978 -0.23149401 0.020640584 0.1298285 0.14951871 0.3281324 -0.15381585 0.1228946
0.17450075 0.0058491677 -0.08354984 -0.20234539 -0.1066653 -0.42167404 0.18456861 -0.092101365
-0.19848013 -0.13440341 0.22496511 -0.015004786 0.29676107 -0.65182865 -0.20476662 -0.0052999025
0.09377972 -0.7060684 -0.012575935 -0.009817441 -0.028522233 0.087713055 0.08696654 -0.4097184
-0.046236888 0.027327228 0.096864924 0.051693756 -0.011929889 0.14994445 -0.0039742272 -0.20648153
-0.09654394 -0.17029403 -0.038804177 0.10809899 -0.069308 -0.39480314 0.25587544 -0.09213414
0.06836179 -0.53151035 0.08968652 -0.31365144 -0.17748912 -0.5463969 -0.57563776 0.070401914
-0.2129473 0.07092209 -0.13622549 -0.11784228 0.0044402457 0.39395496 -0.23598586 -0.16584659
-0.15488717 0.09290572 0.3358209 0.12855032 0.01304485 -0.212884 -0.22575918 -0.14992222
-0.2219184 0.32098144 -0.03229791 -0.067921385 0.22234122 -0.29976332 0.113090284 -0.1643039
0.24912043 0.0024813015 0.1703868 -0.09261071 -0.19052199 0.121402666 0.101958595 0.14005311
0.006648805 -0.6451083 -0.086300656 0.12957905 -0.071530335 -0.025405345 0.13091433 -0.1594309
-0.09490783 0.002188311 0.14341666 0.09125057 -0.16693887 -0.23115073 0.09417754 -0.013082885
-0.0997766 -0.033667114 -0.026247181 -0.078361735 -0.4613656 -0.30370554 -0.06983846 0.13829848
-0.10720325 -0.39935136 0.29795957 -0.29821986 -0.122655705 -0.00023330783 0.14747202 -0.2059141
0.025182642 0.15207487 0.15660334 -0.2293289 0.1763854 0.08391397 0.19436172 -0.4963075
0.004443416 0.22603558 -0.0600214 -0.0565133 0.12676592 -0.2588414 -0.034746706 0.08891954

conv_net.C3.weight f4 [128, 64, 1, 1]
00000000: 8bb9 97bd 374b 053d 8821 b0bd 5bba a7bd
00000010: d0e9 8a3d 5144 353c 0545 c9bd da7f 31be
00000020: 1d7a 09be 27b4 f6bd 382a 24bd 104d 50bd
00000030: 9453 9ebb 269c 32bd 65fb f3bd 087d 8cbc
00000040: 3ca9 f73d 49f5 1e3d 3b3b 37bd b07d 1dbe
00000050: 5ab3 b63b ad92 1fbb a33f a2bd bc8f 89bd
00000060: 75b0 083b 1bdd 383e 5370 b3bd fad1 673d
00000070: fce6 263c 70a2 3abc 95bd e9bd c214 1fbd
00000080: e7af 393d 63b5 96bd c456 a7ba 5736 f1bd
00000090: dfa9 e63d 0318 063e 022b a5bd ef35 e23c
000000a0: 975d c5bd de6b 24be c4b4 d73c 364f 8e3c
000000b0: ea4b 293d 812c 01bc 62a7 123c d14c 6cbe
000000c0: 5f3b b3bd 8862 ecbb ac01 2a3d 30af 313d
000000d0: e40b 063d 639e 40bc e5e7 b4bd 3030 973d
000000e0: 623c 643d d6d1 54bc f8e3 c1bd 4486 00bd
000000f0: 5079 01bd 1bc9 bb3c 51d9 5fbd 1e8e 8c39
00000100: 447f 093c 22df 593d 66f5 e7bd d9c8 64bd
00000110: 69a2 22bd da6b 05bd cbb4 a1bd 7bf2 dbbe
00000120: 115d 28be 08f2 babb dd86 98bd ee07 543e
00000130: 1c40 2f3c 0e85 5abe 37c9 14be c991 3a3c
00000140: e760 3abc 7477 d23d ef56 803c 6416 a3be
00000150: 0397 333e 780b a6be 4f8e d9bd 4906 8ebd
00000160: 581e 783d 454f b5be 4ee5 72be 9850 1bbe
00000170: 6c95 c53c 466b 313e 716e 6b3d 3ac3 033e
00000180: b36b 513d f145 933e 5ac7 bd3d ebc3 42bd
00000190: c395 7c3d ea05 f43d 9dff 8d3d 5de9 68be
000001a0: c3d9 c4be 67b7 8abd 43ec 943d 0280 513d
000001b0: 7d3c ecbe b15b bc3d 3810 bf3d b608 65be
000001c0: 012d aebe 960d e13b 0705 ea3d 8902 24b4
000001d0: 04e0 aebc 0a56 36be 1445 8dbe 5c26 e3bc
000001e0: 0965 3d3e eb2f c8be 503d c53d 207e b23d
000001f0: 39c7 5dbe 7bee f23d fb55 cfbd d410 a7be
00000200: 54e7 a3bd b5f0 583c 166c de3d 3870 bdbe
00000210: 2f07 36bc b344 11be 4e4d 203e a588 dfbd
00000220: 4692 3ebe aa9f 19bc 8fc4 c03e 2c6f 863e
00000230: 6cc7 e9bd 5763 83be 02f3 ffbc 2b14 3abd
00000240: e206 04bf 1a44 e13d 28d4 883d 9df3 dfbd
00000250: 2395 063d 6890 4cbe de2f 78bb cf90 843c
00000260: 04b0 0dbe d2e0 79be 024f 20bd d202 f83b
00000270: 4400 d5bd 5236 e2bd 5f0f 9dbc 6765 72bd
00000280: 530c a7bd 8d0d 283e d1a3 7fbc 263f d8bd
00000290: c675 55be 0ebd 58bd 2491 ffbd 22a9 903d
000002a0: 6dc1 06be e8b9 f13d 9899 c43d 37f6 83be
000002b0: b772 193e 11b4 bebe c1c1 65bd 2368 303e
000002c0: 4b87 f6bd a960 36bd 36de d3bd 462b e3be
000002d0: 2734 81bd ee54 843d 2a0f 863d c866 513c
000002e0: 94f6 323d 59f1 b9bd c073 31be cad4 fabc
000002f0: bc67 b93d 5908 9cbd a1c7 26bc 4ee2 5bbd
00000300: 40d8 0abd e883 d9be 8026 c4bd b938 01be
00000310: 812a 3e3d 5d25 553d 42ec bc3c cd62 b9bc
00000320: a152 48be a5b1 323e 338a a73e 4b80 02bf
00000330: 5108 183e c295 d6bd 01f2 573e e1d8 b93d
00000340: e39a 28be 3af9 9fbe d86e f9bd f1ba a7be
00000350: d951 3cbe dbb3 5ebe 5f06 ffbd 675d bebd
00000360: 78fc 143e 2c91 053e 007e ab3d 1e82 65bc
00000370: a380 283e 9d79 db3c 44e0 bfbe de1f 3dbd
00000380: f23b 9ebd a97f d13d 4f52 75be a0a6 ec3d
00000390: 5d4d 013d f243 7fbc 6fa4 2dbe 0b17 43be
000003a0: e8e3 a73d 64f8 c13d 9415 9bbb 0c58 89be
000003b0: 3208 c83d 9d61 c43c 6ce4 2dbe 3a4c c3bd
000003c0: 4e85 0dbe 58f7 81be 52e2 413e cf83 fabd
000003d0: 62f5 b8b9 9ccb c2bc fe3e 22be d13a 85be
000003e0: 5e87 ff3c ec64 e73d 09b9 cabd 9c56 debd
000003f0: bde0 93bd 07af d0be 7da8 c43d 2fdc dfbd
-0.074084364 0.032542434 -0.086001456 -0.08189841 0.067828774 0.011063651 -0.098276176 -0.17333928
-0.13425489 -0.1204608 -0.040079325 -0.050854743 -0.0048317406 -0.043605946 -0.11913184 -0.017149463
0.12092826 0.03880814 -0.04473422 -0.15379977 0.0055755796 -0.00243489 -0.07922294 -0.06716868
0.002085713 0.18053095 -0.087616585 0.056596734 0.010186907 -0.011391267 -0.11413113 -0.038838156
0.04533377 -0.073588155 -0.0012766947 -0.11777943 0.11262869 0.13095097 -0.08064844 0.027613608
-0.096369915 -0.16056773 0.026331313 0.017371755 0.041332163 -0.007884146 0.00895104 -0.23076178
-0.087515585 -0.0072138943 0.0415055 0.043379962 0.032726184 -0.011756512 -0.08833293 0.07382238
0.055721648 -0.012989482 -0.0946731 -0.031378046 -0.031609833 0.022923043 -0.05465061 0.00026808766
0.008392159 0.05319131 -0.11326103 -0.055855606 -0.039705668 -0.03257356 -0.07895812 -0.42958435
-0.16441752 -0.005705122 -0.07447598 0.2070615 0.010696437 -0.21339819 -0.14529882 0.011387297
-0.011375642 0.1027669 0.015666453 -0.3185302 0.17538075 -0.32430625 -0.10622846 -0.069347925
0.060575813 -0.3541204 -0.23720285 -0.15167463 0.024119101 0.17326078 0.057478372 0.12867442
0.0511281 0.287643 0.09266539 -0.047550123 0.06166626 0.119151905 0.0693352 -0.22745271
-0.3844739 -0.067732625 0.07271626 0.05114747 -0.461399 0.09197176 0.09329265 -0.22366604
-0.3401871 0.0068680746 0.1142674 -1.5274613e-07 -0.021347053 -0.17806259 -0.27591765 -0.027728252
0.18495573 -0.39099059 0.09630835 0.08715463 -0.21658029 0.11861893 -0.10123821 -0.32630026
-0.08003107 0.013240983 0.108604595 -0.3699968 -0.011110111 -0.14186363 0.1565449 -0.10914735
-0.18610486 -0.009376446 0.37649962 0.26256692 -0.1141499 -0.25661728 -0.031243805 -0.04542939
-0.51573 0.109993175 0.066810906 -0.109351374 0.03285707 -0.19976962 -0.0037870328 0.016182331
-0.13836676 -0.24402168 -0.039137848 0.0075686956 -0.10400441 -0.11045517 -0.019172369 -0.059178736
-0.081566475 0.16411419 -0.015603022 -0.105589196 -0.20845708 -0.05291467 -0.12478855 0.070635095
-0.13159724 0.11803037 0.09599608 -0.25773785 0.14985166 -0.37246755 -0.05609298 0.17227225
-0.12037524 -0.044525776 -0.10345118 -0.44368953 -0.063087754 0.064615116 0.06545861 0.012780853
0.043692186 -0.090792365 -0.17329311 -0.030619044 0.09052989 -0.0761878 -0.010179431 -0.053682618
-0.03389764 -0.4248345 -0.09577656 -0.12619294 0.046427254 0.052037586 0.023061875 -0.02263012
-0.1956277 0.17450579 0.32722625 -0.5097701 0.14846922 -0.10477783 0.21088411 0.090745695
-0.16465335 -0.31244832 -0.12179345 -0.32759812 -0.18390597 -0.21748297 -0.12452387 -0.09295159
0.14549434 0.1304366 0.08373642 -0.014008073 0.16455321 0.026791388 -0.3747579 -0.04617297
-0.077262774 0.10229427 -0.2395718 0.11555219 0.03156792 -0.015580164 -0.16957258 -0.19051759
0.081977665 0.09471205 -0.004732797 -0.26824987 0.09767188 0.023972327 -0.16981667 -0.095360234
-0.13820383 -0.2538402 0.1893399 -0.12232172 -0.0003527804 -0.02377873 -0.15844342 -0.26021436
0.031192478 0.11298546 -0.09898574 -0.10856363 -0.072206 -0.40758535 0.09602449 -0.109306686

conv_net.C4.weight f4 [5, 128, 1, 1]
00000000: a774 203e 65eb 793c a062 9dbc ada1 e13b
00000010: acf7 4bbb 8831 793d f05c c5bc 8103 703c
00000020: 9937 bb3d 4a25 543e 2264 a1bb 17c2 27be
00000030: f6e3 a3bd b7cb 013c a166 7abc 937c 59bd
00000040: 657e 8587 2f0a 163d c8b8 b53b fa4d a23d
00000050: fc6e a13b 7b4c 9cbb c6f8 203f f7fc 623b
00000060: b3de 643d e337 c7bd d0ff 21bd 3787 4ebd
00000070: 5031 cf3c 88a8 5dbd c50f 80bd e249 cebc
00000080: 65a1 403e b8e1 603e 4e9a 8aba f5d8 a2bc
00000090: d537 39be 2414 8c3c 17df 21bd 5fc6 2c3e
000000a0: b44a 53be 444f a03d 1ab9 99bd edc5 1e3d
000000b0: 96ba 79bb 33a9 813d 306a 133c 6af4 ac3c
000000c0: 933a 65be 7344 57be 8303 eb3c 0e88 9dbc
000000d0: d8ba a83d 4577 073e 3daf d53c d1d5 a63c
000000e0: caf5 e23c b061 c3bd 6ea5 a5bd 5e46 7dbb
000000f0: f0c6 283e 72d9 febc fac1 ebbc 9988 303e
00000100: 6d4c 4d0b 7731 b3bd 321b 0d3b 6d57 d73b
00000110: bffd f8bd 3263 39bc 7216 893d 5ace 233e
00000120: b656 ef3d 0713 a6bb 982f b13a e2e6 263c
00000130: 11c2 afbc 65fd 13bd b686 7dbd 4102 a03c
00000140: ba54 46bb 4469 a8bb e6d8 26bc ecde 033b
00000150: 0f9e ad3a 2635 62b9 c7a7 413e 54a0 e43b
00000160: b21f 34bc 6986 fabc 314c 02bd 1725 34bd
00000170: 60a6 383a 7ec0 b0bc 5c03 47bb 8b7c b5bc
00000180: 84f6 e1bb de11 e3bd 17b2 c3bc 0a5e d93d
00000190: f50c 4cbd bc6e 75be d741 a0bd 29e4 f2bc
000001a0: 7290 d13b 19e7 7cbc 2581 32be 5cc2 a73d
000001b0: 4ae4 983c 7c54 81bd 8a85 f0bd c6e5 793d
000001c0: 0f41 86bc e401 a83d 2f1f 1fbe fc67 c6ba
000001d0: db6c 583d 3304 e2bd 919b 7bbc 1b34 51bb
000001e0: b427 e6bd 46cc 95bc 2b92 c13d a1e1 903d
000001f0: 6ac3 ce3d 805f b23d 5880 8bbe f697 39ba
00000200: 47e0 1f3d 1b55 7b3d cb41 a7be c9ea 5cbe
00000210: ab80 c2ba 5d09 e03d 2dc5 373c 1a18 36bd
00000220: e1be 1ebd 6c73 2cbe fa1a 08bd a612 51be
00000230: 8fd3 6dbc 7971 823c 7ea8 883d 1707 63be
00000240: 18d8 bb87 2a40 3b3d 4840 59bf d829 553c
00000250: d648 0f3e 7eea 36bd ab0a 10bf 0254 b4bb
00000260: e688 0e3e 66d5 6e3d f421 88be 19b8 01be
00000270: ba87 273d 4a0a 0e3e b828 ac3d 46f1 a6bd
00000280: 8c78 0fbd 9031 2bbe 0c83 bfbc 0539 c839
00000290: 3c8c b13d 7aec 773d db61 c2bc ec05 bbbd
000002a0: 7541 e4bc 4880 57be 4737 ddbc 927c a8bc
000002b0: ccda 94bc a071 463d 902a c63c c3c3 da3d
000002c0: e548 513e 9664 793e e2cb 9dbe 5f4a 693e
000002d0: 15e3 6f3b 73c1 ebbd eda0 8cbd 34b9 dfbd
000002e0: df8b aabb 8107 293d f2c1 f8bc 742c 2dbc
000002f0: c6df 16bd 9423 90be eede 70be 4f45 19be
00000300: 7485 760b 2f38 44bc fc0d 7f3b dc34 a43e
00000310: dd64 463e 44b1 64bd a3cc 05be 4ce3 4dbe
00000320: ff67 603e 6522 b23c 048c 923c 3fa2 1d3b
00000330: 6f6b 2e3c c241 16bd bbad 8c3c 0155 39bc
00000340: 80bd 9e3b f577 b4bd bb74 b23e efed 173d
00000350: 4ea6 b73b 5677 c4bd a414 8bbd 5566 053b
00000360: 4a48 78bb 49d4 31bd 81a2 8fbd cca2 99bc
00000370: 493a eab7 ebcf 8bbc 94e8 c1bc 1153 fbbc
00000380: 2079 8d3c ab39 2cbd 7bbb 113d 3b76 053d
00000390: a092 6abd 1625 8c3e a558 c03c b5c3 403d
000003a0: 5491 f03c c766 003e fd40 8ebd 50b5 67be
000003b0: d362 993c 62a5 b9bc f613 7ebe b98f a0bd
000003c0: ca50 2cbd adab 9c3e 47bb 0d3e 821e 5e3c
000003d0: 4cea 70be d59d 54bd 32e3 7b3d b235 993d
000003e0: 3f56 3c3d fb79 213c 4694 e43d b713 453d
000003f0: 8cc0 403e a551 17be c2e8 4a3e 5a15 27bc
0.156695 0.015253876 -0.019212067 0.0068857283 -0.0031122966 0.060838252 -0.024092168 0.014649273
0.09141464 0.2071735 -0.004925267 -0.16382633 -0.080024645 0.007922105 -0.015283258 -0.05309732
-2.0085904e-34 0.036630806 0.0055457093 0.07925029 0.0049265604 -0.0047698594 0.628796 0.0034635642
0.055876445 -0.097274564 -0.039550602 -0.05042192 0.025292069 -0.054115802 -0.06253008 -0.025181714
0.18811567 0.21961105 -0.0010574551 -0.019878844 -0.18087704 0.017099448 -0.039519396 0.16872548
-0.20633966 0.07827619 -0.075060084 0.038762975 -0.0038105599 0.063311 0.008997485 0.02111264
-0.22385626 -0.21022205 0.028688198 -0.019229915 0.082387626 0.13229091 0.026084537 0.020365627
0.027705092 -0.09540117 -0.08088194 -0.0038646678 0.16482139 -0.031109545 -0.028779019 0.17239608
3.953906e-32 -0.08749669 0.0021531102 0.0065717013 -0.12157773 -0.011315154 0.06693734 0.15996686
0.11686461 -0.005068186 0.0013518212 0.010186883 -0.021454843 -0.036130328 -0.06189605 0.019532325
-0.0030262903 -0.0051395018 -0.010183549 0.0020121885 0.0013245958 -0.00021572839 0.18911658 0.0069771204
-0.010993885 -0.03058167 -0.031810943 -0.043980684 0.0007043835 -0.021576162 -0.0030366993 -0.022154113
-0.006895842 -0.11087392 -0.02388863 0.1061364 -0.049817044 -0.23968023 -0.07825058 -0.02964981
0.006395393 -0.015435957 -0.17432077 0.08191368 0.018663544 -0.06314942 -0.117442206 0.061010145
-0.016388444 0.082034856 -0.1553924 -0.0015137191 0.052838188 -0.11035957 -0.015356914 -0.0031921926
-0.112380415 -0.018285882 0.094517075 0.07074285 0.10095866 0.087096214 -0.27246356 -0.0007079834
0.039032247 0.06136046 -0.32667384 -0.21573938 -0.0014839371 0.10939286 0.011216444 -0.04445658
-0.038756255 -0.16840905 -0.03322885 -0.2041727 -0.0145157715 0.015923249 0.06672762 -0.22170673
-2.8263641e-34 0.04571549 -0.8486371 0.013010465 0.13992628 -0.044657223 -0.5626628 -0.0055031786
0.1391941 0.05830898 -0.26588404 -0.12667884 0.040900923 0.13871112 0.08406204 -0.08151488
-0.03502707 -0.16718125 -0.023377918 0.00038189456 0.08669326 0.060528256 -0.023728302 -0.09131989
-0.027863244 -0.21045029 -0.027003897 -0.020567212 -0.018170737 0.048448205 0.024190217 0.1068187
0.20437963 0.24354777 -0.30819613 0.22782277 0.0036603857 -0.11511507 -0.06866632 -0.109239966
-0.005204662 0.041266922 -0.030365918 -0.0105696805 -0.0368345 -0.28152144 -0.23522541 -0.14967845
4.7478276e-32 -0.011976286 0.0038918247 0.32071579 0.19374414 -0.055833116 -0.13066344 -0.20106238
0.21914671 0.021744916 0.01788903 0.0024053005 0.010645731 -0.036683805 0.017172685 -0.01131177
0.0048443675 -0.088119425 0.34854683 0.037092146 0.005604542 -0.09593074 -0.06791046 0.0020355184
-0.0037884885 -0.04341534 -0.07013417 -0.018754385 -2.7922115e-05 -0.017066916 -0.023670472 -0.030679258
0.017269671 -0.042047184 0.035579186 0.032583456 -0.05726874 0.27372044 0.023479769 0.04706164
0.029366173 0.12539206 -0.06945989 -0.22627759 0.01872388 -0.022661868 -0.24812302 -0.07839913
-0.042069234 0.30599728 0.13840972 0.013557078 -0.23526877 -0.051908333 0.061495967 0.07480945
0.04598069 0.009855743 0.111610934 0.048114505 0.18823451 -0.14777239 0.19815353 -0.010197962
