CNN_weights/NetworkB_weights_1982-2021_allsamples.pt (torch, 46815 bytes, 4 tensors)

conv_net.C1.weight f4 [32, 12, 1, 1]
0	0xbc8b4c29	-0.01700409
1	0x3dc673d5	0.09690062
2	0xbce0850b	-0.02740719
3	0x3d72a6ff	0.05924129
4	0xbb3f7091	-0.0029211382
5	0xbd18af52	-0.037276573
6	0xbda30e41	-0.07961703
7	0xbfc923a1	-1.5713998
8	0xbf04fc7e	-0.5194777
9	0xbdb68a85	-0.08913139
10	0xbd0357c5	-0.032066125
11	0xbe41cad0	-0.18925023
12	0xbdf82ea0	-0.12118268
13	0xbe530d7f	-0.20610617
14	0xbdb0b06c	-0.086274
15	0x3d8a9f49	0.067686625
16	0xbeb61894	-0.35565627
17	0x3e9f72dc	0.31142318
18	0xbd576d24	-0.05259432
19	0x3e7d21c7	0.24719916
20	0x3d4e829e	0.050417535
21	0x3efd46ce	0.49468082
22	0x3de4597a	0.11149879
23	0xbe1ae44a	-0.15126148
24	0xbcd0ffef	-0.025512664
25	0x3e390137	0.1806687
26	0x3caea4a9	0.02131875
27	0xbe01773e	-0.12643144
28	0x3c2c72b5	0.010525395
29	0x3b988222	0.004654185
30	0x3d85b4ad	0.06528602
31	0xbe9c4f00	-0.30529022
32	0xbe8731d4	-0.26405203
33	0xbcb0acff	-0.021566866
34	0xbdd6eb9c	-0.10494158
35	0x3f3256d2	0.6966373
36	0xbd8b0c0a	-0.06789406
37	0x3e4ffe09	0.2031175
38	0xbd9ded74	-0.07711306
39	0x3d87dfc0	0.06634474
40	0xbdb4a18b	-0.088198744
41	0xbe8b8d9f	-0.27256486
42	0xbd642f5f	-0.05570924
43	0x3ddcb038	0.107757986
44	0x3e83b584	0.25724423
45	0x3ee35c00	0.44406128
46	0x3c9529e3	0.01820845
47	0xbedd4f70	-0.43224669
48	0xbe4907b4	-0.19631845
49	0xbd0d28de	-0.034462802
50	0x3de14b87	0.11000734
51	0xbe30e625	-0.17275293
52	0x3d197130	0.03746146
53	0xbe4584ae	-0.19288895
54	0x3d8f2da8	0.0699113
55	0xbf4caba8	-0.79949427
56	0x3e8cc85b	0.2749661
57	0xbeb360b5	-0.3503472
58	0x3c3bb222	0.011456044
59	0x3e703c9d	0.23460622
60	0xb8f74cdd	-0.00011792195
61	0xbb5dd427	-0.0033848376
62	0x39ae0a89	0.00033195716
63	0xbe2249cf	-0.15848468
64	0xbb687dd8	-0.00354754
65	0x3e313217	0.17304264
66	0xbce290fc	-0.027657025
67	0xbf969e49	-1.1767055
68	0xbe30bb0c	-0.17258853
69	0x3ea379be	0.3192882
70	0x3cc50c9c	0.024053864
71	0x3e872642	0.26396376
72	0xbea16ecb	-0.3152984
73	0xbdf23cfe	-0.118280396
74	0xbdddfce6	-0.10839252
75	0x3ec5aa9e	0.38606733
76	0xbe21f9d1	-0.15817954
77	0x3e8a4587	0.2700617
78	0xbe7091bc	-0.23493093
79	0x3d82abd5	0.063804306
80	0xbdcfa88a	-0.10139568
81	0xbe1c4c7f	-0.15263556
82	0xbd831e29	-0.06402237
83	0x3eec65da	0.46171457
84	0x3e250cfb	0.16118233
85	0xbe100ff6	-0.14068589
86	0xbdd6542f	-0.104652755
87	0x3e9afb76	0.30269974
88	0xbbb65f83	-0.005565585
89	0x3e1bf35d	0.15229554
90	0x3c7031b5	0.014660289
91	0x3e7b0275	0.24512656
92	0xbdd8907b	-0.105744325
93	0x3e973146	0.2952978
94	0xbd900213	-0.070316456
95	0x3e099f15	0.13439591
96	0x3db5d157	0.08877819
97	0xbe21bd7d	-0.1579494
98	0xbe4792b3	-0.19489555
99	0xbf34d17c	-0.7063215
100	0x3e4fe2c9	0.20301355
101	0xbefa8374	-0.48928416
102	0xbe77d299	-0.2420143
103	0x3d9f2e1d	0.07772467
104	0xbe046a81	-0.12931253
105	0xbea6d5dd	-0.3258504
106	0xbe322241	-0.1739588
107	0x3d266a82	0.040628918
108	0x3beaa893	0.007161209
109	0x3d7c3fe0	0.061584353
110	0x3b3d0149	0.0028839877
111	0x3d5a4a3e	0.05329346
112	0x3d524489	0.05133489
113	0x3d827110	0.06369221
114	0x3d25262c	0.040319607
115	0x3e19e7ae	0.15029785
116	0x3deee2e1	0.116643675
117	0xbfbdc662	-1.4826167
118	0xbddd6ba8	-0.108115494
119	0xbeb65759	-0.35613516
120	0xbde4aa99	-0.111653514
121	0x3ddfdcb7	0.1093077
122	0xbe0fb1ae	-0.14032623
123	0xbda87c2f	-0.08226811
124	0x3d805dc6	0.06267886
125	0xbddb9a56	-0.107227966
126	0xbde26363	-0.11054113
127	0xbe0db190	-0.13837266
128	0xbc8586ca	-0.016299624
129	0xbec9df5c	-0.39428222
130	0x3e90dfa9	0.2829564
131	0x3ee8b47c	0.454502
132	0xbe7abe51	-0.24486662
133	0x3e26207a	0.16223326
134	0xbd74b8f0	-0.059746683
135	0x3e2172ab	0.15766399
136	0xbb8653ff	-0.0040993686
137	0x3ec49098	0.38391566
138	0xbd851952	-0.0649897
139	0x3eb795dc	0.3585652
140	0xbda06ae9	-0.078328915
141	0x3efb309c	0.49060524
142	0xbd8f42a1	-0.0699513
143	0xbf55f67d	-0.83579236
144	0x3df900ed	0.1215838
145	0x3e2840b9	0.1643094
146	0x3ca4b53e	0.020105954
147	0x3e8fff40	0.28124428
148	0x3c51caff	0.012804746
149	0x3f0611ea	0.52371085
150	0x3d4cb5d0	0.049978077
151	0xbdab3689	-0.08360011
152	0x3c725c60	0.014792532
153	0x3f1e1f54	0.6176655
154	0x3dd39014	0.10330215
155	0xbf87cab0	-1.060873
156	0x3c14f39b	0.009091283
157	0x3cc80e37	0.02442084
158	0x3c1a0f69	0.009403088
159	0x3db1a8ce	0.08674775
160	0x3c9990e0	0.01874584
161	0xbfe3ba6c	-1.7791266
162	0xbea82001	-0.32836917
163	0x3ca83bcb	0.020536324
164	0x3c44877e	0.0119951945
165	0xbd2fe710	-0.042944968
166	0x3c915d9b	0.01774483
167	0xbe8e9d1e	-0.27854246
168	0x3e60dd48	0.21959412
169	0x3cb40ec9	0.021979706
170	0xbcb56e4e	-0.022147324
171	0x3d9a2b21	0.075277574
172	0x3e019e3e	0.12658021
173	0xbf0ab86d	-0.5418766
174	0x3f0e098d	0.55483323
175	0xbeebe110	-0.46070147
176	0x3db9f958	0.09080762
177	0xbe2090e6	-0.15680274
178	0xbcc9e5ad	-0.02464565
179	0x3e3cbf1a	0.18432274
180	0x3dfd2bd6	0.12361877
181	0x3d0f63f0	0.035007417
182	0x3c8387d7	0.016055984
183	0xbf7d66e6	-0.98985136
184	0xbe922e5f	-0.28551003
185	0x3e347f6e	0.17626736
186	0x3dad13f9	0.08451075
187	0x3ecd3cc5	0.40085426
188	0x3d62a8c0	0.055336714
189	0x3cd5b249	0.02608599
190	0x3e349836	0.17636189
191	0x3dbeb65d	0.09312127
192	0xbe79a34b	-0.24378698
193	0xbd0ef434	-0.03490086
194	0x3d85e044	0.06536916
195	0x3e04d57e	0.12972066
196	0x3e2e26b3	0.1700695
197	0xbf28b655	-0.65903217
198	0xbdf97017	-0.121795826
199	0xbd7a3e8b	-0.061094802
200	0xbe100757	-0.140653
201	0x3e4a06a9	0.19729103
202	0xbe121f15	-0.1426967
203	0xbec8019a	-0.39063722
204	0xbd78b760	-0.060721755
205	0xbf424def	-0.7590017
206	0x3e363804	0.17794806
207	0xbdf26276	-0.11835186
208	0x3df4e7ad	0.11958251
209	0xbe8c86d8	-0.27446628
210	0xbe448d8f	-0.19194625
211	0x3dfae034	0.122497946
212	0xbe1706e7	-0.14748727
213	0xbe0c77ff	-0.1371765
214	0xbd997c74	-0.07494441
215	0x3ea48da0	0.321393
216	0x3e43c1a8	0.19116843
217	0xbba59282	-0.0050528655
218	0x3e8568ca	0.2605651
219	0x3cadf87d	0.021236653
220	0xbc970357	-0.01843421
221	0x3dd255a2	0.102702394
222	0x3c212610	0.009835735
223	0x3e4c19f7	0.1993178
224	0xbd5cea5e	-0.053934447
225	0xbe6f5935	-0.23373874
226	0xbe2ac8ed	-0.1667821
227	0xbf18015c	-0.59377074
228	0xbb268cf8	-0.0025413614
229	0xbcdd26b6	-0.026995998
230	0xbe20db7f	-0.15708731
231	0xbf169f59	-0.58836895
232	0xbf0ae69e	-0.54258144
233	0xbe4c3fa7	-0.19946156
234	0xbec3905d	-0.38196078
235	0xbe64c723	-0.2234159
236	0xbe9015a9	-0.28141525
237	0xbe34aa12	-0.17643002
238	0xbe605529	-0.21907486
239	0x3ecb27bb	0.3967875
240	0x3daef4b1	0.08542765
241	0x3e8b61e7	0.2722313
242	0x3cbbe688	0.022937074
243	0x3d946bd8	0.07247132
244	0x3e37124b	0.17878072
245	0xbe21827b	-0.1577243
246	0x3e327154	0.17426044
247	0xbd11bedc	-0.03558241
248	0xbe6a0d7b	-0.22856705
249	0x3d0e39c8	0.034723073
250	0x3d7dbe8b	0.061949294
251	0xbd95707f	-0.072968476
252	0x3f18ba12	0.5965892
253	0xbf8c6537	-1.0968388
254	0xbd8eca20	-0.06972146
255	0x3e181827	0.14852963

conv_net.C2.weight f4 [64, 32, 1, 1]
0	0xbe09e038	-0.13464439
1	0x3e608446	0.21925458
2	0x3e6f42b5	0.2336529
3	0xbe71de5d	-0.23619981
4	0x3e6279e1	0.22116806
5	0xbdb81911	-0.08989156
6	0x3d5272ff	0.0513792
7	0x3ddb6e7e	0.10714434
8	0xbe9973d9	-0.29971197
9	0x3d9c08d8	0.07618874
10	0xbe48a176	-0.19592842
11	0xbe32c299	-0.17457046
12	0xbe0c4817	-0.13699375
13	0x3d688053	0.056763005
14	0x3d6e07aa	0.058112778
15	0xbe9e5852	-0.30926758
16	0x3df4e277	0.11957257
17	0xbe68123e	-0.22663209
18	0xbe330771	-0.17483307
19	0x3e59d118	0.21271169
20	0x3e460b02	0.19340137
21	0x3d6bcb76	0.057567082
22	0x3d6062aa	0.054781593
23	0x3e04ef9f	0.12982033
24	0xbe3d2386	-0.18470582
25	0x3c219bdc	0.00986382
26	0xbe06eb66	-0.13175735
27	0xbe24007c	-0.1601581
28	0x3e4b0406	0.19825754
29	0xbdddbd3a	-0.10827108
30	0x3e030785	0.12795837
31	0xbeaba92f	-0.33527514
32	0x3ba222cc	0.0049479958
33	0x3e4bbe85	0.19896896
34	0xbc38fdff	-0.011291026
35	0xbe118a71	-0.14212967
36	0xbc9e6041	-0.019333007
37	0xbe0a3710	-0.13497567
38	0xbcf80fbe	-0.030280944
39	0x3e343dbd	0.17601676
40	0xbeff2368	-0.498317
41	0xbeb3109f	-0.34973618
42	0xbdecd63a	-0.11564298
43	0x3e94d204	0.2906648
44	0xbe215a8f	-0.15757202
45	0x3df0428b	0.11731442
46	0x3e1972e1	0.14985229
47	0xbeabb487	-0.3353617
48	0x3d60bf02	0.05486966
49	0xbe9995f3	-0.29997215
50	0x3e07302c	0.1320197
51	0x3e05e107	0.13074122
52	0xbed0fcd5	-0.40817896
53	0xbeaf4d1e	-0.34238523
54	0x3de97a3c	0.114002675
55	0x3e5dab15	0.21647294
56	0x3dc896b7	0.097943716
57	0x3db06c4e	0.086144075
58	0x3e6caccd	0.23112793
59	0xbdd0d1c1	-0.101962574
60	0xbe28ef77	-0.16497599
61	0xbd4290b2	-0.047501273
62	0xbe6bfd10	-0.23045754
63	0xbe24024c	-0.16016501
64	0x3d824bd4	0.06362119
65	0x3dde501e	0.10855125
66	0xbde68a41	-0.112568386
67	0x3daa6030	0.083191276
68	0x3e75a8d0	0.23990178
69	0x3d350250	0.04419166
70	0x3e3ba8c1	0.18326093
71	0xbdfd85f2	-0.12379064
72	0xbea17450	-0.31534052
73	0x3e7b35e8	0.24532282
74	0xbe810100	-0.25196075
75	0xbe8582ad	-0.2607626
76	0xbde6ea67	-0.112751774
77	0xbe9b14ba	-0.3028925
78	0x3e98c99e	0.29841322
79	0x3e51646e	0.20448467
80	0xbe3ea8b9	-0.1861905
81	0xbe039f73	-0.12853794
82	0xbec59ef1	-0.38597825
83	0x3db0eedb	0.08639308
84	0xbe425b59	-0.18980159
85	0x3ef2b2f5	0.47402158
86	0xbebd6e35	-0.36998144
87	0x3defddce	0.11712228
88	0x3d4c713d	0.04991268
89	0xbdacae84	-0.08431724
90	0x3e19a780	0.15005302
91	0x3eea3b04	0.4574815
92	0xbcc133f7	-0.02358435
93	0xbd5db965	-0.054131884
94	0xbf0139b5	-0.5047868
95	0x3d95ff1d	0.073240496
96	0x3cdfde26	0.027327608
97	0xbe8837e7	-0.2660515
98	0x3db0366c	0.0860413
99	0xbe80a8f9	-0.25128916
100	0xbdac79eb	-0.084216915
101	0x3ec14d29	0.3775418
102	0xbe0bd280	-0.13654518
103	0xbea5fb30	-0.32418203
104	0x3c8b1907	0.016979707
105	0xbdad28ad	-0.08455024
106	0x3e652ac8	0.22379601
107	0x3f0e9702	0.5569917
108	0xbe630fc2	-0.2217398
109	0xbe4fd871	-0.2029741
110	0xbe28cc77	-0.16484247
111	0x3e998ef2	0.2999187
112	0xbde356aa	-0.11100514
113	0x3d7e006c	0.06201212
114	0x3dc7344a	0.0972677
115	0x3e3d1c16	0.18467745
116	0xbcb9e297	-0.022691054
117	0xbd5e9c72	-0.054348417
118	0x3dc207a1	0.09474111
119	0xbe549704	-0.20760733
120	0x3d31208c	0.04324393
121	0xbe6f3185	-0.23358734
122	0x3dd32b73	0.10311022
123	0x3dce645b	0.10077735
124	0xbcda5f55	-0.026656786
125	0x3e8274ff	0.25479886
126	0xbdff11d0	-0.12454569
127	0x3e2dc2d1	0.16968848
128	0x3e18f55e	0.1493735
129	0xbe235aa2	-0.15952542
130	0x3e112267	0.1417328
131	0xbe75ba7a	-0.23996916
132	0x3cf4cfbb	0.02988421
133	0xbd408ddc	-0.047010288
134	0x3de74a06	0.11293416
135	0xbe3c5393	-0.18391256
136	0xbebfa51f	-0.37430665
137	0x3e087fd6	0.13330016
138	0x3e189c15	0.1490329
139	0x3e0f8ba7	0.14018117
140	0x3ecf221c	0.4045571
141	0x3aa3d75e	0.0012500098
142	0xbebd61e3	-0.36988744
143	0xbb7d6a44	-0.0038668076
144	0x3e0d7ee3	0.13817935
145	0xbdce6c7c	-0.100792855
146	0xbdb926e1	-0.09040619
147	0xbea03f8b	-0.3129848
148	0x3d2839b0	0.04107064
149	0x3cdc3145	0.026878962
150	0x3e51a085	0.2047139
151	0x3c9bfcf9	0.019041525
152	0x3c55c126	0.013046538
153	0xbdf1a595	-0.117991604
154	0xbb708546	-0.003670053
155	0x3e0d36ba	0.13790408
156	0xbcaec191	-0.021332534
157	0x3d41a854	0.04727967
158	0xbcad951b	-0.021189263
159	0xbe430357	-0.19044243
160	0xbe612ec7	-0.219905
161	0xbe19238d	-0.14954968
162	0xbce6e2c5	-0.028184304
163	0xbe91a39b	-0.28445134
164	0xbc923087	-0.017845405
165	0xbecfeb4b	-0.40609202
166	0x3e8c3d47	0.273905
167	0x3e0149f6	0.1262587
168	0xbd4ba16d	-0.049714494
169	0x3e2fc72c	0.17165822
170	0x3dd9e653	0.10639634
171	0xbd89edfe	-0.067348465
172	0xbe89cbb4	-0.26913226
173	0xbcd8acd3	-0.026449597
174	0xbed465ab	-0.41483817
175	0x3e91d2fb	0.28481278
176	0xbdd18a55	-0.10231463
177	0x3e0af16d	0.13568659
178	0xbed2ce65	-0.41173092
179	0xbf247fdc	-0.642576
180	0x3db51218	0.08841342
181	0x3e0b164c	0.13582724
182	0xbde92c07	-0.11385351
183	0xbdb48078	-0.08813566
184	0x3c9c9cb1	0.019117685
185	0xbca4c810	-0.020114928
186	0x3e6dec64	0.23234707
187	0x3c9ae965	0.01891012
188	0xbf29bcf1	-0.66303927
189	0xbe8d96d7	-0.27654144
190	0xbec9f50e	-0.39444774
191	0xbec7ea1d	-0.39045802
192	0x3d3eebe6	0.04661169
193	0x3e007339	0.12543954
194	0xbd9b037f	-0.07569026
195	0xbe4d1b6e	-0.20029995
196	0x3c1efc29	0.009703674
197	0xbe66cb38	-0.2253846
198	0x3da385d2	0.079845086
199	0xbe972582	-0.29520804
200	0x3e286f85	0.16448791
201	0x3f104550	0.5635576
202	0x3e54159c	0.20711368
203	0xbda2d8ef	-0.07951533
204	0xbe504db6	-0.20342144
205	0xbebe7c3b	-0.37204155
206	0xbd2a5dd1	-0.041593377
207	0x3d1f8e0d	0.03895383
208	0xbb954f1a	-0.004556549
209	0xbdb65d0d	-0.08904467
210	0xbe537505	-0.20650108
211	0xbe209076	-0.15680107
212	0xbe5ea3d5	-0.21742184
213	0xbe0cb9ae	-0.13742706
214	0x3d67e42b	0.056614082
215	0xbe804c75	-0.25058332
216	0x3d043008	0.03227237
217	0xbd21de12	-0.039518423
218	0x3bd7d456	0.0065865917
219	0x3d9be73d	0.076124646
220	0xbd924eed	-0.0714396
221	0xbe2ef752	-0.17086533
222	0x3e974846	0.29547328
223	0xbf093a86	-0.53604925
224	0xbdc4ea63	-0.09615018
225	0xbe0a13b8	-0.13484085
226	0x3e4dff1f	0.20116852
227	0xbe048fae	-0.12945434
228	0xbdd945cb	-0.10609015
229	0xbe542aff	-0.20719527
230	0xbe076dab	-0.13225429
231	0x3e8bf094	0.27331984
232	0x3d4ccc89	0.049999747
233	0x3e5f2075	0.21789725
234	0x3e44e47d	0.19227786
235	0xbe373f63	-0.17895274
236	0xbd92b210	-0.07162869
237	0xbdcfaffd	-0.10140989
238	0x3dc55032	0.09634437
239	0xbec165bb	-0.37772927
240	0xbd1d0f95	-0.03834494
241	0x3e21da5c	0.15805954
242	0xbde5a3dc	-0.11212894
243	0xbea8734a	-0.3290046
244	0x3daf02d9	0.08545465
245	0xbc09abfa	-0.008402819
246	0x3da68883	0.08131506
247	0xbea4d4e2	-0.32193667
248	0xbe1d0ab0	-0.15336108
249	0x3df73df7	0.12072366
250	0xbe575342	-0.21027854
251	0x3ceba8f8	0.028767094
252	0x3d81875e	0.06324647
253	0xbe8184dd	-0.2529668
254	0x3d9ef17d	0.07760904
255	0x3e898006	0.26855487

conv_net.C3.weight f4 [128, 64, 1, 1]
0	0xbd91ee50	-0.071255326
1	0x3db1cfe1	0.08682228
2	0xbca575d6	-0.02019779
3	0xbd2fead9	-0.042948578
4	0xbdb65489	-0.089028426
5	0x3e0cfdb8	0.13768661
6	0x3c4d3772	0.012525426
7	0xbb858a0f	-0.0040752958
8	0x3d1580b3	0.03649969
9	0xbc674b32	-0.014117049
10	0x3dbc769a	0.09202309
11	0xbc912c82	-0.017721418
12	0xbcf4532d	-0.029824818
13	0xbdea5646	-0.114422366
14	0xbe0ad5d0	-0.13558125
15	0x3beedfd2	0.007289865
16	0xbd9b5f18	-0.07586497
17	0xbc5d16bf	-0.013494193
18	0xbdd73ac6	-0.10509257
19	0xbd2bcdaa	-0.041944183
20	0xbcc820a3	-0.024429625
21	0xbaa68e75	-0.001270725
22	0xbe0744ea	-0.13209882
23	0x3d373b50	0.0447343
24	0xbc7889f6	-0.015169611
25	0xbe4311bf	-0.19049738
26	0xbdac7864	-0.084214
27	0x3cef9a7d	0.02924847
28	0x3db99b9e	0.09062885
29	0xbd18c26e	-0.037294798
30	0x3ac02a91	0.0014661123
31	0xbd59dac3	-0.053187143
32	0x3c7ad93c	0.015310582
33	0xbc04f6eb	-0.00811551
34	0x3d89717f	0.06711101
35	0xbe60ae19	-0.21941413
36	0xbe062d72	-0.13103274
37	0xbb25e23b	-0.0025311846
38	0x3d590257	0.052980747
39	0xbe217228	-0.15766203
40	0x3c75b6ee	0.014997227
41	0xbc0243ae	-0.007950706
42	0x3e0f4348	0.1399051
43	0xbbb84b2d	-0.005624196
44	0xbd1ee60d	-0.038793612
45	0x3e04dcd1	0.1297486
46	0x3dd80f86	0.10549836
47	0x3aef6b56	0.0018266242
48	0x3d398156	0.04528936
49	0xbd8b48b8	-0.068009794
50	0x3d5182a2	0.05114997
51	0xbd321076	-0.04347273
52	0xbd986fa3	-0.07443168
53	0xbbcf68cc	-0.0063296314
54	0x3e2c96f2	0.16854456
55	0xbbc6427b	-0.0060504056
56	0xbde6e363	-0.11273839
57	0xbc959fa3	-0.018264597
58	0xbd95de0a	-0.07317741
59	0x3d3ee32b	0.046603363
60	0xbdad4c0f	-0.08461773
61	0x3e27a7e8	0.16372645
62	0x3b5afdac	0.003341536
63	0x3ba7804d	0.00511173
64	0xbd4e7111	-0.050400797
65	0x3e0d763a	0.13814631
66	0x3e350c97	0.17680584
67	0xbd63b6ff	-0.05559444
68	0xbe972dec	-0.29527223
69	0xbd33c2c5	-0.04388692
70	0xbd34db6a	-0.044154562
71	0xbd3f5176	-0.046708547
72	0x3e247d9d	0.16063543
73	0x3bdf6dc1	0.0068185036
74	0xbe9add71	-0.3024707
75	0xbd6130db	-0.054978233
76	0x3cc4c0f9	0.024017798
77	0xbf09404f	-0.5361375
78	0xbe95ea23	-0.29280195
79	0x3d136213	0.035982203
80	0x3c828065	0.015930364
81	0x3d791a33	0.060816
82	0x3d96c6c5	0.07362131
83	0xbd4b0dcd	-0.04957371
84	0x3e1a42cd	0.15064545
85	0xbe93098a	-0.28718215
86	0x3e092dda	0.13396397
87	0xbebbc338	-0.36672378
88	0xbcfc4b4f	-0.030797629
89	0x3c088bb6	0.008334091
90	0xbd526f3d	-0.051375616
91	0xbcb8aff5	-0.02254484
92	0xbdf5de83	-0.12005331
93	0xbe6eaf24	-0.23308998
94	0xbddb7ed9	-0.10717554
95	0xbe94d45c	-0.29068267
96	0x3ddd1178	0.107943475
97	0x3e341586	0.17586336
98	0xbdff9b5a	-0.12480803
99	0xbc1f988e	-0.009740962
100	0x3e4cb3a5	0.19990404
101	0x3e4dae6c	0.20086068
102	0x3da9a869	0.08284075
103	0xbdeb2f58	-0.114836395
104	0xbd825687	-0.0636416
105	0xbd8949c8	-0.06703526
106	0x3dad2c37	0.08455699
107	0x3d7e83f8	0.062137574
108	0xbb552829	-0.0032525158
109	0x3c5f40ba	0.013626272
110	0xbdd9ce32	-0.10635032
111	0xbd7d288e	-0.061806254
112	0x3b501d79	0.0031755848
113	0xbd1d2cd4	-0.03837283
114	0x3dfff844	0.12498525
115	0xbe0e34e9	-0.13887371
116	0x3b4a7c64	0.0030896896
117	0xbc9fda28	-0.019513205
118	0xbddef172	-0.10885896
119	0xbe0d6938	-0.13809669
120	0xbbff2cf1	-0.00778734
121	0x3b920e69	0.004457284
122	0x3e4da4cd	0.20082398
123	0x3e1ae238	0.15125358
124	0xbeedd5ab	-0.46452078
125	0x3df27bbc	0.11840007
126	0xbd9f89f5	-0.07789985
127	0xbd9aa8d1	-0.075517304
128	0x3bb98f70	0.005662851
129	0x3e1c74df	0.15278958
130	0x3e116fbd	0.14202781
131	0xbeb70bb8	-0.35751128
132	0x3e18d49e	0.14924857
133	0x3da5ec15	0.0810167
134	0xbb40f816	-0.0029444746
135	0x3c3d6698	0.011560105
136	0x3d386327	0.045016434
137	0xbd13e4d5	-0.036106903
138	0x3da9e409	0.082954474
139	0xbe8ccdbd	-0.27500716
140	0x3d64217e	0.055696003
141	0xbe3b92ff	-0.18317793
142	0xbdc4cc77	-0.09609311
143	0xbe14def4	-0.14538175
144	0xbe1307d5	-0.14358456
145	0xbc2b9303	-0.010472062
146	0xbdb90e26	-0.09035902
147	0x3bfb9af6	0.007678385
148	0x3e0399c0	0.1285162
149	0xbdcaa299	-0.09894294
150	0xbe4b5bd2	-0.19859245
151	0x3d3f7f73	0.046752404
152	0xbcbcf27a	-0.02306484
153	0xbcd3fbb0	-0.02587685
154	0xbce92bab	-0.028463205
155	0xbda8fca0	-0.082513094
156	0x3e30681a	0.17227212
157	0xbca2a918	-0.01985602
158	0xbdb8b8d0	-0.09019625
159	0x3bcabad2	0.0061868215
160	0xbea08849	-0.31353977
161	0x3e206519	0.15663566
162	0xbe1b23a0	-0.15150309
163	0x3cf154f9	0.029459463
164	0x3d163d96	0.036679827
165	0xbdfe68de	-0.124223456
166	0xbddf2ae4	-0.108968526
167	0x3e5420ce	0.20715639
168	0xbcdcd05f	-0.026954828
169	0xbdbe954a	-0.093058184
170	0x3e17e287	0.14832507
171	0x3de345fa	0.11097331
172	0x3e71983d	0.2359323
173	0x3d403b42	0.046931513
174	0xbeca26a9	-0.3948262
175	0x3d9288a2	0.07154967
176	0xbe9124c1	-0.28348354
177	0x3e46b68a	0.1940557
178	0xbe390a7d	-0.18070407
179	0x3cdbeeef	0.02684733
180	0xbda7a1f8	-0.0818519
181	0xbc149346	-0.009068316
182	0x3c9b73b6	0.018976074
183	0xbe72d82b	-0.23715274
184	0xbd3743b8	-0.044742316
185	0xbcfadab0	-0.030621856
186	0x399158b7	0.00027722653
187	0xbe850c3c	-0.25985897
188	0x3cadf51d	0.021235043
189	0xbdb55ee6	-0.08855991
190	0xbbfee69a	-0.0077789547
191	0xbe8c1e9e	-0.2736711
192	0xbf2e6e6d	-0.68137246
193	0xbe530ced	-0.206104
194	0x3d506d85	0.050885696
195	0xbe97cbe6	-0.2964775
196	0x3c490e2a	0.012271443
197	0x3e7de0d2	0.24792793
198	0xbe0806bc	-0.13283819
199	0xbf22a268	-0.6352906
200	0xbdcfa33e	-0.10138558
201	0xbc12edb9	-0.00896781
202	0x3ea17bf8	0.31539893
203	0x3d93471b	0.07191297
204	0x3e385340	0.18000507
205	0xbd482627	-0.04886451
206	0x3e906bc9	0.28207234
207	0xba662202	-0.0008778871
208	0xbf158277	-0.584022
209	0xbf25aaf0	-0.64713955
210	0x3eab66c9	0.33476856
211	0x3d38887e	0.045052044
212	0xbeef54d2	-0.467444
213	0xbe529a2a	-0.20566621
214	0xbf03009a	-0.5117279
215	0xbe4b6967	-0.19864427
216	0xbe46dcb1	-0.19420125
217	0xbe2b1e2c	-0.16710728
218	0x3de3e8cc	0.11128387
219	0xbc68d114	-0.014210004
220	0xbe16858f	-0.14699386
221	0xbbb0bf47	-0.005393896
222	0xbeff757e	-0.49894327
223	0xbbf4f013	-0.007474908
224	0xbe5def24	-0.21673256
225	0x3e369040	0.17828465
226	0xbe30270d	-0.17202397
227	0x3d44123d	0.047868956
228	0x3e16ce5e	0.1472716
229	0x3ce613be	0.028085586
230	0xbf0150cc	-0.5051391
231	0xbcc3bfca	-0.023895163
232	0xbeb9e1b7	-0.3630502
233	0x3d00c8a3	0.031441342
234	0xbd49a302	-0.049227722
235	0xbcf8b760	-0.030360878
236	0x3cf0a3b8	0.029374942
237	0xbddd5789	-0.10807712
238	0xbece2412	-0.40261894
239	0x3cb6dd9a	0.022322465
240	0xbd63c0fb	-0.055603962
241	0xbd4f0bc9	-0.05054835
242	0xbd7b04b0	-0.061283767
243	0xbd0afd1b	-0.033932786
244	0x3e52f588	0.20601475
245	0x3e7535b4	0.23946267
246	0x3ded56e9	0.115888424
247	0xbe97e52d	-0.29667035
248	0xbea69913	-0.3253866
249	0xbd8dabc2	-0.06917526
250	0xbc790fd0	-0.015201524
251	0xbe1c7979	-0.15280713
252	0xbdd80215	-0.10547272
253	0xbce2895b	-0.027653387
254	0x3df9efbf	0.12203931
255	0xbd5a4195	-0.0532852

conv_net.C4.weight f4 [5, 128, 1, 1]
0	0x3c605e91	0.013694421
1	0x3cad47d0	0.021152407
2	0x3d18a1d1	0.037263695
3	0x3d1441f9	0.03619573
4	0xbcee24cb	-0.029070279
5	0xbc856ed6	-0.016288202
6	0xbb33ac41	-0.0027415904
7	0xbd084a8f	-0.03327423
8	0x3c9b4cb3	0.018957471
9	0xbdc8b146	-0.09799437
10	0xbc5cc7da	-0.013475383
11	0xbd919afa	-0.071096376
12	0xbe83c315	-0.25734773
13	0x3c1ff9cd	0.009764147
14	0x3b6e4639	0.0036357774
15	0x3be17b68	0.0068811662
16	0x88972206	-9.095981e-34
17	0x3d0832a7	0.03325143
18	0x3eaa03d0	0.33206034
19	0xbb79c40a	-0.0038111233
20	0xbc870b89	-0.016484993
21	0xbb190712	-0.0023350162
22	0x3ef0f082	0.47058493
23	0xbcb57de7	-0.022154761
24	0x3c61ba91	0.013777391
25	0xbe3688d0	-0.17825627
26	0x05e5687c	2.1573438e-35
27	0xb826c7c7	-3.976354e-05
28	0x3be2ac2c	0.006917497
29	0xbe18f94a	-0.14938846
30	0xbe2add38	-0.16685951
31	0x3d322660	0.04349363
32	0x3e4cfbba	0.20017901
33	0x3e689853	0.22714357
34	0x3ba218b8	0.0049467944
35	0xbcecd4b8	-0.028910026
36	0xbdcba40e	-0.099434
37	0x3c37994f	0.011205985
38	0x3a5db7b3	0.0008457854
39	0x3e325b03	0.1741753
40	0xbd7b52e6	-0.061358355
41	0x3d981923	0.074266694
42	0xbc487569	-0.012235024
43	0xbc50a82b	-0.012735407
44	0x3c344933	0.01100378
45	0xbe95dbb7	-0.29269192
46	0x3d242ad7	0.040079918
47	0xbc3fe82c	-0.011713069
48	0xbe74abdb	-0.23893683
49	0xbe7f33ae	-0.24922058
50	0x3cbac100	0.022797108
51	0xb9a613c6	-0.0003167672
52	0x3b058456	0.0020373068
53	0x3cbfbfe8	0.023406938
54	0x3e38b8ff	0.1803932
55	0xbd9d26bc	-0.076734036
56	0x3e78fe68	0.24315798
57	0xbe116e46	-0.14202222
58	0x3b36f269	0.0027915484
59	0x3b972cbf	0.0046134884
60	0x3e3fc43f	0.18727206
61	0xba8bf96b	-0.0010679191
62	0xbc738807	-0.014863974
63	0xbd254594	-0.040349558
64	0x8ba64f31	-6.406003e-32
65	0xbcc1aa36	-0.023640733
66	0xbc7e3173	-0.015514719
67	0x3d29aa99	0.04142246
68	0xbdeec0bb	-0.11657854
69	0x3b3df6cb	0.0028986211
70	0x3d413884	0.047173038
71	0x3db3940c	0.08768472
72	0x3ba58ec4	0.0050524194
73	0xbd396456	-0.045261703
74	0xbe4b8e97	-0.19878612
75	0x3e4906f4	0.19631559
76	0xbcb37439	-0.021906005
77	0xbd10da15	-0.03536423
78	0xbe075b63	-0.13218455
79	0xbc5e2028	-0.013557471
80	0x3c7fcc8b	0.015612732
81	0xbc3efbe7	-0.011656738
82	0xbe46efa8	-0.19427359
83	0xbc796b8b	-0.015223394
84	0x3bc4e842	0.0060091326
85	0x3c0faea2	0.008769663
86	0x3e3c2413	0.18373136
87	0x3d0de9a2	0.034646638
88	0xbc983f3a	-0.018584836
89	0xbd73e38c	-0.059543177
90	0xbb46c512	-0.0030329865
91	0xbdb88414	-0.09009567
92	0x3b0efd84	0.0021818588
93	0xbd942623	-0.072338365
94	0x3cafe66b	0.021472177
95	0xbc905a17	-0.017621083
96	0xbb85e05a	-0.0040855827
97	0xba03334b	-0.00050048967
98	0x3d1663c5	0.03671624
99	0x3db8cc39	0.090233274
100	0xbc288edb	-0.010287966
101	0x3d0c1441	0.034199003
102	0xbc5b6f09	-0.013393172
103	0x3c4f1f38	0.0126417205
104	0x3ca8853b	0.020571342
105	0x3cd61b14	0.026135959
106	0xbc563431	-0.013073967
107	0x3c3505f9	0.011048787
108	0xbb11d1be	-0.002225026
109	0xbd1f1d86	-0.038846515
110	0xbe824fa8	-0.25451398
111	0x3cbcf33a	0.023065198
112	0xbd1e37af	-0.038627323
113	0x3e343dc4	0.17601687
114	0xbdf604d4	-0.1201264
115	0x3e751764	0.23934704
116	0x3ce5e2f7	0.028062327
117	0xbd06ac98	-0.032879442
118	0xbdc0d411	-0.094154485
119	0xbc30a042	-0.010780396
120	0x3c389354	0.0112655945
121	0x3d191a35	0.03737851
122	0x3db46224	0.08807781
123	0x3dac27c6	0.08406024
124	0x3d433e08	0.04766658
125	0x3d86f819	0.065902896
126	0xbe55ce19	-0.20879401
127	0x3cdd52c9	0.027017014
128	0x3c5fccfa	0.01365971
129	0x3ce829ef	0.028340308
130	0xbe5d057f	-0.21584128
131	0xbf2f0820	-0.6837177
132	0xbcc5d6ae	-0.024150219
133	0xbb98c7a5	-0.0046624714
134	0x3cac1067	0.021003915
135	0x3df59825	0.1199191
136	0x3b0c86d8	0.0021442678
137	0xbcbcaa1e	-0.023030337
138	0xbd89df5e	-0.06732057
139	0xbe218d6f	-0.15776609
140	0x3e73007e	0.23730657
141	0xbd1a5179	-0.037675355
142	0xbc826ce3	-0.015921062
143	0xbe2b1569	-0.16707386
144	0x88abed5a	-1.0347489e-33
145	0x3d8460bd	0.06463764
146	0xbeb8df4e	-0.36107868
147	0xbb6415da	-0.0034803064
148	0x3d172554	0.036900833
149	0x3cb5e32a	0.022203047
150	0xbed36dc9	-0.41294697
151	0xbd2394f4	-0.039936975
152	0x3de2fb17	0.11083048
153	0x3e4cf276	0.20014367
154	0x05ee39b9	2.2402616e-35
155	0x3d02f65b	0.031973224
156	0xbc4a0705	-0.012330775
157	0x3e3c5c32	0.18394545
158	0x3e26858e	0.16261885
159	0xbe48fc8b	-0.19627587
160	0xbe32376c	-0.17403954
161	0xbe64f5f5	-0.2235945
162	0xbd18984a	-0.03725461
163	0xb98633c1	-0.0002559703
164	0x3da64676	0.08118908
165	0x3da01109	0.07815749
166	0x3cdc44a4	0.0268882
167	0xbde21bf9	-0.110404916
168	0xbd293a02	-0.041315086
169	0x3cb2f354	0.021844544
170	0xbca2c00e	-0.01986697
171	0xbd34e704	-0.044165626
172	0xbd06bff6	-0.032897912
173	0x3e1c79d6	0.15280852
174	0x3cd71981	0.026257278
175	0x3e085c69	0.13316502
176	0x3e2a4305	0.16627128
177	0x3e8bba2f	0.27290484
178	0xbebef0e7	-0.3729317
179	0x3ed886ed	0.4229044
180	0x3cecab9b	0.028890422
181	0xbcc897ff	-0.02448654
182	0xbe05c06f	-0.13061689
183	0xbd28da36	-0.041223727
184	0xbdbee644	-0.093212634
185	0x3d4c40b7	0.049866404
186	0xbb38b72b	-0.0028185348
187	0xbad621b4	-0.0016336949
188	0xbdedd075	-0.11612026
189	0xbd61fc02	-0.055171974
190	0x3c1b2ac8	0.009470649
191	0xbdcd401f	-0.10021996
192	0x8d063a08	-4.136179e-31
193	0xbce4acab	-0.027914366
194	0x3d9026e4	0.07038668
195	0x3c9e40bc	0.019317977
196	0x3e2df42d	0.16987677
197	0xbe990af9	-0.29891184
198	0xbc1973ee	-0.009366019
199	0xbe3b6c7a	-0.183031
200	0x3e2f492f	0.17117761
201	0x3e21720f	0.15766166
202	0x3d69fe84	0.05712749
203	0x3d4d3407	0.050098445
204	0xbbd50c38	-0.0065017007
205	0xbc87883e	-0.016544458
206	0x3e051d62	0.1299949
207	0xbcff840b	-0.031190893
208	0xbc0bfef3	-0.008544671
209	0xbc16dfe5	-0.009208654
210	0x3e900c8a	0.28134567
211	0xbd37b39f	-0.044849034
212	0xbc004373	-0.007828581
213	0xbdbbd67d	-0.0917177
214	0xbd198e55	-0.037489254
215	0x3d8e55a2	0.06949927
216	0x3bc73881	0.006079734
217	0xbd04659c	-0.032323465
218	0xbb42e00f	-0.00297356
219	0x3dc609b5	0.0966982
220	0x3bd850fc	0.006601451
221	0xbd861bf7	-0.065483026
222	0xbd947fa0	-0.07250905
223	0x3cba8507	0.02276851
224	0xbd91118c	-0.07083425
225	0xbed35ae9	-0.41280296
226	0x3d95c8a7	0.07313662
227	0x3dc8b213	0.0979959
228	0x3c13091f	0.008974343
229	0x3e7cf565	0.24702986
230	0xbc53a0b2	-0.012916731
231	0x3d3a9863	0.045555484
232	0x3e31ceb6	0.1736401
233	0x3dda6663	0.1066406
234	0xbddc134e	-0.107458696
235	0xbe534145	-0.20630367
236	0x3ce14911	0.027500661
237	0xbdc1d694	-0.09464756
238	0xbe434092	-0.190676
239	0x3cb5d3a1	0.02219564
240	0x3d2b6337	0.041842666
241	0x3cd08d09	0.025457876
242	0x3d6da229	0.058015976
243	0x3d1b429c	0.03790532
244	0xbde03510	-0.10947621
245	0xbd56610b	-0.05233864
246	0xbc1d78bc	-0.009611305
247	0xbc0214ab	-0.007939498
248	0xbd18b0bb	-0.03727792
249	0x3c95f770	0.018306464
250	0x3d8bbb0d	0.068227865
251	0x3bdbff16	0.006713758
252	0x3e1af490	0.15132356
253	0xbc38137f	-0.011235117
254	0x3e2c0732	0.1679962
255	0xbcfcd661	-0.030863943
