CNN_weights/NetworkA_weights_CV2.pt (torch, 394591 bytes, 4 tensors)

conv_net.C1.weight f4 [32, 17, 3, 3]
0	0xbde3662c	-0.11103472
1	0x3d99230e	0.07477389
2	0xbddf4501	-0.10901833
3	0x3d05d723	0.032675873
4	0x3d73e943	0.059548628
5	0x3db9dd69	0.09075434
6	0xbdc006c3	-0.0937629
7	0x3dae7ae3	0.085195325
8	0x3ddd8545	0.10816435
9	0xbc9d394b	-0.019192358
10	0x3e3656ac	0.178065
11	0xbe261f44	-0.16222864
12	0xbd039cb7	-0.032131877
13	0xbdc1234b	-0.0943056
14	0x3d692cab	0.056927364
15	0x3d9f910c	0.07791337
16	0xbd444af5	-0.047923047
17	0x3cb63700	0.022243023
18	0xbd34d5eb	-0.04414932
19	0xbd5e118b	-0.05421595
20	0x3cc9feb9	0.024657594
21	0xbbd29774	-0.006426746
22	0x3e152cb3	0.14567833
23	0x3e02ac5f	0.12761067
24	0x3cfca582	0.030840639
25	0x3d1e0174	0.038575605
26	0xbdf9fc94	-0.122063786
27	0xbd8090b8	-0.06277603
28	0x3dd41a37	0.103565626
29	0x3c9f43fa	0.019441593
30	0x3e34dffa	0.17663565
31	0xbcda270c	-0.026629947
32	0xbd4fe765	-0.050757784
33	0xbc50d224	-0.012745414
34	0xbe7b199f	-0.24521492
35	0x3d9441cc	0.07239112
36	0xbdbd2b1c	-0.09236738
37	0x3d6c90d4	0.057755306
38	0x3d4dd309	0.050250087
39	0xbe395052	-0.18097046
40	0xba96e375	-0.0011511879
41	0xbc815126	-0.015785765
42	0xbd4cf323	-0.05003656
43	0x3dabeb0d	0.08394442
44	0x3e2cd42c	0.16877812
45	0xbdb8120f	-0.089878194
46	0xbe134346	-0.14381132
47	0xbd53e0d8	-0.0517281
48	0x3e16dfcd	0.1473381
49	0x3e5f0a40	0.21781254
50	0x3ea7de59	0.32786825
51	0xbe374695	-0.17898019
52	0xbe2cea52	-0.16886261
53	0xbd915b85	-0.07097534
54	0xbe092297	-0.13392101
55	0xbe7886de	-0.24270198
56	0xbbe25de7	-0.0069081667
57	0xbd0daea9	-0.034590397
58	0x3db4985d	0.088181235
59	0x3d81f94c	0.06346378
60	0x3d70b8a2	0.05876983
61	0x3e4b29d0	0.19840169
62	0x3d4ba2ae	0.04971569
63	0x3d2b8e3a	0.041883685
64	0xbe9778a8	-0.2958424
65	0x3e0f69c3	0.14005189
66	0xbd1d77b7	-0.038444247
67	0xbea6301b	-0.32458577
68	0xbd0eed44	-0.034894243
69	0x3e4d6952	0.20059708
70	0x3e2eb6bd	0.17061897
71	0x3e11474b	0.14187352
72	0x3d93fd27	0.07226019
73	0xbd22b14e	-0.039719872
74	0x3abf35be	0.001458816
75	0x3e0853dc	0.1331324
76	0xba23f9fa	-0.0006255206
77	0xbd2d385f	-0.042290088
78	0xbe28fc0a	-0.16502395
79	0xbd1c8bcd	-0.038219262
80	0xbb9f0556	-0.004852931
81	0x3d050680	0.032476902
82	0xbcf736c2	-0.030177478
83	0x3d1b4e27	0.03791633
84	0xbc8b3787	-0.016994251
85	0xbd01a41d	-0.03165065
86	0x3c1088a9	0.008821645
87	0xbc11a53d	-0.0088894935
88	0x3d735849	0.059410367
89	0xbd3e17e7	-0.046409514
90	0x3e4746b4	0.19460565
91	0x3bf98d97	0.007615756
92	0x3d2e6ea5	0.042585988
93	0x3d8b5567	0.068033986
94	0xbddfdfaa	-0.109313324
95	0xbdfa558f	-0.1222335
96	0xbd18858a	-0.037236728
97	0xbe7fd78a	-0.24984565
98	0xbe19b9e6	-0.15012321
99	0xbd992fb9	-0.074798055
100	0xbadae9ae	-0.0016701722
101	0xbdcfadae	-0.10140549
102	0x3c8e4530	0.017366976
103	0x3d80a1fb	0.06280895
104	0x3d86b3a9	0.06577236
105	0x3d373d05	0.044735927
106	0xbc8f7e69	-0.017516332
107	0xbc3d3a4c	-0.011549544
108	0x3da4fbfe	0.08055876
109	0x3b0c3bcd	0.0021397949
110	0x3cd5ca06	0.026097309
111	0x3dd5240c	0.10407266
112	0xbd7618e5	-0.060082335
113	0x3d2ec1df	0.04266536
114	0x3df33c52	0.118767396
115	0xbdd30dac	-0.10305342
116	0x3dff6945	0.124712504
117	0x3e80f8b4	0.25189745
118	0x3e385e52	0.1800473
119	0xbe758ce2	-0.23979524
120	0x3d8b8cee	0.068139896
121	0xbc6e975f	-0.014562457
122	0xbef188eb	-0.47174773
123	0xbedd039d	-0.4316682
124	0x3eca819a	0.39552003
125	0x3e9328e0	0.28742123
126	0x3cfadb83	0.03062225
127	0xbc995ef7	-0.01872204
128	0x3d6cb40e	0.0577889
129	0x3e061509	0.13093962
130	0xbd041f5e	-0.032256477
131	0x3de7bd64	0.1131542
132	0xbdf61bd1	-0.12017024
133	0xbe276513	-0.1634715
134	0xbe0249cf	-0.12723468
135	0x3a29c0db	0.0006475576
136	0x3dd2a34e	0.10285054
137	0xbe0ceeca	-0.13762966
138	0xbe1954ed	-0.14973803
139	0x3d85674c	0.06513843
140	0x3d943683	0.0723696
141	0x3d6a0424	0.057132855
142	0x3d9815fe	0.0742607
143	0x3aa936c0	0.0012909994
144	0x3e4700bd	0.19433875
145	0x3c1086ce	0.008821202
146	0xbd564e3d	-0.052320708
147	0x3df06c34	0.11739388
148	0xbe83f89a	-0.25775605
149	0xbe5ec06e	-0.21753094
150	0x3a5ac511	0.0008345405
151	0xbe1e8e2c	-0.15483922
152	0xbc514195	-0.012771984
153	0xbd6ede14	-0.05831726
154	0xbdb14475	-0.08655635
155	0xbe46f09b	-0.19427721
156	0x3db6d97a	0.08928199
157	0x3f3e0968	0.742331
158	0x3df5361b	0.119732104
159	0x3d7768bf	0.060402628
160	0x3d616ad2	0.055033512
161	0xbd36d8dd	-0.04464041
162	0xb9be84a2	-0.00036338443
163	0xbc51ffcd	-0.012817335
164	0x3bdbb518	0.0067049377
165	0x3c9591ce	0.018258002
166	0x3e5b8de9	0.21440853
167	0xbd89dfa9	-0.06732113
168	0xbc252f98	-0.010082148
169	0xbdaa955f	-0.083292715
170	0xbc92fd9a	-0.017943192
171	0xbd12c4aa	-0.035832085
172	0xbd2d1795	-0.042258818
173	0xbe003d6c	-0.1252343
174	0x3d110b54	0.035411194
175	0xbe99377d	-0.29925147
176	0xbce519af	-0.027966348
177	0xbcb8a1e0	-0.022538126
178	0xbe119f0f	-0.14220832
179	0xbdf4baf3	-0.1194972
180	0xbc09edf4	-0.008418549
181	0xbcbaca5b	-0.022801569
182	0x3bc0d55e	0.0058848104
183	0x3cd7b360	0.02633065
184	0xbe88e562	-0.26737505
185	0xbde29bc1	-0.11064864
186	0x3c59136c	0.013249259
187	0x3cf2e18b	0.029648563
188	0xbbe8508b	-0.0070896796
189	0xbd6ae407	-0.05734637
190	0x3de0522a	0.109531716
191	0x3d915429	0.070961304
192	0xbe172002	-0.14758304
193	0xbe05feef	-0.1308553
194	0x3e835591	0.2565122
195	0xbde6093d	-0.11232231
196	0xbc817f62	-0.015807811
197	0x3d5a3fef	0.053283628
198	0xbb06681e	-0.0020508836
199	0x3d1128f7	0.035439458
200	0xbd8ec17d	-0.06970499
201	0x3db59621	0.088665254
202	0xbcbed53f	-0.023295043
203	0xbdc2e41f	-0.09516167
204	0x3b5ff241	0.0034171494
205	0xbb7404f0	-0.0037234388
206	0xba544cea	-0.00080986193
207	0xbe23ecb3	-0.16008262
208	0xbd936f2f	-0.07198941
209	0x39ae7035	0.00033271467
210	0xbce19bd9	-0.027540134
211	0xbcca5896	-0.024700444
212	0xbd893dab	-0.06701215
213	0x3e22e567	0.15907823
214	0x3dd26098	0.1027233
215	0x3d70300a	0.058639564
216	0x3ce5de27	0.028060032
217	0x3c615db1	0.013755248
218	0x3da06556	0.07831828
219	0xbcbfcc30	-0.023412794
220	0xbc4333f3	-0.011914241
221	0xbc7622f0	-0.015022978
222	0xbb103b5b	-0.0022008035
223	0x3c71f8bf	0.014768778
224	0xbda2e2f4	-0.07953444
225	0xbe66b8ef	-0.22531484
226	0xbe04d243	-0.12970833
227	0x3ca3eb5c	0.020009689
228	0xbe5318a0	-0.20614862
229	0xbedb1ecd	-0.42796937
230	0xbdf5a32e	-0.11994015
231	0xbd409aa9	-0.047022495
232	0xbe8567a8	-0.26055646
233	0xbcbebab3	-0.023282384
234	0xbcd8b758	-0.026454613
235	0x3c32aa61	0.010904879
236	0xbbdbcb19	-0.0067075607
237	0x3da69c93	0.08135333
238	0xbe906701	-0.28203586
239	0x3baf416a	0.005348374
240	0xbd283225	-0.041063447
241	0x3e0d9c82	0.13829234
242	0xbc8bdda8	-0.017073467
243	0x3c2dacad	0.010600251
244	0xb882eabe	-6.242607e-05
245	0x3caee1b7	0.021347864
246	0x3d386f39	0.045027945
247	0xbd7a29da	-0.06107507
248	0xbd71563b	-0.058920126
249	0x3de4e9ff	0.11177444
250	0x3d9f30fb	0.07773014
251	0xbe0fb1e4	-0.14032704
252	0xbca35279	-0.019936787
253	0xbce406b7	-0.027835233
254	0xbd643324	-0.055712834
255	0x3d20dae1	0.03927124

conv_net.C2.weight f4 [64, 32, 3, 3]
0	0x3d4ecae7	0.05048647
1	0xbc21ed18	-0.009883188
2	0x3c1f5f6c	0.00972734
3	0x3d681a66	0.0566658
4	0xbd52980e	-0.051414542
5	0xbd3d9f17	-0.046294298
6	0x3d16429f	0.03668463
7	0x3da46c59	0.08028478
8	0xbd140ef2	-0.036147065
9	0x3dadab96	0.08479993
10	0x3cf497d5	0.029857555
11	0xbc6834cf	-0.014172747
12	0x3db1813a	0.08667226
13	0x3cfc9ce1	0.030836524
14	0x3d2b4fd4	0.041824177
15	0xb992c0ed	-0.0002799103
16	0xbc9878c1	-0.018612267
17	0x3d79fdc5	0.06103303
18	0xbd3cb729	-0.046073113
19	0xbe005012	-0.12530544
20	0xbddd7618	-0.1081354
21	0x3c94effd	0.018180842
22	0x3e1f0931	0.1553085
23	0x3d1d31d0	0.038377583
24	0x3dab9a8b	0.08379086
25	0x3be7f249	0.007078443
26	0x3cb0f811	0.021602662
27	0xbbff0396	-0.00778241
28	0x3dfe4f2d	0.12417445
29	0x3dac0060	0.08398509
30	0xbd934d35	-0.071924604
31	0x3d62c049	0.05535916
32	0x3c86f0ad	0.016472185
33	0xbdafc150	-0.08581793
34	0xbda75c28	-0.08171874
35	0xbbe35eb5	-0.00693878
36	0x3dd4bec3	0.103879474
37	0x3df46ffa	0.1193542
38	0x3c98e826	0.018665385
39	0x3d19fd11	0.03759486
40	0x3d274664	0.040838614
41	0xbdb30ca0	-0.087426424
42	0xbcf2bb9a	-0.029630471
43	0xbd75b860	-0.059990287
44	0xbcf6e1a8	-0.030136898
45	0x3d28db93	0.041225027
46	0x3dc36cc0	0.09542227
47	0x3e03ae97	0.1285957
48	0x3d9dbe2f	0.0770229
49	0x3e16c55c	0.14723724
50	0x3cf1dc1c	0.029523902
51	0x3e06b8c9	0.13156427
52	0x3d0001a9	0.031251583
53	0x3b9ac9df	0.004723772
54	0xbcd64b92	-0.026159082
55	0xbc3a9d84	-0.011390094
56	0x3e36b13e	0.1784105
57	0x3b6d4158	0.0036202278
58	0xbd23e492	-0.040012904
59	0xbd0bef72	-0.0341639
60	0x3c693fcf	0.014236405
61	0x3d011129	0.031510506
62	0xbd6f63e8	-0.058444887
63	0xbc5e43a1	-0.013565929
64	0xbd90843f	-0.07056474
65	0x3d9a5239	0.07535214
66	0x3b1c42f5	0.002384362
67	0xbe070d71	-0.13188721
68	0xbdc92878	-0.09822172
69	0x3dd17f37	0.102293424
70	0x3da3b6c6	0.07993846
71	0xbd605038	-0.054764003
72	0xbc5ec947	-0.013597793
73	0xbb91c047	-0.00444797
74	0x3d30feb2	0.043211646
75	0xbd78a066	-0.060699843
76	0x3cf68748	0.030093804
77	0xbb316a8f	-0.002707157
78	0xbda1d71a	-0.079023555
79	0x3cf5ac1b	0.029989293
80	0x3dc31400	0.09525299
81	0x3ccb5838	0.02482234
82	0x3c35e64d	0.011102271
83	0xbd09da8d	-0.033655692
84	0x3d93a3d8	0.07208985
85	0x3d389fa5	0.045074124
86	0xbcf4e857	-0.029895945
87	0x3d10c674	0.03534551
88	0xbc1aaab1	-0.00944011
89	0x3c2b84a6	0.010468638
90	0xbd76fc4b	-0.0602992
91	0xbd7ce10a	-0.06173805
92	0xbd98bf0d	-0.07458315
93	0xbc5ecfb6	-0.013599327
94	0xbc994a83	-0.018712288
95	0x3c751b7f	0.014960169
96	0x3cad5c36	0.021162134
97	0x3b186875	0.002325562
98	0xbd234fd8	-0.039871067
99	0x3cde0b16	0.027104896
100	0xbdb1bc1f	-0.086784594
101	0xbd2ba90b	-0.04190926
102	0x3e0d4ce7	0.13798867
103	0x3c85928d	0.016305232
104	0xbd6a11e3	-0.057145964
105	0xbd5b37fa	-0.05352018
106	0xbd490bf9	-0.049083684
107	0xbd85f61f	-0.065410845
108	0x3c2d4e0d	0.010577691
109	0x3ca1b5f8	0.01974009
110	0x3d2ad57d	0.041707505
111	0x3c96a360	0.01838845
112	0xbd2353c3	-0.039874803
113	0x3c803758	0.01565139
114	0xbde6a19b	-0.112612925
115	0xbd3df072	-0.046371885
116	0x3ddcd745	0.10783247
117	0x3dfb3c8f	0.1226741
118	0xbe50eeb2	-0.20403555
119	0xbe1f3861	-0.1554885
120	0x3dbf599a	0.09343262
121	0x3d3f6377	0.046725716
122	0xbbadb9ca	-0.005301689
123	0x3dbaf675	0.09129039
124	0xbd84fcdf	-0.06493544
125	0x3d7858aa	0.06063143
126	0x3d38afce	0.045089535
127	0x3d0d5f4b	0.034514707
128	0xbd80c3e8	-0.06287366
129	0x3d00b914	0.031426504
130	0x3c7bb30c	0.015362512
131	0x3cbc895b	0.023014715
132	0xbc42a35b	-0.011879767
133	0x3d5b989a	0.05361233
134	0xbd023bd2	-0.03179533
135	0xbd20d699	-0.039267156
136	0xbe20fb2a	-0.15720811
137	0xbd146154	-0.03622563
138	0xbc7b9933	-0.01535635
139	0x3d0b4de0	0.034009814
140	0x39d60305	0.0004081951
141	0xbd860ea5	-0.06545762
142	0x3bdc6a3b	0.006726531
143	0x3e0b4810	0.13601708
144	0x3e0543fc	0.13014215
145	0xbe164fbe	-0.14678857
146	0xbe0006e9	-0.12502636
147	0x3d606041	0.054779295
148	0xbddc1777	-0.10746663
149	0xbe4876b6	-0.19576535
150	0x3d7e1cf1	0.06203932
151	0xbd661e73	-0.056181382
152	0xbe37146f	-0.17878889
153	0xbd834cbd	-0.06411121
154	0x3b425143	0.0029650487
155	0x3d03d540	0.032185793
156	0xbe3a47e6	-0.1819149
157	0xbc88840a	-0.016664524
158	0xbc88fff8	-0.016723618
159	0xbcb049b1	-0.021519514
160	0xbd991f70	-0.07476699
161	0x3dc7ad14	0.09749809
162	0xbd215452	-0.039387055
163	0x3c027f61	0.00796494
164	0xbc536fd1	-0.012905077
165	0x3c16425d	0.009171096
166	0x3d52da27	0.051477578
167	0xbd76159a	-0.060079195
168	0x3c5979ed	0.013273698
169	0xbcfb78ba	-0.030697215
170	0x3bb06078	0.0053825937
171	0xbe47482d	-0.19461127
172	0xbe13e9d5	-0.14444669
173	0xbd82b672	-0.06382455
174	0xbdbd40ba	-0.09240861
175	0x3cbf8f80	0.023383856
176	0x3d43f6c6	0.047842763
177	0x39ca0245	0.00038530133
178	0x3d781b23	0.060572755
179	0x3d8be9cb	0.06831702
180	0xbe1e4096	-0.15454325
181	0xbd874e81	-0.0660677
182	0xbc12660b	-0.008935462
183	0xbd743e6c	-0.059629843
184	0xbc258c8e	-0.010104312
185	0x3d3c7c4e	0.046016984
186	0xbde86f1b	-0.11349317
187	0xbd99daa6	-0.07512407
188	0xbcdf191e	-0.027233656
189	0xbe082e5b	-0.13298933
190	0xbcc04f35	-0.023475269
191	0xbc94a4ac	-0.018144928
192	0x3cb45fcd	0.022018338
193	0x3e0f7c07	0.14012156
194	0xbc072ada	-0.008249963
195	0x3d86c592	0.06580652
196	0x3db62292	0.088933125
197	0x3ce8f619	0.028437661
198	0x3d47f594	0.048818186
199	0x3c70e2ad	0.014702481
200	0x3cd3efd3	0.025871193
201	0xbd563053	-0.05229218
202	0x3c86e462	0.016466323
203	0xbbf3f790	-0.0074452832
204	0x3dd2b570	0.10288513
205	0x3cb9c1fb	0.022675505
206	0xbcd37e7d	-0.02581715
207	0xbdd72df5	-0.105068125
208	0xbcf87a39	-0.030331718
209	0x3c3a91ad	0.011387271
210	0x3b837265	0.0040114396
211	0x3cd9ae22	0.02657229
212	0xbb9124ac	-0.0044294205
213	0xbcffe120	-0.031235278
214	0xbd4ef2c4	-0.050524488
215	0xbd0c9204	-0.03431894
216	0xbe19c2e0	-0.15015745
217	0xbcf9df22	-0.030501906
218	0x3d17c468	0.037052542
219	0x3dec1aa5	0.115285195
220	0x3be145a0	0.006874755
221	0xbda7fa2e	-0.08202015
222	0xbcd648af	-0.026157705
223	0xbd04cddf	-0.032422896
224	0xbe08f8cd	-0.1337616
225	0x3c8c3f1d	0.017119939
226	0x3e17b1df	0.14813946
227	0xbc64ea23	-0.013971838
228	0x3c973c4e	0.018461373
229	0xbb28a3e0	-0.0025732443
230	0xbd838d19	-0.064233966
231	0xbdd29f47	-0.10284286
232	0xbdbcac8c	-0.09212598
233	0xbdd445c7	-0.103648715
234	0x3d0bc5f6	0.034124337
235	0x38ecb4a1	0.00011287002
236	0xbd922d9d	-0.07137606
237	0x3cc3e9c8	0.023915187
238	0xbe002666	-0.12514648
239	0xbd4ed106	-0.05049231
240	0xbd4ff1cd	-0.05076771
241	0xbd98e656	-0.07465808
242	0xbdaf8fd7	-0.08572357
243	0xbc2c6aa5	-0.010523473
244	0xbc689069	-0.014194586
245	0x3d651e53	0.055937123
246	0xbdfbc4ac	-0.122933716
247	0xbd94c247	-0.07263618
248	0x3d1f87be	0.038947813
249	0x3bcc877c	0.006241737
250	0x3c4b1d82	0.012397172
251	0x3cc72358	0.024308845
252	0xbd7ad5fe	-0.061239235
253	0x3d566f1f	0.052352067
254	0xbc71c36a	-0.014756063
255	0xbb10ad6c	-0.0022076024

conv_net.C3.weight f4 [128, 64, 3, 3]
0	0xbd27486d	-0.040840555
1	0x3b9b4f0e	0.0047396487
2	0x3bf5b3d5	0.0074982443
3	0xbcf5cabb	-0.030003896
4	0x3dbcfc02	0.09227754
5	0xbd935e02	-0.07195665
6	0xbd911b45	-0.070852794
7	0x3ca30cdd	0.019903595
8	0x3dd94a99	0.106099315
9	0x3da5b801	0.080917366
10	0xbbe66176	-0.007030661
11	0x3d37c07b	0.044861298
12	0xbce36652	-0.027758751
13	0xbcb1c69e	-0.021701153
14	0x3d95da8e	0.073170766
15	0x3d04ff45	0.032470006
16	0x3ce3075a	0.027713466
17	0x3cf60777	0.030032856
18	0x3e11769d	0.14205404
19	0x3e00d4e7	0.12581216
20	0xbde67916	-0.11253564
21	0xbe23e9a4	-0.16007096
22	0xbdc7cfc6	-0.097564265
23	0x3d4a4468	0.049381644
24	0xbc9aa358	-0.018876716
25	0xb9bb8dd7	-0.00035773098
26	0x3c394ccb	0.011309813
27	0x3d1a1947	0.037621763
28	0xbd71fdc0	-0.059079885
29	0xbc0e498a	-0.008684525
30	0xbce66a89	-0.028126972
31	0xbb59798e	-0.0033184025
32	0xbbcf3195	-0.0063230493
33	0x3d03e3b2	0.03219957
34	0x3ce958f0	0.028484792
35	0x3d165312	0.036700316
36	0x3c26290d	0.010141623
37	0x3d036f2b	0.03208844
38	0x3ce57cf2	0.02801368
39	0xbd53a66e	-0.05167239
40	0x3d0d31a6	0.034471177
41	0x3d5e8cf4	0.054333642
42	0xbd94e5b7	-0.07270377
43	0x3acf1695	0.0015799577
44	0x3d382e6a	0.04496614
45	0x3d5095bf	0.05092406
46	0xbd65d657	-0.056112614
47	0x3c017d36	0.007903388
48	0xbdcf691b	-0.10127469
49	0xbdcb49b9	-0.09926171
50	0xbb861f62	-0.0040930966
51	0x3ca8089b	0.020511916
52	0xbd1aad02	-0.03776265
53	0xbc573b33	-0.013136673
54	0x3b77623a	0.0037747757
55	0x3d16e070	0.036835134
56	0xbba91a48	-0.0051606037
57	0x3dbdc08a	0.092652395
58	0xbc25fc16	-0.010130903
59	0xbc861e82	-0.01637197
60	0x3d7f26ed	0.062292982
61	0xbc826812	-0.015918765
62	0xbda96b74	-0.08272448
63	0xbd1bd0d8	-0.038040966
64	0x3c1a0e4f	0.0094028255
65	0xbbe85dc8	-0.0070912577
66	0xbcde0714	-0.027102984
67	0x3c536e4d	0.012904716
68	0x3c78c5da	0.01518389
69	0xbc8ba909	-0.017048376
70	0x3d1bfb25	0.038081307
71	0xbbe53d7a	-0.006995854
72	0x3d63eb60	0.055644393
73	0xba06461a	-0.000512214
74	0x3d0711d4	0.032975987
75	0x3d89a3ae	0.067206725
76	0x3cbda12e	0.023148146
77	0xbcf5a9e5	-0.029988239
78	0x3d416b2d	0.04722135
79	0xbd61aba8	-0.055095345
80	0xbd99df68	-0.075133145
81	0xbe3440ca	-0.1760284
82	0xbd8114c7	-0.06302791
83	0xbd81f4ce	-0.06345521
84	0xbd0c064b	-0.03418569
85	0xbdc40469	-0.09571154
86	0xbe2a597b	-0.16635697
87	0xbd607f0a	-0.054808654
88	0xbd20ce9d	-0.03925954
89	0x3d048a42	0.032358415
90	0xbc822b40	-0.015889764
91	0x3c6f8855	0.014619906
92	0xbd7080b7	-0.058716502
93	0xbd8ab952	-0.06773628
94	0xbd961d31	-0.073297866
95	0x3cf59dcb	0.029982468
96	0x3dbc4692	0.09193148
97	0x3dc8945d	0.09793923
98	0xbd2ab651	-0.041677777
99	0xbca400ad	-0.020019853
100	0x3bd00ced	0.006349197
101	0x3cd423f0	0.025896043
102	0xbdb84643	-0.08997776
103	0xbd1a6a94	-0.037699297
104	0xbd1d6d31	-0.03843421
105	0xbd0350c5	-0.03205945
106	0x3cfdb7cd	0.030971432
107	0x3acf672f	0.0015823598
108	0xbd1357a3	-0.03597225
109	0xba442461	-0.00074822275
110	0xbd1aad13	-0.037762713
111	0xbc13b3b6	-0.009015014
112	0xbbc1fe7e	-0.0059202304
113	0xbc700559	-0.0146497125
114	0xbced7dd4	-0.028990664
115	0x3b912151	0.0044290205
116	0x3ca009a5	0.019535849
117	0xbc21879b	-0.009858991
118	0xbd9c8350	-0.07642233
119	0x3d509851	0.05092651
120	0x3d58d91e	0.052941434
121	0x3d1be3a9	0.03805891
122	0xbd188e2c	-0.03724496
123	0x3c3233f8	0.010876648
124	0x3cd0ed2d	0.02550372
125	0xbc449881	-0.01199925
126	0xbd31d397	-0.04341468
127	0xbd6a41a6	-0.057191513
128	0x3c50ef4e	0.012752367
129	0xbd3319ad	-0.04372566
130	0x3c3b90b8	0.011448078
131	0xbc80da01	-0.015728952
132	0xbd8c0617	-0.06837099
133	0x39762b9f	0.00023476638
134	0x3cd0efb4	0.025504924
135	0x3a9a121c	0.0011754665
136	0xbc5b8346	-0.013397997
137	0xbc613d94	-0.0137475915
138	0xbdb3af96	-0.08773725
139	0x3c5cacd8	0.013468944
140	0xbc41181c	-0.011785533
141	0xbd84d26e	-0.06485449
142	0xbcff7ad4	-0.031186499
143	0xbc493b13	-0.012282151
144	0xbd236dd0	-0.039899647
145	0x3bd9664f	0.0066345106
146	0x3d69b4c8	0.057057172
147	0xbcabb0d8	-0.02095835
148	0xbce20add	-0.02759307
149	0x3d063e40	0.03277421
150	0xbddbc166	-0.10730247
151	0xba433da9	-0.0007447848
152	0x3c8c39bc	0.017117374
153	0x3bb9d870	0.0056715533
154	0x3cd94e93	0.026526725
155	0xbcdeaf6d	-0.027183259
156	0xbd09d2b2	-0.0336482
157	0x3ca617cf	0.020275025
158	0xbc0ca63f	-0.008584558
159	0x3cfd444e	0.03091636
160	0x3d0db888	0.03459981
161	0xbc426dbc	-0.011866983
162	0x3d63ffc2	0.05566383
163	0x3d791ae9	0.06081668
164	0x3d13736c	0.035998747
165	0xbdcc6f57	-0.09982174
166	0xbce21bca	-0.027601141
167	0x3d4a7c18	0.04943475
168	0xbda584fd	-0.08082006
169	0xbda05c37	-0.078300886
170	0x3d97da66	0.07414703
171	0xbdcb483d	-0.09925888
172	0x3d4b8a22	0.04969228
173	0xbc6c99a2	-0.014440926
174	0x3d3405e6	0.043950938
175	0x3da4e3ef	0.080512874
176	0x3ccdf9fd	0.025143618
177	0xbd90338e	-0.07041083
178	0xbc9eaec8	-0.019370452
179	0x3da107e9	0.07862837
180	0x3d5ee7ef	0.054420408
181	0x3c9f7d5c	0.019468956
182	0xbd7904d0	-0.060795605
183	0xbdab3e5a	-0.08361502
184	0x3cd8b235	0.026452163
185	0x3d901e0c	0.07036981
186	0xbd877d2a	-0.0661567
187	0x3ad0a3d9	0.0015917971
188	0xbb8c8d40	-0.0042892992
189	0xbd845c04	-0.06462863
190	0x3d95efa4	0.073210984
191	0x3d19485c	0.037422523
192	0xbe0a259d	-0.13490911
193	0xbd1e6860	-0.03867376
194	0xbc7d882e	-0.015474362
195	0xbd150b5a	-0.03638778
196	0xbc36198d	-0.01111449
197	0x3da1f622	0.07908274
198	0xbd1f9729	-0.038962517
199	0xbd66c4c7	-0.056340005
200	0xbd7c71a6	-0.06163182
201	0x3daaefef	0.08346545
202	0x3dec4512	0.115366116
203	0xbd917b6e	-0.071036205
204	0xbc430170	-0.011902198
205	0x3c6fda3d	0.014639434
206	0xbd98c4ff	-0.07459449
207	0xbe059a81	-0.1304722
208	0xbd960a8f	-0.07326233
209	0x3c378d14	0.011203069
210	0xbe43c542	-0.19118217
211	0xbe366c19	-0.17814673
212	0xbdb42fff	-0.08798217
213	0xbe319cf6	-0.17345032
214	0xbe0950fc	-0.134098
215	0xbd50ba7a	-0.050959088
216	0xbca5838e	-0.020204332
217	0xbcd41fbe	-0.025894042
218	0xbd8742ac	-0.066045135
219	0x3d39f6fe	0.045401566
220	0x3cb05ca6	0.021528553
221	0xbca24442	-0.019807938
222	0xbca16153	-0.019699728
223	0xbc93aca5	-0.01802666
224	0xbcfbc865	-0.030735204
225	0xbcaca3b7	-0.02107416
226	0xbb91a5a7	-0.004444796
227	0x3ccb6f4e	0.024833348
228	0x3c786975	0.015161862
229	0x3caf26ee	0.021380868
230	0xbd172932	-0.03690452
231	0xbd243ebe	-0.040098898
232	0xbd007cce	-0.031369023
233	0xbd81a840	-0.06330919
234	0xbd3ab1e8	-0.04557982
235	0xbca2425d	-0.019807035
236	0xbb89004f	-0.004180945
237	0x3cc02823	0.023456639
238	0x3d16e753	0.0368417
239	0xbd288584	-0.041142955
240	0xbd2ae4fa	-0.041722275
241	0xbd06141a	-0.032734014
242	0xbc028e75	-0.007968535
243	0xbd204921	-0.03913224
244	0xb7ca35be	-2.4105302e-05
245	0xbd7d9682	-0.061911114
246	0xbd874d48	-0.06606537
247	0x3cb14080	0.021637201
248	0xbd5007b4	-0.050788596
249	0xbd5e673e	-0.05429768
250	0xbbfc016a	-0.0076905983
251	0xbcee44db	-0.029085567
252	0xbd34141a	-0.043964483
253	0xbaa1b93d	-0.001233853
254	0x3d54a32d	0.05191343
255	0xbdb6652d	-0.089060165

conv_net.C4.weight f4 [1, 128, 3, 3]
0	0xbca9f8d4	-0.020748533
1	0xbcc1b094	-0.02364377
2	0xbcaee278	-0.021348223
3	0xbcda0099	-0.026611613
4	0xbd288390	-0.041141093
5	0xbd130474	-0.03589292
6	0xbc62ec4b	-0.013850282
7	0xbc8047a3	-0.015659159
8	0xbcc8559c	-0.024454884
9	0xbc999faf	-0.0187529
10	0xbd5bd694	-0.053671435
11	0xbdb98155	-0.09057871
12	0xbb4f7af3	-0.0031658977
13	0xbcd23497	-0.025659842
14	0xbbaadbe1	-0.0052142
15	0xbb220759	-0.0024723618
16	0xbbb5bfc4	-0.005546542
17	0xbc02e4e2	-0.00798914
18	0x3d911927	0.070848756
19	0x3d3cc173	0.046082925
20	0x3cb3b4ae	0.02193674
21	0x3dbab7e6	0.09117107
22	0x3d85c1d3	0.0653111
23	0x3cd6ca96	0.026219647
24	0x3ce784ed	0.028261626
25	0x3c8c7ecb	0.017150303
26	0x3c74531c	0.014912393
27	0xbd7f98b8	-0.062401503
28	0xbd2c1c31	-0.042019073
29	0xbc48a1ce	-0.0122456085
30	0xbcb79ff2	-0.022415135
31	0xbd5df2b8	-0.054186553
32	0x3c3b2b5f	0.011423915
33	0x3d527d45	0.051388998
34	0x3d8132e2	0.06308533
35	0x3dbab2ba	0.09116121
36	0xbcd5c44d	-0.02609458
37	0xbca3c14e	-0.019989636
38	0x3d6b50a3	0.057449948
39	0xbd03be7d	-0.032164086
40	0xbd1ef1f6	-0.03880497
41	0x3d17865d	0.036993373
42	0xbc75737e	-0.014981149
43	0x3b705851	0.0036673734
44	0x3d8e5649	0.06950051
45	0x3d9d448f	0.07679092
46	0x3d83b559	0.06431074
47	0x3cadf2c6	0.021233927
48	0x3dab5f62	0.08367802
49	0x3e16027f	0.1464939
50	0x3c7eb7fe	0.015546797
51	0x3da0ec8a	0.07857616
52	0x3dc9c00f	0.098510854
53	0x3d1471f5	0.03624149
54	0x3d00714b	0.031358045
55	0x3c9d11d8	0.019173548
56	0x3c7cfb0c	0.015440714
57	0x3d626785	0.055274505
58	0x3d481a48	0.04885319
59	0x3d1d1b1f	0.038355943
60	0x3d7bf95a	0.061517097
61	0x3e350595	0.1767791
62	0x3d74bd3e	0.059750788
63	0x3c82d91c	0.015972666
64	0x3c00ed06	0.007869011
65	0x3d506ea7	0.050886776
66	0xbb000de5	-0.0019539532
67	0xbbb3d8c8	-0.005488489
68	0x3dd5b50f	0.10434925
69	0x3c8157dc	0.015788965
70	0x3d872ad6	0.06599967
71	0x3dc56905	0.096391715
72	0xbd581c76	-0.052761517
73	0xbd5c0f18	-0.053725332
74	0xbd8096d7	-0.062787704
75	0xbdb95d7e	-0.09051035
76	0xbe02c9ac	-0.12772244
77	0xbdc3870e	-0.09547244
78	0xbd86076c	-0.06544384
79	0xbe5a4d49	-0.21318544
80	0xbde2d7f2	-0.110763445
81	0xbd760429	-0.06006256
82	0xbd586ff5	-0.052841146
83	0xbd34ebc3	-0.044170152
84	0xbe0a00a6	-0.1347681
85	0xbdb3ce9e	-0.087796435
86	0xbd434c51	-0.047680203
87	0xbd5ce0c5	-0.053925294
88	0xbd6d06cc	-0.05786781
89	0xbd0b7cdf	-0.034054633
90	0xbd28913b	-0.041154128
91	0xbd794fe2	-0.060867198
92	0xbd19d388	-0.037555248
93	0xbdb54576	-0.08851139
94	0xbe5a646c	-0.2132737
95	0xbda72223	-0.08160808
96	0xbd2de120	-0.042451024
97	0xbd6e7863	-0.05822028
98	0xbd2ededa	-0.042692997
99	0xbd3a4817	-0.045478906
100	0xbd7b9067	-0.06141701
101	0xbcd925e2	-0.026507322
102	0x3bbfd4df	0.0058542336
103	0xbbba9e22	-0.0056951204
104	0x3d09c52e	0.03363531
105	0x3c996e84	0.018729456
106	0x3c13e35f	0.009026377
107	0x3d81cd52	0.0633799
108	0x3d736399	0.059421156
109	0x3d833359	0.06406278
110	0x3d5aa067	0.053375628
111	0x3da3884a	0.079849795
112	0x3dee12aa	0.11624654
113	0x3d8850f4	0.066560656
114	0x3d8c4b0f	0.06850254
115	0x3da42c1f	0.08016228
116	0x3d8bc26e	0.06824194
117	0xbd4a6859	-0.04941592
118	0xbd78dc8a	-0.060757197
119	0xbccf5ed5	-0.025313774
120	0xbd203fc7	-0.039123323
121	0xbe86c84a	-0.26324683
122	0xbcadbade	-0.02120727
123	0xbcb5eb49	-0.02220692
124	0xbc17b9a0	-0.009260565
125	0xbc5c3982	-0.013441445
126	0xbb82cabb	-0.0039914525
127	0xbb31fab6	-0.0027157492
128	0xbb17c80e	-0.0023160013
129	0xbc681d1f	-0.014167099
130	0xbab85758	-0.0014064116
131	0x3c89ed2c	0.016836725
132	0xbcb59df7	-0.02217005
133	0x3ebffa74	0.37495768
134	0x3d1341f0	0.035951555
135	0xbdd40f5c	-0.10354492
136	0xbdee8cb0	-0.11647928
137	0xbd9325ac	-0.0718492
138	0xbe2f3909	-0.17111601
139	0xbe101c21	-0.1407323
140	0xbdbacf57	-0.09121578
141	0xbe069b85	-0.13145263
142	0xbdc39e0c	-0.095516294
143	0xbd8f5a96	-0.069997
144	0xbb740359	-0.003723344
145	0x3c65fdd6	0.01403757
146	0x3cba3b14	0.022733249
147	0xbd29ebde	-0.041484706
148	0x3c09a8ac	0.008402031
149	0x3c37735a	0.011196936
150	0xbc52fb97	-0.0128773665
151	0xbc5b3c3e	-0.013381062
152	0x3c09e650	0.008416727
153	0xbbf68b00	-0.0075238943
154	0xbd2cdd76	-0.04220339
155	0x3cd72c72	0.02626631
156	0xbc4e9542	-0.012608828
157	0xbd9fb4d7	-0.07798164
158	0x3e37b0b2	0.17938498
159	0xbc967987	-0.018368496
160	0xbd6adc22	-0.05733884
161	0xbd59f326	-0.0532104
162	0x3d7b2f12	0.061324187
163	0x3da09cf6	0.07842438
164	0x3da26b48	0.079306185
165	0x3dbb1ec7	0.0913673
166	0x3e1415c8	0.14461434
167	0x3dc33b02	0.09532739
168	0x3dc4dcd1	0.0961243
169	0x3e5aaae9	0.2135426
170	0x3d96aaf5	0.07356826
171	0xbb9b3b9a	-0.0047373297
172	0xbe5fed89	-0.21867956
173	0x398021af	0.0002443916
174	0x3b940ab4	0.0045178775
175	0xbbc0ab0f	-0.005879767
176	0x3b9381aa	0.004501541
177	0x3aafc87a	0.0013411187
178	0x3b5b44d9	0.0033457784
179	0x3b17dc14	0.0023171948
180	0x3cefee00	0.029288292
181	0x3e06691b	0.13126032
182	0x3c9a2035	0.018814186
183	0x3cd5e2fd	0.026109213
184	0x3d804a8e	0.0626422
185	0x3d0d481d	0.0344926
186	0x3cbc911b	0.02301841
187	0x3cf3d6a0	0.029765427
188	0x3cd10aba	0.02551781
189	0x3dc064f1	0.09394253
190	0x3dd6b6ce	0.10484086
191	0x3dc0544b	0.093910776
192	0x3dd99430	0.10623968
193	0x3d904285	0.070439376
194	0xb8faf3c7	-0.00011966336
195	0x3c82053f	0.015871642
196	0x3b7fc6cb	0.0039028402
197	0xbb34c77d	-0.0027584725
198	0x3bf35bbf	0.0074267085
199	0xbdc1edd7	-0.094691925
200	0xbd1d70a1	-0.03843749
201	0xbd44cb19	-0.04804525
202	0x3d642a22	0.055704243
203	0x3d8e1e09	0.069393225
204	0xbce66f64	-0.028129287
205	0x3d83139b	0.06400224
206	0x3d6b3849	0.057426725
207	0x3c97947c	0.01850342
208	0x3c84d178	0.016213164
209	0x3c018f11	0.007907645
210	0x3d2a8f29	0.041640434
211	0x3d52fdfa	0.051511742
212	0x3c599d83	0.013282183
213	0xbc6350ba	-0.013874227
214	0xbdc8d8d0	-0.09806979
215	0x3b174ac9	0.0023085347
216	0xbd59bf81	-0.053161148
217	0xb991abe6	-0.0002778463
218	0x3b54d027	0.0032472701
219	0xbe148408	-0.14503491
220	0x3ce8980a	0.02839281
221	0xbba0a5a5	-0.004902559
222	0xbe0092c1	-0.12555982
223	0xbe024c3d	-0.12724395
224	0xbd0a7cb9	-0.03381035
225	0x3d9f2fc8	0.077727854
226	0x3de6b283	0.11264517
227	0x3de269f9	0.11055369
228	0x3d894542	0.06702663
229	0x3e4d8b90	0.2007277
230	0x3e423eb5	0.18969233
231	0x3c12cdb5	0.008960177
232	0x3cb1f684	0.021723993
233	0x3d24c955	0.040231068
234	0x3d2e7daf	0.04260033
235	0x3d935c33	0.0719532
236	0x3cf9392c	0.03042277
237	0x3d549dfb	0.051908474
238	0x3e124c67	0.14286958
239	0xbc6c11c3	-0.014408532
240	0x3d256814	0.04038246
241	0x3d4ced6c	0.05003111
242	0x3c5d00cf	0.013488962
243	0x3dca5d08	0.098810256
244	0x3d129541	0.03578687
245	0x3cb5111f	0.02210289
246	0x3f3bc86c	0.73352695
247	0xbd06c0bd	-0.032898653
248	0x3c2ec875	0.01066791
249	0x3c5f08b1	0.013612912
250	0x3ba6dac2	0.005091996
251	0x3b53ccfd	0.0032318227
252	0xbceec977	-0.0291488
253	0xbd969475	-0.07352535
254	0xbca698ce	-0.020336535
255	0xbc564035	-0.013076832
