CNN_weights/NetworkA_weights_1982-2017_OPT.pt (torch, 394591 bytes, 4 tensors)

conv_net.C1.weight f4 [32, 17, 3, 3]
000000 44 67 e2 3d 75 58 f5 3c 20 de 4e 3e 36 b4 aa bd
       0.110548526 0.029949406 0.20201921 -0.08335154
000010 c6 4c 9d be b7 89 aa 3c 37 bc 29 3e f7 35 81 bd
       -0.30722636 0.02081762 0.16575705 -0.06309121
000020 98 30 33 bd 11 46 20 3d 53 08 87 3d ff 41 ed bc
       -0.043747514 0.03912932 0.065933846 -0.028962133
000030 53 28 58 bd 62 3b 3d be 5e 90 03 3c 91 0e 71 3d
       -0.05277283 -0.18479684 0.008030025 0.058851782
000040 a9 95 cc bd dd fb 1b bd 3f 3d 99 3d e6 02 4d 3d
       -0.09989483 -0.038081992 0.07482385 0.050051592
000050 6e 58 af bc ec 31 cd 3c e9 9d f2 3d e4 4b a4 bb
       -0.021404471 0.025048219 0.11846525 -0.0050139297
000060 0f c1 87 3d 5e 2a a1 3d cf 32 e9 bc 34 81 2f 3c
       0.0662862 0.07869409 -0.02846661 0.010711957
000070 bb c1 2d 3e 14 f1 56 3d aa 89 65 3e 08 d9 7e 3e
       0.16968434 0.052476004 0.22415796 0.24887478
000080 24 a2 0e 3e 36 b8 7e 3d af 49 3d 3d 40 bc 08 3e
       0.13929039 0.062187396 0.04621285 0.13353062
000090 a1 67 43 be 46 b2 2d 3d 0b 19 14 3e e2 ef 73 be
       -0.190825 0.042406343 0.14462678 -0.23821977
0000a0 54 f1 17 bc 4d 17 ab 3d 0f d2 0b bd d2 28 fe 3d
       -0.009273846 0.08354054 -0.034135874 0.124101296
0000b0 ae f7 61 3e 9b 2b 07 3d dd e4 c1 bc e4 06 36 3b
       0.22067139 0.03300057 -0.0236687 0.0027775103
0000c0 55 0f 13 be ff 15 12 bd 72 e4 b9 3d 73 88 a3 bd
       -0.14361317 -0.03566551 0.090767756 -0.0798501
0000d0 07 64 0a 3d 5c 17 c0 3d 01 39 00 3d ce 41 05 be
       0.0337868 0.093794554 0.031304363 -0.13013384
0000e0 74 41 a1 3d 12 ed 13 3d 2e c9 a2 bc 18 0c a5 3d
       0.07873812 0.03611476 -0.01987132 0.08058947
0000f0 bd 3c b7 3d 54 24 4d 3d 1f ca a6 3d d7 d0 67 bd
       0.08947132 0.050083473 0.0814402 -0.05659565
000100 4e 4d 48 be 8d 5d c4 3d 29 60 49 bc fc 28 95 bd
       -0.1956074 0.09588156 -0.012290993 -0.07283208
000110 90 6a 93 bb 38 d1 b5 3d a8 b9 c1 3d 56 40 a6 3d
       -0.004498787 0.08877796 0.09459239 0.0811774
000120 a2 f2 5b bc 26 96 47 bd c1 ab d8 3d 69 bf a9 bd
       -0.013424547 -0.048727177 0.105796345 -0.08288462
000130 91 1d 8a 3d db 5c ed 3d c8 c2 a7 bd cc ed 13 3d
       0.067439206 0.115899764 -0.081914485 0.036115453
000140 d0 d6 88 3d c7 16 3a 3d a6 30 50 bd c7 48 39 3c
       0.06681597 0.04543188 -0.050827645 0.011308855
000150 51 69 13 bd 80 41 c0 bc db c2 e2 3c 42 a2 b3 bc
       -0.03598911 -0.023468733 0.027680805 -0.021927956
000160 62 50 62 3c 96 e8 98 bc cf 8a cc bd 1f ad 7d bc
       0.01381311 -0.018665593 -0.09987413 -0.01548317
000170 82 1a 5c be 16 4b f5 3d 79 93 67 3c 0a 6d 98 bc
       -0.21494487 0.11977212 0.014134281 -0.018606681
000180 21 f8 c1 bd 75 1b 96 3b 85 55 9c 3c d4 20 2b 3d
       -0.09471155 0.00458091 0.019083748 0.041779354
000190 46 dc 8f 3d ad fe 46 bd fb 97 97 bd 96 18 8b 3d
       0.07024436 -0.04858272 -0.07402035 0.06791799
0001a0 52 31 f1 bb 0e 6b f5 bb d7 1d 19 be 52 0d 4e 3d
       -0.007360616 -0.0074895686 -0.14952789 0.050305672
0001b0 e7 9c ee 3c 61 48 32 bd 9c 43 4d be 01 91 a0 3d
       0.029127551 -0.043526057 -0.20045322 0.07840157
0001c0 ea dd bb bd 67 28 de bd 0c e5 96 3d 3c 8e 26 bd
       -0.09173186 -0.1084755 0.07367906 -0.04066299
0001d0 6e 6c 2a 3d 9e 83 a3 bc 9c ed 88 bc 51 48 c0 3c
       0.041607313 -0.01996022 -0.016714863 0.023471983
0001e0 06 6c 75 3d 82 ee 90 bd c0 49 a6 bd f1 4b 31 3b
       0.059917472 -0.07076742 -0.081195354 0.0027053321
0001f0 a5 00 15 3d c9 ae 0e bd b5 aa 01 3d 85 95 12 3e
       0.036377568 -0.034834657 0.03165694 0.1431485
000200 ba aa 47 bc a4 3b e9 bd 53 0d 82 3c cf 6c a7 bd
       -0.0121867005 -0.11388329 0.015875494 -0.081750505
000210 be 4e c6 3c 44 c3 b4 3c a6 fc a2 bd 25 45 e3 bd
       0.02420747 0.022065766 -0.07958345 -0.11097173
000220 59 df b8 3c 74 68 10 3d 39 2c 15 3d 74 fe 0f 3e
       0.022567438 0.035255864 0.036419127 0.1406191
000230 85 87 5a 3c 2c 48 b9 bc 8a e8 d4 bb 58 f9 80 3c
       0.013337974 -0.022617422 -0.0064974474 0.015743896
000240 00 5f 6f bd d7 50 af bd 7b 00 ed 3c a6 e0 e9 3c
       -0.05844021 -0.08560341 0.028930893 0.028549504
000250 d4 37 12 be 57 45 89 3a cc 28 13 be ef eb 32 be
       -0.14279109 0.0010472935 -0.14371032 -0.17472814
000260 54 a6 37 bd ff 36 b3 3d 2e 2f b4 3d be 18 73 bd
       -0.044836357 0.08750724 0.08798061 -0.059349768
000270 d7 a9 aa 3e 49 6f f5 3e f4 e5 bc bc 49 e2 66 3e
       0.33332703 0.47936466 -0.023058869 0.22547258
000280 ff 1e bb 3c 88 a7 24 be 3b 9f 7c 3b d5 e1 5f 3c
       0.022841929 -0.16079533 0.0038547057 0.013664682
000290 7c 51 13 3c 84 51 3e 3c d8 f1 cd 3d 23 95 67 bd
       0.008991595 0.0116161145 0.10055894 -0.056538712
0002a0 e6 05 b9 3c c9 62 21 bd 2a 39 06 bd 0d 12 01 3e
       0.02258582 -0.03940085 -0.03276936 0.12604542
0002b0 62 85 b2 bb 9f 32 45 be b3 fc 04 3e 29 8f 31 be
       -0.0054480294 -0.19257592 0.12987022 -0.17339768
0002c0 93 14 73 b9 c4 4e e0 3d 87 fc 82 bd 56 9a 2a 3d
       -0.0002318195 0.10952523 -0.06395822 0.041651092
0002d0 d6 88 98 bd 4e 14 6d bb 4d 98 c5 bc 02 41 25 bd
       -0.074479744 -0.0036175433 -0.024120474 -0.0403452
0002e0 36 4f 05 be e6 6c e3 bd a7 0f eb bb 15 9c b3 3d
       -0.13018498 -0.11104755 -0.0071734968 0.08770005
0002f0 f8 c7 ec 3a 86 5a 43 3c be 62 a5 3d 00 8a 69 3d
       0.0018064966 0.011923438 0.08075474 0.057016373
000300 b5 e3 48 be 07 99 ac bd aa 63 88 3e c0 25 39 be
       -0.19618113 -0.08427625 0.26638538 -0.18080807
000310 82 d4 f7 bd 31 bf a0 3d 99 68 67 3b 1f d7 94 3c
       -0.121010795 0.07848967 0.0035310148 0.018168984
000320 f7 d5 63 bd c4 55 ee 3c 00 3b ba bc a5 b4 59 3d
       -0.055623975 0.02909363 -0.022733212 0.05315079
000330 9d 1d cb 3c f6 73 a6 bd 9e 84 32 3d 55 18 1f be
       0.024794394 -0.081275865 0.043583505 -0.15536626
000340 d7 e8 2b be 95 42 96 bd cc 52 5d bd 12 95 61 3c
       -0.1678804 -0.07336918 -0.05403404 0.013768451
000350 cc c5 ed bd 77 55 5e 3e 51 ee 8e 3e 02 31 fb 3d
       -0.116099924 0.2171229 0.27916196 0.12265207
000360 b0 3c 1f 3c 80 6e e4 bd 69 8e 03 3d 66 4f 51 bc
       0.009719059 -0.11153889 0.032118235 -0.012775278
000370 e0 90 3d bd 1f 5b 91 bc 7e cc 85 3d 7b 08 c7 3d
       -0.04628074 -0.017743645 0.065331444 0.097184144
000380 33 63 70 bd d8 b5 92 be d3 3a 77 be 50 f6 9c be
       -0.058688354 -0.2865436 -0.24143533 -0.30656672
000390 84 4a 45 be e3 64 7e be 0e d5 df bd b6 65 33 be
       -0.19266707 -0.24843173 -0.10929309 -0.17519268
0003a0 ea b6 6d be 74 7a 97 bd a0 c1 47 3d 92 4a c7 3c
       -0.23214307 -0.07396403 0.04876864 0.02432755
0003b0 6f 50 88 bd ed 20 46 bc 30 6b aa bd f7 d1 0c 3d
       -0.066559665 -0.012092811 -0.08321226 0.034379926
0003c0 7d 69 ef bb 2b a0 54 3d df f6 3d bc d5 77 5a 3d
       -0.0073062764 0.05191056 -0.011594503 0.053336937
0003d0 5f 7f 8e bc 66 37 a1 3b 51 d7 c6 3d a3 7e 69 be
       -0.01739472 0.004919934 0.09709037 -0.22802214
0003e0 26 e7 85 bd 77 10 2b 3e 68 f4 02 3e f9 ee 0c 3d
       -0.06538229 0.167055 0.12788546 0.03440759
0003f0 82 04 12 bd ae b6 33 bd d9 15 6c bd db 34 a9 3c
       -0.03564883 -0.04387539 -0.057638023 0.020655086

conv_net.C2.weight f4 [64, 32, 3, 3]
000000 e2 70 06 bd 29 66 3a bd 43 eb 7d bd be e1 ac 3d
       -0.032822497 -0.045507584 -0.06199194 0.084414944
000010 ad 32 0b 3d 3c 10 ae 3c d7 c4 29 3d 57 8f 46 3c
       0.033983875 0.021247976 0.041447487 0.012119136
000020 52 4a 33 3b ba f8 d6 3c 8a df b3 bd 44 c4 2a bc
       0.002735753 0.026241649 -0.08782871 -0.01042277
000030 f8 fa bb bd 61 62 53 bd dd 35 b3 3d ee a4 82 3b
       -0.09178728 -0.051607493 0.08750508 0.0039869463
000040 90 76 0a 3d b6 b7 3a bd 35 5c 7b bd 65 99 9d 3d
       0.033804476 -0.045585357 -0.061367232 0.07695273
000050 e9 15 23 3d 3c ef b7 3c f8 8f ac bb a5 7e 38 bd
       0.039815817 0.022452943 -0.005266186 -0.045042653
000060 40 ee 47 bd 36 29 1c be 2a 01 ef bd 4c fe c2 b9
       -0.048811197 -0.15250096 -0.11670144 -0.0003719203
000070 30 79 c3 3d d3 58 29 3d 5e 1e 39 3d b9 91 a3 bd
       0.09544599 0.041344475 0.045194976 -0.07986779
000080 54 5d 10 bd 57 71 43 3d c4 bb 19 3d 7b 09 c9 3c
       -0.035245255 0.04771551 0.037532583 0.024540653
000090 d4 ba a3 3d a5 58 87 3c 26 33 49 3c 0e cc 25 3c
       0.07994619 0.016521761 0.012280261 0.010119451
0000a0 2c 8e 66 bd d8 56 07 bd e2 68 cc ba e2 57 41 bd
       -0.05628793 -0.033041805 -0.0015595222 -0.047202952
0000b0 a4 51 0e 3d b7 78 97 bc 88 05 98 3b 66 c4 a7 3d
       0.034745827 -0.018490179 0.0046393313 0.08191757
0000c0 7a e8 2b 3d f4 15 99 bd fe 0f ca bd 1c 0f dc 3b
       0.041969754 -0.0747489 -0.098663315 0.0067156684
0000d0 20 e4 8b 3c 5d 83 05 bd 4c 48 71 bd 8d d6 32 3d
       0.017076552 -0.03259598 -0.05890684 0.043661643
0000e0 9a 70 4d bc fa 37 4a 3d ef 2d 4e bc 78 3e 39 bd
       -0.012539053 0.04936979 -0.012584194 -0.04522559
0000f0 cd f2 73 b8 a9 a1 2e bd 42 e2 bc bd 9e 06 7d 3d
       -5.816184e-05 -0.04263464 -0.09222843 0.06177389
000100 23 38 01 bd 4e 16 32 3d 64 84 2a 3e 70 94 bf bd
       -0.031547677 0.043478303 0.16652066 -0.09354484
000110 ee 13 5b be 36 83 ef 3d 33 0e 57 3d 2c b0 89 bd
       -0.21394321 0.116949484 0.052503776 -0.06723055
000120 86 51 88 bc 5d fa ed 3b b0 ad 90 3c 17 a3 1e 3d
       -0.016640436 0.0072625116 0.017660946 0.038729753
000130 61 a3 9e 3b 8d 71 a8 bb 6b 71 2d bd 7d 3a 89 bd
       0.0048412536 -0.0051404894 -0.042344492 -0.06700609
000140 45 14 86 bd ba 7e b2 3d 4f 5c fb 3d 85 23 86 3d
       -0.06546835 0.087155774 0.12273466 0.065497436
000150 99 64 19 3d 94 7e 9c 3e cf 5a 5c 3e 64 f4 8c bd
       0.037449453 0.3056532 0.21519016 -0.06882551
000160 c6 05 de 3d 1c dc ed 3d ea af b9 bd 90 19 d5 bd
       0.10840945 0.11614248 -0.09066756 -0.10405266
000170 a8 0a 34 bd 21 16 82 bb 00 2c 94 3c 71 b5 7a 3d
       -0.043955475 -0.003969923 0.018087387 0.061208192
000180 9e 9b ba bd 73 d8 db 3b 93 80 2c 3c ef e9 82 3d
       -0.09111713 0.0067091524 0.010528701 0.063922755
000190 6f 41 85 bd f7 0d 26 3c 88 7b 8d 3d ee f9 ae bd
       -0.06506621 0.010135165 0.06908327 -0.08543764
0001a0 e1 a5 49 bd 98 df 41 3b 6d a6 c0 bb 34 bd d6 3c
       -0.04923046 0.0029582735 -0.0058792145 0.026213266
0001b0 88 d5 11 bb 6a a0 2e bd 8c 9b 24 3b 98 ef bb 3d
       -0.0022252519 -0.04263345 0.0025117127 0.09176558
0001c0 94 ac 93 3c b8 45 6a be 2f ae 9d 3d 37 82 7e 3d
       0.018026628 -0.22878158 0.076992385 0.0621359
0001d0 2d 64 21 bd 3d bb dc bd 1d 93 1e 3e 12 cc f4 3d
       -0.039402176 -0.107779 0.15485807 0.11952986
0001e0 4f 7e 6c bc 40 93 c5 bd e7 4f 41 bc 77 cd d7 bd
       -0.014434411 -0.09647226 -0.011798835 -0.10537236
0001f0 11 0b 8e bd 9f cb 45 3e 7f 36 ae bb 80 bb 8c 3d
       -0.069357045 0.19315957 -0.005316555 0.068717
000200 d6 e8 9d 3d 2b fe 52 bd c3 75 48 bd 73 31 71 3d
       0.077104256 -0.051511925 -0.04894043 0.05888505
000210 cc 14 de bd 45 3e df bc 97 15 04 3d c5 c1 35 3d
       -0.108438104 -0.027251372 0.032247152 0.044374246
000220 84 45 af 3d 68 cc 4d 3d 06 31 b8 3d 5f 20 a9 3c
       0.08558181 0.050243765 0.089937255 0.020645319
000230 36 7b 6e bd d5 15 f2 bc a2 bb e8 3d b0 b8 7f bc
       -0.05822297 -0.029551426 0.11363913 -0.015607998
000240 4b 27 ed 3c 7e 22 72 3d c2 43 93 3c 9f 9f 3f bd
       0.0289494 0.059114926 0.017976645 -0.046783086
000250 6b a4 1f be aa d6 71 bd 41 b1 d1 bc ee f9 14 bd
       -0.15590064 -0.05904261 -0.025597217 -0.036371164
000260 7c eb fe bd 7c 06 9c 3b 89 54 74 3c c7 b1 47 3d
       -0.12447259 0.004761515 0.014912733 0.048753526
000270 f3 54 97 3d 9e 1a a5 3c f4 de 41 3c 1e ba 5e bd
       0.0738925 0.020154294 0.011832941 -0.054376714
000280 48 74 a7 bd 29 3e 67 bd 00 0d 45 bd 1b b8 d6 bb
       -0.08176476 -0.056455765 -0.0481081 -0.006552709
000290 dd 49 18 3c f5 2f 6d bc 32 e4 11 be 9b bc 27 be
       0.009294954 -0.014476766 -0.14247206 -0.16380541
0002a0 c4 50 fa 3b 34 fe 61 bd 95 68 4f 3c dc 31 a5 bd
       0.0076390225 -0.055174068 0.012659212 -0.080661505
0002b0 02 95 76 3d c1 4f 47 3e 2d c4 fb bd 24 78 b9 bc
       0.0602007 0.19464017 -0.12293277 -0.022640295
0002c0 7a 43 13 3d e8 35 05 be 12 2a 99 bd 41 8f 33 bd
       0.035953023 -0.13008845 -0.074787274 -0.04383779
0002d0 fd f6 84 3d 1f f5 6d bb 5e c2 e3 bd 62 db a5 bc
       0.06492422 -0.0036309434 -0.11121057 -0.020246211
0002e0 18 6b 25 bd 54 a1 23 be de 89 5d 3d 4e d0 35 bc
       -0.040385336 -0.1597951 0.05408656 -0.011097027
0002f0 0d 35 a2 bb 7e 44 20 bb 88 af 80 3c dc c7 ab ba
       -0.004950172 -0.0024454887 0.0157087 -0.0013105827
000300 c9 74 5f 3d 51 cf a3 3d f0 bd f0 bd f8 2b 93 3b
       0.054554734 0.07998527 -0.11754978 0.0044913255
000310 59 68 01 3d f9 c1 02 3d 83 85 e7 3c 07 30 90 bd
       0.031593654 0.031923268 0.028261906 -0.070404105
000320 1b 93 1e be 04 a6 82 3d fc a8 b7 bc f9 4d a6 bc
       -0.15485804 0.06379321 -0.022419445 -0.020300852
000330 50 56 bb bb 6b 79 12 bd 69 58 9c 3d 15 7a 40 bd
       -0.0057170764 -0.035760324 0.076340504 -0.046991426
000340 11 f3 1f be c7 e0 33 bb c9 df 98 3c f0 d4 17 be
       -0.15620066 -0.002744721 0.018661397 -0.14827323
000350 3a db fa bc c6 d6 be bc 4a 06 95 3d 55 ba a1 3d
       -0.030622113 -0.023295771 0.0727659 0.07896868
000360 9e 74 07 be 86 32 c4 bd fc be 7a 3a 51 71 1e bd
       -0.1322808 -0.09579949 0.0009565202 -0.038682286
000370 26 6d 2e bd df 1d 26 bc e4 1b 8b 3c 30 db 26 bd
       -0.04258456 -0.010138958 0.016981073 -0.040736377
000380 9b 9c d3 3c 13 38 07 bd 9e 1b e9 3c 82 74 58 bd
       0.025831511 -0.03301246 0.028455552 -0.052845486
000390 91 37 c2 3c e0 fb 58 bd 52 37 05 3d 98 15 1a 3d
       0.023708137 -0.05297458 0.03252346 0.03761825
0003a0 b2 a7 cd bc d5 10 35 bd bb b0 44 3b 37 c7 97 3c
       -0.025104377 -0.044205505 0.0030012566 0.01852761
0003b0 8d ea 55 bd 0f f7 bd bc 19 ec 8a bd f0 fd 5e bd
       -0.05222564 -0.023189096 -0.06783313 -0.054441392
0003c0 2b 5d cc 3c d8 1b 4f 3d 17 8b 03 3e 85 0e 65 3c
       0.02494677 0.050563663 0.12846027 0.0139805125
0003d0 e8 ba bb bc bd 2d cf 3c fb ae 46 3d 25 ad 20 bc
       -0.022916272 0.025290364 0.048506718 -0.009806906
0003e0 5d 3c 5d bd cb 58 c8 3c 75 b1 ab 3c 2e f9 88 bc
       -0.054012645 0.024456402 0.020958642 -0.01672038
0003f0 43 ce 54 bd 84 f6 aa bd 7e f8 06 bd f0 16 40 bd
       -0.05195452 -0.083478004 -0.032951824 -0.046896875

conv_net.C3.weight f4 [128, 64, 3, 3]
000000 85 41 f6 39 3b 80 11 bd 9d 22 0f bd 14 fb 6f 3b
       0.00046969592 -0.03552268 -0.03494512 0.003661816
000010 32 13 27 bd 56 c3 7c bd 8d 58 61 bb 23 81 4b bd
       -0.04078979 -0.061709724 -0.0034385056 -0.0496837
000020 ad ce 70 3b 4d 2c 81 bd d8 ea 70 3d e9 12 f8 3c
       0.0036744282 -0.06307278 0.058817714 0.030282455
000030 db 60 56 bc 56 2b 18 3c 9b 31 88 bc d5 55 f3 3c
       -0.013084616 0.009287676 -0.016625216 0.029704014
000040 57 ed 1f bb 62 37 39 bd df 32 a2 bc 67 b7 dc 3c
       -0.002440294 -0.045218833 -0.019799648 0.026942922
000050 5c 21 be b8 22 32 fd bc 13 49 5a bd b7 3d 6b 3d
       -9.06612e-05 -0.030907694 -0.053292345 0.057431903
000060 b4 20 da bd c4 72 8b be 17 d0 a0 bd 97 5c 88 bd
       -0.10650769 -0.27235997 -0.0785219 -0.06658285
000070 8a 71 fb bc ec c3 cc bc 2d ec 73 bc 49 b1 09 bd
       -0.030693788 -0.024995767 -0.014887852 -0.033616338
000080 07 37 2a 3d 90 d5 23 bd 5b 0e 97 bd 52 4e 1e 3d
       0.041556384 -0.03999859 -0.07375785 0.03864891
000090 ef 35 f8 bc 74 a3 4b bd 6d b9 4b bd 13 7f 21 3d
       -0.030299155 -0.049716428 -0.049737383 0.039427828
0000a0 38 16 24 3c 28 d1 a4 ba f4 6f 12 3b 7f 58 03 bc
       0.010015063 -0.001257454 0.0022344561 -0.008016705
0000b0 e5 26 bd bc 87 51 f5 3a 73 2b b3 bc bf 20 5b bd
       -0.023089835 0.0018716314 -0.021871304 -0.053498026
0000c0 19 a5 f4 bc 5c d2 97 bb 6b a0 09 bd 18 01 65 bc
       -0.029863881 -0.004633231 -0.033600252 -0.013977312
0000d0 01 dc 9a 3d 63 1f d2 3a d2 03 b1 bc cf 6e 0a bc
       0.07561494 0.0016031082 -0.021608267 -0.00844927
0000e0 50 8c 13 bd 99 76 09 bd a5 93 a7 3b 2e 63 f4 bc
       -0.036022484 -0.03356037 0.005114036 -0.029832449
0000f0 1b 89 9d bd 2f d0 ac 3c 76 e4 68 3c 8b 15 26 3d
       -0.076921664 0.021095363 0.014214626 0.04054789
000100 8d b1 cf bb 19 35 07 3d 9c 69 8a 3c 65 35 dc bc
       -0.0063383044 0.033009622 0.016896062 -0.02688093
000110 88 a5 b4 ba 3a b1 60 3b dc 1b e3 bb b2 02 3d ba
       -0.0013782242 0.0034285323 -0.0069308113 -0.00072101795
000120 04 72 32 bb bf 83 11 be c6 07 9c bd 32 fd aa 3c
       -0.0027228603 -0.14210413 -0.0761867 0.020872686
000130 56 ab 7a bd fe ad e3 bd 3a d6 6a bd eb 93 a0 bd
       -0.061198555 -0.11117171 -0.05733321 -0.07840713
000140 20 e7 94 bd b2 c0 30 bd 29 a0 48 bd a7 22 d7 bc
       -0.07270646 -0.04315252 -0.048980866 -0.02626164
000150 7f 3c 2c bd 0c f6 7e 3d 6c d0 b4 bc 09 0f aa 3b
       -0.04204988 0.062246367 -0.02207204 0.0051897806
000160 2a 96 0d bd 1a 71 02 bc 4c b3 83 bd 67 4e ba bb
       -0.034567036 -0.007961536 -0.064306825 -0.005685616
000170 ee c3 27 3d 4d 38 74 bd d9 15 06 3d 5f 65 34 3d
       0.040958337 -0.059624005 0.03273568 0.044041988
000180 12 51 e1 bc f0 f1 a2 3d 14 dc 04 bd 16 ad 8b bd
       -0.027504478 0.07956302 -0.032436445 -0.06820123
000190 f2 a9 4c bd 62 0f 7a bd 12 27 91 bd ad 31 dc bc
       -0.04996676 -0.061049826 -0.0708753 -0.026879156
0001a0 ac 60 ed bc 13 e7 87 bc 14 b8 18 39 ba 5a 0d bd
       -0.02897676 -0.016589677 0.00014564424 -0.03451035
0001b0 37 38 49 bc a3 31 8d bb 9c 1f 5b 3c f2 88 a7 bc
       -0.012281469 -0.0043088957 0.0133742355 -0.020451043
0001c0 05 55 57 bd 6e 1b 36 3b 96 0c 2f bd a0 5f 56 bd
       -0.052571315 0.0027787345 -0.042736612 -0.05233729
0001d0 cf 26 c1 3c 5a 51 a6 3c fa e0 02 3c 4a 8b 0c 3c
       0.023578076 0.020302463 0.007988209 0.008578131
0001e0 6c 4c 25 bd b0 de 2c bd 2b 98 38 bc ea d2 26 bd
       -0.040356085 -0.04220456 -0.011266748 -0.040728487
0001f0 53 f5 3e bd 4d b5 0e bd 34 91 2a bc 29 fd e9 bc
       -0.04662068 -0.03484087 -0.010410596 -0.028563099
000200 16 c8 13 bd 22 a8 87 3d d1 5a 18 bc 3b 84 5d 3d
       -0.03607949 0.06623866 -0.009298996 0.054081183
000210 b6 d6 84 bc ac d7 e8 3a 31 89 b5 bc b9 b0 1c bc
       -0.016215663 0.001776447 -0.022160145 -0.009563618
000220 c2 d1 6e 3c 9d d9 7c bc a2 40 20 3d 09 88 57 3c
       0.014576377 -0.015432742 0.03912414 0.013154992
000230 ab e7 1d bd 6d 63 3e bd 92 ca 98 bd 16 c4 d8 bd
       -0.038551014 -0.04648154 -0.07460512 -0.105842754
000240 0e 0e 91 ba b2 48 1f 3d 94 bf 40 bd cb ed 82 bd
       -0.0011066811 0.038887687 -0.047057703 -0.06393012
000250 14 9f 98 bd 55 77 e2 3c 64 e6 6e 3c 70 fa 27 bc
       -0.07452217 0.027644793 0.014581297 -0.01025258
000260 14 a3 9b bd 18 46 ae 3b 6a 2b ca bc 77 4a 3e bd
       -0.07599464 0.0053184144 -0.024678905 -0.046457734
000270 80 8b 23 3d f1 ef af bc cd 47 12 bd f5 27 5a 3c
       0.03992796 -0.021476718 -0.035713006 0.013315191
000280 68 28 bf 3c 9f 35 20 3c 45 d9 5a bd fe 96 fb bc
       0.023334697 0.009778409 -0.05342986 -0.030711647
000290 34 37 9a 3d 68 dd 47 bd 42 5c d6 3c 2a e1 01 bc
       0.075300604 -0.048795134 0.026167039 -0.007927218
0002a0 ef ab b4 bd e1 9a 6c bd a8 84 b3 3c 91 a6 4b 3c
       -0.08821856 -0.05776489 0.021913841 0.012429849
0002b0 02 94 93 3c 01 71 2c 3e 20 f6 6f bd 83 88 07 be
       0.018014912 0.16839983 -0.058584332 -0.13235669
0002c0 e7 5c c0 3c 66 5a 20 be b2 44 9a bd 13 01 78 bc
       0.0234818 -0.15659484 -0.07532634 -0.015136975
0002d0 97 bd 7c bc 8d 30 a4 3d 14 0f 5a 3d de f4 1a bd
       -0.015426061 0.08017073 0.053237036 -0.03783118
0002e0 e1 70 9b 3a 32 20 b3 3c c8 52 72 3d 64 48 1f 3d
       0.0011859202 0.021865938 0.059160978 0.038887396
0002f0 90 61 37 bc 11 e4 48 3d be 82 e1 3c cc b2 8f 3d
       -0.011192694 0.049045626 0.027528163 0.07016525
000300 cc 2d 5e 3b 5b 0c dd bc 19 2e 64 bd 09 ae 6b bd
       0.0033901809 -0.02698343 -0.055708025 -0.05753902
000310 7b e1 8f bb bf 5e ef 3b b7 18 84 3b 30 a2 13 3d
       -0.004390893 0.007304996 0.0040312666 0.036043346
000320 74 2b 22 bd 98 99 57 3a e3 25 31 bd 01 c3 9e bc
       -0.03959222 0.00082244864 -0.043249022 -0.019380094
000330 7b f1 3d bd 05 f4 19 bd 3f f0 02 be 66 b3 f0 3b
       -0.04637287 -0.03758623 -0.12786959 0.0073456047
000340 15 36 b2 bd 7c 98 9a ba e7 55 f7 bc 71 c2 69 bd
       -0.087017216 -0.0011794711 -0.030192329 -0.0570702
000350 af 78 84 3c d8 f8 dd 3c db 8a df bd 96 aa 00 bc
       0.016170828 0.027096197 -0.109151565 -0.007853171
000360 e5 eb 89 bd c8 05 fc bc 16 17 68 bd ca be a9 3c
       -0.067344464 -0.030764475 -0.05666264 0.020720858
000370 e3 a9 29 3c 24 fb 16 bd 90 b7 56 bc c6 93 be 3b
       0.010355446 -0.0368606 -0.013105288 0.005815956
000380 7a 5b 30 3b fd 8d 88 3d 7e db bd 3d 0d 83 bd 3d
       0.0026909993 0.06667707 0.092703804 0.092535116
000390 59 fa 81 3d d8 03 01 3c 88 0e 99 3d fd 57 6d 3d
       0.06346578 0.007874452 0.07473475 0.05794524
0003a0 48 ec b8 be 91 a6 3a bc cb 22 35 bd 1c aa 83 3c
       -0.36117768 -0.011392252 -0.044222634 0.016072325
0003b0 e4 aa 0c 3d 1b ce a0 bd 27 1c 65 bd e1 2a fb 3c
       0.03434266 -0.078518115 -0.05593505 0.030660095
0003c0 33 83 3c 3d 40 fe 11 bd f3 76 16 3c 28 a4 4f 3d
       0.04602356 -0.035642862 0.009183633 0.05069366
0003d0 84 07 89 bd 45 9e 99 bd 06 0b fa 3c a6 33 0b bc
       -0.066908866 -0.07500891 0.030522835 -0.008496201
0003e0 e5 31 c5 bc d8 d7 ba bd 9c 7e 38 be 68 41 02 be
       -0.024071643 -0.091232 -0.18017048 -0.12720263
0003f0 73 46 46 bc 96 77 e1 3c 81 16 94 3d 9f 99 5d 3d
       -0.012101757 0.027522843 0.07230855 0.054101583

conv_net.C4.weight f4 [1, 128, 3, 3]
000000 86 69 0a bc d2 12 03 be 99 75 74 bc 82 7e c7 3c
       -0.00844801 -0.12800148 -0.014920616 0.024352316
000010 c4 6e 54 ba 0b 6e 08 3c 6c 3b d3 3b 70 50 01 3c
       -0.00081036636 0.008327018 0.0064462926 0.007892713
000020 38 10 11 3c b9 7e 2b 3d a4 ba 8e 3d 7f 89 e0 3b
       0.0088539645 0.0418689 0.069691926 0.0068523283
000030 7c dc a9 3b 46 4a 9b bd 49 ca 8f bb a0 35 89 3b
       0.0051837545 -0.07582526 -0.004388128 0.004187301
000040 76 7b 04 3d a2 cd 84 3c 4a 25 7e bd bb 6d 8d bd
       0.032344304 0.016211335 -0.06204728 -0.06905695
000050 6c ed 80 bd 45 dc 42 bc 7b a8 63 bd df 5a d6 bd
       -0.06295285 -0.011893337 -0.055580597 -0.10466551
000060 01 cb b6 bb 6d 9d a9 bc ae 42 98 bd 4d f6 19 bd
       -0.005578399 -0.02070495 -0.07434593 -0.037588406
000070 a8 30 de 3c fb 54 51 3c 43 44 76 bb 41 fd f4 3c
       0.02712281 0.012776609 -0.0037577308 0.029905917
000080 c8 47 72 3d 40 42 63 3c 6d 2c 0e 3c 15 83 2d 3e
       0.059150487 0.013870776 0.008677584 0.16944535
000090 f9 13 a4 bc cf 80 17 bc 01 4b 86 3c 18 3a 04 bd
       -0.020029055 -0.009247019 0.016393187 -0.032281965
0000a0 2a 64 07 bd a4 b1 1e ba e9 79 95 bc 85 db 39 3a
       -0.03305451 -0.0006053692 -0.018246608 0.0007089901
0000b0 f8 b2 b8 3d ff cb a4 3d 8a 42 4b 3d f6 5f 0e 3d
       0.090185106 0.08046722 0.049624003 0.034759484
0000c0 10 6e 29 3d a9 23 2f 3c 85 09 6d 3c 16 10 1f 3d
       0.04136473 0.010689654 0.014467602 0.0388337
0000d0 86 f6 0e 3c 74 47 b1 3c ed 4c ef 13 fc 53 d6 13
       0.008725768 0.021640517 6.0407937e-27 5.410401e-27
0000e0 dc 73 c5 13 74 06 df 13 36 c2 c9 13 90 4f bd 13
       4.9844038e-27 5.6299477e-27 5.093104e-27 4.7788762e-27
0000f0 67 6a db 13 76 72 cc 13 67 3b c4 13 2b 96 3b bc
       5.5388293e-27 5.1609707e-27 4.953593e-27 -0.011449377
000100 d7 5e e8 bc 8a e7 61 bc f8 e5 95 bb 77 a0 d1 bc
       -0.028365536 -0.013788113 -0.0045745336 -0.02558921
000110 36 e1 15 bc 5d 1e 86 bc c3 81 ac bc 93 fe ac bc
       -0.009147933 -0.0163719 -0.021057969 -0.021117484
000120 5c e3 8f 3d 9e 6a dc 3d 92 d1 af 3d 30 f9 dd 3d
       0.07025787 0.10762523 0.08584894 0.10838544
000130 d6 98 19 3e bb 98 71 bb d6 f4 80 3d a0 8c 83 3c
       0.14999709 -0.0036864716 0.06296699 0.016058266
000140 5d c5 73 3b 30 b2 8c bc 80 86 35 bd b6 fc 13 bd
       0.0037196495 -0.01717481 -0.044317722 -0.036129676
000150 83 6a a3 bd fd 52 20 be a8 dd d8 bd 07 7d 87 bd
       -0.079793 -0.15656658 -0.105891526 -0.06615644
000160 a5 a6 96 bd 7e ef 5e bd 1e 13 ad 3d 87 d7 c4 3c
       -0.07356004 -0.054427616 0.08450912 0.024028553
000170 02 28 7a 3c 5a 39 01 be 12 cd 98 bc 58 76 5c 3b
       0.015268328 -0.12619534 -0.018652473 0.0033639874
000180 e8 80 76 bc a0 40 92 3c a4 ea 5a 3c 9e 98 8c bd
       -0.015045382 0.017853081 0.013361607 -0.06865047
000190 17 49 9d bc 88 50 89 3b 76 dd f9 bd d1 55 97 ba
       -0.019199891 0.0041905083 -0.122004434 -0.0011545961
0001a0 5a ab 9f bb 82 bb 49 bc 05 a3 18 bc de 2c 92 bc
       -0.0048727216 -0.012312772 -0.009316211 -0.01784366
0001b0 33 f7 ad 3c c4 00 2f bd 34 10 ef bd 42 21 87 3c
       0.021236038 -0.04272534 -0.116730124 0.01649535
0001c0 15 51 52 3d d2 cd 3f be 1a 03 09 3c 96 eb 90 bc
       0.051346857 -0.18730858 0.008362556 -0.017690461
0001d0 36 5e c3 bd 99 21 01 bd db 49 d5 bc ea e2 3d bc
       -0.09539454 -0.03152618 -0.026036194 -0.011589745
0001e0 7c 59 94 bc 02 f3 85 be 27 b1 8a bc 5d 18 6b bb
       -0.018109076 -0.26161963 -0.016930176 -0.0035872676
0001f0 e8 d3 4a bc 17 87 ba bc 06 64 80 3d 33 e2 01 3d
       -0.012379624 -0.022769494 0.06269078 0.03170986
000200 f4 a6 56 3d 03 6e 90 3d 77 1f 39 3d b5 4d 99 3d
       0.052405313 0.07052233 0.045196023 0.074855246
000210 4d de 34 3d fe 33 1e 3c d6 c8 14 3d 5e 55 82 bb
       0.044157315 0.009655951 0.036324345 -0.0039774617
000220 03 66 6c bc 84 7b 09 bd 25 16 aa bb 4e 12 49 bc
       -0.014428618 -0.03356506 -0.005190628 -0.012272431
000230 b7 e6 61 bd f6 d3 50 bc 40 47 3e bc 6d cb 9e bd
       -0.055151667 -0.012745848 -0.011613667 -0.07753644
000240 7f ba 40 bd 21 9e 4e bc d2 c6 2c bc 61 e6 fc bc
       -0.047052857 -0.012610943 -0.010545449 -0.030871572
000250 6f a9 91 ba 11 0f a3 bb ce b5 5f 3b 4a 65 c2 b9
       -0.0011113117 -0.0049761613 0.0034135464 -0.0003707803
000260 62 ea 3e bb cb 4d 0e 3d f6 68 52 3d 20 78 ec 3d
       -0.0029131402 0.034742158 0.05136963 0.115463495
000270 19 3d 31 3d 7f 1c 7e 3e fe 8a 70 3e 3c a9 37 3c
       0.043271158 0.24815558 0.23490521 0.011209782
000280 db 1c d0 3c ce f5 e0 3c 29 28 c9 bd 38 2f 4c bc
       0.025404384 0.027460959 -0.09822113 -0.01246243
000290 d6 50 45 3b 46 19 2b be dc 6f 4e 3d 7d 85 86 3c
       0.0030107996 -0.1670886 0.050399646 0.016421074
0002a0 c0 de be 3d 9a c6 54 3d 81 c4 98 3c a6 3c 90 3c
       0.0931983 0.051947214 0.018648388 0.017607044
0002b0 8e 27 a3 be b6 48 bc bc c3 f9 b1 bb 9f 82 c8 3b
       -0.31866115 -0.02298389 -0.0054313852 0.006119087
0002c0 6a b6 b2 3b d9 f1 73 3a 03 e1 39 3c 63 4f 30 3c
       0.0054538744 0.00093057525 0.011345151 0.010761115
0002d0 c8 be 84 bc 8d 64 44 bc 55 e1 bb bb 5e bc b3 3a
       -0.016204253 -0.011986864 -0.005733649 0.0013712754
0002e0 d6 b1 e7 3c a3 ca 4b 3d 1d c4 65 ba a5 4d 89 3d
       0.028283041 0.049753796 -0.000876488 0.06704263
0002f0 1d f1 18 3e 18 40 31 3e dc 6f 1b 3e aa a7 05 3e
       0.14935727 0.17309606 0.1517939 0.1305224
000300 74 d9 cd 3d f7 59 ec 3d 0b 74 92 3c fd 85 41 bc
       0.100512415 0.11540597 0.0178776 -0.01181173
000310 b7 1a 67 ba 92 85 1b 3a 6e 84 e2 bc 86 97 21 be
       -0.00088159315 0.0005932684 -0.027651038 -0.15780458
000320 70 32 f8 bd ca 96 59 bc fc 35 af bc 96 6e 39 bd
       -0.12118995 -0.01328058 -0.021388046 -0.04527148
000330 75 92 00 bc b4 8c 02 bb 56 79 ec bc c5 be 87 3d
       -0.007847418 -0.0019920291 -0.028866451 0.06628183
000340 51 23 47 3c f7 2a 6a 3c 82 fd 5c 3e 15 a4 20 3d
       0.012154416 0.01429247 0.2158108 0.03921898
000350 da e6 d5 3c 97 2a 19 3d 9e e6 81 3c 80 33 96 3c
       0.026111055 0.037394132 0.015857037 0.018335104
000360 5f 21 90 bc 2a 6a 46 bc 20 a4 d9 ba 30 41 80 bc
       -0.017594038 -0.012110272 -0.0016604699 -0.015656084
000370 28 9e db bc 80 f8 db 3d fb 41 6a bc 8a 65 9d bc
       -0.026808813 0.10740757 -0.0142979575 -0.019213457
000380 97 d5 8a bc 3e 38 33 3c 2a ec a0 3c a6 e2 fc 3c
       -0.01694755 0.010938702 0.019643862 0.030869793
000390 5c 0f 11 3c 91 b9 0c 3d 5f 53 0b 3d de 2e 06 3c
       0.00885376 0.034356657 0.034015056 0.008189885
0003a0 16 b0 cd 3b 80 f4 33 3c 7f 38 a7 3c 96 81 55 3d
       0.0062770946 0.010983586 0.020412682 0.052125536
0003b0 21 9f a9 3c 9f 52 92 3c 45 71 d9 3d 8c b7 14 3c
       0.020705761 0.017861662 0.106173076 0.009076964
0003c0 55 4e ed ba ce 95 87 3c 1d 31 94 38 3b d8 9f 3d
       -0.001810501 0.016550925 7.066338e-05 0.078049146
0003d0 ef 9e 7a 3d 0e c0 44 3c 69 54 2f 3f 5f 54 82 3c
       0.061186727 0.01200868 0.68488175 0.015909372
0003e0 8e cf db ba 72 14 6a bb 2e 79 9d 3c fc 5c 16 3c
       -0.001677023 -0.0035717753 0.019222822 0.009177443
0003f0 86 e2 df 3d df ca bb 3d 57 47 67 3d e7 90 1c 3e
       0.10931878 0.09169554 0.05646452 0.15289651
