CNN_weights/NetworkA_weights_CNNG23.pt (torch, 394591 bytes, 4 tensors)

conv_net.C1.weight f4 [32, 17, 3, 3]
0	0xbd687c98	-0.056759447
1	0xbcd67279	-0.026177632
2	0xbdc1c389	-0.094611235
3	0x3d271e7c	0.040800557
4	0xbd1a21f4	-0.037630036
5	0x3ddcb7f5	0.107772745
6	0x3de73767	0.11289864
7	0x3dcb3a06	0.099231765
8	0x3e02080e	0.12698385
9	0xbb9c79f0	-0.0047752783
10	0x3dc93dc1	0.09826232
11	0xbd6b7997	-0.057489004
12	0x3c53a882	0.012918593
13	0xbd37dfc9	-0.044891153
14	0x3d6b7fa1	0.057494763
15	0x3e0860c4	0.13318163
16	0xbdd8aa6e	-0.10579382
17	0x3c849261	0.01618308
18	0x3e37300f	0.17889427
19	0x3e293731	0.1652496
20	0x3d694278	0.056948155
21	0x3cf5e21d	0.030015046
22	0x3e5a8553	0.21339922
23	0x3da709f2	0.08156194
24	0x3d349759	0.04408965
25	0x3d29c1c8	0.04144457
26	0x3cc466c1	0.023974778
27	0xbe104c1c	-0.14091533
28	0x3de60b0d	0.112325765
29	0x3d54e36f	0.05197471
30	0x3ec01774	0.37517893
31	0x3e823708	0.2543261
32	0x3dd97fd0	0.106200814
33	0x3e587c7f	0.21141241
34	0x3e4eae01	0.20183565
35	0x3c10262e	0.008798165
36	0xbd8d4e02	-0.068996444
37	0x3d77e49f	0.060520764
38	0xbb9b51c7	-0.004739973
39	0xbdce92c0	-0.10086584
40	0x3dac21be	0.08404873
41	0x3c66bcbe	0.014083086
42	0xbdb6221b	-0.08893224
43	0xbbd54290	-0.006508179
44	0x3dc54aa2	0.09633376
45	0xbd85a318	-0.06525248
46	0xbda5b693	-0.08091464
47	0x3df28772	0.118422404
48	0xbd460a3c	-0.048349604
49	0x3b3b3343	0.002856449
50	0x3e2f9ea5	0.17150362
51	0xbe0b6237	-0.13611685
52	0xbcae9bce	-0.021314528
53	0x3d8fdfb3	0.07025089
54	0x3c80891f	0.015690384
55	0xbe262fbd	-0.16229148
56	0xbc467898	-0.012113713
57	0x3c82ab8a	0.015950937
58	0x3d8f0630	0.06983602
59	0x3dd6cbe8	0.10488111
60	0x3d477382	0.04869414
61	0x3dde2211	0.108463414
62	0x3dbbbfe8	0.091674626
63	0xbdfbab66	-0.12288551
64	0xbe5f2a63	-0.21793513
65	0xbc356d43	-0.011073413
66	0x3d2d1d5c	0.042264327
67	0x3ada26cf	0.0016643646
68	0x3c6fafbe	0.014629303
69	0x3dc59609	0.096477576
70	0x3e3b11dd	0.18268533
71	0x3e0cfcd2	0.13768318
72	0xbe2184cf	-0.15773319
73	0x3ced5b1d	0.02897411
74	0x3dd345fd	0.103160836
75	0xbc8c1cdd	-0.017103607
76	0x3e076e76	0.13225731
77	0x3e1f235f	0.15540837
78	0xbe723636	-0.23653492
79	0x3d8dff8c	0.06933507
80	0xbcd00828	-0.025394514
81	0xbd3c8018	-0.046020597
82	0x3d378ad8	0.044810146
83	0xbc7f76c3	-0.01559228
84	0xbc3f20e5	-0.0116655575
85	0x3d9151ab	0.07095655
86	0x3ce99104	0.028511532
87	0x3d71066d	0.05884402
88	0x3c02191d	0.007940558
89	0xbd451881	-0.048119072
90	0x3d52bc1d	0.05144893
91	0xbcf1ad17	-0.029501481
92	0xbb23fcba	-0.0025022463
93	0x3daee299	0.08539314
94	0xbdbb118e	-0.09134208
95	0x3da0d241	0.07852603
96	0xbdc61b66	-0.096731946
97	0xbdac3e92	-0.08410372
98	0x3bae2ddb	0.005315525
99	0x3d898c4a	0.06716211
100	0x3d5446cf	0.05182534
101	0xbb22f0fc	-0.0024862876
102	0x3b517528	0.00319607
103	0xbdd7a205	-0.1052895
104	0xbc2be11c	-0.010490682
105	0xbc4da451	-0.012551383
106	0xbde5437a	-0.11194511
107	0x3d5f283a	0.054481722
108	0xbda60557	-0.08106487
109	0xbda670f9	-0.081270166
110	0xbe26df8c	-0.16296214
111	0x3b2bd144	0.0026217261
112	0xbc924ea3	-0.017859763
113	0x3c993536	0.01870213
114	0x3db035ba	0.086039975
115	0xbc9cada7	-0.019125773
116	0x3d026ff7	0.03184506
117	0x3c79afe5	0.01523969
118	0xbd6c12ec	-0.057635233
119	0x3d87c55e	0.06629442
120	0x3d917a33	0.07103386
121	0xbd0ea955	-0.034829456
122	0xbb6bff01	-0.0036010148
123	0x3d076cdb	0.033062797
124	0xbcb4b085	-0.022056827
125	0x3c5cd1fe	0.0134778
126	0x3da92ebe	0.082608685
127	0x3dab6883	0.083695434
128	0xbc1ecd45	-0.009692495
129	0xbd088c15	-0.033336718
130	0x3e114b22	0.14188817
131	0xbacf5151	-0.0015817081
132	0xbd3023b8	-0.043002814
133	0xbdc88911	-0.09791768
134	0xbe4184e2	-0.18898347
135	0x3c37ec88	0.011225827
136	0x3d56af37	0.05241319
137	0xbd26fcd3	-0.040768456
138	0xbd613ff8	-0.054992646
139	0x3d8a750e	0.06760608
140	0xbc9d2430	-0.019182295
141	0x3d10cd52	0.03535206
142	0xbdcfc967	-0.10145836
143	0xbcf26409	-0.029588716
144	0x3d0ac62e	0.033880405
145	0xbd662c82	-0.05619479
146	0x3dc06025	0.09393338
147	0x3e45a3ee	0.19300815
148	0xbdf279a1	-0.11839605
149	0x3d8caffa	0.06869502
150	0x3d10fa5c	0.03539501
151	0x3c77593a	0.015096957
152	0x3c63517e	0.01387441
153	0xbb26cc79	-0.0025451465
154	0xbbd1526f	-0.0063880007
155	0xbe070809	-0.13186659
156	0x3e8a1328	0.2696774
157	0x3f011a30	0.50430584
158	0x3dea5beb	0.11443313
159	0x3d8eb6c2	0.06968452
160	0xbbe5d7aa	-0.0070142346
161	0xbd64d20c	-0.05586438
162	0x3cdc3f4b	0.02688565
163	0xbacd532a	-0.0015665044
164	0x3c8674d5	0.016413132
165	0xbc611b49	-0.013739415
166	0x3e39babd	0.18137641
167	0xbd2b5fac	-0.041839287
168	0x3c7ffc50	0.015624121
169	0xbd23410d	-0.03985696
170	0xbb6fe8de	-0.0036607306
171	0xbd997545	-0.074930705
172	0xbd5a2eba	-0.05326722
173	0xbe5a3a3a	-0.21311274
174	0x3d84a52c	0.064768165
175	0xbe6c5ce3	-0.23082308
176	0xbe06c246	-0.13160047
177	0x3d7c81f7	0.06164738
178	0xbe871d65	-0.26389614
179	0xbe0bb06b	-0.13641517
180	0xbb6bd95d	-0.0035987713
181	0x3b74dae8	0.0037361924
182	0xbce092bb	-0.027413717
183	0x3da586e9	0.08082373
184	0x3d90764e	0.07053815
185	0xbd859c0e	-0.06523906
186	0xbc899209	-0.016793268
187	0x3d3556fb	0.044272404
188	0xbd64b7e6	-0.05583944
189	0xbec8b14e	-0.39197773
190	0x3c48ce64	0.012256239
191	0x3defad46	0.11702971
192	0xbe9a62ba	-0.30153447
193	0xbc654ceb	-0.013995389
194	0x3eb599f2	0.35469013
195	0xbdf4660e	-0.11933528
196	0xbc40b8ef	-0.011762842
197	0x3e6777af	0.2260425
198	0xbe1a5fa5	-0.15075548
199	0x3c88af71	0.01668522
200	0x3db455c5	0.08805422
201	0xbdaa1576	-0.083048746
202	0xbc5c14a5	-0.013432656
203	0x3e1df091	0.154238
204	0xbd20fce6	-0.039303683
205	0xbcb6d009	-0.022315996
206	0x3d0419f4	0.032251313
207	0xbe8a5ad5	-0.27022424
208	0xbe5201a9	-0.20508446
209	0xbe7be37b	-0.24598496
210	0x3d0a99d1	0.033838097
211	0x3c9d6e9a	0.019217778
212	0xbdfd0269	-0.12353975
213	0x3ea41cd5	0.32053247
214	0x3e6fb19d	0.23407598
215	0x3e33c2cc	0.17554778
216	0xbd1827c8	-0.037147313
217	0xbe199584	-0.14998442
218	0xbd853b5c	-0.065054625
219	0x3b156a4a	0.002279895
220	0xbd7163a3	-0.05893291
221	0xbc8f0d3f	-0.01746237
222	0x3d9fd5e0	0.07804465
223	0x3dbed55c	0.09318039
224	0x3dd22794	0.10261455
225	0x3bbb89a4	0.005723195
226	0x3ccfc37e	0.025361773
227	0xbdaa4f9a	-0.08315964
228	0x3cecc072	0.028900359
229	0x3c63f2b8	0.013912849
230	0x3cd04690	0.025424272
231	0xbda4e4f2	-0.0805148
232	0xbdd62764	-0.10456732
233	0x3c6cacc5	0.014445488
234	0xbd605207	-0.054765727
235	0x3bec4f89	0.0072116298
236	0xbd2551d0	-0.040361226
237	0x3b2bf648	0.0026239324
238	0xbd16d1d0	-0.036821187
239	0x3c28b958	0.010298096
240	0xbd2284f9	-0.039677594
241	0x3cba2819	0.022724198
242	0xbd308067	-0.043091204
243	0xbcf03902	-0.029324058
244	0xbcb5ad3b	-0.02217733
245	0x3d88c5c3	0.06678345
246	0x3cd32c6f	0.025778024
247	0xbe38daf6	-0.18052277
248	0xbd25f237	-0.040514197
249	0x3d554a67	0.05207291
250	0x3e4c7c49	0.19969286
251	0xbd973daa	-0.07384808
252	0x3d419978	0.0472655
253	0xbd8e2fae	-0.06942688
254	0x3cc10f83	0.023566967
255	0xbcdbe286	-0.026841413

conv_net.C2.weight f4 [64, 32, 3, 3]
0	0x3cc4d468	0.024027064
1	0xbd0563a6	-0.032565735
2	0xbc3d0108	-0.01153589
3	0xbd6782e3	-0.056521308
4	0xb83a4da0	-4.441815e-05
5	0xbcdb92d6	-0.026803415
6	0x3d113ba6	0.035457276
7	0xbcd59c24	-0.02607543
8	0x3c76e300	0.015068769
9	0xbc49334c	-0.0122802965
10	0xbd11d2c6	-0.0356014
11	0xbc040b75	-0.008059372
12	0xbd080487	-0.033207443
13	0x3c8e56c7	0.017375363
14	0x3d990d5f	0.074732535
15	0x3d6f5a4f	0.058435734
16	0x3ddd2ba7	0.10799342
17	0x3d2300bc	0.039795622
18	0xbd060f86	-0.032729648
19	0xbda4f4d5	-0.080545105
20	0xbdc97aa4	-0.09837845
21	0x3dbd41a3	0.09241035
22	0x3c8d8b75	0.017278412
23	0x3c451403	0.012028697
24	0xbd22b78c	-0.039725825
25	0xbdf05779	-0.11735434
26	0xbe567de4	-0.20946461
27	0xbd39ea5d	-0.045389522
28	0xbe281d14	-0.16417342
29	0xbe146c67	-0.14494477
30	0xbdcbe078	-0.099549234
31	0x3e1f2174	0.15540105
32	0x3e1c855a	0.15285245
33	0xbe397a44	-0.18113047
34	0x3e2b5724	0.1673246
35	0x3e201c32	0.15635756
36	0xbd9c62a3	-0.07636001
37	0xbce8966d	-0.028392041
38	0xbd975fe0	-0.073913336
39	0xbcfd9a7b	-0.030957451
40	0xbd2eb904	-0.042656913
41	0xbd90983b	-0.07060286
42	0x3c1ab462	0.009442421
43	0xbc916b89	-0.017751472
44	0xbcbc05f0	-0.02295205
45	0x3d563474	0.052296117
46	0x3cdd2800	0.026996613
47	0xbd9ea78e	-0.07746802
48	0x3bcfa6a5	0.0063370042
49	0x3d5d1fcf	0.053985413
50	0xbd23dc9d	-0.040005315
51	0x3d68ddd1	0.056852166
52	0xbd3cde94	-0.046110705
53	0xbdaf7c58	-0.085686386
54	0x3d8e2524	0.06940678
55	0xbc346c09	-0.011012086
56	0x3d157107	0.036484744
57	0x3d6979bb	0.057000857
58	0x3d801ed4	0.0625588
59	0x3c82c962	0.015965167
60	0x3d46d269	0.048540507
61	0x3c2bf09f	0.01049438
62	0xbe0c75dc	-0.13716835
63	0x3dbccdbf	0.092189305
64	0xbe00d6c2	-0.12581924
65	0xbe57b9e1	-0.21067001
66	0xbcc0764e	-0.023493912
67	0xbd199ad0	-0.037501156
68	0x3c65af13	0.014018792
69	0xbd06ac98	-0.032879442
70	0x3d58f750	0.05297023
71	0xbb797ecd	-0.0038069964
72	0x3d71ae43	0.05900408
73	0xbd1d33bb	-0.038379412
74	0xbe05287d	-0.13003726
75	0x3de904cd	0.11377869
76	0x3c92a352	0.017900143
77	0xbc39c6b2	-0.011338877
78	0x3e74a54f	0.23891185
79	0x3d9c15a1	0.07621313
80	0xbc911f9e	-0.017715272
81	0xbc9890b8	-0.018623695
82	0xbdb47aaa	-0.08812459
83	0xbd8780c8	-0.0661636
84	0xbc3f78e7	-0.01168654
85	0x3d5ecc11	0.05439383
86	0x3d68e5a6	0.056859635
87	0xbb06eb4e	-0.002058703
88	0x3d9322a3	0.07184341
89	0xbc8f31ee	-0.017479863
90	0x3d123710	0.035697043
91	0x3cbf1cc9	0.023329156
92	0x3dc5c1a3	0.09656074
93	0xbcdc65b1	-0.026903959
94	0x3d11531d	0.035479654
95	0x3c245c85	0.010031824
96	0xbd847929	-0.06468422
97	0xbc62bffe	-0.01383972
98	0xbd19f77e	-0.037589543
99	0xbda7f300	-0.082006454
100	0x3cde27b7	0.027118547
101	0x3de601e9	0.11230833
102	0x3d370d06	0.044690154
103	0x3d98b4a6	0.07456331
104	0x3d19287c	0.037392125
105	0x3cf9a2a5	0.030473063
106	0x3d36300e	0.044479422
107	0xbc59514b	-0.013264011
108	0xba28aaed	-0.00064341613
109	0x3c947985	0.018124351
110	0xbcf818bd	-0.030285234
111	0x3d362d37	0.044476714
112	0x3b21b301	0.0024673345
113	0x3d972c39	0.07381482
114	0xbd8a3794	-0.06748882
115	0x3cc3e070	0.023910731
116	0x3c505c00	0.012717247
117	0xbe1b7a81	-0.1518345
118	0x3cf73c14	0.030180015
119	0x3e06737e	0.13129994
120	0xbe09b183	-0.13446622
121	0xbd6c9ff7	-0.057769742
122	0x3e1ce9a9	0.1532351
123	0x3d40caf8	0.047068566
124	0xbe055408	-0.13020337
125	0x3cb10c96	0.021612447
126	0x3d892733	0.0669693
127	0x3bd6eca1	0.00655897
128	0x3d713fb3	0.05889864
129	0xbd4d3812	-0.0501023
130	0xbdce0f1f	-0.10061478
131	0x3ceb6716	0.028735679
132	0xbe11e597	-0.14247738
133	0xbdedba00	-0.11607742
134	0xbd86d308	-0.0658322
135	0x3d844562	0.06458546
136	0x3daa452b	0.08313974
137	0x3e2ab52b	0.16670673
138	0x3d8e34ab	0.06943639
139	0xbc740298	-0.0148931965
140	0x3d0562a8	0.03256479
141	0xbd0778bb	-0.033074122
142	0xbe44a3dc	-0.19203132
143	0xbe13f0b5	-0.14447291
144	0x3d31688b	0.04331259
145	0xbd0d1425	-0.03444304
146	0xbd10c6e1	-0.035345916
147	0xbd206799	-0.0391613
148	0xbdcd61e0	-0.10028434
149	0xbcfe37da	-0.031032491
150	0x3daa9856	0.08329837
151	0xbdae94ea	-0.08524497
152	0x3d267392	0.04063756
153	0xbde9c2a3	-0.11414077
154	0xbd83197c	-0.06401345
155	0xbd824dd2	-0.06362499
156	0x3bf40456	0.007446806
157	0x3d6888cb	0.05677108
158	0xbcbcd12d	-0.023048962
159	0xbc420f79	-0.011844509
160	0xbcdaa849	-0.026691573
161	0xbc120af2	-0.008913742
162	0xbd9c9970	-0.076464534
163	0xbbe96c10	-0.0071234778
164	0x3ca0b61e	0.01961809
165	0xbc082f7c	-0.008312102
166	0xbd8b79c9	-0.06810338
167	0xbd803f0f	-0.062620275
168	0xbc8abb93	-0.016935145
169	0xbdc074b5	-0.0939726
170	0xbc301a0b	-0.010748397
171	0x3dc4b924	0.09605625
172	0xbcb2e28a	-0.021836538
173	0xbcf2f82f	-0.029659359
174	0x3d9a0f92	0.07522501
175	0x3d89feb1	0.06738032
176	0xbd7fa0ab	-0.062409084
177	0xbad5332b	-0.001626586
178	0x3d2e06d5	0.042486984
179	0xbd341909	-0.043969188
180	0x3e461415	0.19343598
181	0x3e414acc	0.18876189
182	0x3e020184	0.1269589
183	0x3cf174bd	0.02947461
184	0xbc477d29	-0.012175837
185	0xbe1e0861	-0.15432884
186	0xbce10ffa	-0.027473439
187	0xbdbe0fe3	-0.09280374
188	0xbe5993c7	-0.21247779
189	0x3d724b2f	0.059153732
190	0x3d0413c9	0.03224543
191	0x3cd1a0b9	0.025589334
192	0xbd496093	-0.049164366
193	0x3c7a74b5	0.015286614
194	0x3d801e50	0.06255782
195	0xbbe34dcb	-0.006936764
196	0x3c07d275	0.008289923
197	0xbcc91df9	-0.024550425
198	0xbd15a49e	-0.036533944
199	0xbd2d466e	-0.042303495
200	0xbd1ef35d	-0.038806308
201	0xbc15d32f	-0.009144588
202	0xbd87c659	-0.06629629
203	0x3d4bebd6	0.049785458
204	0x3d706770	0.058692396
205	0xbc413261	-0.011791796
206	0x3ce7b83e	0.028286096
207	0xbd8f1768	-0.06986886
208	0xbe096ca0	-0.13420343
209	0xbdecb290	-0.115574956
210	0xbd3266a8	-0.043554932
211	0xbdb50ea1	-0.08840681
212	0xbd504b90	-0.050853312
213	0x3dc096ca	0.09403761
214	0x3d962957	0.07332104
215	0x3e180bee	0.14848301
216	0xbcb6a421	-0.02229506
217	0xbbe3a183	-0.006946744
218	0x3aac3f7b	0.0013141477
219	0x3bb641f5	0.005562062
220	0x3d8fe1cf	0.070254914
221	0x3d0bac0b	0.03409962
222	0x3d213166	0.03935375
223	0xbaec58f3	-0.001803188
224	0xbd262320	-0.04056084
225	0xba5bb568	-0.00083812186
226	0xbc0fd581	-0.008778931
227	0xbd2d0f11	-0.042250697
228	0xbc5d65d8	-0.013513051
229	0x3d102e37	0.035200324
230	0x3d8250e4	0.06363085
231	0x3b650570	0.0034945868
232	0xbc139ddc	-0.009009805
233	0x3d365b86	0.044520877
234	0xbdbff759	-0.0937335
235	0x3c1d73f3	0.009610164
236	0x3c4d8119	0.012542986
237	0x3c0dd200	0.008656025
238	0xbd38d80b	-0.04512791
239	0x3ca8dbb6	0.020612579
240	0x3b913dcc	0.0044324156
241	0x3dd702be	0.1049857
242	0xbc279189	-0.010227569
243	0x3d3258ba	0.043541647
244	0xbbeac57e	-0.007164656
245	0x3b305418	0.0026905593
246	0xbd103e74	-0.03521581
247	0xbc7c0d1f	-0.015383988
248	0xbd079ab7	-0.033106532
249	0x3c25fc05	0.010130887
250	0x3d134d90	0.03596264
251	0x3d81468a	0.063122824
252	0xbbdc7729	-0.006728072
253	0x3c27d459	0.010243499
254	0xbdddb890	-0.10826218
255	0xbd3acf0d	-0.045607615

conv_net.C3.weight f4 [128, 64, 3, 3]
0	0xbd0d3649	-0.0344756
1	0xbe2747eb	-0.16336028
2	0x3a8528ad	0.0010159217
3	0xbaf24e46	-0.0018486462
4	0xbd6a26b7	-0.057165828
5	0x3c766bba	0.015040332
6	0x3bb89831	0.005633377
7	0xbc4bd855	-0.012441714
8	0x3d0ca173	0.034333657
9	0x3c99bd45	0.018767009
10	0x3cf74640	0.030184865
11	0xbcc8491f	-0.02444893
12	0xbb757adf	-0.003745727
13	0xbda1ca4c	-0.07899913
14	0xbd63b9b1	-0.05559701
15	0xbd235ba7	-0.03988233
16	0xbd53f751	-0.05174953
17	0xbd61eae5	-0.055155654
18	0xbca0f454	-0.019647755
19	0xb9efe0dd	-0.00045753169
20	0xbd0142e5	-0.031557936
21	0xbda0ffd5	-0.07861296
22	0xbe0661c9	-0.1312324
23	0x3ce226e3	0.027606433
24	0xbc899d87	-0.016798748
25	0xbad343ac	-0.001611819
26	0x3d78d23b	0.060747366
27	0xbd56eb32	-0.052470393
28	0xbc3d2234	-0.011543799
29	0x3c479916	0.012182495
30	0xbc252280	-0.010079026
31	0xbdc05b88	-0.09392458
32	0xbc9c2895	-0.01906232
33	0xbc9b62a1	-0.018967928
34	0x3b0aa288	0.0021154005
35	0x3d19ae75	0.03751989
36	0x3d3ed894	0.046593264
37	0x3cad96ff	0.021190165
38	0x3d1e8406	0.038700126
39	0xbd5a548b	-0.053303283
40	0xbdcb9387	-0.09940248
41	0xbd3764c6	-0.04477384
42	0xbca52256	-0.020157974
43	0x3c1b0a23	0.009462866
44	0xbd13a21b	-0.036043268
45	0xbce7e201	-0.02830601
46	0x3cc73aa0	0.024319947
47	0xbc349b54	-0.011023361
48	0x3d0b43ff	0.034000393
49	0x3cfbcfc0	0.030738711
50	0x3c9d8ff3	0.01923368
51	0xbd365aa9	-0.044520054
52	0xbc6e491c	-0.014543798
53	0x3cb7fa31	0.022458168
54	0x3c9806d7	0.018557949
55	0xbc6ed8d3	-0.014578062
56	0x3cab5ee5	0.020919273
57	0x3cbad5da	0.02280705
58	0xba429f55	-0.0007424255
59	0x3c857282	0.016289953
60	0x3d1d3fc4	0.03839089
61	0xbd80258c	-0.062571615
62	0xbdadbd81	-0.084834106
63	0x3cf468f8	0.02983521
64	0xba0ba7f9	-0.0005327459
65	0xbc1754e6	-0.00923655
66	0x3a2b8b2c	0.00065438705
67	0xbd0d5956	-0.034509026
68	0x3ca75e25	0.020430634
69	0x3d928293	0.07153811
70	0x3d1bfaf0	0.03808111
71	0xbd37190d	-0.044701625
72	0xbc3d03f1	-0.011536584
73	0x3d3f29e8	0.046670824
74	0xbde82140	-0.11334467
75	0xbd7f9651	-0.062399212
76	0xbc2bcc2f	-0.010485693
77	0xbccc7db7	-0.02496229
78	0xbdeb3501	-0.11484719
79	0xbdceede4	-0.10103968
80	0xbc5a4b30	-0.01332359
81	0xbab046ce	-0.0013448836
82	0xbd7281cf	-0.059205826
83	0x3cb677ed	0.022273982
84	0xbd6a28e6	-0.05716791
85	0xbe82884e	-0.25494617
86	0xbb99895f	-0.0046855654
87	0xbda978d5	-0.08275
88	0x3db9d603	0.090740226
89	0x3cb4c67e	0.022067305
90	0x3b7b49e2	0.0038343598
91	0x3cbc32b5	0.022973398
92	0xb9ec7e05	-0.0004510732
93	0x3a1d93dd	0.0006011108
94	0xbd2e6610	-0.042577803
95	0x3cfda604	0.030962951
96	0xbd13247b	-0.035923462
97	0xbd670aa9	-0.05640665
98	0x3e05e7f0	0.13076758
99	0x3c1b6898	0.009485386
100	0xbca60fcb	-0.020271203
101	0xba908c95	-0.0011028225
102	0x3c8ac233	0.016938305
103	0x3cc84387	0.024446262
104	0x3c95591f	0.018230973
105	0xbc53b916	-0.012922546
106	0xbcced290	-0.025246888
107	0xbcdbc595	-0.026827613
108	0xbc8d5e66	-0.017256927
109	0xbd61e290	-0.055147707
110	0xbd551c47	-0.05202892
111	0xbd9a8aed	-0.07546029
112	0xbad093e3	-0.0015913214
113	0xbddf87e3	-0.1091459
114	0xbcb19400	-0.021677017
115	0x3a361c4d	0.0006946966
116	0xbc9edaa1	-0.01939136
117	0x3d2e73e1	0.04259098
118	0x3da0256a	0.07819636
119	0x3ce4bf54	0.027923264
120	0xbd546ae1	-0.05185974
121	0xbda1a427	-0.07892638
122	0x3c3ec65b	0.011643971
123	0xbbacf85f	-0.0052786316
124	0x3cbcb381	0.023034813
125	0xbd465e7f	-0.048429962
126	0xbd7768ec	-0.060402796
127	0xbd8fa418	-0.0701372
128	0xbc245976	-0.010031095
129	0xbdbf33b9	-0.09336037
130	0xbd68702d	-0.056747604
131	0x3d2387f3	0.039924573
132	0x3c21007a	0.009826774
133	0x3cbdd023	0.023170536
134	0xbcc26677	-0.0237305
135	0x3dc01242	0.093784824
136	0x3d840533	0.06446304
137	0x3be66290	0.0070307925
138	0x3cbc8f4d	0.02301755
139	0xbc84e497	-0.016222281
140	0xbc2d7feb	-0.01058958
141	0xbdb28fcb	-0.087188326
142	0xbda2dade	-0.07951902
143	0xbce61e13	-0.028090512
144	0xbd39f017	-0.045394983
145	0x3cac3e17	0.0210257
146	0xbb7a3eee	-0.0038184482
147	0xbddb9d51	-0.10723365
148	0xbb0c9bfe	-0.0021455283
149	0xbde65e41	-0.11248446
150	0xbcc48d17	-0.023993058
151	0xbc9e92d2	-0.019357119
152	0xbe0bb68e	-0.13643858
153	0xbcd6e52e	-0.026232328
154	0xbd65b7cd	-0.05608349
155	0xbd4c918d	-0.049943496
156	0x3c54fdbf	0.012999951
157	0x3cb6a3ef	0.022294967
158	0xbdcfe163	-0.10150411
159	0xbd2241d6	-0.039613567
160	0xba9c5c6d	-0.00119294
161	0xbcf916a6	-0.030406307
162	0xbc68e1ba	-0.014213974
163	0x3bfd49a4	0.007729726
164	0xbd27e23b	-0.040987235
165	0xbd8a773f	-0.06761026
166	0xbd0cd467	-0.03438225
167	0xbd404a2e	-0.046945743
168	0xbd19a5e2	-0.037511714
169	0xbb943550	-0.004522957
170	0xbda7a335	-0.08185426
171	0xbd214ca9	-0.03937975
172	0xbc4397ca	-0.011938045
173	0xbd5025bc	-0.050817236
174	0xbce2dd1a	-0.02769332
175	0xbc9ff0e2	-0.019524042
176	0x3ce4aa4f	0.02791324
177	0xbdbe7c9c	-0.09301111
178	0xbdab3ed7	-0.08361595
179	0x3d35e8df	0.044411536
180	0x3cefa838	0.029255018
181	0x3ca1862a	0.019717295
182	0x3ba075ec	0.00489687
183	0xbd5a7356	-0.05333265
184	0xbd63d91b	-0.05562697
185	0x3c90602e	0.017623987
186	0x3ca02ccd	0.019552613
187	0xbc68af05	-0.014201884
188	0xbd27d274	-0.040972188
189	0xbd7786fc	-0.060431466
190	0xbd91394e	-0.07091008
191	0xbcc45c04	-0.023969658
192	0xbc5547ee	-0.013017638
193	0x3dfc8a0a	0.12331016
194	0x3d96d090	0.07363999
195	0x3d0387a3	0.032111775
196	0x3b104859	0.0022015779
197	0xbbd9714d	-0.006635821
198	0x3cdc1b5c	0.026868515
199	0xbc7d034e	-0.015442682
200	0xbd84d4e3	-0.064859174
201	0x3d9b485d	0.075821616
202	0xbc15963a	-0.009130055
203	0x3d2fa9f1	0.042886678
204	0x3cab6234	0.02092085
205	0xbc050a56	-0.00812014
206	0xbc958f82	-0.018256906
207	0xbdc8b223	-0.09799602
208	0xbde06399	-0.10956497
209	0xbd448160	-0.047974944
210	0xbd6f2a1c	-0.058389768
211	0xbd0bf2a5	-0.03416695
212	0xbd2b3513	-0.041798662
213	0xbd1d4459	-0.03839526
214	0xbdb46beb	-0.08809646
215	0x3c80a57e	0.015703913
216	0x3e1cc2ea	0.15308729
217	0x3bb598ae	0.0055418825
218	0xbcb4b573	-0.022059178
219	0x3cdd7db9	0.027037488
220	0xbdcb9512	-0.09940542
221	0xbbcb4a06	-0.0062038926
222	0xbe10462b	-0.14089267
223	0xbd5bfb58	-0.053706497
224	0x3db33fe2	0.08752419
225	0x3d714a58	0.05890879
226	0x3d473e63	0.04864348
227	0xbb117d5e	-0.0022199969
228	0x3db3381a	0.08750935
229	0xbd584097	-0.052795973
230	0xbd7ab783	-0.061210167
231	0xbd3541e6	-0.0442523
232	0xbc69b2c5	-0.014263813
233	0xbdc7aeb6	-0.0975012
234	0xbc57c95d	-0.013170567
235	0x3db1b80d	0.08677683
236	0x3daa591f	0.0831778
237	0xbdd10ebc	-0.102078885
238	0xbd0c974c	-0.034323975
239	0xbcb0764b	-0.021540781
240	0x3c837d59	0.016050981
241	0xbc9747c5	-0.01846684
242	0x3dac7fc8	0.0842281
243	0x3c12e978	0.008966796
244	0xbd04007d	-0.03222703
245	0xbdcf1c74	-0.10112849
246	0xba713a76	-0.0009202132
247	0xbd540a52	-0.051767655
248	0xbd4879ee	-0.048944406
249	0xbdfc7833	-0.12327614
250	0xbe118961	-0.14212562
251	0xbd822935	-0.06355516
252	0x3d67275c	0.05643402
253	0x3d96d854	0.0736548
254	0x3d3a114c	0.04542665
255	0x3c80fbb1	0.015745016

conv_net.C4.weight f4 [1, 128, 3, 3]
0	0xbc1b7410	-0.009488121
1	0xbccc7f92	-0.024963174
2	0xbd1c03fd	-0.03808974
3	0xbc853702	-0.016261581
4	0xbe0b523e	-0.13605592
5	0xbd13ca19	-0.036081407
6	0xbd0d1577	-0.0344443
7	0xbd18c208	-0.037294418
8	0xbbeb5c16	-0.0071826084
9	0x3bfe7e28	0.007766504
10	0xbbd169bf	-0.0063907797
11	0xbdfb9bbc	-0.12285563
12	0x3ca4cb43	0.020116454
13	0xbc80a7b4	-0.015704967
14	0xbc915376	-0.017739993
15	0x3cae905f	0.021309076
16	0x3be4b478	0.0069795214
17	0x3bfd557b	0.0077311373
18	0x3dd77315	0.10519997
19	0xbc5825a2	-0.013192566
20	0xbc73558e	-0.014851941
21	0xbd403ef6	-0.046935044
22	0xbcc0e99e	-0.023548897
23	0xbc034bda	-0.00801369
24	0xbc27adee	-0.010234339
25	0xbbaa2314	-0.00519217
26	0x3b57325f	0.003283642
27	0xbd7d7785	-0.06188156
28	0x3d07d231	0.03315944
29	0x3cd02d71	0.025412293
30	0xbd9de83c	-0.07710311
31	0xbd0d3cee	-0.034481935
32	0x3d965bad	0.073417045
33	0xbd4b99c4	-0.04970719
34	0x3d0b6ee1	0.03404129
35	0x3d02d7ea	0.031944193
36	0x3cc9f57e	0.024653193
37	0x3cb183e4	0.021669336
38	0x3cd729fd	0.026265139
39	0x3ca0a565	0.019610116
40	0x3d1982b4	0.037478164
41	0x3cef3ff4	0.0292053
42	0x3cb488df	0.022037921
43	0x3ced13a0	0.028940022
44	0x3d28349a	0.04106579
45	0xbbec447b	-0.007210312
46	0xbc5ce957	-0.013483367
47	0xbce774b8	-0.028253898
48	0xbd03f4f3	-0.032216024
49	0xbd1e150e	-0.038594298
50	0xbd9b953c	-0.075968236
51	0xbd34c77c	-0.044135556
52	0xbd98596d	-0.074389316
53	0xbdc08116	-0.09399621
54	0xbc86be1b	-0.016448071
55	0xbccf1e09	-0.025282877
56	0xbc904785	-0.017612228
57	0xbc0c9519	-0.0085804695
58	0xbcb70ccf	-0.022344975
59	0xbc1c32a3	-0.009533557
60	0xbc4e91d0	-0.012608007
61	0xbce4ac8b	-0.027914306
62	0xbca5dc89	-0.02024676
63	0x3ba23f25	0.004951375
64	0xbbffc28f	-0.0078051756
65	0x3cc9f532	0.024653051
66	0x3a0f6ce2	0.0005471242
67	0xbcc5df8f	-0.024154453
68	0x3d5d2d0b	0.053998034
69	0x3c30f96e	0.010801656
70	0x3e0abae5	0.13547857
71	0x3dedd539	0.116129346
72	0xbcf6a41f	-0.030107556
73	0xbd28ca5d	-0.041208614
74	0xbce39688	-0.02778174
75	0xbd12682f	-0.03574389
76	0x3e74e831	0.23916699
77	0xbc49eecb	-0.012324999
78	0xbc3fa29a	-0.011696482
79	0xbcd70dd0	-0.026251704
80	0xbc67f96e	-0.01415859
81	0x3dcc049e	0.09961818
82	0x3e0fa900	0.14029312
83	0x3d79e425	0.06100859
84	0xbbd7422e	-0.0065691685
85	0xbbb2ecf5	-0.0054603764
86	0xbab855ab	-0.0014063617
87	0xbb958cae	-0.0045638895
88	0x3b784622	0.00378836
89	0xbba12f56	-0.004918973
90	0xbaea6e24	-0.0017885608
91	0x3d17f5c6	0.037099622
92	0x3d7abd93	0.06121595
93	0xbc85ebf1	-0.016347857
94	0xbcd07a8e	-0.025449064
95	0x3d28d734	0.04122086
96	0xbd17cb74	-0.037059262
97	0xbd3b15ac	-0.045674965
98	0xbcf705f9	-0.030154215
99	0xbaca8eae	-0.0015453899
100	0xbc29edc7	-0.010371632
101	0xb9929762	-0.0002796008
102	0x3b5f5c19	0.0034081994
103	0xbc1447d9	-0.009050333
104	0x3c142209	0.009041318
105	0x3cf57a63	0.029965585
106	0x3d3f934e	0.04677134
107	0x3e1fe83f	0.15615939
108	0x0b08d852	2.635539e-32
109	0x0b053410	2.5654036e-32
110	0x0af3c531	2.3474224e-32
111	0x0b033adf	2.5273972e-32
112	0x0b018cd6	2.495045e-32
113	0x0afb94dd	2.4226417e-32
114	0x0ad2667a	2.0260812e-32
115	0x0ad32ec7	2.0336157e-32
116	0x0ad86672	2.0838579e-32
117	0xbcac3cb2	-0.021025036
118	0xbc9b0266	-0.018922042
119	0x39904726	0.0002751883
120	0xbcd30875	-0.025760869
121	0xbe180b7f	-0.14848135
122	0xbb269b81	-0.0025422277
123	0xbc278f49	-0.010227033
124	0x3b821476	0.0039697243
125	0xbb19f0de	-0.0023489515
126	0xbd0dd051	-0.034622494
127	0xbb82a5ac	-0.003987035
128	0xbc9c6e33	-0.019095516
129	0xbd7b3ad6	-0.061335407
130	0xbce53f13	-0.027984178
131	0xbc85eb0c	-0.01634743
132	0xbd9b631d	-0.07587264
133	0xbccdf804	-0.025142677
134	0xbce35764	-0.027751632
135	0xbc167831	-0.009183929
136	0xbb41dced	-0.0029581145
137	0xbc240338	-0.010010533
138	0xbc165c61	-0.009177298
139	0xbc4a5414	-0.012349147
140	0xbc47a91d	-0.012186316
141	0xbc876c47	-0.016531123
142	0xbc4cf0ed	-0.012508613
143	0xbc84200c	-0.016128562
144	0xbd112743	-0.035437834
145	0xbcfddd20	-0.03098923
146	0xbcb1b847	-0.021694316
147	0xbe060ecf	-0.13091587
148	0xbd8779c0	-0.06615019
149	0xbc7f8384	-0.015595321
150	0x3bb9efcd	0.0056743384
151	0xbb95a586	-0.004566851
152	0xbc0a2bd4	-0.008433301
153	0x3b8c9f51	0.004291453
154	0xba68f332	-0.00088863366
155	0xbc3085a4	-0.01077405
156	0x3a4ed329	0.00078897417
157	0x3c36dd2d	0.011161131
158	0x3e8ceeca	0.27525932
159	0x3b988373	0.004654342
160	0x3caebeef	0.021331279
161	0x3d80e2cb	0.06293257
162	0x3b9d4583	0.004799546
163	0xbd2bdf42	-0.041960962
164	0xbdcd7c12	-0.1003343
165	0x3c8ad51c	0.016947322
166	0x3d52ab95	0.051433165
167	0xbd5c916c	-0.053849623
168	0x3cd367ac	0.02580627
169	0x3ce76437	0.028246028
170	0xbc60d6af	-0.01372306
171	0xbb068e0c	-0.0020531444
172	0xbc34dcbc	-0.011038955
173	0xbb2b7d88	-0.0026167352
174	0xbc0a1627	-0.008428133
175	0x3c1e07c0	0.009645402
176	0x3e2d7ebd	0.16942878
177	0xbb9ea555	-0.0048414865
178	0xbb4d65e8	-0.0031341258
179	0xbcca0544	-0.024660714
180	0x3cc61bce	0.02418318
181	0x3dc4ebfe	0.096153244
182	0x3c11469a	0.00886693
183	0xbc1830eb	-0.009289007
184	0xbdaaa41f	-0.08332085
185	0xbd8a3df0	-0.06750095
186	0xbbb760cc	-0.005596256
187	0x3d4a3b55	0.04937299
188	0x3c039580	0.008031249
189	0x3d8bb43a	0.06821485
190	0x3d843011	0.064544804
191	0x3d41e68e	0.047339015
192	0x3d57d402	0.05269242
193	0x3d669b52	0.05630047
194	0x3cc299f7	0.023755057
195	0xbbfcd628	-0.007715959
196	0xb998fc49	-0.00029179666
197	0x3bf37189	0.007429306
198	0xbda2fab8	-0.07957977
199	0xbd769e5d	-0.06020962
200	0xbd80eb73	-0.062949084
201	0xbd828b86	-0.06374268
202	0xbd26e544	-0.04074599
203	0xbd96ee0c	-0.073696226
204	0xbd3ad214	-0.045610502
205	0xbd0fa6e3	-0.035071265
206	0xbd953321	-0.07285143
207	0x3c6823a4	0.014168654
208	0x3c2e1b5b	0.010626639
209	0xba8007af	-0.0009767915
210	0x3cfc4500	0.03079462
211	0x3d130a39	0.03589842
212	0x3c055673	0.008138287
213	0x3be64eae	0.0070284223
214	0xbe115148	-0.14191163
215	0x3c411639	0.011785083
216	0x3c4e1e9c	0.01258054
217	0x3c82183b	0.015880695
218	0x3d66183a	0.056175448
219	0xbba0963f	-0.004900723
220	0xbc51a9b7	-0.012796811
221	0x3e6de8bc	0.23233312
222	0x3b6845cd	0.0035441995
223	0x3a611128	0.00085856253
224	0x3cccb239	0.024987327
225	0xb9850b3e	-0.00025376113
226	0x3a9c82fc	0.0011940892
227	0x3aba1c75	0.0014199155
228	0x3a01c649	0.0004950506
229	0x3d68b4a8	0.056812912
230	0xba91cd1e	-0.0011123752
231	0x39b1c177	0.00033904213
232	0xb884c978	-6.331777e-05
233	0xba609ae2	-0.0008568001
234	0x3bff0c1e	0.007783427
235	0x3cb99e9a	0.022658635
236	0x3b1217bb	0.0022291976
237	0x3c630602	0.013856413
238	0x3ea45523	0.32096204
239	0x3c0b5423	0.0085039465
240	0x3ce5b23f	0.028039096
241	0x3ca26e15	0.019827882
242	0x3c31bbd7	0.010848007
243	0x3e4d0824	0.20022637
244	0x3d510e59	0.051039074
245	0x3c471cda	0.012152875
246	0x3ec46dd0	0.3836503
247	0xbd026c27	-0.031841423
248	0xbb220c12	-0.0024726433
249	0x3c044ccc	0.00807495
250	0xbafa1a30	-0.0019081291
251	0x3bd1ddd6	0.0064046187
252	0x3c7da36e	0.015480859
253	0x3cebf8ea	0.028805215
254	0x3bddafc4	0.0067653377
255	0x3c4fa5ce	0.012673808
