CNN_weights/NetworkB_weights_1982-2012_allsamples.pt (torch, 46815 bytes, 4 tensors)

conv_net.C1.weight f4 [32, 12, 1, 1]
0.20433287 0.09563254 -0.031454 -0.026396519 0.19796532 0.09754323 -0.07202419 -0.6864147
-0.32972977 -0.073214516 -0.10732279 -0.23068511 -0.100365356 -0.38761473 -0.16171956 0.13344799
-0.18749629 0.22669156 0.07766073 0.1687645 0.13075444 0.41338825 0.17411305 0.09670269
-0.036033075 0.08720778 0.016229212 -0.00024344491 0.012850356 0.041655105 0.081626676 -0.43994746
-0.2874816 0.09974827 -0.18480629 0.38144034 -0.06739894 0.11241854 -0.05298962 -0.013420153
-0.08671289 -0.54708403 -0.17426126 0.16293767 0.27960178 0.46406728 -0.010399353 -0.13101186
-0.14998843 -0.2120145 0.16535051 -0.048470773 -0.036387224 -0.060300127 -0.0010767084 -1.0229715
0.34499404 -0.13896541 0.040356632 -0.07405797 -0.020945828 -0.004321563 -0.020939853 -0.07976104
-0.009873099 0.069100134 -0.021547789 -1.5458535 -0.35926682 0.2837906 -0.042235836 0.2294549
-0.30024406 -0.05819476 -0.058411412 0.31512877 -0.12651494 0.25734428 -0.2976994 0.20154083
-0.08841695 -0.15608063 -0.005712217 0.1962973 0.05200443 -0.018712725 -0.12222451 0.37218508
0.014652318 -0.051350597 -0.06185677 0.093557775 -0.078525364 0.2566261 -0.091849 0.3473016
0.018749397 -1.5681831 -0.47194812 -0.09938695 0.10154998 -0.09645919 -0.15882018 -0.0069547254
-0.06251607 -0.20868546 -0.14288306 0.15461668 -0.0013833602 0.03079493 0.0025380927 0.013254312
0.055783797 0.06796142 0.018872827 0.085409045 0.1115305 -1.4234232 -0.10143729 -0.3570253
-0.046455022 0.11717534 0.03435861 -0.15748803 0.18464458 -0.16558678 -0.023139888 -0.25258946
0.0768598 -0.27016428 0.08937678 0.76042426 -0.09063971 0.14425717 -0.022302343 0.19450264
0.055143725 0.39424035 -0.021375863 0.3357228 -0.024998493 0.5196125 -0.040209174 -0.9140539
0.04074522 -0.06891063 -0.10163925 0.1181651 -0.3123261 0.039993428 -0.17666115 -0.9104476
-0.22945933 -0.5604335 0.1959827 -0.42208618 0.0082627265 0.04158175 -0.017379599 -0.003263239
0.03019039 -1.5068412 -0.36851603 0.049264025 -0.07614916 -0.12654927 0.033416387 -0.117585056
0.27545437 -0.05938479 0.00664165 -0.0958504 0.08666657 -0.6852675 0.42467287 -0.340537
0.14449008 -0.06424549 0.01867637 0.09350707 0.07722263 0.0154119795 0.0053725047 9.647081e-05
-0.01701895 0.077498235 0.10939383 0.3808924 -0.12645279 -0.08195318 0.07393287 0.3344564
-0.22410196 -0.1715558 0.05857785 0.14834128 0.14311594 -0.6732651 -0.103085116 -0.0055389404
-0.20213884 0.16070439 -0.117643066 -0.38129994 -0.017518336 -0.19168623 0.2147715 -0.77936876
0.252873 -0.21768071 -0.15490223 0.14404401 -0.13344069 -0.062086675 -0.045608025 0.24930856
0.17625742 -0.013830273 0.07174344 0.028909568 -0.23628028 0.044710234 -0.006977562 0.12526207
-0.052778725 -0.44315797 -0.2287162 -0.51793414 -0.016989943 -0.099496655 -0.22259988 -0.24605268
-0.4221869 -0.13625535 -0.39865038 -0.2211369 -0.283608 -0.21604566 -0.2262955 0.5020963
0.059625115 0.29265755 0.0049588806 0.09087672 0.17162265 -0.15883857 0.15994667 -0.21863618
-0.14595059 -0.27602378 -0.034352783 -0.008412911 0.33590773 -1.1392207 -0.13259698 0.058896527
00000000: a33c 513e feda c33d e9d5 00bd 833d d8bc
00000010: 6cb7 4a3e bfc4 c73d 6b81 93bd e0b8 2fbf
00000020: 57d2 a8be 7ef1 95bd 0dcc dbbd b838 6cbe
00000030: 5a8c cdbd 7075 c6be d099 25be 97a6 083e
00000040: 07ff 3fbe d521 683e 970c 9f3d 9ad0 2c3e
00000050: 7ee4 053e a0a7 d33e b14a 323e 0f0c c63d
00000060: 6b97 13bd fe99 b23d 20f3 843c 3f45 7fb9
00000070: 4d8a 523c 8b9e 2a3d e32b a73d cb40 e1be
00000080: ca30 93be d248 cc3d dc3d 3dbe 264c c33e
00000090: 7508 8abd b13b e63d a50b 59bd 34e0 5bbc
000000a0: 8796 b1bd b30d 0cbf 8b71 32be 22d9 263e
000000b0: f727 8f3e 3a9a ed3e 0c62 2abc f927 06be
000000c0: 9196 19be 541a 59be a551 293e 4a89 46bd
000000d0: c50a 15bd 44fd 76bd 5720 8dba bbf0 82bf
000000e0: 0fa3 b03e f34c 0ebe ff4c 253d b4ab 97bd
000000f0: 9696 abbc e69b 8dbb 0e8a abbc c259 a3bd
00000100: c7c2 21bc 5f84 8d3d fd84 b0bc 87de c5bf
00000110: d2f1 b7be 004d 913e 7cff 2cbd 3af6 6a3e
00000120: 97b9 99be a15d 6ebd ce40 6fbd 8f58 a13e
00000130: 228d 01be a1c2 833e 0e6c 98be b860 4e3e
00000140: f213 b5bd 9ad3 1fbe 8d2d bbbb 2902 493e
00000150: 9902 553d 6e4b 99bc d850 fabd 0b8f be3e
00000160: 4710 703c 0155 52bd 865d 7dbd 389b bf3d
00000170: e8d1 a0bd 7f64 833e 541b bcbd 84d1 b13e
00000180: 5698 993c 39ba c8bf 2fa3 f1be 638b cbbd
00000190: 70f9 cf3d 658c c5bd c2a1 22be 77e4 e3bb
000001a0: 6d08 80bd a4b1 55be f04f 12be d653 1e3e
000001b0: de51 b5ba a645 fc3c 2156 263b 9d28 593c
000001c0: 8d7d 643d 5b2f 8b3d 309b 9a3c f0ea ae3d
000001d0: 1a6a e43d bb32 b6bf 5bbe cfbd 05cc b6be
000001e0: 9f47 3ebd a0f9 ef3d 9dbb 0c3d 8b44 21be
000001f0: 7813 3d3e 958f 29be dd8f bdbc 6853 81be
00000200: ac68 9d3d f952 8abe 2c0b b73d 2aab 423f
00000210: 50a1 b9bd 27b8 133e 67b3 b6bc b32b 473e
00000220: 63de 613d dfd9 c93e 6f1c afbc dce3 ab3e
00000230: a4c9 ccbc 5305 053f 60b2 24bd 70ff 69bf
00000240: 76e4 263d 0421 8dbd 3d28 d0bd 8b00 f23d
00000250: 35e9 9fbe 26d0 233d a9e6 34be 1813 69bf
00000260: 63f7 6abe 9278 0fbf b0af 483e ae1b d8be
00000270: 6360 073c a051 2a3d a95f 8ebc 11dc 55bb
00000280: d651 f73c 2ce0 c0bf 22ae bcbe 13c9 493d
00000290: 17f4 9bbd 2296 01be 9fdf 083d 6fd0 f0bd
000002a0: 5b08 8d3e 773d 73bd 33a2 d93b 374d c4bd
000002b0: 3e7e b13d b16d 2fbf b96e d93e de5a aebe
000002c0: 35f5 133e 2493 83bd 30ff 983c a280 bf3d
000002d0: e626 9e3d 8782 7c3c d60b b03b 5f50 ca38
000002e0: 536b 8bbc 65b7 9e3d df09 e03d 5404 c33e
000002f0: d77c 01be 12d7 a7bd 1e6a 973d df3d ab3e
00000300: fc7a 65be 53ac 2fbe 54ef 6f3d c7e6 173e
00000310: fc8c 123e 1a5b 2cbf 4a1e d3bd 0080 b5bb
00000320: 7cfd 4ebe b18f 243e d9ee f0bd bf39 c3be
00000330: 9d82 8fbc 6549 44be 0fed 5b3e b684 47bf
00000340: 9278 813e b1e7 5ebe b19e 1ebe 4680 133e
00000350: ada4 08be 994e 7ebd 7bcf 3abd be4a 7f3e
00000360: d37c 343e 5f98 62bc 3aee 923d c2d3 ec3c
00000370: 75f3 71be 1422 373d 08a4 e4bb b344 003e
00000380: 812e 58bd 9ae5 e2be 9434 6abe 5597 04bf
00000390: 7e2e 8bbc e7c4 cbbd 39f1 63be 3cf5 7bbe
000003a0: e228 d8be 8686 0bbe e71b ccbe b671 62be
000003b0: 1135 91be 133b 5dbe 02ba 67be 6289 003f
000003c0: 7739 743d 36d7 953e 1b7e a23b 931d ba3d
000003d0: d9bd 2f3e 94a6 22be 0fc9 233e 2ae2 5fbe
000003e0: 1274 15be fd52 8dbe 81b5 0cbd 4ed6 09bc
000003f0: 19fc ab3e fcd1 91bf 81c7 07be 7c3d 713d

conv_net.C2.weight f4 [64, 32, 1, 1]
-0.29513848 -0.33086485 0.24211231 -0.3633118 0.13343836 0.09048602 -0.055041116 -0.0755898
-0.2531185 0.3677768 -0.28741947 0.06518994 0.3847663 0.13807747 -0.10412572 -0.20356801
0.07942872 0.09109514 0.01484219 0.067099616 0.21337608 0.1392686 0.14561765 0.032254882
-0.06992865 0.10519202 0.025320593 -0.085747495 0.18593507 -0.17945611 0.06828118 -0.070794694
-0.07605839 0.12896256 0.29040414 -0.08355905 -0.0935703 -0.021897012 -0.0042438144 0.17860354
-0.2797432 -0.226142 -0.21117736 0.063677564 -0.17996494 -0.07793134 0.24735944 -0.46171293
-0.002472807 -0.20926376 -0.14271837 -0.01707391 -0.05562013 -0.07227828 -0.94678897 0.12537389
0.11795816 0.100085594 0.20387197 -0.070097804 -0.11869222 -0.31666684 -0.19864418 -0.19385318
0.1805529 0.10602991 -0.11544303 0.24281634 0.07837749 0.0043561533 -0.16152108 -0.17491741
-0.027647883 -0.4707877 0.017451543 -0.46656796 0.115706295 0.55633116 0.049879998 -0.16010019
-0.14074436 -0.21847689 -0.12339835 0.14416984 -0.24060614 0.21155746 -0.04986217 -0.03568193
0.046833664 -0.40589225 0.29541063 0.21694976 -0.20327693 0.09509298 0.03194327 -0.13665295
-0.10796436 -0.021802839 0.055787116 -0.09475511 -0.0568453 0.17853297 0.046260376 -0.54909366
-0.19940354 0.09283425 0.18731618 0.49097577 -0.1023357 0.11248892 -0.08805142 0.17042683
-0.29027075 0.17212602 0.18686228 0.21184297 -0.14279239 -0.07911619 -0.05309975 0.06306385
-0.1575002 -0.15768924 0.06744202 -0.10151107 0.090438634 0.49212277 -0.14876746 0.08829974
0.14720003 0.21139885 -0.06820388 -0.068855405 -0.28037882 -0.029587502 0.2403899 -0.2981875
-0.4299486 0.17512178 0.20033593 -0.27470222 0.13537069 -0.5733554 -0.13938776 0.08467172
-0.10238354 -0.2512342 -0.04015372 -0.085366875 -0.06840098 -0.10361783 0.14893597 0.21458276
7.669538e-05 -0.06830087 0.061132193 -0.00038406614 0.042428125 0.070302255 0.020024225 -0.33159405
-0.078179166 0.05333771 0.18703721 0.09658047 -0.2786308 -0.19211516 0.23765089 0.0329303
0.26369742 -0.025053175 0.10622263 -0.49147418 -0.07810799 -0.20957804 -0.3675416 0.13147794
-0.07962102 0.10855092 -0.42236933 -0.4058768 -0.2501142 0.25681403 -0.23485698 -0.22083436
-0.10193092 0.030885197 -0.1741785 -0.09463731 -0.15032591 -0.12800968 -0.22159488 0.074700266
-0.15244637 0.18025164 -0.26016244 -0.022656256 0.17400773 -0.023468848 -0.047715344 0.086481124
0.26984107 -0.018536398 0.35617185 -0.26398683 -0.091239884 -0.064936206 0.18639429 0.068823956
-0.00054628705 -0.23799197 -0.116059445 -0.14396496 -0.07531582 0.034411013 0.057845224 -0.12705965
-0.19571984 -0.058729462 0.22105931 -0.08868889 0.07619743 -0.12598978 0.1036011 0.045517396
-0.075387105 -0.48014817 0.15556233 -0.115742326 -0.10838895 -0.2598357 -0.08871636 0.13387978
-0.13176888 -0.26968434 0.403457 -0.6505925 -0.012954753 0.047177922 0.07416564 -0.004753502
-0.06370827 0.08038031 -0.04716468 -0.11542561 0.032129742 0.039189007 0.06696563 0.13269027
-0.026349496 0.113291934 -0.14217079 0.123770855 0.0956712 -0.3044396 0.092998855 0.1786192
00000000: 641c 97be 1e67 a9be 4aec 773e 0104 babe
00000010: 11a4 083e bc50 b93d cb72 61bd d3ce 9abd
00000020: bf98 81be 3e4d bc3e a528 93be 4e82 853d
00000030: 1700 c53e 2e64 0d3e de3f d5bd 2274 50be
00000040: 86ab a23d 1790 ba3d a82c 733c 866b 893d
00000050: 427f 5a3e 6e9c 0e3e cb1c 153e b21d 043d
00000060: c136 8fbd ea6e d73d 226d cf3c 629c afbd
00000070: c365 3e3e 58c3 37be 01d7 8b3d cffc 90bd
00000080: 80c4 9bbd c30e 043e daaf 943e 0221 abbd
00000090: c9a1 bfbd 5d61 b3bc b20f 8bbb d9e3 363e
000000a0: 803a 8fbe c591 67be e13e 58be 6269 823d
000000b0: bb48 38be 779a 9fbd cb4b 7d3e a365 ecbe
000000c0: d10e 22bb 3d49 56be c424 12be 96de 8bbc
000000d0: efd1 63bd a306 94bd c360 72bf 0362 003e
000000e0: 0c94 f13d adf9 cc3d d0c3 503e 708f 8fbd
000000f0: e814 f3bd 2822 a2be 6169 4bbe 7381 46be
00000100: dce2 383e 3626 d93d 656d ecbd d9a4 783e
00000110: 6184 a03d 10be 8e3b c865 25be 8d1d 33be
00000120: d07d e2bc 160b f1be 8af6 8e3c ffe1 eebe
00000130: 6cf7 ec3d b86b 0e3f f84e 4c3d 4ef1 23be
00000140: 4a1f 10be 68b8 5fbe 46b8 fcbd 42a1 133e
00000150: 7561 76be 85a2 583e 463c 4cbd 3727 12bd
00000160: a8d4 3f3d 1cd1 cfbe 1040 973e 1428 5e3e
00000170: d427 50be 1cc0 c23d f2d6 023d c0ee 0bbe
00000180: 6b1c ddbd de9b b2bc 0881 643d f80e c2bd
00000190: 9ed6 68bd 59d1 363e 857b 3d3d 6791 0cbf
000001a0: 7130 4cbe e21f be3d d0cf 3f3e 2d61 fb3e
000001b0: 6195 d1bd 9760 e63d 4e54 b4bd 5f84 2e3e
000001c0: 5e9e 94be ce41 303e d358 3f3e 5ded 583e
000001d0: 2b38 12be ab07 a2bd 207f 59bd 9f27 813d
000001e0: bc47 21be 4a79 21be 0b1f 8a3d 09e5 cfbd
000001f0: e437 b93d 84f7 fb3e 7f56 18be 7ed6 b43d
00000200: 9bbb 163e f178 583e 7aae 8bbd 1004 8dbd
00000210: d08d 8fbe 7d61 f2bc c528 763e 08ac 98be
00000220: 3922 dcbe 2053 333e dd24 4d3e c5a5 8cbe
00000230: 9d9e 0a3e 6bc7 12bf aabb 0ebe 5e68 ad3d
00000240: 76ae d1bd c5a1 80be 3a78 24bd d4d4 aebd
00000250: d015 8cbd 9635 d4bd ac82 183e 95bb 5b3e
00000260: 85d7 a038 54e1 8bbd c065 7a3d 7c5c c9b9
00000270: 1dc9 2d3d a1fa 8f3d d809 a43c b2c6 a9be
00000280: 661c a0bd a578 5a3d af86 3f3e fbcb c53d
00000290: b2a8 8ebe d6b9 44be c15a 733e ece1 063d
000002a0: 5903 873e 513c cdbc 408b d93d 81a2 fbbe
000002b0: 15f7 9fbd a09b 56be 6a2e bcbe 27a2 063e
000002c0: 5810 a3bd f24f de3d cb40 d8be 15cf cfbe
000002d0: f80e 80be 217d 833e 597e 70be 6722 62be
000002e0: 28c1 d0bd f402 fd3c d95b 32be 35d1 c1bd
000002f0: 09ef 19be f814 03be c5e9 62be 74fc 983d
00000300: e71a 1cbe e393 383e 0334 85be 9d99 b9bc
00000310: 152f 323e be41 c0bc 2a71 43bd 041d b13d
00000320: 9c28 8a3e a5d9 97bc 285c b63e 4829 87be
00000330: fadb babd 46fd 84bd 25de 3e3e 93f3 8c3d
00000340: b434 0fba 2bb4 73be 93b0 edbd 8d6b 13be
00000350: 2e3f 9abd 90f2 0c3d 1def 6c3d ed1b 02be
00000360: c86a 48be 4e8e 70bd 5f5d 623e 85a2 b5bd
00000370: 660d 9c3d 7703 01be d02c d43d 7370 3a3d
00000380: 8e64 9abd fbd5 f5be bb4b 1f3e 500a edbd
00000390: 07fb ddbd 2f09 85be ecb0 b5bd c817 093e
000003a0: 6cee 06be 1114 8abe ea91 ce3e 3b8d 26bf
000003b0: 2c40 54bc a33d 413d 28e4 973d 44c3 9bbb
000003c0: 7b79 82bd 6f9e a43d c02f 41bd 4364 ecbd
000003d0: 7a9a 033d a784 203d 4725 893d f5df 073e
000003e0: e6da d7bc 9a05 e83d 3895 11be 937b fd3d
000003f0: 43ef c33d 82df 9bbe 2f76 be3d f4e7 363e

conv_net.C3.weight f4 [128, 64, 1, 1]
-0.038428705 -0.07740281 0.053276103 0.035425935 -0.036421075 0.09250737 -0.09267053 -0.02553897
-0.09025618 0.009688898 0.03021304 -0.25616875 0.10170699 0.019390158 0.082437485 -0.004018781
-0.027675757 -0.17621703 0.18915027 -0.07770314 -0.0739538 -0.162833 0.017308168 -0.036885135
0.0926709 -0.009716696 0.018994803 0.11886567 -0.12147752 -0.03164466 -0.08609545 0.008738567
-0.015709832 0.074115485 -0.17212488 -0.01670568 0.15600598 0.09117203 0.039739244 0.004284969
-0.0052009677 -0.036902253 -0.027015356 -0.03213662 -0.10442504 -0.15491994 -0.15406325 -0.12056576
-0.14386389 0.082120456 0.010258391 -0.07700517 -0.02781512 0.08977936 0.0015383543 -0.0045107384
0.068706445 0.22045499 -0.04747077 0.046733215 -0.09252161 0.12478934 -0.121361926 0.07104519
-0.06492904 0.021263741 -0.27969065 0.095415935 -0.03479876 0.06251088 -0.102594964 -0.0010098465
-0.120868646 -0.24912882 0.0022407412 -0.21126157 -0.020591132 -0.12206262 -0.35057855 0.003507418
0.10642487 -0.03620337 0.1859943 -0.2470956 0.08101515 -0.14486617 0.023493178 -0.53280014
-0.16281058 0.008623233 0.017350148 -0.4138345 0.24417302 -0.16702437 -0.043943465 0.051524974
-0.16378945 0.2548814 -0.18324505 -0.046130057 0.2141112 0.17618114 0.17473736 -0.1647551
-0.19937597 -0.26447284 0.009686715 0.069259144 -0.11105346 0.18115443 -0.00890152 -0.16249123
-0.08877521 -0.05852884 0.13278367 0.027210556 -0.17342895 0.09814728 -0.16798332 0.040282678
-0.17843574 -0.055297837 0.20692027 0.20885317 -0.5029972 0.15350133 0.14084494 0.0005307638
-0.13570738 -0.09104801 0.087063245 -0.031021686 -0.34593746 -0.10015243 0.026761541 -0.019791355
-0.107158326 -0.21558611 0.08335146 -0.058646668 -0.030162115 -0.3134311 -0.051680982 -0.06235077
-0.07145827 0.08184641 0.050692003 -0.21917179 0.14452188 -0.08508144 -0.12110124 0.11017858
0.0067016636 -0.19291946 0.03891938 -0.14354567 -0.14399016 -0.07189997 0.12344306 0.23200245
-0.0051584323 0.052813374 -0.05155509 -0.05759712 0.055244833 -0.09824252 -0.1876453 0.08518842
0.12296579 -0.12735422 -0.1762482 0.1053859 -0.0044949786 0.12012978 -0.12146883 0.18730356
-0.047045764 0.0057796794 0.21124664 -0.1597012 0.0328102 -0.16400187 -0.008299819 -0.09255774
-0.10641234 0.11708253 -0.07923864 -0.024795398 0.059911907 -0.027920121 -0.045067526 0.0011107391
0.11224649 -0.25419906 -0.0840614 -0.24679421 0.09544417 0.087268576 0.07584054 -0.19245112
-0.14413118 -0.14317702 0.33728698 -0.25927114 -0.0140592875 -0.037340924 0.17799945 0.11046781
0.086621195 0.061384823 0.06839383 -0.05884186 -0.33051494 0.10070877 0.048010148 0.067916125
0.038970895 -0.019626895 -0.076349415 0.09124728 0.21455802 -0.074555986 -0.26816282 -0.1837154
0.014732634 0.07674962 -0.023270937 0.0984569 0.07565978 -0.08324061 -0.1841724 0.026429491
-0.27672663 0.06853427 -0.031845827 -0.19326344 -0.03274799 0.10351198 -0.17176874 -0.21820481
-0.14058481 0.007601198 -0.012233076 -0.08135612 -0.10042958 0.01296214 -0.26056677 -0.18242505
0.07575747 -0.017867861 -0.078327715 -0.01119715 -0.11212624 -0.004653897 0.05931952 -0.16041389
00000000: 6b67 1dbd 5d85 9ebd 0b38 5a3d c91a 113d
00000010: 442e 15bd 8174 bd3d 0cca bdbd 1a37 d1bc
00000020: 3bd8 b8bd 2fbe 1e3c 5681 f73c 8d28 83be
00000030: c14b d03d 1cd8 9e3c fcd4 a83d faaf 83bb
00000040: 45b8 e2bc 3d72 34be 9cb0 413e d322 9fbd
00000050: 1775 97bd b2bd 26be dcc9 8d3c de14 17bd
00000060: 3eca bd3d c732 1fbc fd9a 9b3c d86f f33d
00000070: 35c9 f8bd d59d 01bd d052 b0bd 352c 0f3c
00000080: e8b1 80bc dcc9 973d 8141 30be 5ada 88bc
00000090: 08c0 1f3e 67b8 ba3d 9ec5 223d ed68 8c3b
000000a0: e16c aabb d126 17bd 4f4f ddbc b0a1 03bd
000000b0: ccdc d5bd 55a3 1ebe c2c2 1dbe 2eeb f6bd
000000c0: 0e51 13be c52e a83d cf12 283c e3b4 9dbd
000000d0: 89dc e3bc 3ede b73d 9ba2 c93a d1ce 93bb
000000e0: f7b5 8c3d f4be 613e b670 42bd 546b 3f3d
000000f0: f87b bdbd 8e91 ff3d 9a8c f8bd 2480 913d
00000100: 84f9 84bd 4c31 ae3c 9d33 8fbe 6e69 c33d
00000110: 2589 0ebd b405 803d 4f1d d2bd d35c 84ba
00000120: fb89 f7bd a01b 7fbe 66d9 123b f454 58be
00000130: bcae a8bc f8fb f9bd 087f b3be b6dc 653b
00000140: 48f5 d93d fc49 14bd 4a75 3e3e a106 7dbe
00000150: 45eb a53d cc57 14be c474 c03c 9765 08bf
00000160: d1b7 26be 7648 0d3c e621 8e3c 1ee2 d3be
00000170: 7e08 7a3e 7008 2bbe 10fe 33bd da0b 533d
00000180: 6cb8 27be d17f 823e 97a4 3bbe dff2 3cbd
00000190: f73f 5b3e d468 343e 5aee 323e 90b5 28be
000001a0: 3729 4cbe fc68 87be 07b5 1e3c bdd7 8d3d
000001b0: ff6f e3bd 8c80 393e aed7 11bc 1a64 26be
000001c0: c7cf b5bd f0bb 6fbd 71f8 073e ace8 de3c
000001d0: 5c97 31be 7101 c93d d203 2cbe 73ff 243d
000001e0: dcb7 36be fc7f 62bd e8e2 533e 9bdd 553e
000001f0: 6dc4 00bf 742f 1d3e a839 103e f522 0b3a
00000200: e0f6 0abe 6177 babd 374e b23d 3121 febc
00000210: b71e b1be b81c cdbd 053b db3c 7b21 a2bc
00000220: d375 dbbd 9bc2 5cbe 2cb4 aa3d 7d37 70bd
00000230: 8a16 f7bc 0b7a a0be 70af 53bd 8563 7fbd
00000240: b758 92bd 179f a73d 6ba2 4f3d 926e 60be
00000250: 8bfd 133e 2e3f aebd ed03 f8bd 4fa5 e13d
00000260: a199 db3b ae8c 45be ee69 1f3d a3fd 12be
00000270: 2872 13be 4b40 93bd b7cf fc3d 0d92 6d3e
00000280: 1108 a9bb d652 583d 6e2b 53bd f5ea 6bbd
00000290: 6848 623d 6033 c9bd 1726 40be 4477 ae3d
000002a0: 7dd5 fb3d 2569 02be 687a 34be 90d4 d73d
000002b0: 9d4a 93bb 9a06 f63d a6c4 f8bd 81cc 3f3e
000002c0: 0fb3 40bd 7763 bd3b 0a51 583e b688 23be
000002d0: fd63 063d 1bf0 27be f7fb 07bc ea8e bdbd
000002e0: b7ee d9bd f7c8 ef3d de47 a2bd b81f cbbc
000002f0: 3066 753d bdb8 e4bc ba98 38bd 3896 913a
00000300: 7de1 e53d 6126 82be 6228 acbd 9fb7 7cbe
00000310: 3c78 c33d deb9 b23d 4952 9b3d e811 45be
00000320: 2097 13be ff9c 12be e1b0 ac3e 30bf 84be
00000330: ed58 66bc ccf2 18bd 7d45 363e f23c e23d
00000340: 7466 b13d a76e 7b3d 1012 8c3d 2a04 71bd
00000350: 4139 a9be 6640 ce3d 4aa6 443d 9c17 8b3d
00000360: f29f 1f3d 95c8 a0bc 155d 9cbd dbdf ba3d
00000370: 19b5 5b3e cfb0 98bd a34c 89be e41f 3cbe
00000380: 2561 713c e82e 9d3d b1a2 bebc c5a3 c93d
00000390: 84f3 9a3d 0e7a aabd b197 3cbe a982 d83c
000003a0: 1daf 8dbe b25b 8c3d c570 02bd dae6 45be
000003b0: c222 06bd 17fe d33d 25e4 2fbe 1571 5fbe
000003c0: 77f5 0fbe 7813 f93b 3d6d 48bc 0a9e a6bd
000003d0: 06ae cdbd 285f 543c 0269 85be a2cd 3abe
000003e0: bc26 9b3d 9f5f 92bc 486a a0bd 4074 37bc
000003f0: 71a2 e5bd b87f 98bb 06f9 723d 8a43 24be

conv_net.C4.weight f4 [5, 128, 1, 1]
0.09259527 0.016363192 -0.013531547 0.015583561 -0.028524276 0.038531933 -0.006814275 -0.16613981
0.009057776 -0.0071119997 -0.014259233 -0.004639054 -0.21059163 0.008588952 -0.018841816 0.1031736
5.663676e-35 0.016929632 0.22958058 -0.006223853 -0.054184306 -0.052701477 0.5764516 0.021070246
0.04422124 -0.06438016 0.054154407 0.16872872 0.026450595 -0.048421264 -0.19283906 0.118402064
0.21605034 0.22724491 -0.007829463 -0.0020871477 -0.14790802 0.04531493 0.26972952 0.19961241
-0.115787216 0.038076837 -0.018264882 0.0015657191 -0.0022066946 -0.33394727 -0.23757853 0.060056303
-0.2025428 -0.21883914 0.061820928 -0.023935294 0.0314428 0.117434256 0.059179798 -0.01708204
0.13304281 -0.0023856612 -0.07102486 0.012320977 0.13993208 -0.049761236 0.021765554 0.036466192
-0.018356608 -0.04235222 -0.0025749695 -0.02031336 -0.0039378423 -0.08642069 0.13358139 0.02700449
0.0303644 0.0034533183 -0.18216266 -0.0162928 -0.021534916 -0.038285587 -0.14586769 -0.027251137
0.0017795407 0.0011136169 -0.010184945 -0.025351385 0.015002946 0.03781161 0.35431373 -0.0013586483
-0.01600886 -0.02603628 0.11818508 0.014585475 0.0057023163 -0.47893265 -0.007517662 0.0083804075
0.052275818 0.01361783 0.015027348 0.1059305 -0.06575018 -0.21771295 -0.028590893 0.029518591
0.03404554 -0.014643712 0.0038905314 0.05450163 0.0038222806 -0.020668995 -0.05011002 0.041514903
-0.03879645 0.06694861 -0.14197278 -0.016052809 -0.035402693 -0.14781924 -0.06514129 0.1614859
0.003996308 0.012307916 0.14764132 0.009625975 0.003047247 0.0625327 -0.25641215 -0.004866721
0.037843566 0.015625812 -0.15622346 -0.1335136 -0.08498487 -0.061242715 -0.05049282 -0.0051503894
0.0027394418 -0.012687064 -0.038344827 -0.7967854 0.21943064 0.040184144 -0.045831967 -0.13164651
5.2392725e-35 0.03840631 -0.27743098 -0.010998825 0.073989384 -0.024514755 -0.3588196 0.016703673
0.09539888 -0.10562465 0.058851544 -0.3462209 0.09535684 0.16686457 0.11543466 -0.106782526
-0.21510117 -0.216406 0.007075804 -0.032504305 0.12502836 0.10586387 -0.057990957 -0.067746304
-0.054750584 0.0068622846 -0.025977992 -0.058730304 0.04554008 0.23550463 0.12968034 0.11568556
0.19106443 0.11158848 -0.43573225 0.012561498 0.01994204 -0.045386285 -0.041645598 -0.08003058
-0.10929629 8.3715444e-05 -0.11748357 -0.036546476 -0.0063706385 -0.07561579 0.041562013 -0.1401509
0.013951273 0.010045823 -0.002325009 0.19137096 0.18958238 -0.18860982 -0.15579149 -0.16598491
0.123754874 0.031147005 0.08885153 0.043386962 -0.003968528 -0.013198053 0.06155011 -0.0012734578
0.0077487626 -0.0065701604 0.18068846 -0.007648056 0.033891723 -0.07808887 -0.24332823 -0.030899655
0.02766687 -0.10029656 -0.14381018 -0.005521368 -0.00089989055 -0.026460974 0.001421204 0.00583381
0.4093723 -0.12994708 0.017497646 0.049604625 0.04803006 0.28597495 -0.046805456 0.1733563
0.140197 0.08488871 -0.109155856 -0.28023836 0.034040436 -0.040129863 -0.0606844 -0.0039133905
0.006847746 0.13873793 0.16023435 0.043426294 -0.29824948 0.01163193 -0.06888099 -0.28064182
0.04347841 -0.009426001 0.030867169 0.19358805 0.18150733 -0.09747763 0.17916359 0.024297334
00000000: 97a2 bd3d 1a0c 863c 6cb3 5dbc 3152 7f3c
00000010: beab e9bc a9d3 1d3d 484a dfbb 8e20 2abe
00000020: 1167 143c c70b e9bb 8f9f 69bc 3503 98bb
00000030: 55a5 57be adb8 0c3c 275a 9abc ae4c d33d
00000040: fb90 9606 03b0 8a3c 2c17 6b3e 77f1 cbbb
00000050: 5df0 5dbd 81dd 57bd 5592 133f 829b ac3c
00000060: 5521 353d bfd9 83bd 03d1 5d3d 39c7 2c3e
00000070: ebae d83c 6055 46bd 9a77 45be c87c f23d
00000080: 4d3c 5d3e e4b2 683e 2647 00bc 87c8 08bb
00000090: 3375 17be 269c 393d fd19 8a3e 3267 4c3e
000000a0: d921 edbd 75f6 1b3d 3ca0 95bc d138 cd3a
000000b0: 319e 10bb 23fb aabe c947 73be 99fd 753d
000000c0: 6167 4fbe 5e17 60be f137 7d3d f313 c4bc
000000d0: 2aca 003d 5f81 f03d 8466 723d a2ef 8bbc
000000e0: 603c 083e c158 1cbb 7b75 91bd ecdd 493c
000000f0: 5b4a 0f3e 70d2 4bbd ad4d b23c 935d 153d
00000100: 9960 96bc 8579 2dbd d2c0 28bb 3468 a6bc
00000110: 0409 81bb 55fd b0bd 8fc9 083e 8538 dd3c
00000120: c3be f83c 1151 623b d988 3abe 7a78 85bc
00000130: fe69 b0bc 59d1 1cbd 575e 15be c73d dfbc
00000140: 7a3f e93a c8f6 913a c1de 26bc b5ad cfbc
00000150: ebce 753c 59e0 1a3d 9c68 b53e ac14 b2ba
00000160: 0325 83bc 094a d5bc 050b f23d ebf7 6e3c
00000170: 7fda ba3b a936 f5be b856 f6bb fa4d 093c
00000180: 2b1f 563d 521d 5f3c 4435 763c 17f2 d83d
00000190: 08a8 86bd 25f0 5ebe 7337 eabc f9d0 f13c
000001a0: 5673 0b3d 2eec 6fbc 49f8 7e3b 1a3d 5f3d
000001b0: 3a7f 7a3b 0652 a9bc 2a40 4dbd 880b 2a3d
000001c0: 07e9 1ebd 5a1c 893d 5061 11be 2e81 83bc
000001d0: 6a02 11bd ed5d 17be cc68 85bd 8f5c 253e
000001e0: 76f3 823b 24a7 493c 492f 173e 44b6 1d3c
000001f0: 52b4 473b 2511 803d 7448 83be 0479 9fbb
00000200: db01 1b3d b401 803c 0bf9 1fbe cab7 08be
00000210: 8c0c aebd a4d9 7abd 8fd1 4ebd 99c4 a8bb
00000220: 3588 333b 67dd 4fbc 770f 1dbd 21fa 4bbf
00000230: 6db2 603e 2198 243d 4dba 3bbd 58ce 06be
00000240: a448 8b06 ef4f 1d3d 6f0b 8ebe 6a34 34bc
00000250: bf87 973d 2bd3 c8bc 34b7 b7be 24d6 883c
00000260: 7d60 c33d bd51 d8bd 510e 713d de43 b1be
00000270: 724a c33d 8cde 2a3e 0269 ec3d ccb0 dabd
00000280: 7b43 5cbe 8999 5dbe 25dc e73b 3c23 05bd
00000290: 6f07 003e 28cf d83d ed87 6dbd 93be 8abd
000002a0: 2642 60bd 04dd e03b cccf d4bc 308f 70bd
000002b0: 3c88 3a3d 2028 713e ecca 043e 8dec ec3d
000002c0: 65a6 433e 8088 e43d 4c18 dfbe bece 4d3c
000002d0: 7d5d a33c f8e6 39bd 9394 2abd 13e7 a3bd
000002e0: bcd6 dfbd 6390 af38 3a9b f0bd c2b1 15bd
000002f0: cac0 d0bb 74dc 9abd ee3c 2a3d b883 0fbe
00000300: e193 643c 3c97 243c 2e5f 18bb c0f6 433e
00000310: e221 423e ef22 41be ce87 1fbe f3f7 29be
00000320: 3273 fd3d 0128 ff3c caf7 b53d 87b6 313d
00000330: 6d0a 82bb a63c 58bc f81b 7c3d 27ea a6ba
00000340: 55e9 fd3b 804a d7bb 6506 393e 8b9c fabb
00000350: 0cd2 0a3d 0fed 9fbd 092b 79be 4621 fdbc
00000360: a2a5 e23c 4868 cdbd fa42 13be 97ec b4bb
00000370: a2e6 6bba afc4 d8bc b147 ba3a 8c29 bf3b
00000380: 3f99 d13e d910 05be 3957 8f3c 382e 4b3d
00000390: 2bbb 443d 4f6b 923e 14b7 3fbd 5084 313e
000003a0: cd8f 0f3e 22da ad3d 1b8d dfbd 677b 8fbe
000003b0: fc6d 0b3d 365f 24bd 3590 78bd e63b 80bb
000003c0: 0f63 e03b 5111 0e3e 7914 243e c5df 313d
000003d0: 28b4 98be da93 3e3c 7a11 8dbd 49b0 8fbe
000003e0: 6b16 323d 846f 1abc 25dd fc3c f23b 463e
000003f0: 0fdd 393e 5aa2 c7bd a976 373e 340b c73c
