CNN_weights/NetworkA_weights_CV3.pt (torch, 394591 bytes, 4 tensors)

conv_net.C1.weight f4 [32, 17, 3, 3]
000000 14 3e 32 be 3e 4a 95 bd 61 87 91 bd 16 e6 e4 bd
       -0.17406493 -0.07289551 -0.071058996 -0.11176698
000010 4a 1d a8 bb 70 ff 4d 3e ae c4 62 be bf b6 24 bd
       -0.0051304447 0.20116973 -0.2214534 -0.040213343
000020 25 f8 3d 3e 32 10 df 3b 19 b4 8c 3d c1 57 58 bd
       0.18551691 0.0068073506 0.068702884 -0.052818064
000030 b0 9c 2e 3c 06 a3 0b bc 07 67 35 3d 20 33 31 3e
       0.010657474 -0.008522755 0.044287708 0.17304659
000040 62 9c 12 be 36 ef e0 bc 1b 9a 01 3e 11 bb 64 3d
       -0.14317468 -0.027457815 0.12656443 0.055842463
000050 76 69 d0 3d 58 31 0a 3e 10 86 38 3e 4d 8a 0b 3e
       0.10176365 0.13495386 0.18019891 0.13626976
000060 de 7d c2 3d db ef 14 3e d3 01 35 3d 31 26 16 3d
       0.094966635 0.14544623 0.044191193 0.036657516
000070 f6 77 c0 bb a5 5e 20 3c a9 8e e7 3c a0 bb c3 bc
       -0.0058736755 0.00978819 0.028266268 -0.023893178
000080 a1 d3 73 bd df 1e b2 3d ad d9 8d bd 19 49 94 bd
       -0.059527997 0.086972944 -0.06926284 -0.07240505
000090 2d 5e 21 3e 07 cb 5b 3d a0 6c 19 3c f0 b4 69 3d
       0.15758581 0.05366042 0.009364277 0.05705732
0000a0 34 1d b4 bd 47 5a 33 be d3 7b 21 3c a9 8f 2c bc
       -0.087946326 -0.17514907 0.009856182 -0.010532298
0000b0 d2 43 e0 bd 56 3c be 3d 06 f6 e9 3c 71 ea 04 bd
       -0.10950436 0.09288852 0.028559696 -0.032450143
0000c0 81 ad 96 bc af 81 4f 3d ef dd eb 3d c4 cb 5b bd
       -0.01839328 0.050660785 0.1151694 -0.053661123
0000d0 ef 51 e5 3c 21 41 1d 3e 06 40 b3 bc 04 18 27 3d
       0.02799317 0.15356876 -0.021881115 0.040794387
0000e0 b8 09 b0 3d 39 7f 97 bd 61 83 e2 3c 9d 9f 0e 3d
       0.08595604 -0.07397313 0.027650537 0.034820188
0000f0 ad 9c f9 bd 8d ca 6c 3c aa 91 98 3d c1 75 10 be
       -0.12188087 0.014452589 0.07449658 -0.1410742
000100 d2 6b 8d bd 82 df f9 bc 37 a0 f6 3c e3 95 59 3d
       -0.06905331 -0.030502085 0.030105693 0.05312146
000110 c4 47 94 bd b3 42 17 3e fe e9 5d 3e 8c 12 c5 bd
       -0.07240251 0.14771537 0.21671292 -0.09622678
000120 e1 b3 11 be 04 08 b6 3b 3d e5 c3 3d 90 ea 9f bd
       -0.14228775 0.0055551548 0.09565208 -0.07808411
000130 ef 16 85 3d 2b 2f 1b 3e d1 c3 19 be ea f7 36 3e
       0.06498515 0.15154712 -0.15016104 0.17868009
000140 64 c5 0a 3e a3 d0 de 3c db f8 2f 3d 38 52 c5 3c
       0.13551861 0.027199095 0.042961936 0.024087057
000150 70 ff 53 3d 08 f1 d5 bd 77 a4 29 bd 7b 94 7d 3d
       0.051757276 -0.10446364 -0.04141661 0.06190918
000160 f8 5e 95 bd 9d 06 3a 3d 5c c2 2e 3d f6 e2 85 3b
       -0.072935045 0.045416463 0.042665824 0.0040858937
000170 1c dd 8d 3d 23 70 0c 3d 62 f2 84 3c 74 cc 2a be
       0.06926939 0.03428663 0.016228858 -0.16679555
000180 87 9d fd 3c 32 3a 1f bd 68 b8 d3 bd a5 f5 d1 bd
       0.030958904 -0.03887386 -0.10337907 -0.10251931
000190 5d 6e cf bb 6f 1a e2 bb 9e 02 3e 3d a9 a3 6d 3d
       -0.006330295 -0.006900124 0.046389215 0.058017407
0001a0 44 64 26 bc 47 de b0 bd 46 42 8b bc ed 78 a2 3c
       -0.010155741 -0.08636146 -0.016999375 0.019833053
0001b0 2e ac 69 3d f4 42 0e 3d fc 42 a2 3c 6c 31 61 3d
       0.05704897 0.03473182 0.019807331 0.054978773
0001c0 cb 41 9d bb cd 54 16 bd 07 11 ed 3d 21 0d b4 bd
       -0.004799103 -0.036701966 0.11575513 -0.08791567
0001d0 e9 62 bf bd fd 6e 99 bb 88 9e 28 bd d2 18 6a bd
       -0.093450375 -0.0046824203 -0.041166812 -0.057152577
0001e0 e5 98 3d bd 32 66 96 bc 90 d4 8e bc ea 3f ba bd
       -0.04628839 -0.018359277 -0.017435342 -0.09094222
0001f0 98 05 53 3e ac 06 1a 3e 65 50 fd bd c3 c6 3f bd
       0.20607603 0.15041608 -0.1236885 -0.046820413
000200 e9 6d 16 bd 86 0d bc bc 33 7b cc 3d c7 dc 37 3d
       -0.036725912 -0.022955667 0.09984436 0.044888284
000210 c2 f0 f6 bd 41 ee 04 3d d4 68 c9 bd f1 f1 9f bc
       -0.1205764 0.03245378 -0.098344475 -0.019524546
000220 ff 63 f1 bc c0 ce 03 bd 30 54 ae bc 17 17 6f 3d
       -0.029466627 -0.032179594 -0.021280378 0.05837163
000230 dd 4c 86 3c 9c fd b8 3d 43 b6 9e bd 1e d4 8b bc
       0.016394073 0.09032747 -0.077496074 -0.017068919
000240 bb bb 0e 3e 49 af 0e 3e 79 1b 19 3d 29 08 f6 3d
       0.13938801 0.13934053 0.037379716 0.12013275
000250 52 cd 19 bc 0f 02 87 3b 5e c3 8a 3d 46 42 0f bd
       -0.009387331 0.0041201185 0.067755446 -0.034975313
000260 69 df fc 3c be 57 7d bd b9 c6 3a bd 07 f1 0a be
       0.030868249 -0.061851256 -0.045599673 -0.13568507
000270 d5 18 ca 3d 9d d2 97 3e c9 27 6c 3d 2c f2 01 3e
       0.098680176 0.29652873 0.05765513 0.12690037
000280 b9 63 a7 bd 15 83 60 bd 0e b8 ae bc 5a 1e 7b bc
       -0.081733175 -0.05481251 -0.021327998 -0.015327061
000290 bc 98 fc bc 34 0e 90 bc 21 4f 67 3e 10 4a 99 bc
       -0.030834548 -0.017584898 0.22588779 -0.018712074
0002a0 fd 3f b6 3c f6 00 8f bd f3 c1 b3 3b dd c8 b1 bc
       0.022247309 -0.06982605 0.005485767 -0.021702224
0002b0 16 24 dc bc 44 fa 29 be a0 22 96 3d 40 bc ba be
       -0.026872676 -0.16599375 0.07330823 -0.36471748
0002c0 e2 c1 cf bd 8c b6 83 3c d9 c5 21 be 5c 80 e6 bd
       -0.10144402 0.016078256 -0.15798129 -0.11254951
0002d0 68 1e 0a bd 12 23 d3 bc 7c d8 e0 bb 5a 54 ae 3d
       -0.033720404 -0.025773559 -0.0068617444 0.085121825
0002e0 7f c0 2c bd de a6 b3 bd 51 d8 74 ba e9 02 a3 3c
       -0.042175766 -0.08772062 -0.0009340095 0.019898849
0002f0 35 47 59 3d a9 7d f2 bd fc 67 aa 3d d3 e5 c7 3d
       0.053046424 -0.11840374 0.08320615 0.09760632
000300 df 55 9f be 7d a0 1d be 02 c5 ad 3e c5 80 23 be
       -0.31120202 -0.15393253 0.33939368 -0.1596709
000310 a7 8b c3 3b 3d 68 13 3e e8 19 98 bc 39 61 00 3d
       0.0059675756 0.14395232 -0.01856704 0.03134272
000320 27 de d0 3b 97 45 27 bd 13 c4 72 bd 49 b0 b7 3d
       0.006374139 -0.04083785 -0.059269022 0.089691706
000330 14 1a 7e 3d bc 7c 87 bd d4 6f c6 3c 2c 29 4b be
       0.06203659 -0.06615588 0.024223246 -0.19839925
000340 38 25 60 be 62 ce 04 be 66 3d 19 bd b1 d1 72 bd
       -0.21889198 -0.12969354 -0.03741207 -0.05928201
000350 1c d6 77 bd 23 d6 33 3e 93 eb 55 3e 7c ff 7d 3e
       -0.060506925 0.17562155 0.20890646 0.24804491
000360 51 ff d5 3d 3b 92 b1 bd 20 7a 17 bc c4 dc 20 3c
       0.10449088 -0.086704694 -0.009245425 0.00981826
000370 e5 40 b0 bd 01 c7 9e bd 23 d4 77 3c 0e ef da 3d
       -0.08606128 -0.07752801 0.015126261 0.10690127
000380 9d 44 7f 3d fb eb cb be 9f dd a2 be 53 06 99 be
       0.062321294 -0.39828476 -0.31809708 -0.29887637
000390 e7 aa a8 be 8e 8e f3 be c3 b3 7e bd 82 e3 11 be
       -0.32942888 -0.47569698 -0.062183153 -0.14246944
0003a0 78 25 37 3a c1 c8 dd 3d 70 ad 16 3c 36 6a a4 3c
       0.0006986479 0.108293064 0.009196624 0.020070177
0003b0 6b 74 14 bc e8 ce cf bc 4e bf 43 be f2 5c 74 3d
       -0.009060959 -0.025367215 -0.19115946 0.059658952
0003c0 71 bb f0 bc 65 bf 18 3e a1 e3 64 bd 26 6f af 3c
       -0.029386254 0.14916761 -0.055881146 0.021415304
0003d0 e1 f6 f5 3c cb 01 94 3d 39 d0 99 3d 92 41 ad bd
       0.030024948 0.072269045 0.075104184 -0.08459772
0003e0 e1 12 f4 bd bf 4a db 3c 84 56 a2 3d 1b e9 d1 bd
       -0.11917663 0.02676904 0.07926658 -0.102495395
0003f0 cf aa 4c bd 61 4f 1c bd 0d 7d 8b bc 88 11 5a 3d
       -0.049967583 -0.03816164 -0.017027402 0.053239375

conv_net.C2.weight f4 [64, 32, 3, 3]
000000 17 80 24 3d d4 b4 9b 3c d4 72 54 bd ae 7d a4 3d
       0.04016122 0.019007124 -0.05186732 0.08031784
000010 3a 92 b9 3d 43 fc be 3c df 2d 30 bd ea 95 26 bb
       0.09061094 0.023313647 -0.043012496 -0.0025418946
000020 f0 63 db bc 97 bc 9d bd 20 4f 48 be e3 68 4e be
       -0.026781052 -0.07701986 -0.19561434 -0.20157199
000030 c7 f8 ce 3d b2 2b 7d 3b 1a 70 64 3d 83 89 16 3e
       0.10106044 0.003863078 0.05577097 0.14700894
000040 ca db 53 3c a0 a5 87 bd 41 0f 9e bc 6f 29 6e b9
       0.01293082 -0.06623387 -0.019294383 -0.00022712884
000050 63 4d e4 3d c4 6e dc 3c 79 f0 52 3d fe cc 15 3e
       0.11147573 0.026908286 0.051498864 0.1462898
000060 7f 2f 17 bd b3 0b 08 be a9 31 10 3e 5a b4 8e 3d
       -0.03691053 -0.13285713 0.14081444 0.06967993
000070 48 53 ea 3d 80 58 f7 bc 58 04 eb bc ef 5a 21 3d
       0.11441666 -0.030193567 -0.028688595 0.03939336
000080 34 11 7a 3d ff ce cc bb 47 72 fc bc 71 c4 d2 3a
       0.061051562 -0.006250262 -0.03081621 0.0016080273
000090 89 a3 82 3c f0 44 b0 3d d1 a6 97 bc 1c 1b c7 3d
       0.01594712 0.08606899 -0.018512161 0.097219676
0000a0 7c 80 28 3d 62 43 cc bd 47 1e 16 3d 9e 71 e3 bd
       0.041138157 -0.0997379 0.03664997 -0.11105655
0000b0 2d 68 83 3c 3e 07 d6 3b bb ac 97 bb a3 cd b1 3d
       0.016040886 0.006531625 -0.0046287454 0.086818
0000c0 c0 e5 1a bc 60 14 6a bd 06 23 51 bd 6b dd 2b 3c
       -0.009454191 -0.057148337 -0.05105879 0.010489802
0000d0 51 68 b1 3c 45 49 7b bd ba 9d c5 bc b1 52 21 bd
       0.021656187 -0.061349172 -0.024123061 -0.0393855
0000e0 fc ab c9 3c f4 7a 75 3d f8 17 a2 3d bf 12 d1 3d
       0.024618141 0.05993171 0.07914728 0.10208654
0000f0 09 ee 12 3d 81 60 d5 bc 08 5f c5 39 9c c7 19 bd
       0.03587154 -0.026046993 0.00037645572 -0.037543878
000100 69 ff 65 bd 6e a9 cd bb bd 0d b6 3c 30 f0 ff bc
       -0.05615178 -0.006276301 0.022223348 -0.03124246
000110 5f 45 3b 3d e1 7e 41 bc 76 2b 03 3d bb 34 81 3d
       0.045720454 -0.011810035 0.03202387 0.06308886
000120 33 57 96 3d 6a fb ab 3d d0 8d 8c 3d a1 b5 6c bc
       0.07340851 0.08397563 0.06862986 -0.014447601
000130 d8 5e 8b bc 17 7c 62 bc ba 57 ae bd 3c 21 7a bd
       -0.017012998 -0.013823531 -0.08512826 -0.06106685
000140 4a 9a cb bc 76 fa dd 3a 22 af b5 bb a8 9d 1c bd
       -0.024853844 0.0016935605 -0.005544559 -0.03823629
000150 00 72 e3 3c 38 29 9c 3c 5a 6f 88 bd 85 df da 3d
       0.02776432 0.019062623 -0.066618636 0.10687164
000160 af b4 26 3d ad c1 b9 bd 6a 63 c8 bc 59 8e fc bd
       0.040699657 -0.09070144 -0.024461467 -0.12331838
000170 29 2f e8 3b 40 0c 4d bc ca ff ff bc 80 1f 10 be
       0.0070857 -0.012515128 -0.0312499 -0.14074516
000180 81 30 7d bc fc 53 87 3d 70 0f 95 3d 8d 72 b7 bd
       -0.015453459 0.066078156 0.07278335 -0.08957396
000190 ac e5 07 bd 8c 79 de 3d 04 a6 34 3d 99 79 53 bd
       -0.033178017 0.10863027 0.044103637 -0.051629636
0001a0 f0 d8 89 bc 21 03 1a 3e 68 c7 91 3c 2f 54 25 3d
       -0.016827077 0.15040256 0.01779528 0.040363487
0001b0 09 c3 bd bd 90 84 09 3d 67 e4 a5 3d ea 1b 90 bd
       -0.09265716 0.033573687 0.08100205 -0.07036574
0001c0 f6 76 ff 3c 52 f3 7e 3d a8 dc 4e bd ea 46 95 3d
       0.031184655 0.062243767 -0.050503403 0.072889164
0001d0 3e e8 3c 3d 33 8c 13 be e6 41 16 bd 61 3e 6f 3d
       0.04611992 -0.1440895 -0.03668394 0.0584091
0001e0 35 d7 51 bd 01 52 ef bc 45 97 88 bc 57 b0 9f bd
       -0.051230628 -0.029213907 -0.016673693 -0.07797306
0001f0 32 92 0f 3d 3e 2f 96 bc 13 1d 19 3d a8 68 18 3e
       0.035051532 -0.018333074 0.037381243 0.14883673
000200 8e 6b 21 3e 6c 72 c4 bd ad 07 4f bd 66 74 a1 3c
       0.15763685 -0.09592137 -0.05054443 0.019708823
000210 54 65 a7 bd 05 cb 45 bd b0 4b 3f ba 99 34 29 be
       -0.08173624 -0.048289318 -0.000729735 -0.1652397
000220 a3 19 d2 bc 79 1e c7 3d 88 d1 ce bd d3 74 f3 bd
       -0.02564699 0.09722609 -0.10098559 -0.11887517
000230 cb d2 9c bd fc 8a 09 3d 7d fd ab 3d f8 f1 8a 3d
       -0.07657393 0.03357981 0.083979584 0.06784433
000240 b3 b7 cf bd a2 9e ee 3b 03 46 84 bd 03 f1 93 bd
       -0.1014246 0.007282094 -0.06458666 -0.07223704
000250 b5 bb d3 3c 62 38 2b 3d c6 cb 4a be 63 e4 1e be
       0.025846342 0.041801818 -0.19804296 -0.1551681
000260 14 74 20 bd 5e bb 46 bd 6f 54 0c 3d 4b ed 00 bd
       -0.0391732 -0.04851853 0.03426021 -0.0314763
000270 ab 91 a2 bc 2f ce fe 3c cc 8f 64 3d f9 13 85 be
       -0.01984485 0.031104175 0.055801198 -0.259918
000280 d7 5b ba bd ce f1 b7 bd 51 51 83 3c 9e df 64 bd
       -0.09099548 -0.089816675 0.016029986 -0.05587732
000290 f4 13 a5 bc a1 a0 8f bc 04 c5 be bc 65 e2 a2 bc
       -0.020151116 -0.017532649 -0.023287304 -0.019883344
0002a0 ad 35 8e 3d 5e 4e c1 3c 5b bb 0f 3d 7d c6 82 bd
       0.069438316 0.023596939 0.035090785 -0.06385515
0002b0 3c 6f 82 bc 72 58 46 bc 9c c3 0d bc 5b b7 97 3c
       -0.015922181 -0.012106048 -0.008652594 0.018520048
0002c0 cd d2 b0 bb c3 1e 99 bd f2 8f 8d 3d 18 dd 82 3c
       -0.005396223 -0.074765705 0.06912221 0.015974566
0002d0 a9 bf ac bc 29 c2 0f 3e b2 b6 00 3d 34 9f e1 bd
       -0.021087484 0.1403891 0.03142423 -0.11016694
0002e0 c1 6c a3 3c 70 95 7f 3c c2 0c da bd 12 c8 7c bd
       0.019949319 0.0155995935 -0.106469646 -0.06171424
0002f0 5e 9b 12 bc ed a1 a6 bb 20 c4 23 bc 3c b7 65 3b
       -0.008948175 -0.005085221 -0.00999549 0.0035051843
000300 15 d6 aa bc 59 40 7d bc b4 b8 03 3d 35 e0 ca bd
       -0.020854035 -0.015457236 0.03215857 -0.09906045
000310 ba a8 61 bd 6c 18 44 3d 01 95 48 3d 3b ae 8e bd
       -0.05509255 0.047874853 0.048970226 -0.069668256
000320 1f bf 9d bd dd 24 e8 3b 1e e0 ce bc ea 95 59 bd
       -0.07702469 0.0070844726 -0.025253352 -0.053121485
000330 dc ba 39 bd 14 87 8a 3d 00 9d ca 3b 81 c2 69 be
       -0.04534422 0.06764045 0.0061832666 -0.22828104
000340 25 80 01 be 65 40 1e 3d ca cd 22 bd 43 ae 66 3d
       -0.1264654 0.03863563 -0.039747037 0.056318533
000350 3a 18 89 bc 17 2b a4 bd 98 98 27 be d3 c9 04 be
       -0.016735185 -0.08016031 -0.16366804 -0.12967615
000360 27 01 51 3d 09 b0 1b 3e 72 6b 68 3e b5 46 a2 bd
       0.05102649 0.15203871 0.22697237 -0.079236425
000370 b5 54 61 bd 92 a4 95 3d d1 8b b6 bd eb 97 31 be
       -0.055012424 0.0730678 -0.089133866 -0.17343108
000380 95 61 04 bd 46 2f 91 3d a8 e3 29 3d c5 5b 8c 3c
       -0.032319624 0.07089095 0.041476876 0.017133603
000390 33 89 14 bd 21 85 08 bc 5a 33 b5 3d e5 ab a6 3d
       -0.036263656 -0.008332522 0.08847685 0.08138255
0003a0 94 a1 8d 3d 2f bf bf 3d 95 68 a6 bc e4 30 8a 3d
       0.06915584 0.09362637 -0.02031354 0.067476064
0003b0 cd 57 10 bd bd 17 82 3d ee d1 37 3e 07 2f 17 3d
       -0.035239983 0.06352184 0.17951176 0.036910083
0003c0 8a ff da 3c c3 d1 1c bc af 71 bf bd 7a 4b dc ba
       0.026733179 -0.0095714955 -0.09347855 -0.0016807162
0003d0 0e 2f 75 bd b8 e6 df ba 07 15 68 3c 10 88 2a bd
       -0.059859328 -0.0017082309 0.01416517 -0.041633666
0003e0 fb ea 01 3b b4 12 13 bd 6e a8 eb bb a5 94 41 bd
       0.0019823897 -0.03590651 -0.0071917092 -0.0472609
0003f0 be 24 87 3c 3e 44 a6 3c 71 e7 9f 3d 75 af a9 3a
       0.016497012 0.020296212 0.07807816 0.0012945967

conv_net.C3.weight f4 [128, 64, 3, 3]
000000 dd 83 dc bb 00 22 12 bd db a7 d2 bd cb 1c 0b bd
       -0.0067295865 -0.035676956 -0.10285922 -0.033963006
000010 9a c7 c1 bd 86 d1 b4 3c c4 0e b8 3d 92 6f ac 3d
       -0.09461899 0.022072565 0.08987191 0.08419718
000020 c5 c2 0c bd 82 6d a2 bc 3b 36 8f bc 6c 54 1e 3d
       -0.034365434 -0.019827608 -0.017481914 0.03865473
000030 77 99 85 bb f0 ea 6e bc 37 4f 7f 3c 06 54 2f bb
       -0.0040771323 -0.014582381 0.015582851 -0.0026752963
000040 94 ab 13 3c 1f 59 0d bd c5 60 a2 bc 5b 41 a2 bd
       0.009013075 -0.03450882 -0.019821534 -0.07922622
000050 84 e7 a3 bc e6 56 53 bc b0 55 a1 bd 21 2d 81 ba
       -0.020007856 -0.012899136 -0.07877672 -0.0009855368
000060 1d 20 55 bd 42 70 0e be c2 a6 41 3d 60 b8 01 bd
       -0.05203258 -0.1391001 0.047278173 -0.031669974
000070 28 e2 fe bc 54 55 cc bc 17 2e d2 3d b3 fe a9 3d
       -0.0311137 -0.024943031 0.10262697 0.08300533
000080 82 02 44 3d 66 4c 91 bb fc 7c 37 bd b3 bc 8b bd
       0.047853954 -0.004434156 -0.04479693 -0.06823101
000090 b1 4c d0 3d b2 88 90 3d 85 71 60 3d 8b 8b 08 bc
       0.10170878 0.070573226 0.05479576 -0.008334051
0000a0 7f 4a 87 bc bf 62 92 3b 99 a9 81 3c 38 6d 4b bd
       -0.016515015 0.004467338 0.01582794 -0.049664706
0000b0 c3 ba 16 bd 4d 14 54 3d 67 2c e1 3c ec 7a 0c 3c
       -0.036799204 0.051777173 0.027486993 0.008574229
0000c0 23 49 c0 bd 24 a5 4b bd 22 de 51 bd 0c 30 f5 bd
       -0.0938895 -0.049718037 -0.051237233 -0.11972055
0000d0 ef f6 c7 bc 46 15 af bd bb bb a4 3d 29 86 51 3d
       -0.02440974 -0.085489795 0.08043619 0.051153336
0000e0 4e d2 38 3d 36 e1 a2 b9 f5 43 f7 bb fd c4 05 bd
       0.045122437 -0.00031066843 -0.007545943 -0.032658566
0000f0 cf d9 db bd 29 19 b6 bd 66 82 ec bd f7 b6 2e 3c
       -0.10734903 -0.08891518 -0.11548309 0.010663739
000100 15 70 a2 bc 34 b2 24 3d 0d 15 a9 3d 12 08 c4 3c
       -0.019828836 0.04020901 0.08255968 0.02392963
000110 cb ac b3 bb 4f c0 f1 bc 30 e4 6a bc 96 b9 a8 3c
       -0.005483245 -0.029510645 -0.014336631 0.020596307
000120 fe 46 e2 3a 99 e8 1a bd e4 e0 00 bd e9 c5 27 bc
       0.0017263589 -0.03781948 -0.031464472 -0.010240057
000130 30 93 b1 bc 68 40 9a 3c 05 41 4b 3c b4 06 9c 3c
       -0.02167663 0.01882954 0.012405639 0.019046165
000140 81 70 22 3d 21 df 93 bd c6 01 e4 bd 95 d8 a3 3d
       0.039658073 -0.07220293 -0.11133151 0.08000294
000150 2c 94 fc bc bf 15 d1 3d 7c fd bf 3d 92 4d c6 3c
       -0.030832373 0.10209226 0.0937452 0.02420691
000160 ca 52 13 3d 97 f8 e6 3d ac ec 4b 3d 1d 60 94 3c
       0.035967626 0.112778835 0.049786255 0.018112237
000170 1d 4f 2b bc c0 35 90 bc d1 95 f9 bc c8 3b c8 3b
       -0.010455874 -0.017603755 -0.030466946 0.006110642
000180 e4 b9 99 bb 05 1f 55 bd 58 cc 59 3c 89 ec ad bd
       -0.0046913493 -0.052031536 0.013293348 -0.08492381
000190 0a 59 90 bd 1d 5a b3 bd ef e4 0c bd 34 5b 03 3d
       -0.07048233 -0.08757422 -0.034398016 0.0320694
0001a0 6e 5b a7 3d 0f 02 79 ba 9a 19 a5 3c 7c df 9f 3d
       0.08171736 -0.0009498903 0.02015381 0.07806298
0001b0 27 99 0c bd a3 55 9a bd c3 7f c7 3c b6 12 bf bc
       -0.034325745 -0.07535865 0.024352914 -0.023324352
0001c0 5d 4d 97 bc c0 a9 b0 bd 29 59 c7 bb 0d 70 e8 bd
       -0.018469507 -0.08626127 -0.0060836268 -0.11349497
0001d0 6b 53 cb bd 30 91 e4 bd 48 0a 29 bd f7 e8 70 bd
       -0.0992802 -0.11160505 -0.04126957 -0.058815923
0001e0 58 f6 ad 3c 00 c4 4a bd f1 8b 37 3d e6 43 90 3d
       0.02123563 -0.049503326 0.044811193 0.070442006
0001f0 e3 a7 27 3c 7c c6 33 3d 32 d4 53 bc 25 f0 18 bc
       0.010232898 0.04389046 -0.012929009 -0.009334599
000200 5c ba 44 3c 2b 06 94 bd 4e 56 b7 bd 95 d4 3d bd
       0.012007322 -0.07227739 -0.08952008 -0.046345312
000210 03 86 a6 bd 88 5c 49 bd c3 5c b9 bd ef 98 31 bd
       -0.081310295 -0.04916051 -0.09050896 -0.04335874
000220 e0 ac 0b bd d5 43 7c bd 22 75 d4 bc 60 da e7 bc
       -0.034100413 -0.061588127 -0.02593476 -0.028302372
000230 00 6f 16 bd 06 db 5b bc 9f 01 de 3c 49 e7 59 bd
       -0.03672695 -0.0134189185 0.027100382 -0.053199086
000240 8e ea 4a 3d c2 0f 99 bb a1 ee 8e 3c 09 12 de 3b
       0.049540095 -0.004671068 0.017447772 0.0067770523
000250 f5 e0 7e bc 5d 3b 2b be 26 e8 76 3c dd 31 86 bc
       -0.015556564 -0.16721864 0.015069997 -0.016381199
000260 c8 7a a9 bd 10 bc da bc 64 c3 c1 bc e5 7b 08 bd
       -0.08275372 -0.026701003 -0.02365274 -0.03332128
000270 1a 2b 08 bd 78 bd 69 3c c3 12 76 bd d2 7c 0b bd
       -0.03324423 0.014266364 -0.060076486 -0.034054585
000280 0b 20 4b bc f9 a3 28 3d 8a b9 05 3c 74 e9 4c 3d
       -0.012397776 0.041172 0.008161912 0.050027326
000290 4c 97 07 3d ca d7 e8 bc 1c d4 2b bd 49 64 c6 3c
       0.033103272 -0.028423209 -0.04195033 0.024217742
0002a0 18 07 bb bd 24 19 de bd e3 41 a9 3d bc 11 36 3d
       -0.091322124 -0.10844639 0.0826452 0.044450507
0002b0 18 52 6f 3d 78 9c 9a 3c c0 89 a6 bd 3c 2a e8 3b
       0.0584279 0.018873438 -0.081317425 0.007085113
0002c0 c3 0b f2 3a 09 c4 73 bc 0c e8 a2 bd 8a b4 9e bd
       0.001846664 -0.014878281 -0.07954416 -0.07749279
0002d0 a3 6e 44 bd e0 3c ee bd 3f 99 f5 3b 6c e2 ce 39
       -0.047957074 -0.11632705 0.007495075 0.0003946008
0002e0 99 00 5e bd 5b e4 e1 3c 66 d0 f7 3c 3a e7 06 3c
       -0.05419979 0.027574709 0.03025074 0.00823384
0002f0 e1 77 22 bd 43 3f 6e 3c 32 92 ec 3c 2f dc b0 3c
       -0.039665107 0.01454145 0.028878305 0.021589367
000300 94 2a b0 3c 8d 77 09 3d 1d fc 97 bc 4e a1 f9 3c
       0.021504678 0.033561278 -0.018552834 0.030472424
000310 d2 50 f2 bc 30 d8 0c bd 06 79 88 bd 19 66 28 bd
       -0.029579554 -0.03438586 -0.066637084 -0.041112993
000320 05 c0 95 bd 13 18 e4 3c 40 13 8c 3c b9 a5 0e bd
       -0.073120154 0.02784351 0.017099023 -0.034826014
000330 e1 41 d5 3d 06 d3 00 3b 2f 17 a0 bd 59 1d eb 3b
       0.10412956 0.001965703 -0.07816922 0.0071751294
000340 c3 07 18 bc aa 48 00 3a 11 3d 46 bd 60 d6 14 bd
       -0.009279194 0.000489364 -0.04839808 -0.036337256
000350 01 20 5f 3d ed 8d 7c bd 20 f4 7e bd 30 11 15 bd
       0.05447388 -0.06165879 -0.062244534 -0.036393344
000360 25 ab c2 3d 58 7c 5f 3d 1c f2 a5 3d 7d 9d 93 bc
       0.095052995 0.054561943 0.08102819 -0.018019432
000370 ef 7e 96 bc a4 2a ca bb bf 2a ec bc 84 dc ef bd
       -0.018371074 -0.006169634 -0.028828977 -0.11711982
000380 27 30 b0 bd 06 6d c8 3d 10 cc 37 3c ea 0c 62 3d
       -0.08602934 0.097864196 0.011218086 0.055188097
000390 21 d3 00 3d c3 a2 0b bd 53 1a 35 3c 63 8f bd bd
       0.03145135 -0.03409077 0.011053639 -0.092558645
0003a0 81 4a 06 bc 3e 3d ff bc 94 1f 9d bd c7 b5 47 bd
       -0.008196474 -0.031157132 -0.07672039 -0.04875734
0003b0 60 df 0d bd 44 c6 98 bd 89 e3 30 bd 52 cf ce bc
       -0.034636855 -0.07459691 -0.043185744 -0.025245342
0003c0 dd 01 87 bd 0d 6c a3 bc 58 3c 8b bd 10 13 ca 3c
       -0.06592152 -0.019948984 -0.06798619 0.024667293
0003d0 e3 e0 ba 3d 10 f1 3e 3c 28 38 c8 3c 4d 89 3f 3d
       0.09124925 0.0116541535 0.02444084 0.0467618
0003e0 ce 54 cc bb 93 81 02 3d 6c 8f 47 be 58 d2 ae bd
       -0.0062356954 0.031861853 -0.19488305 -0.08536214
0003f0 9b 52 85 3d 5b a4 54 3d 9b 15 8a 3d a8 f0 3d bc
       0.06509896 0.051914554 0.06742402 -0.011593021

conv_net.C4.weight f4 [1, 128, 3, 3]
000000 8c ab 5a bc ad 3e a8 bd 23 6a 00 bd 14 bc a9 bc
       -0.013346564 -0.082150795 -0.03135122 -0.020719565
000010 05 d6 04 bd 8d 17 58 bc 9e 85 76 bc 19 65 52 bb
       -0.032430667 -0.013189209 -0.015046505 -0.0032103716
000020 02 c9 af bb 16 19 ef bb 71 0f 35 bd d2 11 6d bd
       -0.005364538 -0.0072966916 -0.04420418 -0.057878323
000030 e3 a5 ea bb 89 7b ac ba 8b 69 93 bc c4 f5 54 bb
       -0.0071608885 -0.0013159375 -0.017994663 -0.003249512
000040 6b 4c 20 3c 6b 40 08 bc 52 28 ab bc 41 1e d5 bc
       0.009783844 -0.00831614 -0.02089325 -0.026015403
000050 8c 20 1c bd 95 e7 84 bc 24 56 2e bc d3 b0 37 bd
       -0.038116977 -0.016223708 -0.010640655 -0.044846367
000060 40 ac 4b bc 18 e4 b5 bb 0a ff 07 bd 57 4f 8c bd
       -0.012431204 -0.0055508725 -0.03320221 -0.068510704
000070 91 6b fe bb c3 c3 3f 3c 32 77 33 be ab f9 ad be
       -0.0077642878 0.011704388 -0.17525938 -0.33979544
000080 6f 12 9b bd d2 24 b4 bd 04 45 54 be b9 45 b2 bd
       -0.07571875 -0.087960854 -0.20729452 -0.08704705
000090 3c b1 2b bb 86 36 3a 3a cb 99 99 3c b3 4b 86 ba
       -0.002619817 0.00071034615 0.018750092 -0.0010245949
0000a0 d3 70 0b 3c df 08 ca 3c 1b 33 c1 3b a3 e8 47 3c
       0.008510786 0.024662433 0.005895985 0.012201461
0000b0 54 3a f8 3d cc 26 f2 3c 4c a9 8e bd 9c c4 a6 bc
       0.121205 0.029559515 -0.069658846 -0.020357423
0000c0 c4 c7 85 3d 0f f9 f0 3b 4e 42 a6 bc ca 16 df 3b
       0.06532243 0.007353909 -0.020295288 0.0068081366
0000d0 c8 18 58 ba ee 7a 1b bc fc b0 d0 ba 64 40 98 bc
       -0.0008243439 -0.009489758 -0.0015921886 -0.018585391
0000e0 52 ed 0a bd 47 3b d0 bb 4e ad ba bc f6 b7 3d bd
       -0.033917733 -0.0063547227 -0.022787716 -0.046318017
0000f0 2e 80 51 bc dc 9e 06 bd bc b6 41 bd 4b 3c 2c be
       -0.012786908 -0.032866344 -0.04729341 -0.16819875
000100 22 2f 08 bd 12 4d 9d bb 89 20 ff 3c 5e a1 5b 3d
       -0.033248074 -0.0048004473 0.031143444 0.05362069
000110 27 52 90 3c 32 d4 45 3c e3 92 2b 3d 60 1a 83 3c
       0.017617298 0.012074517 0.04188813 0.016003788
000120 de 79 f3 3b d9 01 19 bc 19 d5 39 bc 8a 60 ae 3d
       0.007430299 -0.009338819 -0.01134231 0.08514507
000130 63 ce 58 bb 44 09 93 3a 82 b9 cc 3c 51 cf 9b bd
       -0.0033082 0.0011217971 0.0249908 -0.07607902
000140 34 e2 ea bc bd 78 d6 bc ac bd 27 bd cb d7 13 bd
       -0.028672315 -0.02618062 -0.04095237 -0.036094468
000150 7f c3 c7 bd d5 32 6f be d1 1d dd bd 58 60 a2 bd
       -0.09754085 -0.23359235 -0.10796703 -0.07928532
000160 09 1a d8 bd dc df 57 bd 94 ef f3 3c 02 b9 22 3d
       -0.10551841 -0.052703723 0.029777326 0.03972722
000170 d5 ad 2f 3d e2 6b 87 3c 6f 38 72 3d 60 ed 36 3d
       0.04289039 0.016530935 0.05913585 0.044659972
000180 87 6c 50 3c 46 97 f5 3c 2f 7f 09 3d 5b 3c 24 3b
       0.012721187 0.02997936 0.033568557 0.0025060389
000190 61 ce 8e 3b c3 67 64 3b 8d 9f 20 bc eb 46 84 bb
       0.0043580984 0.0034851886 -0.009803665 -0.0040367744
0001a0 c4 f9 60 ba 14 d1 04 bb f8 81 4e ba b1 79 5c 3e
       -0.000858214 -0.0020266222 -0.0007877643 0.21530797
0001b0 6a 81 8b 08 30 84 96 08 bb 66 a1 08 39 c8 87 08
       8.396183e-34 9.058874e-34 9.713987e-34 8.172089e-34
0001c0 76 74 92 08 13 db 9c 08 86 75 87 08 d5 2e 91 08
       8.814435e-34 9.440413e-34 8.152647e-34 8.73788e-34
0001d0 1e f7 99 08 06 cd 97 bc b3 6f 09 bd 49 9c 64 bc
       9.2664495e-34 -0.01853038 -0.03355379 -0.013953277
0001e0 a6 9e 06 bc 2c 5d be bd c2 9b 21 bd da ea 1e bc
       -0.008216536 -0.09295115 -0.039455183 -0.009699548
0001f0 64 66 2f bd 33 35 1f bd bf cb a6 3d fb 03 d2 3d
       -0.042822257 -0.038869094 0.0814433 0.102546655
000200 1d bf 80 3d 4d 8c 93 3d bb 61 da 3d a9 df b2 3d
       0.06286452 0.072044946 0.10663172 0.08734066
000210 ab 48 c5 3d f3 19 e9 3d e9 dd a0 3d 86 77 83 bc
       0.09633001 0.113819025 0.07854826 -0.016048204
000220 14 7a 76 bd 03 a3 e3 3b da cd 52 bc 8d 5b 2f be
       -0.060175017 0.0069469227 -0.012866462 -0.17124768
000230 3d 08 57 bc 52 13 18 bc d1 6d a9 bb bc fe 09 3c
       -0.013124523 -0.00928195 -0.005170562 0.00842255
000240 e3 00 df bc f1 58 3c bc fe ab 18 bb 15 c2 48 bd
       -0.027222103 -0.011495815 -0.0023295875 -0.049013216
000250 5f 19 a8 3d c2 45 99 3c f1 5b b0 bb 4f 63 fa 3b
       0.08207964 0.01871002 -0.005382054 0.007641233
000260 3e 86 5d 3c 6f 22 e1 b9 4d 65 a7 3b d5 62 7b 3a
       0.013520775 -0.00042941 0.0051085115 0.0009589617
000270 ab 6e f0 3e f5 6c 69 3c 9d 23 f2 b9 63 1a 02 3d
       0.46959433 0.014247169 -0.0004618437 0.031763446
000280 37 b1 51 3c d1 b2 af 3b 7f 1f 00 be cc b1 bd bd
       0.012798599 0.0053618927 -0.12512015 -0.09262428
000290 4c 3e 04 bd bc a2 67 be 58 d8 b8 bd df 2b 3a bc
       -0.032285973 -0.22620672 -0.09025639 -0.011362999
0002a0 03 72 a3 bd d9 eb e6 bc cc 96 69 ba 10 5a 89 3d
       -0.079807304 -0.028188633 -0.0008910715 0.06706631
0002b0 d7 44 b4 3d da a5 fd 3d 07 ff 07 3e 4f d0 17 3e
       0.08802193 0.12385149 0.13280879 0.14825557
0002c0 50 84 4e 3e 49 f8 c8 3d 3d 8b 36 3d c0 83 0a 3d
       0.2016766 0.09812982 0.04456638 0.033817053
0002d0 0d e0 18 3d c2 67 8f 3d d2 f7 0c 3d b2 84 6e 3b
       0.037323046 0.07002212 0.034416027 0.003639501
0002e0 9d 21 42 3d 49 99 fe 3c b7 9c c2 3c e3 6b 34 3d
       0.047395337 0.031078951 0.023756368 0.0440482
0002f0 6c 20 86 3d 20 39 9c 3d 32 a0 a8 3d 2d 4b e4 3c
       0.06549153 0.07628083 0.0823368 0.027867878
000300 5b ff c4 3d e9 51 20 b8 de 31 3d 3b 99 6f 1a 3d
       0.09619018 -3.8223257e-05 0.0028868834 0.037704084
000310 c2 70 66 3b 27 29 4f 3b b6 1b 58 3b 7c 86 8f ba
       0.0035162424 0.0031610222 0.0032975501 -0.0010950114
000320 0c 51 96 bc 30 c4 c7 3c 41 98 87 3c 26 ce 70 bc
       -0.018349193 0.024385542 0.016552093 -0.014697587
000330 43 6a 9b 3d 88 c6 13 3e 11 f8 27 bc 85 db d7 3d
       0.07588627 0.14431202 -0.010252015 0.10539917
000340 8d f7 77 3d c3 33 24 3d a8 44 45 3e 2d 84 5f 3e
       0.060538817 0.040088426 0.19264472 0.21827765
000350 66 0b 35 3d a8 fa d2 3d 21 4e e6 3d 3a a7 71 3d
       0.044200324 0.10301715 0.11245371 0.05899737
000360 a9 06 03 3d 86 61 7e 3d 6a fa 25 3e 2c 30 a0 3b
       0.031988773 0.062104724 0.16208807 0.004888555
000370 3a 7c d0 bb bd 51 bf 3d f5 ac ed 3b d0 cb 28 3c
       -0.006362465 0.09341762 0.007253284 0.010302499
000380 7c 7c 97 3c f2 33 86 3b 08 4a b0 3b b7 2f 01 3b
       0.018491976 0.004095548 0.005379919 0.0019712278
000390 23 40 fb b9 d2 62 4c 3d 48 bd c5 39 a9 91 ce 3a
       -0.00047922236 0.04989893 0.00037715794 0.0015759963
0003a0 73 ad 5e ba 3a b8 e3 ba a6 f5 10 3e 54 71 f5 3d
       -0.0008494474 -0.0017373629 0.14156207 0.11984506
0003b0 43 c3 ae 3d 63 0e eb 3d c0 41 16 3e 0c 69 5b 3d
       0.08533337 0.114773534 0.14673519 0.053566977
0003c0 00 14 cf 3d 2d 13 7a 3d 32 ed b2 3d a5 27 92 3d
       0.101112366 0.061053444 0.08736648 0.07136468
0003d0 79 59 a1 3c 2d e2 af 3c 3b b8 1a 3f 25 f9 c5 3c
       0.019695984 0.021470154 0.60437363 0.024166653
0003e0 e8 7a ba 3c 2b 9b ad 3c 0d f8 a6 3c da cb 33 3c
       0.022763684 0.021192154 0.020381952 0.010973895
0003f0 a7 a7 bd 3c 68 6d 88 3c c0 3e 82 3c c7 1f dd 3c
       0.023151232 0.016653731 0.015899062 0.026992692
