CNN_weights/NetworkA_weights_CV5.pt (torch, 394591 bytes, 4 tensors)

conv_net.C1.weight f4 [32, 17, 3, 3]
-0.018499406 0.10401591 0.01935648 -0.09043581 -0.19547985 -0.040991228 -0.13618441 -0.20115127
-0.10864303 0.03411775 0.040267017 0.036602598 -0.024178252 -0.23348978 0.0033717242 0.04922005
-0.13481389 -0.049664184 0.08583331 0.07192592 0.09569672 -0.0053844554 0.1709826 0.13658983
0.050909143 0.07209768 0.0856937 0.039794754 -0.0076785865 -0.018531444 0.06216019 -0.016556839
0.08573893 -0.048810896 -0.13157256 -0.07394737 -0.054173283 0.05258713 -0.05658887 -0.081612855
0.02819704 -0.012082704 -0.05437849 0.05651698 0.09422903 0.034010515 -0.016863285 -0.060760383
-0.022464847 0.019862643 0.12406281 -0.1466188 -0.07012167 0.058018867 0.1926418 0.10984719
0.12242874 0.03525862 0.14241946 0.11576273 -0.22686546 0.025682453 0.09455069 0.09500321
-0.08224396 0.014492686 -9.634368e-06 -0.041821796 -0.07742908 0.049070034 0.17523131 0.103170455
-0.013785571 0.12643972 0.118912935 -0.020815665 0.17877084 0.06883325 -0.15318394 0.07525752
0.16921899 -0.06537373 0.055407587 0.05160976 0.054656215 -0.04231549 -0.04206813 -0.05687522
-0.023166422 0.05953166 -0.04026347 -0.025275849 -0.093758635 0.12101689 -0.0697607 -0.12762447
0.09200738 0.00071724 -0.13525662 -0.035908997 0.16632846 -0.051589698 -0.097538546 0.10595319
0.048472926 -0.059696533 -0.06156545 0.0052599595 0.15940669 0.0616966 0.008408193 0.08318775
-0.07488767 -0.0027722195 0.061607946 -0.0154274935 0.013533773 0.10031445 0.043491483 0.047338866
-0.012869529 0.017134013 -0.008055924 0.00068839383 -0.010194738 0.04713827 -0.075423054 -0.015559496
0.030113522 -0.04215337 0.0888432 0.058520067 -0.019706598 -0.05978685 -0.21932322 -0.022443296
-0.01774277 -0.041583423 0.051105898 -0.049295526 0.022520263 -0.0066709444 -0.035737738 -0.035689548
0.06795482 -0.00014670417 -0.00023160885 0.11936345 -0.15639694 -0.07624928 -0.079201534 -0.09429535
-0.11341006 -0.09754336 0.07516635 -0.028089743 0.14991067 0.40810865 0.06726492 0.11579555
0.016157027 0.03204582 0.010224648 0.020429093 0.024350826 0.03840715 0.112675145 -0.03471065
0.035179496 -0.0843803 -0.004820213 0.021492397 -0.03672582 -0.11388299 0.050067082 -0.21713607
-0.039063625 0.073789544 -0.14523742 -0.05608552 0.005904712 -0.009169093 -0.009517366 0.07146388
-0.12729901 -0.044253167 0.0007355277 0.05537377 0.033056628 -0.1864694 0.102421336 0.2340646
-0.33670345 -0.16308519 0.2839384 -0.16311702 -0.027922032 0.20401971 -0.058172632 0.024822297
0.072280094 0.002307277 -0.027140414 0.012251435 0.015313511 -0.019673165 -0.0004369389 -0.18107608
-0.25660464 -0.13900502 -0.018001635 -0.02320119 -0.055845518 0.25418973 0.30128258 0.17058876
0.020828841 -0.099373825 -0.035470974 0.0049669943 0.02653092 0.023070803 0.020223482 0.102225006
-0.023411103 -0.054824885 -0.01737723 0.011041331 -0.026420437 -0.06847945 0.026834076 -0.06287305
0.010500355 0.044137258 0.0073667676 0.027033912 -0.045853104 -0.049777452 -0.11381298 0.030020133
-0.027953109 0.033919472 -0.04490054 0.045720123 -0.054109003 -0.023954023 0.0056982245 -0.24837911
-0.09393652 0.06959711 0.09029557 0.043692406 0.0049304306 -0.051894862 0.051071063 0.012635453
00000000: 118c 97bc 4b06 d53d 7b91 9e3c 6936 b9bd
00000010: df2b 48be 6be6 27bd ed73 0bbe 99fa 4dbe
00000020: 3d80 debd 0ebf 0b3d 07ef 243d 9bec 153d
00000030: 7811 c6bc f217 6fbe 25f8 5c3b f79a 493d
00000040: a70c 0abe ac6c 4bbd 60c9 af3d e64d 933d
00000050: a4fc c33d 1670 b0bb 1016 2f3e 34de 0b3e
00000060: 1b86 503d f3a7 933d 2e80 af3d d3ff 223d
00000070: a79c fbbb 41cf 97bc af9b 7e3d 35a2 87bc
00000080: e497 af3d efed 47bd f5ba 06be b871 97bd
00000090: cee4 5dbd 9a65 573d bbc9 67bd a424 a7bd
000000a0: 7bfd e63c 89f6 45bc fbbb 5ebd 597e 673d
000000b0: 26fb c03d 9c4e 0b3d df24 8abc e1df 78bd
000000c0: 3308 b8bc fbb6 a23c a414 fe3d 3d23 16be
000000d0: f39b 8fbd 31a5 6d3d e443 453e 90f7 e03d
000000e0: ebbb fa3d 586b 103d 68d6 113e 0315 ed3d
000000f0: 6b4f 68be 0264 d23c cba3 c13d 0b91 c23d
00000100: 856f a8bd bb72 6d3c 4ca3 21b7 554d 2bbd
00000110: 2393 9ebd a9fd 483d d66f 333e 084b d33d
00000120: e0dc 61bc 6a79 013e a088 f33d 9d85 aabc
00000130: b40f 373e 72f8 8c3d 40dc 1cbe 9d20 9a3d
00000140: be47 2d3e aae2 85bd 11f3 623d c164 533d
00000150: 32df 5f3d 0253 2dbd a24f 2cbd fef5 68bd
00000160: 82c7 bdbc 78d7 733d 4feb 24bd 4c0f cfbc
00000170: 8704 c0bd b4d7 f73d b3de 8ebd fdaf 02be
00000180: 5e6e bc3d 2905 3c3a b680 0abe 5015 13bd
00000190: 0252 2a3e b84f 53bd 4ac2 c7bd fcfd d83d
000001a0: 8c8b 463d 5a84 74bd 0e2c 7cbd bd5b ac3b
000001b0: 823b 233e 93b5 7c3d 84c2 093c 575e aa3d
000001c0: b55e 99bd 20ae 35bb 9d58 7c3d 99c3 7cbc
000001d0: c2bc 5d3c aa71 cd3d 2024 323d 66e6 413d
000001e0: b8da 52bc a15c 8c3c fffc 03bc 5475 343a
000001f0: d507 27bc 0f14 413d 6777 9abd 42ed 7ebc
00000200: a2b0 f63c 03a9 2cbd 6cf3 b53d bdb2 6f3d
00000210: bb6f a1bc 0ee3 74bd 4496 60be 01db b7bc
00000220: 4959 91bc 6153 2abd 6b54 513d 1bea 49bd
00000230: 6a7c b83c f097 dabb bc61 12bd 342f 12bd
00000240: e62b 8b3d 9ad4 19b9 07dc 72b9 d374 f43d
00000250: 8526 20be 9528 9cbd 6a34 a2bd ec1d c1bd
00000260: 8943 e8bd d0c4 c7bd d1f0 993d 761c e6bc
00000270: 2f82 193e 9ef3 d03e 31c2 893d 3826 ed3d
00000280: be5b 843c 7a42 033d 4885 273c ea5a a73c
00000290: 627b c73c d150 1d3d 3ac2 e63d c12c 0ebd
000002a0: 6018 103d 94cf acbd e1f2 9dbb d310 b03c
000002b0: d06d 16bd 7c3b e9bd 2413 4d3d eb58 5ebe
000002c0: 2e01 20bd f91e 973d 1eb9 14be eeb9 65bd
000002d0: 507c c13b f739 16bc baee 1bbc a85b 923d
000002e0: ac5a 02be cf42 35bd 6ed0 403a 9bcf 623d
000002f0: 6366 073d d6f1 3ebe 47c2 d13d a1ae 6f3e
00000300: 6564 acbe ceff 26be 6060 913e 2608 27be
00000310: bfbc e4bc 8bea 503e 6d46 6ebd 2158 cb3c
00000320: 9607 943d af35 173b 9355 debc 3eba 483c
00000330: 85e5 7a3c 9e29 a1bc f214 e5b9 026c 39be
00000340: af61 83be 5557 0ebe 2a78 93bc 6c10 bebc
00000350: 45be 64bd 2825 823e b641 9a3e d2ae 2e3e
00000360: 3fa1 aa3c 8184 cbbd 034a 11bd 2bc2 a23b
00000370: 5f57 d93c fbfe bc3c b7ab a53c 585b d13d
00000380: a4c8 bfbc 0f90 60bd b15a 8ebc b3e6 343c
00000390: ac6f d8bc f43e 8cbd 23d3 db3c 96c3 80bd
000003a0: ae09 2c3c 45c9 343d ed64 f13b 3976 dd3c
000003b0: 77d0 3bbd 71e3 4bbd c816 e9bd c8ec f53c
000003c0: ebfd e4bc 25ef 0a3d a1e9 37bd 0645 3b3d
000003d0: 67a1 5dbd 3a3b c4bc 2cb8 ba3b 1857 7ebe
000003e0: ca61 c0bd ee88 8e3d e2ec b83d cff6 323d
000003f0: 738f a13b b58f 54bd e42f 513d ee04 4f3c

conv_net.C2.weight f4 [64, 32, 3, 3]
-0.0127559975 0.025632638 -0.026750097 0.081106655 -0.11898837 -0.03935194 0.102644965 -0.06392403
-0.033237617 -0.014105982 -0.1336018 -0.011522954 -0.04906312 -0.00697813 0.0004077772 -0.07606402
-0.086643614 -0.057448212 0.030392688 0.079961896 0.020981932 -0.027559234 -0.01171782 0.05729934
0.008409404 0.08768136 -0.017805565 -0.053152986 -0.0012107729 -0.013695825 0.029501468 0.06303921
0.059793275 0.101731345 0.077665284 0.09173053 -0.022054618 0.0431985 0.0332313 0.028532658
0.041185074 -0.05376367 0.042740908 -0.017636487 -0.051824 0.099312186 0.1040519 -0.014282288
0.021100363 0.03228597 0.04379008 -0.051538546 -0.067801654 -0.009499001 0.13837846 0.038841225
-0.0792396 0.08518851 0.08198251 -0.0013460731 -0.039080944 0.040765204 0.09600087 -0.003622284
-0.09343748 0.020314207 0.092722625 -0.13081503 -0.11792863 0.04675861 -0.02036336 0.0027612906
0.050824404 0.0053392504 0.057481755 0.06926975 0.076917335 -0.020497594 0.02185724 -0.016180001
-0.09325691 0.04754167 -0.03427901 0.05606621 0.03729282 0.0019409116 0.05866933 -0.07051386
-0.08188016 -0.020499265 -0.04405729 -0.06797286 -0.10894955 0.037958205 0.03277893 -0.12048451
0.018771226 0.067131236 -0.0741898 0.03769962 0.11303631 0.065604724 0.011956135 0.03162999
0.062411208 0.034490544 -0.07483571 0.00080614875 -0.0731284 0.02149303 -0.046257857 0.035165537
0.035233956 -0.008229725 0.039968617 0.05870195 0.07081687 0.03829662 -0.020602347 -0.1245543
0.06881423 -0.03361925 -0.18016392 -0.18860291 -0.14029014 -0.2588664 -0.1722709 -0.12336572
-0.06632687 -0.059500873 -0.10508356 -0.014195004 0.07191942 -0.03763147 -0.032382775 0.11486824
0.048703995 0.072218165 0.057488255 0.10808328 -0.0054007387 -0.03610468 -0.047148313 -0.11319757
0.16718967 -0.006451384 -0.10768287 0.2653406 0.034364823 -0.1313662 -0.027041849 -0.13259435
-0.061954 0.0035907137 -0.040898357 -0.037098136 0.04372227 -0.06519041 -0.06814157 0.012043092
0.0039613806 -0.03415885 -0.040132493 -0.05697649 -0.019945864 0.026178006 0.09502529 -0.078721546
0.044689614 0.03552181 -0.10207955 0.13347897 -0.021373784 -0.08954699 -0.02892633 0.0041297255
-0.10196948 0.020450687 0.073407136 0.04511341 -0.053506844 -0.0059081437 0.010370909 -0.0035114014
-0.030804954 -0.05458591 -0.04140884 0.057600155 0.08425366 -0.021986242 -0.031965993 -0.058261696
-0.0582667 0.0034374837 -0.07413391 -0.048681937 -0.052721646 -0.027257562 0.18417265 -0.013726937
-0.07416609 0.01329906 -0.033790737 -0.14577156 -0.04381656 0.025902051 -0.034065895 -0.07553281
-0.023271343 -0.009481326 0.03639871 0.022581842 -0.007264726 0.08275097 -0.06810553 -0.023824587
0.0138175 -0.012499037 0.02186266 -0.03033715 0.07953172 -0.14186816 -0.08804449 -0.047626343
-0.11801806 -0.036500674 0.02415458 0.10777362 0.07462912 0.038254768 0.15568858 0.028442752
-0.037559357 -1.168832e-05 0.0667043 -0.039537545 0.0022345255 0.0715995 0.09189933 0.16315107
0.09392456 0.051166117 0.0519029 0.0025856479 -0.05965931 -0.045389537 0.10820917 0.052508246
-0.02439435 0.05767602 -0.0068403543 -0.06304511 0.076822065 -0.13062221 0.13114649 0.09001802
00000000: 88fe 50bc 8afb d13c 0523 dbbc 3f1b a63d
00000010: 2db0 f3bd 802f 21bd 8637 d23d 9aea 82bd
00000020: 2b24 08bd c71c 67bc e9ce 08be c6ca 3cbc
00000030: 69f6 48bd cca8 e4bb eeca d539 74c7 9bbd
00000040: 3572 b1bd d14e 6bbd 16fa f83c 10c3 a33d
00000050: 4de2 ab3c e7c3 e1bc 19fc 3fbc b6b2 6a3d
00000060: 99c7 093c 4992 b33d fadc 91bc f2b6 59bd
00000070: ccb2 9eba 7464 60bc 10ad f13c b41a 813d
00000080: cbe9 743d 8658 d03d fa0e 9f3d 37dd bb3d
00000090: e3ab b4bc e9f0 303d 8b1d 083d 52bd e93c
000000a0: aeb1 283d 4b37 5cbd 1711 2f3d 657a 90bc
000000b0: 6745 54bd 3064 cb3d 2a19 d53d 4200 6abc
000000c0: abda ac3c 4b3e 043d 3a5d 333d 151a 53bd
000000d0: 98db 8abd b3a1 1bbc 15b3 0d3e fa17 1f3d
000000e0: 5f48 a2bd 5077 ae3d 72e6 a73d b86e b0ba
000000f0: 5713 20bd 6af9 263d 1b9c c43d d763 6dbb
00000100: 265c bfbd fb69 a63c 5ce5 bd3d 60f4 05be
00000110: 9184 f1bd f585 3f3d 10d1 a6bc c5f6 343b
00000120: 402d 503d e1f4 ae3b fd71 6b3d 4cdd 8d3d
00000130: d686 9d3d 92ea a7bc f40d b33c ec8b 84bc
00000140: 7bfd bebd 0ebb 423d 2668 0cbd afa5 653d
00000150: 5bc0 183d 3066 fe3a 404f 703d 9269 90bd
00000160: c9b0 a7bd 13ee a7bc 6b75 34bd 5b35 8bbd
00000170: f120 dfbd 107a 1b3d 3343 063d 95c0 f6bd
00000180: 1dc6 993c 1a7c 893d d2f0 97bd eb6a 1a3d
00000190: 957f e73d c55b 863d aae3 433c 738e 013d
000001a0: e5a2 7f3d f545 0d3d 7743 99bd ba53 533a
000001b0: 58c4 95bd 2712 b03c e178 3dbd bd09 103d
000001c0: 7b51 103d f8d5 06bc 22b6 233d 7571 703d
000001d0: 6f08 913d ebdc 1c3d 41c6 a8bc 5316 ffbd
000001e0: 7aee 8c3d 57b4 09bd e47c 38be 1f21 41be
000001f0: 38a8 0fbe 238a 84be c867 30be 2ba7 fcbd
00000200: 62d6 87bd 30b7 73bd 0d36 d7bd 2992 68bc
00000210: 7d4a 933d 7523 1abd cda3 04bd 0a40 eb3d
00000220: d77d 473d 1ee7 933d ce78 6b3d c45a dd3d
00000230: aef8 b0bb 80e2 13bd 971e 41bd 21d4 e7bd
00000240: c533 2b3e 2266 d3bb d688 dcbd b9da 873e
00000250: 21c2 0c3d dc84 06be de86 ddbc d0c6 07be
00000260: 7ac3 7dbd 2e52 6b3b 0985 27bd 37f4 17bd
00000270: 1f16 333d 8d82 85bd cf8d 8bbd 6450 453c
00000280: 78ce 813b 26ea 0bbd f861 24bd 2e60 69bd
00000290: 8265 a3bc 4273 d63c 9f9c c23d c338 a1bd
000002a0: 750c 373d 517f 113d 150f d1bd b6ae 083e
000002b0: 1318 afbc 6a64 b7bd e9f6 ecbc a652 873b
000002c0: 60d5 d0bd 3388 a73c 7b56 963d d7c8 383d
000002d0: fe29 5bbd 1a99 c1bb bfea 293c 8a1f 66bb
000002e0: ac5a fcbc 7a95 5fbd 519c 29bd 24ee 6b3d
000002f0: 2f8d ac3d 7e1c b4bc c6ee 02bd d1a3 6ebd
00000300: 10a9 6ebd 6847 613b 85d3 97bd b666 47bd
00000310: a7f2 57bd 404b dfbc c197 3c3e f2e6 60bc
00000320: 64e4 97bd 4de4 593c 2868 0abd 2445 15be
00000330: fe78 33bd 8a30 d43c ae88 0bbd f2b0 9abd
00000340: 8ba3 bebc 9057 1bbc d016 153d 8efd b83c
00000350: f00c eebb 5779 a93d ea7a 8bbd c82b c3bc
00000360: cc62 623c c3c8 4cbc 5219 b33c 9d85 f8bc
00000370: 87e1 a23d e345 11be ab50 b4bd d713 43bd
00000380: 74b3 f1bd bb81 15bd d3df c53c 6ab8 dc3d
00000390: 27d7 983d 08b1 1c3d d46c 1f3e c600 e93c
000003a0: d7d7 19bd f418 44b7 449c 883d 1ff2 21bd
000003b0: 1e71 123b c2a2 923d b735 bc3d 1311 273e
000003c0: 855b c03d 9093 513d 2398 543d f973 293b
000003d0: 525d 74bd 61ea 39bd c59c dd3d e312 573d
000003e0: a9d6 c7bc b13d 6c3d 0d25 e0bb cb1d 81bd
000003f0: e354 9d3d d4c1 05be 444b 063e 5e5b b83d

conv_net.C3.weight f4 [128, 64, 3, 3]
-0.12688383 -0.07131547 0.079789706 0.05445372 -0.0022443908 0.057282485 -0.011271749 -0.063569345
0.05100947 0.009906726 -0.04918128 0.026147353 -0.030247685 -0.08978947 0.016658705 0.04360378
-0.12950659 -0.06694161 -0.027762786 0.010740482 0.019936193 -0.047740083 0.015313487 0.090306826
-0.08689342 -0.09146347 0.08153118 0.017878346 -0.08098367 0.028721083 -0.03078229 -0.10241625
-0.015125741 -0.055644866 -0.037704945 -0.0669469 -0.024529373 0.04454856 -0.039118882 -0.057488885
0.03513019 -0.027752094 0.01955894 0.07248411 0.012079381 -0.05082799 0.054473285 0.025226993
-0.077786945 -0.0038595765 0.03873186 -0.0011826779 -0.03624276 0.024047557 -0.023475254 -0.115951784
-0.094283454 0.00076921546 -0.06250749 -0.04924401 -0.0037635323 -0.039804775 -0.011987104 -0.15127246
-0.067840934 -0.020672051 -0.103606336 -0.038824424 -0.062159214 0.040469494 0.007487715 -0.05935259
-0.075506605 -0.036445826 0.0030344222 -0.10119521 -0.07588097 0.0061934455 -0.06170767 -0.07663874
0.05143286 0.041316554 0.09586184 0.11720235 -0.03241931 -0.06949085 -0.029932749 -0.0044246973
-0.069161676 0.015272567 0.02200105 0.0026320198 0.0148705235 0.019000886 -0.016522367 0.0045636203
-0.051822726 -0.05882338 -0.063133605 -0.038183548 -0.037631128 -0.04441492 0.008556557 0.029683119
0.050082844 -0.0011738059 -0.01957984 0.04923561 0.010123292 0.026822465 -0.040308487 -0.004233241
-0.0041280193 -0.12549883 0.10405491 0.067546435 -0.080165185 -0.08122622 -0.03775855 -0.017634396
0.020408431 -0.026364807 -0.052204456 0.09009855 -0.058161046 -0.058187965 -0.05414756 -0.06543207
-0.0008898545 -0.013093221 -0.037616797 -0.00450941 0.0037205878 -0.059022777 -0.059827898 -0.077078566
-0.024911508 -0.018664422 -0.054539632 -0.031294357 0.0030401575 -0.057018995 -0.02517735 0.017066887
-0.029405287 -0.00199108 -0.016489182 -0.045277573 0.034259755 -0.037919067 -0.0717831 -0.026161605
-0.06418908 0.06355635 -0.0437459 -0.05504351 0.10814134 -0.027401056 -0.06541528 0.07405461
0.029593648 -0.09440941 -0.008451969 0.017637094 0.043085422 -0.11597439 -0.00011541906 0.10522796
-0.03769791 0.013046492 0.05403211 -0.062258728 -0.067651235 -0.101667024 -0.022385389 -0.037531115
-0.017705476 0.039279528 -0.024233866 -0.07780011 0.07186257 0.070225336 -0.013125899 0.024459748
-0.043547772 -0.1032208 -0.007414869 0.0024269216 -0.009384573 -0.018503167 0.022475967 -0.04420402
0.026240924 0.047483828 -0.09270135 0.011045847 0.04242416 -0.036816645 -0.033824705 -0.029429944
-0.078665964 -0.04490501 0.022749567 -0.037920874 -0.08987854 -0.0009204955 0.010886389 -0.05433208
-0.044675168 -0.0010828687 -0.041258547 -0.101501666 0.023554178 -0.05428244 0.060836658 -0.0499665
-0.007164284 -0.06998933 -0.07406248 -0.024054315 0.023431433 -0.034322307 -0.07007087 -0.020491472
-0.0015016282 0.02624845 -0.059492927 -0.14637715 0.061880376 0.0041042194 -0.016615637 0.00842632
0.023398565 -0.031903856 -0.045231584 -0.003412791 -0.043878675 0.033694964 -0.0013187468 -0.022366822
-0.051199716 -0.09607862 -0.05227749 -0.05580411 -0.0068417853 -0.052548263 -0.060091473 -0.025173252
-0.0019982622 -0.10485156 -0.027808899 -0.040334713 0.088907585 -0.009402041 -0.039824024 0.07577716
00000000: d6ed 01be d80d 92bd c968 a33d dd0a 5f3d
00000010: a116 13bb 0aa1 6a3d 24ad 38bc a530 82bd
00000020: 4eef 503d d24f 223c 4f72 49bd f932 d63c
00000030: fec9 f7bc 8be3 b7bd d677 883c e199 323d
00000040: 609d 04be af18 89bd c86e e3bc d9f8 2f3c
00000050: 3a51 a33c 1b8b 43bd 6be5 7a3c c9f2 b83d
00000060: 2df5 b1bd 3351 bbbd d2f9 a63d 9c75 923c
00000070: c4da a5bd 7a48 eb3c 242b fcbc 9cbf d1bd
00000080: f5d1 77bc dfeb 63bd 8070 1abd 751b 89bd
00000090: d3f1 c8bc 8d78 363d 1f3b 20bd 7779 6bbd
000000a0: ade4 0f3d 5c58 e3bc 123a a03c 8d72 943d
000000b0: 99e8 453c 0331 50bd 611f 5f3d d7a8 ce3c
000000c0: c34e 9fbd f3f0 7cbb 4da5 1e3d 1604 9bba
000000d0: 4a73 14bd 62ff c43c 2d4f c0bc 2178 edbd
000000e0: af17 c1bd 2da5 493a ed03 80bd 16b4 49bd
000000f0: 98a5 76bb 550a 23bd 8f65 44bc 2be7 1abe
00000100: 30f0 8abd 6f58 a9bc 8f2f d4bd 5c06 1fbd
00000110: a99a 7ebd 57c3 253d 825b f53b b41b 73bd
00000120: 35a3 9abd 3848 15bd 28dd 463b 6f3f cfbd
00000130: 7b67 9bbd 63f2 ca3b 2fc1 7cbd c6f4 9cbd
00000140: 43ab 523d 8c3b 293d 3653 c43d c907 f03d
00000150: 1cca 04bd 3851 8ebd 8635 f5bc 0dfd 90bb
00000160: a3a4 8dbd ca39 7a3c 8c3b b43c f77d 2c3b
00000170: 7fa3 733c bfa7 9b3c ea59 87bc 6c8a 953b
00000180: 1144 54bd c9f0 70bd 314c 81bd 5a66 1cbd
00000190: 1923 1abd 6bec 35bd cd30 0c3c 032a f33c
000001a0: ab23 4d3d 64da 99ba e765 a0bc 47ab 493d
000001b0: 2adc 253c c9ba db3c 831a 25bd 00b7 8abb
000001c0: 5644 87bb c482 00be be1a d53d c955 8a3d
000001d0: a52d a4bd ef59 a6bd b6a8 1abd 0276 90bc
000001e0: 952f a73c 02fb d7bc 57d4 55bd 9785 b83d
000001f0: 473a 6ebd 8156 6ebd d5c9 5dbd 4001 86bd
00000200: 2045 69ba f384 56bc 1214 1abd acc3 93bb
00000210: 1bd5 733b dec1 71bd 190e 75bd 5edb 9dbd
00000220: 3813 ccbc 21e6 98bc f364 5fbd 832e 00bd
00000230: 613d 473b c08c 69bd bb40 cebc dbcf 8b3c
00000240: 5be3 f0bc c77c 02bb 5214 87bc fa74 39bd
00000250: f553 0c3d 0651 1bbd 0503 93bd dd50 d6bc
00000260: 9075 83bd d529 823d e72e 33bd 4e75 61bd
00000270: 3579 dd3d 2e78 e0bc 72f8 85bd f2a9 973d
00000280: 616e f23c b959 c1bd 217a 0abc ab7b 903c
00000290: 577a 303d fb83 edbd 230d f2b8 c281 d73d
000002a0: 2069 1abd f4c0 553c c650 5d3d 0203 7fbd
000002b0: bb8c 8abd cd36 d0bd 9061 b7bc 3aba 19bd
000002c0: 130b 91bc 92e3 203d 1a86 c6bc aa55 9fbd
000002d0: af2c 933d 4dd2 8f3d 030e 57bc cf5f c83c
000002e0: 265f 32bd 6d65 d3bd 6ef8 f2bb fd0c 1f3b
000002f0: c1c1 19bc f493 97bc 851f b83c 460f 35bd
00000300: 35f7 d63c 677e 423d 35da bdbd a4f9 343c
00000310: f5c4 2d3d 0dcd 16bd c68b 0abd 1117 f1bc
00000320: 9f1b a1bd 51ee 37bd 4d5d ba3c eb52 1bbd
00000330: 3d12 b8bd 684d 71ba d35c 323c 518b 5ebd
00000340: 4ffd 36bd 0bef 8dba b9fe 28bd 1be0 cfbd
00000350: b1f4 c03c 4457 5ebd dc2f 793d aca9 4cbd
00000360: 5fc2 eabb 9156 8fbd 12ae 97bd 8e0d c5bc
00000370: 47f3 bf3c 8c95 0cbd 5181 8fbd bbdd a7bc
00000380: 48d2 c4ba fd06 d73c dbae 73bd e4e3 15be
00000390: 4776 7d3d b07c 863b 841d 88bc 8c0e 0a3c
000003a0: 59ae bf3c 9ead 02bd c144 39bd 22a9 5fbb
000003b0: 20ba 33bd bb03 0a3d cdd9 acba a03a b7bc
000003c0: cbb6 51bd dec4 c4bd ec20 56bd da92 64bd
000003d0: 0e31 e0bb d93c 57bd 7a22 76bd 2338 cebc
000003e0: 47f5 02bb 6abc d6bd 7dcf e3bc 0336 25bd
000003f0: 2e15 b63d 050b 1abc 841e 23bd 0e31 9b3d

conv_net.C4.weight f4 [1, 128, 3, 3]
-0.015503523 -0.029363023 -0.03212767 -0.0024384947 -0.034550272 -0.033134975 -0.011709875 -0.024711529
-0.027950432 -0.0053657573 0.08377494 0.038096868 0.026528079 -0.18583237 0.25673908 0.006960942
-0.028957577 -0.0058434173 -0.057235375 -0.12727267 -0.048404388 -0.03916228 -0.22483306 -0.030939125
-0.008579346 0.0007149898 -0.001487044 -0.050693 -0.02925021 -0.00988514 -0.07198142 -0.15403317
-0.024461066 -0.025174296 -0.03434644 0.0034738514 -0.006893695 0.0077738385 0.046745036 -0.034271106
-0.025716478 0.05839709 -0.033368286 -0.019986767 0.05310577 0.02515167 -0.014170748 -0.016531436
0.04065768 0.18705332 -0.02674956 0.022197857 -0.018860038 -0.013061878 0.036529552 0.13378096
-0.06077539 -0.00088726956 -0.0105237 -0.046817016 -0.0022893918 0.009756515 -0.0020254469 0.011415651
0.04455128 0.04586753 0.00018226872 0.03849785 0.105003394 0.01387373 0.07924977 0.13257465
0.01929311 0.03589468 0.004964719 0.023290928 0.55943286 0.003383939 0.01093204 -0.0066112606
0.0030108322 -0.06799001 -0.08109213 -0.07319661 -0.10149016 -0.09636412 -0.08980689 -0.052738436
-0.03520754 -0.028775664 0.01771421 0.026353465 0.041362736 0.022758706 0.058967568 0.06699334
0.016338538 0.0133274915 0.012892949 -0.05566211 -0.0575193 -0.03573675 -0.10833526 -0.063667215
-0.013696828 -0.0043483456 -0.0009078115 -0.0076859896 0.020936286 0.03255979 0.085361324 0.08435775
0.15895908 0.10164132 0.1512714 0.11719688 0.066754624 0.014694646 0.0188807 0.029787017
0.045775454 -0.14106855 0.02543828 0.02610729 0.026837673 0.005027253 0.0352044 0.009327418
0.041479588 0.04667151 0.020057838 0.048367526 0.029715925 0.013621851 0.039812338 -0.009387653
0.0049118605 -0.042941704 -0.012794895 -0.023609636 -0.045400392 -0.0054304223 0.00010541369 -0.01633746
-0.04009207 -0.02146866 -0.024379486 -0.035489798 -0.011939348 -0.027887309 -0.024360154 -0.0041285814
-0.026111143 0.00018516311 -0.015463404 0.0007849571 0.19400309 0.033108585 0.0031049578 -0.012372693
-0.017097369 -0.009000265 -0.034008417 0.16265272 -0.0041564032 -0.028419401 -0.003169942 -0.010009172
-0.0029167284 -0.0053948886 -0.007528486 0.12352855 0.119068645 0.13166873 0.15497024 0.15698026
0.17387605 0.031315368 -0.007206486 0.025699506 -0.04507719 0.0012313813 -0.012035642 -0.054585855
0.039875407 0.032271896 -0.017235339 0.07471835 0.039263222 0.12477171 0.13225766 0.09338584
0.17149007 0.054888744 -0.0012851104 0.009560011 0.018100362 -0.0014948976 -0.011315059 -0.061135616
-0.01635023 -0.0061893156 -0.011476779 -0.0057776337 0.0016114198 0.010834826 0.0025741933 0.03953107
0.0027831097 0.0014484838 0.050087687 0.0198681 0.0027240394 0.055403605 0.015846426 0.009176903
0.0011279748 -0.012630024 0.08321839 -0.0072461935 -0.02372824 -0.019403215 -0.0033331853 -0.004665226
-0.0069066356 0.0054330667 0.011333382 0.007747798 -0.00036755129 0.039647717 0.0068514934 0.0030023633
0.0036896947 0.0028411283 0.0954454 0.15976927 0.080205396 0.09203766 0.18016414 -0.008853754
0.015101679 0.01122474 0.016673747 0.12572795 0.0917464 0.07330456 0.33754045 0.14274128
0.06644903 0.013267213 0.033714734 0.046674635 0.016870001 0.008260716 -0.0032134021 -0.003653935
00000000: 7d02 7ebc b98a f0bc 4e98 03bd 27cf 1fbb
00000010: 9684 0dbd 8ab8 07bd c7da 3fbc d56f cabc
00000020: 4ef8 e4bc 3cd3 afbb 3292 ab3d 760b 1c3d
00000030: 6a51 d93c d74a 3ebe 4e73 833e 9d18 e43b
00000040: 7138 edbc 237a bfbb a46f 6abd c453 02be
00000050: ae43 46bd a068 20bd a33a 66be 0c74 fdbc
00000060: 6390 0cbc 276e 3b3a ebe8 c2ba 77a3 4fbd
00000070: 239e efbc 48f5 21bc ff6a 93bd dfba 1dbe
00000080: 9362 c8bc 533a cebc daae 0cbd 8ea9 633b
00000090: 81e4 e1bb afbb fe3b b977 3f3d dc5f 0cbd
000000a0: 5dab d2bc c931 6f3d 2fad 08bd 4abb a3bc
000000b0: 7085 593d e00a ce3c 6d2c 68bc ef6c 87bc
000000c0: ab88 263d e88a 3f3e e521 dbbc 48d8 b53c
000000d0: 5e80 9abc 7d01 56bc 03a0 153d e0fd 083e
000000e0: 9eef 78bd a797 68ba 996b 2cbc 33c3 3fbd
000000f0: 9f09 16bb cad9 1f3c 5cbd 04bb b608 3b3c
00000100: 677b 363d 97df 3b3d 631f 3f39 ecaf 1d3d
00000110: 050c d73d a44e 633c b44d a23d a6c1 073e
00000120: 960c 9e3c 4d06 133d 15af a23b 9ecc be3c
00000130: fe36 0f3f 13c5 5d3b 4d1c 333c 46a3 d8bb
00000140: 6251 453b 593e 8bbd a113 a6bd 1be8 95bd
00000150: 13da cfbd 8d5a c5bd adec b7bd 4204 58bd
00000160: c835 10bd f1ba ebbc 641d 913c 39e3 d73c
00000170: f96b 293d 7770 ba3c fa87 713d ce33 893d
00000180: 66d8 853c 8d5b 5a3c f33c 533c f4fd 63bd
00000190: 5c99 6bbd b360 12bd e0de ddbd f563 82bd
000001a0: a968 60bc 917c 8ebb 33fa 6dba c1da fbbb
000001b0: 9382 ab3c 6a5d 053d ebd1 ae3d c2c3 ac3d
000001c0: 2bc6 223e 5329 d03d e4e6 1a3e eb04 f03d
000001d0: a6b6 883d d0c1 703c b3ab 9a3c e703 f43c
000001e0: 0b7f 3b3d 4674 10be f163 d03c f5de d53c
000001f0: aeda db3c a8bb a43b 7d32 103d 07d2 183c
00000200: 80e6 293d a02a 3f3d 5650 a43c 071d 463d
00000210: d06e f33c 2f2e 5f3c 4312 233d acce 19bc
00000220: acf3 a03b a4e3 2fbd aea1 51bc ff68 c1bc
00000230: c3f5 39bd aff1 b1bb 8b11 dd38 23d6 85bc
00000240: 9537 24bd 0bdf afbc 7db7 c7bc c05d 11bd
00000250: 419d 43bc ed73 e4bc f28e c7bc 0d49 87bb
00000260: 09e7 d5bc 5828 4239 385a 7dbc 94c5 4d3a
00000270: bfa8 463e de9c 073d 8c7c 4b3b d6b6 4abc
00000280: c80f 8cbc d975 13bc 694c 0bbd 6f8e 263e
00000290: 7032 88bb cecf e8bc cdbe 4fbb 83fd 23bc
000002a0: 9526 3fbb 9bc7 b0bb 85b1 f6bb 89fc fc3d
000002b0: 43da f33d 2bd4 063e 85b0 1e3e 6fbf 203e
000002c0: 900c 323e 8b44 003d 6324 ecbb c587 d23c
000002d0: dca2 38bd 4d66 a13a 2431 45bc 6b95 5fbd
000002e0: 6554 233d 892f 043d 2031 8dbc ef05 993d
000002f0: 79d2 203d 4f88 ff3d 8d6e 073e 1341 bf3d
00000300: 189b 2f3e 05d3 603d 2671 a8ba 98a1 1c3c
00000310: 3647 943c 71f0 c3ba cc62 39bc 5769 7abd
00000320: ebf0 85bc becf cabb 1a09 3cbc 4e52 bdbb
00000330: 4736 d33a 8e84 313c ccb3 283b 55eb 213d
00000340: d564 363b 0ddb bd3a bf28 4d3d 6dc2 a23c
00000350: cc85 323b e4ee 623d 5dd0 813c b95a 163c
00000360: 8ed8 933a 29ee 4ebc 676e aa3d 7a71 edbb
00000370: ba61 c2bc 7ef3 9ebc 9271 5abb c1de 98bb
00000380: 0f51 e2bb de07 b23b a6af 393c 3ee1 fd3b
00000390: e6b3 c0b9 a565 223d 7e82 e03b 4cc3 443b
000003a0: cece 713b 3932 3a3b e178 c33d 8e9a 233e
000003b0: ba42 a43d 3e7e bc3d f37c 383e 560f 11bc
000003c0: 086d 773c f9e7 373c 6297 883c d4be 003e
000003d0: 89e5 bb3d b320 963d 1ad2 ac3e c52a 123e
000003e0: 6e16 883d b95e 593c 7618 0a3d e72d 3f3d
000003f0: f532 8a3c f457 073c f197 52bb db76 6fbb
