CNN_weights/NetworkA_weights_CV3.pt (torch, 394591 bytes, 4 tensors)

conv_net.C1.weight f4 [32, 17, 3, 3]
00000000: b7c6 b6bd 11e0 86bc 419d c9bd 73ec a53b
00000010: e8c4 463e 499a 84bc 67c2 f6bd 6b36 d43d
00000020: b3ba 693d 1da8 e1bc ac17 263e cb9d fcbc
00000030: 6214 2c3b 1cce 37be 1a33 633c 86eb d83c
00000040: 0b1c c5bd 8433 2f3d 7262 eb3d 5e60 0b3e
00000050: 88c3 f93c f160 dfbd 456e 983e 7560 273e
00000060: 6e16 6e3d 236a 053e 9f43 2c3d 8661 febc
00000070: c69e 5a3e 87ff 113c 41be 813e 9497 563e
00000080: ac2b c6bd dd57 46bd 4c60 9fbd 08cb a0bd
00000090: bd88 f0bc 61ea 7f3d 9a37 a13c 4dec 11be
000000a0: 24d1 c43c 9a20 17be 75ca 9c3c 726f 053d
000000b0: d71c cf3d ccaf ffbd 8b36 d0bd 3657 9cbc
000000c0: 8a4a 063e 3596 773e bad3 823e b609 22be
000000d0: 793f 10be ea92 e5bd 1083 6c3d 2e1f d4bd
000000e0: d192 873b fe63 f3bb 086f 133e c915 103d
000000f0: e85e fbbc ed7b ba3d 34fb c4bd 1aef 41bd
00000100: 224e e7bd 4ea3 923d 0704 00bc c349 6abe
00000110: 2a45 07be e48f 233e c5c0 513e 11c2 053e
00000120: b661 8fbd 38a5 9fbd 4a07 623c 61b7 053e
00000130: d4a5 243e c640 c3bc 6f2f f3bd cd0d 133e
00000140: 1074 5abd d622 46bc b4aa 2c3e f8fa fbbc
00000150: f926 9ab9 ef29 15be 0988 efbc dbda 4cbb
00000160: 925e a83c e2f9 0d3d 311d 123d ce71 a33c
00000170: f3bf c63d 7d2c 543c c65e 92be 3d53 b2bd
00000180: a061 683d c449 85bd f74c 11bd bbfd d5bc
00000190: 9ac0 96bd 011b a6bc e807 bfbd aaac 703e
000001a0: 7c63 36bb 9e68 71bd 1f70 cdbc ef4a 993c
000001b0: a90e 173e a71e 89bd 03a6 dd3d 5410 473d
000001c0: 8278 13be 63a6 8b3b c824 07be 7134 d6bd
000001d0: 0994 0e3e b18e ecbc fba9 d7bd e244 203e
000001e0: 4b80 6cbd d021 be3d dd62 a1be 7401 88be
000001f0: 80fc d43e b4e9 2c3c c7ef 5a3e 348c 91bd
00000200: 5d02 afbc b8c9 4cbe 4f7a 423e 27f4 103c
00000210: dc7d a3bc 4b52 2ebd fdda 66be e13e 97bd
00000220: 9ed8 af3d 1a4f 87bd 68cc 563d 1f38 5e3d
00000230: ad7a eb3c ae0e 003d 1bac eabd 963b 673d
00000240: bbc2 d93d 7d84 a3bc 34ad 313e 4719 af3e
00000250: e755 a5be ce17 7cbd 5ee5 053d be7d 37be
00000260: e052 38bd 44e7 06be e292 1e3d e5f0 afbd
00000270: 8610 813d 3424 273f 9280 47bd 94e8 b03d
00000280: 6100 9fbe 74b9 4ebd d629 9abc 892a efbc
00000290: 0709 a4bb f16d 8cbd 7007 ac3e face cfbd
000002a0: 60a1 1b3e 3c56 cabe dc0c c23d 3497 e5bd
000002b0: 22b5 5dbe 1de8 91be c21e 343d 2431 7fbe
000002c0: 94f5 42bd 2ca0 19bd 9b77 843d 9f86 21bd
000002d0: 5097 963c 35c1 3cbb 870e a83d 5b21 8fbc
000002e0: 9b33 c2bc 0c2e 85bc aa48 c9bc 1094 7abd
000002f0: e938 2ebb f091 1ebe cbb1 ab3d 428a 3f3e
00000300: 00cd 88be a8df 40be 09f9 8e3e 91e1 79bd
00000310: 4495 8c3d cb0a 563d c94e e83c 348a babc
00000320: 8782 8dbc 5c67 0a3e 71c0 5cbd 1dc8 81bd
00000330: b99a 62bc 58a2 043b 7d09 a0bb e7fc 2ebe
00000340: abb7 e4bd 42fd 0fbe 5326 3bbd 86b0 d4bc
00000350: 972a 7abc c132 073e 0531 483e e184 3f3e
00000360: 0892 833d 2eea ecbb 1d32 263c 7ae0 703d
00000370: 070c bdbc 130f 1f3d f2c1 66bd 7476 d6bc
00000380: af32 cdbc c502 debc 3a18 cfbd 7c5e 803d
00000390: fb6f aebc 2b0e 3ebe 998e 863c 3835 0d3d
000003a0: 4cc1 64bd b5f4 af3d 71f5 373c 1d38 f7bc
000003b0: 18b4 f2bb 8581 643c 7604 b7bc 0b23 1bbb
000003c0: 9eeb 49bc 6503 1b3d 3900 fd3b aca1 883d
000003d0: c104 b4bd b51e d63c 5430 ac3d cca4 12be
000003e0: b27d 97bd 0689 5d3d efc1 283e 73f0 1cbe
000003f0: 37d0 b6bc 6f11 66bd bef6 493d 827f 9a3d
-0.089246206 -0.016464265 -0.09844447 0.0050635873 0.19411051 -0.01618685 -0.12048798 0.10361942
0.057062816 -0.027545983 0.16219968 -0.03083696 0.0026257266 -0.17949718 0.013867164 0.026479494
-0.096244894 0.04277374 0.11493386 0.1361098 0.030488744 -0.10907162 0.2977163 0.16345389
0.05812686 0.13028769 0.042056676 -0.031052362 0.2134963 0.00891102 0.25340465 0.2095626
-0.096762985 -0.048423637 -0.07782039 -0.07851225 -0.029362077 0.06247938 0.019679833 -0.14250298
0.024025507 -0.1475853 0.019139508 0.032576986 0.10112923 -0.124847025 -0.10166653 -0.019084554
0.13114372 0.24178393 0.2555216 -0.15824017 -0.14086713 -0.11209662 0.05774218 -0.103575096
0.004137375 -0.0074276915 0.14397824 0.035177026 -0.030684903 0.09105668 -0.09618226 -0.047347166
-0.112941995 0.07160054 -0.00781346 -0.228797 -0.13209978 0.15972859 0.20483692 0.13062312
-0.07001059 -0.07795185 0.013795683 0.13058235 0.16078883 -0.023834597 -0.118742816 0.14360733
-0.053333342 -0.0120932665 0.16861993 -0.03075932 -0.00029402206 -0.14566778 -0.029239671 -0.0031258378
0.020552907 0.034662135 0.03567237 0.019951727 0.0970458 0.01295006 -0.2858793 -0.08707283
0.056733727 -0.0650821 -0.03547379 -0.026121965 -0.073609546 -0.020276548 -0.0932768 0.23503366
-0.0027830293 -0.05893766 -0.025077878 0.018712489 0.14751686 -0.066952996 0.1082268 0.048599556
-0.14401439 0.004261778 -0.13197625 -0.10459221 0.13923658 -0.028876634 -0.10530468 0.15651277
-0.057739537 0.09283793 -0.3152074 -0.2656361 0.41598892 0.010553766 0.2138053 -0.0710682
-0.021363432 -0.19998825 0.1899197 0.008847273 -0.019957475 -0.04255895 -0.22544475 -0.0738504
0.08586238 -0.06606884 0.05244103 0.05425274 0.02874502 0.031264 -0.11458608 0.05645331
0.10632845 -0.019960636 0.17351228 0.34198973 -0.322921 -0.06154614 0.032689445 -0.1791906
-0.04500091 -0.13174158 0.038714297 -0.08590869 0.0630198 0.65289617 -0.0487066 0.08638111
-0.31054977 -0.05046983 -0.018818777 -0.029195087 -0.005005959 -0.06856907 0.33599424 -0.101468995
0.15198278 -0.39518917 0.09475109 -0.1121048 -0.21651128 -0.284974 0.043974645 -0.2492109
-0.047597483 -0.037506267 0.064681254 -0.039435025 0.018382698 -0.0028801684 0.08205896 -0.01747196
-0.023706248 -0.016257308 -0.024570782 -0.06117636 -0.0026584214 -0.15485358 0.08383521 0.18705085
-0.26718903 -0.18835318 0.27924374 -0.061006133 0.06864408 0.052256387 0.02835788 -0.022770979
-0.017274154 0.13515991 -0.053894464 -0.06336997 -0.013830834 0.0020238366 -0.0048839436 -0.17088662
-0.111678444 -0.14061454 -0.045690846 -0.02596308 -0.015268943 0.13202955 0.1954995 0.18703033
0.064243376 -0.007230065 0.010143784 0.058807828 -0.023077024 0.038832735 -0.056337304 -0.02617953
-0.025048582 -0.02710093 -0.10112043 0.062680215 -0.02129363 -0.18560092 0.016425418 0.03447458
-0.055848405 0.08591596 0.011227951 -0.030178124 -0.0074067228 0.0139468955 -0.022340994 -0.002367201
-0.012324242 0.037845034 0.007720974 0.066714615 -0.08789969 0.02613769 0.08407655 -0.14320678
-0.07397021 0.054085754 0.1648023 -0.15326099 -0.022316081 -0.05616897 0.049307577 0.075438514

conv_net.C2.weight f4 [64, 32, 3, 3]
00000000: eda8 c53c 9d06 3d3d 255d 1dbc 1399 3e3d
00000010: 3711 853c b29b 59bd d26b 8bbd 44a7 84bc
00000020: 4b39 b8bb 2f20 013e ada0 ccbc 4eb3 303c
00000030: c3b2 34bc 757c 12bd 2c0a fbbd a8e1 16bd
00000040: 189f 8cbb 2a57 c9bd bb87 953c 1da8 de3d
00000050: 38dd 453b ca86 15bd ff81 f63d 51aa 3b3d
00000060: a407 b0bd 2428 38bd d235 243d 8b8e 863c
00000070: 6d25 7b3d 41a6 a03d 731a 47bc f9b0 543c
00000080: 8e3a e9bc d3d0 1f3c d4b3 4bbd 9d51 1abd
00000090: 0975 76bb 6d1f c23c da58 0fbd 781c 90bc
000000a0: 657b 323c c001 66bd 24ff 023d e264 0d3d
000000b0: 02fc 14bd 1629 cdbc 0e02 55bd 22e6 353d
000000c0: 1296 6dbc f007 e73c 07be 0cbd 2ca5 843c
000000d0: 1704 3fbd 1500 a0bc f1b5 e33d 97f6 803d
000000e0: b4b1 143c 98d9 cebc 4d4a 05bc 5dee cabc
000000f0: a642 a83d 0f9d 983c 0cd1 1abc d3c9 81bc
00000100: 2b3a 543b 661f 0b3e bb72 a13d 8c74 e93d
00000110: b429 673e 0e1f 0d3d ff1c b13d 1286 373d
00000120: 159c bd3c 6fd9 ed3c b6a7 013c 1ec8 d5bb
00000130: 416f 5d3d 2e6c f23d 4596 813c 456f 4cbd
00000140: 8795 d9bd 7e1c b7bd 54ed b5bd df4d 7e3d
00000150: 0a9c e03b 5ec6 223e 76bf 103e 641c 17bd
00000160: 36e4 ad3d 4793 4b3e 445d 03be 54c0 10bd
00000170: 1108 06bd 895f b9bb b2b5 b13d 6908 52bd
00000180: e93d 843d 09ae ec3d bb8d d13c 2d60 4f3c
00000190: 310a 983c b5d1 f73b e6ac d8bc 6c5b 0c3c
000001a0: 4359 c83b 8da3 9b3d 46a6 07bd f3d4 25bd
000001b0: 8936 893d b227 06bd ddce 3f3c 08fc a2bd
000001c0: 938d 21be d781 c03c 8c39 98bd f47d 06ba
000001d0: 3a7f 88bb 67e9 fa3d 611a fb3c d1fa f9bd
000001e0: 5ecf 163d a6dd bf3d dc66 773d 440c 2bbd
000001f0: 89d5 adbd a03d d2bc af92 a33d 4a27 56bd
00000200: eee0 d33b d08a 093d 4875 903c 03f5 ee3c
00000210: f5aa 5d3d 91e5 843d afbe 8f3c bc5e 7f3a
00000220: dc72 40bd 9a2c dfbc 0b2c 2cbc a674 8bbd
00000230: 1238 1abd 5d3d 4cbc 17cd e4bd 52f6 543a
00000240: 8022 adbd e426 6dbd afce 05be 94e5 88bd
00000250: 77d7 423c 3b53 c93b 9151 16be af72 84bb
00000260: 4dc9 ecbc 61dd 1ebe 151e 983d 41ca 26bd
00000270: 5352 27bf 2b9b 8ebe 07df 8fbc 09c1 8fbd
00000280: 9454 073d fd5d d63c 3759 dbbc 3e9f 4ebc
00000290: 0189 b93c 60e8 d03c e1c7 da3c b5b7 5b3d
000002a0: afde 003c d997 13ba c6d5 b93c 11de 6ebd
000002b0: db67 37bc 36b2 6abb 14d1 70bd 5133 e23d
000002c0: f4e7 aa3d f2f6 68bd 89b7 473d 0f1d b43d
000002d0: a26c 30bc f980 4cbd 95d9 31bd ddaf 3cbd
000002e0: a207 01be 4a9f fdbd 3a8d a13c 2a06 16bc
000002f0: c867 ffbc 1429 4abd 9a5f 083d 2115 c13b
00000300: 82cc 39bd 0839 19bd 705c a23c 0a13 083c
00000310: d828 eebc b999 0d3e 3b86 11be 9bf3 85bd
00000320: e385 71bb b226 9fbd 0c8f 2dbd 6e80 393b
00000330: b863 f23c 870d c3bd 299c cfbc 5a4b 963c
00000340: aa08 4f3c 8cc8 58bd 560a efbc 577d 653d
00000350: c584 35bd be75 56bd e7c0 c7bd ee96 14bd
00000360: 7083 a2bc 4a33 42bc 01d8 11bc 010c d13b
00000370: 993e 123d 0aaa c4bc 1521 1abe 7114 00bc
00000380: 7722 e13c 0ae8 ccbd 8a23 5fbd 454a 61bd
00000390: d7f1 c53c 8259 663d 220a e83b c677 a4bb
000003a0: 319a 8cbd 548d 363d d1fe 8fbd c8ee 34bd
000003b0: f045 2fbb 0b21 82bc 0a91 efbd 77f4 1ebd
000003c0: d9ce 073d ce54 5b3d de56 293d 2080 dcbc
000003d0: c7bc 603d b113 ac3d 4eef 853c 1c23 ce3d
000003e0: 2149 173e 93ae b9bb 1e81 c43d 9b31 a73d
000003f0: 319f a4bd 4551 bcbd b256 7fbd 9673 c4bb
0.024128402 0.046148885 -0.009604727 0.0465327 0.01624356 -0.053127 -0.068076745 -0.01619304
-0.005622064 0.12609933 -0.02497896 0.010784937 -0.011028948 -0.035763223 -0.122577995 -0.036836296
-0.0042914264 -0.09831078 0.018253198 0.10871909 0.003019167 -0.036505498 0.120365135 0.045816723
-0.08595207 -0.044960156 0.04009039 0.016425392 0.06131499 0.078442104 -0.012152302 0.012981647
-0.028470304 0.009754377 -0.049732044 -0.03767549 -0.003760638 0.023696626 -0.034996845 -0.0175917
0.010893677 -0.056154013 0.031981602 0.034520037 -0.036373146 -0.025044005 -0.052003913 0.044408925
-0.014501112 0.028202027 -0.03436091 0.016192041 -0.04663476 -0.01953129 0.11118687 0.06297033
0.009075571 -0.025250241 -0.0081353905 -0.024771864 0.08215837 0.018629579 -0.009449255 -0.015843308
0.0032383304 0.13586196 0.07883211 0.11399183 0.22574502 0.034453444 0.08648109 0.044805594
0.023145715 0.029034344 0.007913521 -0.0065241 0.054061178 0.1183704 0.015818724 -0.049910802
-0.10624223 -0.08940981 -0.08883157 0.062085982 0.006854539 0.15895984 0.14135537 -0.03689231
0.084907934 0.198804 -0.12828547 -0.03533967 -0.032722536 -0.0056571406 0.08677234 -0.05127755
0.06457121 0.11556632 0.025580278 0.012657207 0.018559547 0.007562841 -0.026449632 0.008566719
0.0061141565 0.07599554 -0.033117555 -0.040486287 0.06699855 -0.0327527 0.011707035 -0.079582274
-0.15776663 0.023499412 -0.07432851 -0.0005130463 -0.004165557 0.12251549 0.030652227 -0.122060426
0.036818855 0.09368448 0.06040083 -0.041759744 -0.08487994 -0.02566415 0.07986962 -0.052283563
0.0064660227 0.033579648 0.017634049 0.029169565 0.054118115 0.06489099 0.01754698 0.00097415945
-0.04698454 -0.027242947 -0.010508548 -0.06809358 -0.03765113 -0.012465802 -0.1117193 0.0008123863
-0.08453846 -0.057898417 -0.13067125 -0.066844136 0.011892191 0.006143955 -0.14679553 -0.0040419917
-0.028904581 -0.15514137 0.07427613 -0.040720228 -0.6535999 -0.2785276 -0.017562402 -0.070192404
0.033039644 0.026167864 -0.02677594 -0.0126112085 0.022648336 0.02550143 0.026706638 0.053641994
0.007865592 -0.0005630232 0.022684943 -0.058317248 -0.011194195 -0.0035811788 -0.058793142 0.11044944
0.08345023 -0.05687613 0.048759017 0.08794605 -0.010768088 -0.049927685 -0.043420393 -0.046066154
-0.12600568 -0.123838976 0.019720662 -0.009156743 -0.031177416 -0.04935558 0.033294298 0.0058924113
-0.04536105 -0.037407905 0.019819468 0.0083053205 -0.02907221 0.13828172 -0.14211361 -0.06540605
-0.0036853484 -0.077710524 -0.04237275 0.002830531 0.029588565 -0.095240645 -0.025343018 0.018346477
0.012636343 -0.05292563 -0.029179733 0.056027737 -0.044316072 -0.05235838 -0.0975359 -0.03627675
-0.019838065 -0.011853049 -0.008901597 0.006379605 0.03570423 -0.024006862 -0.15051682 -0.007817374
0.027482254 -0.100051954 -0.054477252 -0.05500247 0.02416317 0.056237705 0.007081286 -0.005019161
-0.06865347 0.044568375 -0.07031024 -0.044173032 -0.0026744567 -0.015884897 -0.11697586 -0.03880736
0.03315625 0.053547673 0.04134261 -0.026916564 0.054867532 0.08402193 0.01634946 0.1006529
0.1477399 -0.005666563 0.0959494 0.08163758 -0.08038176 -0.091951884 -0.06233854 -0.005995224

conv_net.C3.weight f4 [128, 64, 3, 3]
00000000: 6e3d 61bd b8e9 cebc 13ee 5fbd 3680 223d
00000010: 3c64 4d3d cf9a 54bc ac08 403d 7e78 12bd
00000020: 6438 00be 700d 42bd 815b 9e3d 8929 863d
00000030: b47c 95bd f67e d03c ae3f b5bd 14cc 993c
00000040: 48fd f5ba d874 4fbc 8587 0fbd e272 0f3c
00000050: 3a54 4bbd 6c76 393c 71de ad3c a41d 8a3c
00000060: 37a3 d8bc 01ba 5cbd e71c fabb 8c64 933d
00000070: d40e 2f3d c350 6cbc 3c01 173c aeb2 8f3b
00000080: 42cf c43b 59c0 0a3d 7bc8 0e3d a8b6 f93b
00000090: fbc3 633d 573a 023d 2b52 d33c 8989 3d3d
000000a0: d47d bd3c 84c2 b8bb 6b00 e3bb d4d8 33bc
000000b0: 620d 6cbb d03a a1bd 1a80 8b3c 3b1b bebc
000000c0: 423f 11bd d87b 9cbd fd2b eebc a1fc a5bd
000000d0: 9899 2fbd 9c05 88bd 0e51 ee3c 2a16 9b3c
000000e0: 72cf 6f3b 7b8a 58bd fed4 55bd ae82 b1bb
000000f0: 4e98 d7bd 51ac f1bc 2732 853c 49bf bf3c
00000100: f467 043d ba22 e23c 7b5d c23c c9f4 e13c
00000110: 2767 8d3b c0f6 1dbc 853c 2cbd 1379 b2bc
00000120: a3b1 8abd 3f6e b8bc b385 9fbd 76d5 6dbd
00000130: 45e6 67bc 96f5 9dbd 397c a0bd be11 00bd
00000140: cb76 15bd 78bd d53c 6a91 14bd b07e 6d3a
00000150: f6b9 48bd 3c91 853c 0d64 91bc 8cc3 aebd
00000160: 4c18 0b3c b234 15bc 0305 623d d94c efbb
00000170: d33e 173c 9563 cc3c bfdf 2ebd e411 a9bc
00000180: 1b04 193d 5415 8dbc c34b c03c d9b2 fdbc
00000190: 9558 42bd 1d33 43bc 14a6 2dbd 05a4 9abc
000001a0: 66cd 29bd a7b5 08bd 74c0 49bc 392c 113d
000001b0: 1c1b 26bd 4107 8bbc 3a64 92bd 7c15 ab3a
000001c0: b49e 72bb 7f76 ee3b 499c 59bd cb7f 523b
000001d0: 58c2 153c 8ad6 0e3c 8605 e93c 2534 d13d
000001e0: efe3 bfbc 716b 2cbd 4c14 ae3d 399f ccbc
000001f0: 80b0 4d3d e625 8e3c 4fe9 91bd 6f8e 7bbd
00000200: 4750 34bd 1615 67bd 5fd9 4ebd 2b6d 563c
00000210: 5b40 7c3c fb87 b3ba de1a df3b a402 963c
00000220: 6abf 703c 79c5 7d3d 37a5 d3bc 8eee 3c3d
00000230: 4a4f 0e3d 81cc 5ebc e934 a0bc fa25 313d
00000240: 1a49 483d f0cd 1f3d df5a b03c 696e 6b3d
00000250: 5955 95bc 2813 ec3c 35b6 7f3d e360 7c3d
00000260: 2f49 7e3c ce90 f53b 92ff d63a fc47 1f3d
00000270: 95f1 a33c 732f a3bc 8ef4 993c eaea 09bd
00000280: 50e3 b0bd 13c1 17bd 8d66 5f3d ed1f 843c
00000290: 2ada c73d b22d cbbb 86e0 13bd df3e 3b3d
000002a0: 1dfe a7bd f29a e7bd 05ef 133c 32d4 4dbd
000002b0: f205 2c3d 708a 18bd 516a 42bc ccde 8abd
000002c0: 5694 ffbc 986c e0ba 8c83 94bc ecc3 38bc
000002d0: a42d 003c 125d 9cbd 0774 29bd d1fc 5fbd
000002e0: f8aa 553b 6d53 3c3a 328b 553d 7e1b 5c3d
000002f0: ef20 9a3c a19b 1d3c 10f6 adba bc2a 5c3c
00000300: 4368 8dbc 547f e9bd 6dbb ccbc 85c7 97bd
00000310: 3a9e b3bd acb4 bdbd 5b40 1cbc 0aa6 983c
00000320: c5e9 fabc 076c 16bd 16e7 e33b b993 9abd
00000330: 0912 843b 0e4f 593d 60d6 9a3c 59a2 00bc
00000340: 6698 ba3d e8de 78bd bbf0 243d c910 b33c
00000350: 2aef 50bd f6b4 3abd 0126 593c 1b7e 8abc
00000360: 0d25 16bd 3bf1 453c 7efd 793d 6e0f b4bc
00000370: 8d04 44bc 84f3 d53d eb0e 6bbd 0768 88bd
00000380: 9d5f ea3b 0e95 333c 4d56 893c c9a9 f43c
00000390: 32d9 acbb 2738 8fbd 92b7 95bc 7c45 92bc
000003a0: 6c8c a7bb c752 953c a2a5 273d 9419 233d
000003b0: e9f5 9e3d ee52 cfbc ad30 9a3a d212 0f3d
000003c0: d366 30bd 61a0 ebbb 6f29 053c a55a e2bc
000003d0: 77dc 1dbc da56 3fbb c5f0 27bd d967 4e3d
000003e0: 05e0 d23c 2e44 80bd 139b 9cbd a2ff dabd
000003f0: 121f 013d 0efb 37bd c0a4 b2bc ace0 d33b
-0.054990225 -0.02525793 -0.054670405 0.039673053 0.05014442 -0.012976362 0.04688327 -0.03575944
-0.12521511 -0.047376096 0.07732297 0.06550891 -0.07299176 0.025451165 -0.088500366 0.01877407
-0.00187675 -0.012662135 -0.03504135 0.008755418 -0.04964087 0.011319738 0.021224232 0.016859837
-0.026445014 -0.053888325 -0.00763284 0.07196912 0.04273875 -0.014423552 0.009216603 0.004385314
0.0060061524 0.033874843 0.03485916 0.0076206513 0.055606823 0.03179392 0.025796017 0.046273742
0.023131289 -0.0056384224 -0.00692754 -0.010976989 -0.003601872 -0.07872546 0.017028857 -0.023206344
-0.035460718 -0.07640809 -0.02907371 -0.08104826 -0.042871088 -0.06641695 0.029091384 0.018931467
0.0036592153 -0.05286644 -0.05220508 -0.0054171896 -0.10527097 -0.029501112 0.016259266 0.023406642
0.0323257 0.02760445 0.023726216 0.027582543 0.0043152752 -0.009641349 -0.042049903 -0.021786248
-0.06772163 -0.022513507 -0.07789173 -0.0580649 -0.014154022 -0.077128574 -0.078361936 -0.03126692
-0.036490243 0.026091322 -0.03627149 0.00090597104 -0.04900547 0.016304605 -0.017747903 -0.08533391
0.00848968 -0.009106802 0.05518056 -0.007302862 0.009231287 0.024949828 -0.04269385 -0.020638414
0.03735743 -0.017222084 0.023473626 -0.03096907 -0.04744776 -0.011914042 -0.042394713 -0.018877039
-0.04145565 -0.033376362 -0.012313951 0.035442565 -0.040553197 -0.016971232 -0.07148023 0.0013052667
-0.0037020864 0.0072773094 -0.05312756 0.0032119628 0.009140573 0.008718142 0.028445017 0.10215024
-0.023424117 -0.04209465 0.08499965 -0.024978267 0.05021715 0.017352056 -0.07124578 -0.061415132
-0.04402187 -0.056416593 -0.05050027 0.013087551 0.015396203 -0.0013697142 0.0068086227 0.018311806
0.014694074 0.061955903 -0.025835617 0.04612594 0.034743585 -0.013598562 -0.01955648 0.043249108
0.04889784 0.039014757 0.021527706 0.057478342 -0.018229173 0.028817728 0.062429626 0.061615836
0.015520378 0.0074940687 0.001640307 0.03888701 0.020012656 -0.019920086 0.01879337 -0.033671297
-0.086371064 -0.037049364 0.05454116 0.016128505 0.09758408 -0.0062005157 -0.036102794 0.045714255
-0.08202765 -0.1130885 0.009029155 -0.050251193 0.041997857 -0.0372414 -0.011866168 -0.067807764
-0.031198662 -0.0017122207 -0.018129133 -0.01127718 0.007823382 -0.07634939 -0.041370418 -0.054684464
0.0032603126 0.0007184062 0.0521347 0.053737156 0.018814532 0.009619624 -0.0013272185 0.013437923
-0.01726163 -0.11401239 -0.024991715 -0.07411102 -0.08770414 -0.09262976 -0.009536828 0.018633861
-0.030629048 -0.036724117 0.006955038 -0.07547707 0.0040304703 0.053053908 0.01890105 -0.007851207
0.09111099 -0.060759455 0.04026864 0.02185859 -0.051009335 -0.045582734 0.01325369 -0.016905835
-0.036656428 0.01208144 0.061032765 -0.021980014 -0.011963976 0.104468375 -0.057387274 -0.06660467
0.0071525113 0.01096083 0.016764784 0.029866116 -0.005274915 -0.06993132 -0.01827601 -0.017855398
-0.005113175 0.018227948 0.040929444 0.039819315 0.077617474 -0.025308099 0.0011763774 0.034930058
-0.04306681 -0.0071907495 0.008127554 -0.027631113 -0.009635082 -0.0029196055 -0.0410011 0.050392006
0.025741586 -0.06263004 -0.076467656 -0.10693289 0.03152377 -0.04491716 -0.021807075 0.006465992

conv_net.C4.weight f4 [1, 128, 3, 3]
00000000: 2db7 c2bc c075 93bc f58a c1bc ed8f 90bc
00000010: 22fd 66bc d7a8 9bbc f029 adbc 3d60 bdbc
00000020: 23bb acbb ad04 c43a 5655 38bd 5459 c5bc
00000030: 0feb d33b e71b 81bd 2926 94bc c5b2 3a3b
00000040: d779 18bb 7223 3dba 99d2 07bd b822 debc
00000050: be8b f0bc b6c3 2bbd 2731 ffbc 7c68 22bd
00000060: 4996 a7bc 2341 8cbc 8429 a9bc 0960 c4bb
00000070: a32a 323e 6d32 873b 6b3a 59bc 7417 d0bc
00000080: 3539 21bc 2a5e d7bb de7c b0bb 06b8 013b
00000090: 8c89 913d 315a c43d e27e b73d 07fe ad3d
000000a0: 9739 ab3d 6237 b33d 4e1f 833d 2e03 cc3d
000000b0: e245 b43d c324 2b3d e88d 0b3d 2100 ca3c
000000c0: 62f1 733d 2cfc 953d a468 3e3d b9a2 9a3d
000000d0: 262b 8e3d a326 113d edb5 f3bc 840c 20bd
000000e0: 09c7 e2bc cfa7 06bd f39d 85be cbae a4bc
000000f0: b695 a3bb 093d acbc a547 5bbb c990 9b3c
00000100: 8152 6b3d eca0 f93d f09f abbb a14d ff3b
00000110: 516c 8b3e a988 7e3c 8cf5 4c3d f1ca 2a3e
00000120: 0761 813d ea4f fe3d 07cd 943d 06c7 383d
00000130: 4e8d 583e 202d a13d b688 903c 876a bebb
00000140: 07b2 5b3c 5da2 b3bc b008 b1bc 787d 01bd
00000150: 6a63 11bd 8ac4 61bd 5b49 98bd eb80 2ebd
00000160: f67b 86bd f8bc b2bd 0140 653d b353 053c
00000170: 070f 593d 3616 a03c d767 3abd c5c1 333c
00000180: 82b0 723c 8a05 19bd 92c0 4dbd bbef 3ebb
00000190: e5e1 85bc 8a6e 1bbc 5357 bd3c 9546 353b
000001a0: 36ba 98ba d596 fe3c 5255 abbd 214e 703d
000001b0: 4b3b 0a3d 3acc 473d 149c e33c 65ca 973d
000001c0: 38ec 323e 8358 1f3c 3d85 ea3c a47e 133d
000001d0: 5334 e837 4821 37bd a92a 40bd 59f4 0cbd
000001e0: b2c3 2abd 4f4d 50be 8f1e 2abd b6ce f63b
000001f0: c9b7 6dbc 058a aebc ca78 293d b10b 383d
00000200: 83ab 363d 19b6 193d 0ff8 223d 77b7 3f3d
00000210: 1011 373d 17b1 7a3d ad2b 853d f135 efbd
00000220: c169 22be fd20 d0bd bd68 45be 7b3d 86be
00000230: 3d32 1bbe 6517 01be d80c 5cbe 852c 17be
00000240: 743c cabc fe5b a8bc be35 28bc 85a7 25bd
00000250: e404 c13d 2817 e4ba d342 6bbc 3507 da3b
00000260: 8509 143c 382b ec3c e1ac 103c 770f 8f3b
00000270: 1480 5d3e fc60 f53c 35aa 083c 4655 9d3b
00000280: a80f a5b7 3d3c 13ba 78e9 cb3a 69b5 1f3b
00000290: 54b6 0c3c 6727 dd3b bf7b b0bb 5af2 c8bb
000002a0: 83ef cc3e d7a9 2b3d 0556 3f3b c0bc d23c
000002b0: 56f3 523d 8e51 cb3d be6d b33c 3d17 af3c
000002c0: 62c1 f53e bf72 e73b 3115 393c 4614 5bbc
000002d0: fcec ba3c 7d9d f53c a4da e43a a393 b93c
000002e0: 51ff 643d add1 f9bc bfba 563d 434f d53d
000002f0: 5087 b83e b29e 1e3d 2255 5a3d d16a 593d
00000300: 5239 6c3c ff95 023c 4710 643b 165d 9b3b
00000310: 2225 913b c40e 983b 11ea e2bc ffdd bebd
00000320: 84aa bcbd 957d 84bd 7f35 5dbe 4623 96bd
00000330: 8ca7 f3bd aa00 7abd bf56 82bc ec95 90bb
00000340: d719 17bc 41d7 efbb 8c03 1e3c 5716 8a3c
00000350: cf6b 1f3c 47f7 22bc 01ad 22be 7281 ce3c
00000360: e7d4 3f3c 8f95 253c 0a8b 973c bccc 6b3c
00000370: 26dd b93c 5d54 483e 3de5 573b 7ef8 55bb
00000380: 04c8 ce3b 5067 c9bc fa77 0dbc 12de 6b3b
00000390: 5648 80bc 9d97 cf3d aa69 d73c 0501 eebc
000003a0: 73f1 babd df2f b63b da05 333d 42d5 b13c
000003b0: 742d 5dbd ebce 4a3d 0356 6339 6a2d d1bd
000003c0: 0ae7 a93c 8dc9 013c dc48 a9bd c296 173d
000003d0: cef1 d33b 9fa4 143c 8b58 cb3e 9c7a 393c
000003e0: c9ce d23a c16a 0b3d 6a30 083c 4c59 a53b
000003f0: 16dd 04bd 02e9 fcbc 2255 c5bc 34d6 19bd
-0.023768986 -0.018000484 -0.02362583 -0.017646754 -0.0140984375 -0.019001408 -0.021138161 -0.023117179
-0.005271332 0.0014955007 -0.045003258 -0.024090447 0.00646723 -0.0630415 -0.018084602 0.0028487903
-0.0023265982 -0.00072150596 -0.033159826 -0.027116165 -0.02936351 -0.04193469 -0.031151367 -0.039650425
-0.020457404 -0.017120903 -0.020649679 -0.0059928936 0.17399077 0.0041258843 -0.013258557 -0.025401808
-0.009840299 -0.0065725045 -0.005385979 0.0019793524 0.07106313 0.09587515 0.08959748 0.084957175
0.08360594 0.08750798 0.06402455 0.09961544 0.088023916 0.041783106 0.03407088 0.024658265
0.059556372 0.073234886 0.04648651 0.07550568 0.06941824 0.035437237 -0.029749835 -0.039074436
-0.027682798 -0.03287488 -0.26097068 -0.020102879 -0.004992212 -0.021025198 -0.0033459452 0.018989937
0.05745173 0.121888965 -0.005237572 0.0077912365 0.27231076 0.015535512 0.05003886 0.16678979
0.063173346 0.12417586 0.07265668 0.04511168 0.21147653 0.07869935 0.017643314 -0.005811039
0.013409144 -0.021928007 -0.021610588 -0.031613797 -0.0354952 -0.055119075 -0.074358664 -0.042603415
-0.065666124 -0.08727449 0.055969242 0.008137631 0.052992847 0.019541841 -0.045509186 0.010971491
0.014812591 -0.037358798 -0.050232477 -0.002913459 -0.016343066 -0.009486804 0.023112928 0.0027660478
-0.0011652175 0.031077782 -0.08365883 0.05866826 0.033747952 0.04877875 0.027784385 0.074116506
0.17472923 0.009725693 0.028627986 0.036009446 2.768092e-05 -0.044709474 -0.046915684 -0.034412716
-0.041690536 -0.20341991 -0.04153305 0.007531966 -0.01450915 -0.021306047 0.04137496 0.044933025
0.04459716 0.037527177 0.03978735 0.046805825 0.044694006 0.061204042 0.06502471 -0.116802104
-0.15860654 -0.10162542 -0.19278236 -0.2621878 -0.15155883 -0.1260658 -0.21489275 -0.14763077
-0.02468703 -0.020551678 -0.010266719 -0.040442962 0.09424761 -0.0017401921 -0.014359194 0.006653691
0.009035473 0.028829202 0.00883028 0.004365857 0.21630889 0.029953472 0.008341362 0.004801425
-1.9676823e-05 -0.0005616581 0.001555725 0.0024369603 0.008588392 0.006749082 -0.0053858454 -0.006132406
0.40026483 0.04191002 0.0029195559 0.025724769 0.051501594 0.09927665 0.021902915 0.021373386
0.47999102 0.0070632393 0.011296556 -0.013371533 0.022818081 0.029982323 0.001746018 0.022653406
0.05590755 -0.030495489 0.05242419 0.104155086 0.36040735 0.038725562 0.053303845 0.053080384
0.014417963 0.007970332 0.003479974 0.0047413213 0.0044294754 0.004640432 -0.027699502 -0.09319686
-0.09212211 -0.06469265 -0.21602438 -0.073309466 -0.118971914 -0.06103579 -0.015910504 -0.0044124033
-0.009222469 -0.0073193614 0.0096444 0.016856356 0.009730293 -0.009946651 -0.15886308 0.025208209
0.011708475 0.010106458 0.018498916 0.014392074 0.02268846 0.19563432 0.0032943033 -0.0032649334
0.006310465 -0.024585396 -0.008634562 0.0035990519 -0.015659492 0.1013634 0.026295502 -0.02905322
-0.09128084 0.005559906 0.043706752 0.021708135 -0.053998426 0.04951374 0.00021680449 -0.1021374
0.02074005 0.007921589 -0.0826585 0.03700901 0.0064680343 0.009072452 0.3971599 0.011320736
0.0016083355 0.034037355 0.008312324 0.0050460454 -0.032437406 -0.030872826 -0.024088446 -0.037557796
